data/Apr-13_05-51-52/models/actor_550.pth (torch, 323799 bytes, 6 tensors)

linear_layer.0.weight f4 [256, 7]
0	0x3e5daa86	0.21647081
1	0xbe19941c	-0.14997905
2	0xbd5c5767	-0.05379429
3	0x3e48617a	0.19568434
4	0xbed25631	-0.41081384
5	0x3e9fc70f	0.31206557
6	0x3c9533c4	0.01821316
7	0x3e2500ae	0.1611354
8	0x3cce9e5d	0.025221998
9	0xbd908e7c	-0.07058427
10	0x3db703df	0.08936285
11	0x3de44580	0.111460686
12	0x3e1db015	0.15399201
13	0xbe566255	-0.20935948
14	0xbc8620ff	-0.016373156
15	0xbc12be95	-0.008956571
16	0x3da1a95f	0.07893633
17	0x3b6654dc	0.0035145795
18	0x3f19e699	0.6011749
19	0x3e12f5b8	0.14351547
20	0xbe9ee0d8	-0.31030917
21	0xbe69c12a	-0.22827592
22	0xbd81bf18	-0.06335276
23	0xbe26f1b8	-0.16303146
24	0xbdf80ccb	-0.12111815
25	0x3c94414d	0.018097544
26	0x3e66b901	0.22531511
27	0x3e525e38	0.20543754
28	0xbec2c301	-0.380394
29	0x3e6e8db2	0.2329624
30	0x3de068d8	0.10957497
31	0x3eae5a3e	0.34053224
32	0x3ee8cd52	0.45469147
33	0xbec7c56e	-0.39017814
34	0xbef46c08	-0.4773867
35	0xbe51a1ac	-0.20471829
36	0x3e9e1387	0.30874273
37	0xbd8e9ae3	-0.06963136
38	0x3e18cb5a	0.14921322
39	0xbe18c79b	-0.14919893
40	0x3ee48726	0.4463436
41	0xbe51af8c	-0.20477122
42	0x3e89a2f6	0.26882142
43	0xbc600031	-0.013671921
44	0xbe5e8d46	-0.21733579
45	0x3e479864	0.19491726
46	0xbe975878	-0.29559684
47	0x3e2af334	0.16694337
48	0xbcab5840	-0.020916104
49	0xbd29bacc	-0.04143791
50	0xbeba0bb4	-0.36337054
51	0xbe388811	-0.18020655
52	0x3e5204c9	0.20509638
53	0xbdbc28bd	-0.09187458
54	0x3ec0c0da	0.37647134
55	0x3e9b1f23	0.30297193
56	0xbc0b0436	-0.008484891
57	0xbe758dd4	-0.23979884
58	0x3e7bb656	0.24581274
59	0x3e15f359	0.14643611
60	0xbea9725e	-0.33095068
61	0x3eb605dd	0.35551348
62	0x3e7e35fc	0.24825281
63	0x3eb2663e	0.3484363
64	0xbe4f02ab	-0.20215861
65	0xbd6f98de	-0.058495395
66	0xbb3b1976	-0.0028549111
67	0xbe220f8f	-0.15826248
68	0xbebcf0c4	-0.3690244
69	0xbe6d9053	-0.23199587
70	0x3e47d686	0.19515428
71	0xbdcdbd9b	-0.1004593
72	0x3e28fd7b	0.16502945
73	0x3c56b5a9	0.013104835
74	0xbdc00a06	-0.09376912
75	0x3ccc60ba	0.024948467
76	0x3e92e42a	0.286897
77	0x3e40ae8a	0.18816581
78	0xbeb2da78	-0.34932303
79	0x3e43756b	0.1908776
80	0xbe884b07	-0.2661974
81	0xbe924ec4	-0.28575718
82	0x3cb75a0a	0.022381801
83	0xbd833540	-0.06406641
84	0x3e525abc	0.20542425
85	0xbe653b0e	-0.22385809
86	0xbeb12aaf	-0.34602877
87	0x3e8e563c	0.27800167
88	0xbe299b66	-0.16563186
89	0x3e470a97	0.19437633
90	0x3e15b6de	0.1462054
91	0xbe911d3e	-0.28342623
92	0x3d9b8274	0.07593241
93	0x3db9ede4	0.09078577
94	0xbe81924f	-0.25306937
95	0xbe37a33e	-0.17933366
96	0x3e03f83f	0.12887667
97	0x3d8aa754	0.067701966
98	0xbe0c14fa	-0.13679877
99	0xbdabd870	-0.083908916
100	0x3ec20e93	0.37901744
101	0xbd7207ee	-0.059089594
102	0x3ef0f7e2	0.4706412
103	0x3e44e0d8	0.19226396
104	0xbecc5de5	-0.39915386
105	0xbeaaef47	-0.3338568
106	0x3eaba786	0.33526248
107	0xbbb51716	-0.0055264337
108	0x3e6d1e11	0.23156
109	0x3d0403fc	0.032230362
110	0x3e0b3a09	0.13596357
111	0x3ead45d5	0.3384234
112	0x3eb7093e	0.3574924
113	0xbe74cbb4	-0.23905832
114	0x3d7e415b	0.062074047
115	0x3e8d548a	0.2760356
116	0x3ef12dfd	0.471054
117	0x3e892148	0.26783204
118	0xbed99d51	-0.42502835
119	0xbe95ae8f	-0.2923474
120	0xbe7ef09b	-0.24896471
121	0x3ce5ea47	0.028065814
122	0x3eb672e9	0.35634544
123	0xbe622e16	-0.22087893
124	0x3e3cf2e2	0.18452027
125	0xbe45692d	-0.19278403
126	0xbec1fdc9	-0.37888935
127	0xbdbd88de	-0.09254621
128	0x3e48ae9c	0.19597858
129	0x3eb1e6af	0.3474631
130	0xbe935938	-0.28779006
131	0x3e021076	0.12701592
132	0x3e983bc1	0.2973309
133	0x3e67458c	0.22585124
134	0x3e562a81	0.20914651
135	0x3e6d31ee	0.23163578
136	0x3e594b70	0.21220183
137	0x3e5d28e8	0.21597636
138	0xbeaab145	-0.3333837
139	0xbed00af0	-0.40633345
140	0xbe324b13	-0.17411451
141	0xbd35e557	-0.04440817
142	0xbe6cb4d0	-0.2311585
143	0x3e0cb16f	0.1373956
144	0x3df1cf46	0.118071124
145	0xbdb07021	-0.08615137
146	0x3e15afac	0.14617795
147	0x3dceea4e	0.10103284
148	0x3e63aabf	0.22233103
149	0x3e7b9f98	0.24572599
150	0xbe1ce6a5	-0.15322359
151	0x3f0ae9f2	0.5426322
152	0xbdaccb88	-0.08437258
153	0xbe15b96c	-0.14621514
154	0xbeb6a859	-0.35675314
155	0xbe791a36	-0.24326405
156	0xbe621b89	-0.22080816
157	0xbe258b44	-0.16166407
158	0x3e8995d4	0.26872122
159	0xbdfcf3a9	-0.12351162
160	0xbe909cba	-0.28244573
161	0x3e0ca852	0.13736084
162	0x3de50819	0.11183185
163	0x3e65c4d2	0.22438362
164	0xbe540c74	-0.20707875
165	0xbd24f905	-0.040276546
166	0xbe2a7af0	-0.1664846
167	0x3b85f01c	0.004087461
168	0xbe9a37c8	-0.30120683
169	0xbe30654e	-0.17226145
170	0xbded10b7	-0.11575454
171	0x3e258296	0.16163096
172	0x3d8d6a25	0.06905011
173	0x3dbf3554	0.093363434
174	0x3ec126b0	0.3772483
175	0x3eb0f3c5	0.3456098
176	0x3e76e575	0.24110968
177	0xbc14a617	-0.009072802
178	0xbe929189	-0.2862666
179	0x3ea00d24	0.31260026
180	0xbe1cc886	-0.15310869
181	0xbd8e2d7e	-0.06942271
182	0xbe9da1ab	-0.30787405
183	0xbd66aa6d	-0.056314874
184	0xbe5b1cc3	-0.2139769
185	0x3ebbd520	0.3668604
186	0xbea689de	-0.3252706
187	0xbea1d397	-0.31606743
188	0xbdbf25bb	-0.093333684
189	0xbe58b5f6	-0.21163163
190	0x3e02f346	0.12788114
191	0xbe1c55d3	-0.15267114
192	0xbe3ca57e	-0.18422505
193	0x3d4ca537	0.04996225
194	0x3e8a58be	0.2702083
195	0xbe8f04eb	-0.2793344
196	0x3e26bb1d	0.16282316
197	0x3e71f0e8	0.23627055
198	0x3ebb6bc8	0.36605668
199	0xbe8f2598	-0.2795837
200	0x3e374c8e	0.17900297
201	0xbeb742e3	-0.35793218
202	0x3e7f2f98	0.249205
203	0xbe27acb3	-0.16374473
204	0x3e5fea7a	0.2186679
205	0x3c3d9068	0.011570074
206	0xbd418d43	-0.04725386
207	0x3db3c0e5	0.08777026
208	0x3cf8e462	0.030382339
209	0x3d413d63	0.047177684
210	0x3d37954c	0.044820115
211	0x3dc14caa	0.09438451
212	0xbeb50bc6	-0.35360545
213	0x3e89803b	0.26855645
214	0x3ede58a8	0.43427014
215	0x3ec7ccbe	0.39023393
216	0x3e5e7037	0.21722494
217	0xbe87128c	-0.26381338
218	0xbe03519b	-0.12824099
219	0x3eb12df7	0.3460538
220	0xbe8cc3c9	-0.27493122
221	0x3eb3dd62	0.3512984
222	0xbe920041	-0.2851582
223	0xbe7f4991	-0.24930407
224	0x3e3ee69e	0.18642661
225	0xbe8a8138	-0.2705171
226	0xbda40310	-0.080083966
227	0x3e94f36a	0.2909196
228	0x3e7e1cb3	0.24815635
229	0x3ee7d109	0.4527667
230	0xbd990db9	-0.074733205
231	0xbe871ff3	-0.26391563
232	0x3ecee42d	0.4040846
233	0xbd40cb62	-0.04706896
234	0xbe06445f	-0.13112019
235	0x3e464a06	0.19364175
236	0xbea2b597	-0.31779167
237	0x3e69a4ba	0.22816744
238	0x3e729160	0.23688269
239	0xbe998d81	-0.2999077
240	0xbe9ef33f	-0.31044957
241	0xbd079c9a	-0.03310833
242	0x3e229098	0.1587547
243	0xbc33599d	-0.010946658
244	0xbe4441d0	-0.1916573
245	0x3c0d93c5	0.008641188
246	0xbeb5e4c4	-0.35526097
247	0xbe88c556	-0.26713055
248	0xbe80d29f	-0.2516069
249	0x3e9f5e27	0.3112652
250	0x3eaa964b	0.3331779
251	0xbe03768f	-0.12838195
252	0xbc092278	-0.008370034
253	0x3e1cb9a5	0.15305193
254	0x3d0b6882	0.034035213
255	0xbe610e50	-0.21978116

linear_layer.0.bias f4 [256]
0	0xbe3c1177	-0.18366037
1	0x3ea65676	0.3248784
2	0x3d465fc4	0.048431173
3	0x3e4b2eea	0.19842115
4	0x3dc00e49	0.09377725
5	0x3d7c61b4	0.061616614
6	0x3e82137f	0.254055
7	0xbc9b2d03	-0.018942362
8	0x3e925dae	0.28587097
9	0x3e09902a	0.134339
10	0xbe75e4de	-0.24013087
11	0x3e7e8d65	0.24858625
12	0xbe88295c	-0.26594055
13	0x3e4982cd	0.19678803
14	0xbd01225d	-0.031526912
15	0x3dad121d	0.084507205
16	0xbc7a6e85	-0.015285139
17	0x3d5e9b8d	0.054347564
18	0xbdffac1c	-0.12483999
19	0x3dfdc8ae	0.12391792
20	0x3e33e975	0.17569526
21	0xbeb2aa1b	-0.34895405
22	0x3eaa9eac	0.33324182
23	0xbeaca1c1	-0.33717158
24	0xbe2cc01f	-0.16870163
25	0x3e064788	0.13113225
26	0x3ebd0629	0.36918762
27	0x3dec97df	0.115524046
28	0xbe5b312a	-0.21405473
29	0x3d9d024c	0.07666454
30	0xbe742005	-0.2384034
31	0x3e4112ca	0.18854824
32	0x3d03f3c9	0.032214914
33	0x3d8f59b9	0.06999535
34	0xbe947160	-0.28992748
35	0x3e4e8f0f	0.2017176
36	0x3ebbefb2	0.3670631
37	0xbe866cc5	-0.2625486
38	0x3e2ff3f4	0.17182904
39	0xbe1fb263	-0.15595393
40	0xbdd9f211	-0.10641874
41	0x3e9ebc6a	0.31003124
42	0xbeb1c90d	-0.34723702
43	0xbda7cafe	-0.081930146
44	0x3defd3eb	0.11710342
45	0x3e0b2fbc	0.13592428
46	0xbe15a0a8	-0.14612067
47	0xbe70ccff	-0.235157
48	0x3d9c1055	0.076203026
49	0xbebd3d6e	-0.3696093
50	0x3ce88907	0.028385652
51	0xbe8430ae	-0.2581839
52	0xbd88fc0d	-0.066887
53	0x3e9c0a8a	0.3047679
54	0xbe84dba5	-0.25948825
55	0xbe63a1ef	-0.22229742
56	0xbe951f23	-0.29125318
57	0x3e589352	0.21149948
58	0x3e98ee01	0.29869083
59	0xbe62793f	-0.22116564
60	0x3e667279	0.22504605
61	0x3e77eb70	0.24210906
62	0xbe81a4b5	-0.25320974
63	0x3e1e0d94	0.15434867
64	0x3e3944b6	0.18092617
65	0xbd1461c8	-0.036226064
66	0x3e551dab	0.20812099
67	0xbc4550a7	-0.012043155
68	0xbd8992fd	-0.06717489
69	0x3e5aa913	0.21353559
70	0xbebcb926	-0.36860007
71	0xbebe1198	-0.37122798
72	0x3d8fcf34	0.07021943
73	0x3d11c90a	0.035592116
74	0x3cb0e3fe	0.02159309
75	0xbe4bbcac	-0.19896191
76	0x3eac97c9	0.33709553
77	0xbe839c14	-0.25705016
78	0xbe3dd556	-0.18538412
79	0xbea354f0	-0.3190074
80	0xbec0bbd3	-0.37643299
81	0x3dce557e	0.100749
82	0xbe1bf784	-0.15231138
83	0x3e4456e9	0.19173779
84	0x3ebbb4dd	0.36661425
85	0x3e0b24f5	0.13588317
86	0x3ea9944d	0.33120957
87	0xbe8fa654	-0.28056586
88	0x3e333b0f	0.17502998
89	0x3e53257f	0.20619772
90	0xbe079b55	-0.13242848
91	0xbcdbc403	-0.026826864
92	0xbe75efd5	-0.2401727
93	0x3d151b6f	0.036403116
94	0xbeb6547f	-0.3561134
95	0xbe620edd	-0.22075982
96	0xbe9c3123	-0.30506238
97	0xbd584d54	-0.05280812
98	0x3d1dcb0c	0.03852372
99	0xbe9d4074	-0.30713236
100	0xbe0e34ce	-0.13887331
101	0x3e4c11d8	0.19928682
102	0x3ccf7bf6	0.025327664
103	0x3d5b5618	0.053548902
104	0xbe3859c7	-0.18002997
105	0xbe1441fb	-0.14478295
106	0xbeb6118d	-0.35560265
107	0x3e93e542	0.28885847
108	0x3c2e64ad	0.01064412
109	0x3e324408	0.17408764
110	0x3e61cbfa	0.22050467
111	0x3ea9ac06	0.33139056
112	0xbe857bf8	-0.26071143
113	0x3dd68a38	0.10475582
114	0xbe927324	-0.2860347
115	0x3e10b500	0.14131546
116	0xbe5d29b0	-0.21597934
117	0x3dea1fdf	0.1143186
118	0xbe8e7afd	-0.27828208
119	0x3e50d023	0.20391898
120	0x3e8de025	0.2771007
121	0x3e53ef83	0.20696835
122	0xbea3cae9	-0.31990746
123	0x3e5ef567	0.21773301
124	0xbe8a6b31	-0.27034906
125	0xbeb4ff96	-0.35351247
126	0x3e54705a	0.20745984
127	0x3d164957	0.036691036
128	0xbe2df57c	-0.16988176
129	0xbe9a5ba5	-0.30148044
130	0x3d2c26ac	0.042029068
131	0xbdd59db6	-0.104304716
132	0xbe89a220	-0.26881504
133	0xbd639cb0	-0.05556935
134	0xbeb458a6	-0.35223883
135	0x3e3eab16	0.18619952
136	0xbe805858	-0.250674
137	0xbe03bd76	-0.12865242
138	0xbebf269c	-0.37334144
139	0xbd6a6539	-0.05722544
140	0xbe0ceb15	-0.13761552
141	0x3e55904d	0.20855828
142	0xbdbf263d	-0.09333465
143	0x3e8245f7	0.25444004
144	0x3ebfed7a	0.37485868
145	0x3d938f17	0.072050266
146	0xbe04a724	-0.12954384
147	0xbea7e16c	-0.3278917
148	0xbe911f32	-0.28344113
149	0xbe18c253	-0.14917879
150	0xbe846b8d	-0.25863305
151	0x3e3f2997	0.18668209
152	0xbdf9e95c	-0.12202713
153	0xbc4c8c6a	-0.012484649
154	0x3cf2a210	0.029618293
155	0xbea736e4	-0.32659066
156	0x3ea0b2a3	0.3138629
157	0xbe0b25f2	-0.13588694
158	0xbea9e6ba	-0.33183843
159	0xbd2a3e31	-0.041563217
160	0xbebc8a93	-0.36824474
161	0x3d6f688c	0.058449313
162	0xbe6e9422	-0.23298696
163	0xbdfa9101	-0.122346886
164	0xbde3ab8a	-0.11116703
165	0x3e8ee499	0.2790878
166	0x3e8b4846	0.27203578
167	0x3ec8381a	0.39105302
168	0x3ca67124	0.020317622
169	0x3e7388cc	0.23782653
170	0xbeaf1654	-0.34196723
171	0xbe85eceb	-0.26157317
172	0x3e504ae5	0.2034107
173	0x3dd6681f	0.10469078
174	0x3dd63eb5	0.10461179
175	0x3e5d3f25	0.21606119
176	0x3e59a14e	0.21252939
177	0x3e322f78	0.1740092
178	0xbe11b0aa	-0.14227548
179	0xbde1ac38	-0.11019176
180	0x3da3061b	0.07960149
181	0x3ea357eb	0.31903014
182	0xbcea9e3d	-0.028639907
183	0xbe08894f	-0.13333629
184	0x3e59b243	0.21259408
185	0x3e821710	0.2540822
186	0xbd1f50f8	-0.038895577
187	0xbdddfe95	-0.10839573
188	0xbec4cea4	-0.38438904
189	0xbabcf398	-0.0014415858
190	0x3e1018f2	0.14072016
191	0xbe8e12b9	-0.2774866
192	0xbe8facde	-0.28061575
193	0xbec177cd	-0.37786713
194	0x3e8ecd5d	0.27891055
195	0x3ea770c3	0.32703218
196	0x3ec50065	0.38476864
197	0x3eac3339	0.3363283
198	0xbd81bdda	-0.063350394
199	0x3e8bbd14	0.27292693
200	0x3e651579	0.22371472
201	0xbde00625	-0.10938672
202	0xbe5efc9c	-0.2177605
203	0x3ea8aaa2	0.32942683
204	0xbd29b23b	-0.04142974
205	0x3de8a3f1	0.11359394
206	0xbe3703f1	-0.17872597
207	0xbe5f1258	-0.21784341
208	0xbd8f6e90	-0.0700351
209	0x3c4cca82	0.0124994535
210	0x3e885a83	0.26631555
211	0x3e7b6c68	0.24553072
212	0xbd4284de	-0.047489993
213	0x3ea15f2f	0.31517932
214	0xbe4e0b5d	-0.20121522
215	0x3d0f2d02	0.034955032
216	0xbe7227df	-0.23648022
217	0x3d769bc0	0.06020713
218	0x3eb0d3d6	0.34536618
219	0xbe8f8e72	-0.28038365
220	0x3df05202	0.11734392
221	0xbea76a18	-0.3269813
222	0xbc953819	-0.018215226
223	0xbe238a92	-0.15970829
224	0xbb45ba3d	-0.003017082
225	0xbe95bac2	-0.29244047
226	0x3e0d5b93	0.13804464
227	0xbec9860a	-0.39360076
228	0x3d942230	0.07233083
229	0xbe1e161c	-0.15438122
230	0xbe7034db	-0.23457663
231	0x3e9d6561	0.30741408
232	0x3d57e5c2	0.05270935
233	0xbe801956	-0.2501933
234	0xbe50f0b2	-0.20404318
235	0xbe2caf3e	-0.16863725
236	0xbe635178	-0.22199047
237	0x3d924f4d	0.07144032
238	0x3b5a37d5	0.0033297439
239	0x3eb97bfd	0.36227408
240	0xbbd572d1	-0.0065139313
241	0xbe135c44	-0.14390665
242	0x3ea6663d	0.32499877
243	0x3dbe7eb0	0.093015075
244	0xbd9e4d74	-0.07729617
245	0x3e8acab8	0.27107787
246	0x3ebc4c96	0.3677718
247	0xbea457d3	-0.32098255
248	0xbea0bb9a	-0.3139313
249	0xbe6a20dc	-0.22864097
250	0xbeb4c467	-0.35306093
251	0xbe1ad122	-0.1511884
252	0x3e0dae1c	0.13835949
253	0xbeb1ba6a	-0.34712535
254	0xbeca0b9b	-0.3946198
255	0xbea6a296	-0.32545918

linear_layer.2.weight f4 [256, 256]
0	0x3aadc65f	0.0013257972
1	0x3d0f00ab	0.034912746
2	0x3d6e1f1b	0.058135133
3	0x3d7e513e	0.062089197
4	0xbc78e3de	-0.0151910465
5	0xbd5ec5fe	-0.05438804
6	0x3d7eed5e	0.06223809
7	0xbd2c151e	-0.042012326
8	0x3d8b0644	0.067883044
9	0x3ac7e417	0.0015250471
10	0x3c39c813	0.011339205
11	0x3cb8a26e	0.02253839
12	0xbd381407	-0.044940975
13	0xbcac85c4	-0.021059878
14	0xbd33f6d4	-0.043936566
15	0x3d14046d	0.036137033
16	0xbcd90eb7	-0.026496274
17	0xb9827851	-0.00024885175
18	0x3d86ddf3	0.06585302
19	0x3d096088	0.033539325
20	0xbd2eb7a3	-0.0426556
21	0xbd8f2897	-0.06990164
22	0x3d4a9e42	0.049467333
23	0xbbdfb063	-0.006826447
24	0xbd44453a	-0.047917582
25	0x3d00c0f6	0.031434022
26	0xbd6ddadd	-0.058070052
27	0x3d97c006	0.074096724
28	0x3ca8a40b	0.020586034
29	0x3cfd83d4	0.03094665
30	0x3bce7ab7	0.00630125
31	0x3c31533f	0.01082307
32	0x3cdd98a6	0.027050328
33	0xbcd6221d	-0.026139313
34	0x3b6c2c00	0.0036036968
35	0x3d3d915c	0.046281204
36	0xbd18e008	-0.037323028
37	0x3d30f631	0.043203536
38	0x3d31e66d	0.04343264
39	0xbcb1949d	-0.02167731
40	0x3ad8553c	0.0016504894
41	0xbd4a250e	-0.049351744
42	0xbd0a9428	-0.0338327
43	0xbd3f1069	-0.04664651
44	0xbd6d9baa	-0.05800978
45	0x3d7da7e0	0.061927676
46	0xbccdaaad	-0.025105799
47	0xbcec2b35	-0.028829196
48	0x3d3316d0	0.043722928
49	0xbbc340c8	-0.0059586503
50	0xbd1553ad	-0.036456753
51	0xbcf8ad29	-0.030356007
52	0xbc60ddd8	-0.013724767
53	0x3c7d6eb6	0.01546829
54	0x3d4ba8c2	0.049721487
55	0x3d13a65c	0.036047325
56	0xbd2aaa4d	-0.041666318
57	0xbc9cc02f	-0.019134609
58	0x3c2617f3	0.010137546
59	0xbdd87971	-0.10570038
60	0x3d167da6	0.03674092
61	0xbbe3af60	-0.0069483966
62	0x3d869983	0.06572249
63	0xbd9aeb80	-0.07564449
64	0x3d98db41	0.07463694
65	0xbd1ece77	-0.03877112
66	0xbc51a45a	-0.012795532
67	0x3d8d6459	0.069039054
68	0x3ccc9886	0.024975073
69	0xbcb3e504	-0.02195979
70	0x3cce0167	0.025147153
71	0xbd493738	-0.049124926
72	0x3bae1e80	0.0053136945
73	0x3c9834a0	0.018579781
74	0x3d1f00b0	0.038819015
75	0x3d4b96e5	0.04970445
76	0xbd536049	-0.051605497
77	0xbd66fb39	-0.05639193
78	0x3bc61c56	0.0060458584
79	0xbcb8178c	-0.022472166
80	0xbcd05768	-0.025432304
81	0xbdb69216	-0.089145824
82	0xbd7b0b64	-0.06129016
83	0xbd476ccb	-0.048687737
84	0xba3a83fb	-0.00071150035
85	0xbaa1187f	-0.0012290626
86	0xbc13603b	-0.008995111
87	0xbccce743	-0.025012618
88	0xbcd321cc	-0.025772952
89	0xbda11072	-0.07864465
90	0x3c4a42a7	0.012344993
91	0xbd3b5158	-0.045731872
92	0xbc01afa5	-0.007915412
93	0x3ccb6ec8	0.024833098
94	0x3c2a0a7a	0.010378474
95	0xbd854dca	-0.06508978
96	0xbd9a3da2	-0.07531287
97	0x3cc26485	0.023729572
98	0x3ae97200	0.0017810464
99	0x3d70413b	0.05865596
100	0x3ceee09c	0.029159836
101	0x3c9925df	0.018694816
102	0x3c1e47b6	0.009660652
103	0xbc381672	-0.01123582
104	0xbd3ccdb3	-0.046094608
105	0xbc86e227	-0.01646526
106	0x3d850670	0.064953685
107	0x3cc9e987	0.024647487
108	0x3d0a101d	0.033706773
109	0x3d701484	0.058613315
110	0x3d5c1d9f	0.053739186
111	0xbd0fb05a	-0.03508029
112	0xbd0b6b0e	-0.034037642
113	0xbb295ca8	-0.002584258
114	0xbaa6f000	-0.001273632
115	0xbd7f1a57	-0.06228098
116	0xbbf06c37	-0.007337119
117	0x3d18478b	0.037177604
118	0xbb89b6e0	-0.0042027086
119	0x3d826225	0.06366376
120	0xbd48e2d0	-0.04904443
121	0xbd7f495d	-0.062325824
122	0x3c7c34c1	0.015393437
123	0x3c48e19a	0.012260819
124	0xbd1bd206	-0.03804209
125	0xbd018d98	-0.031629175
126	0x3b8d791d	0.0043174163
127	0xbc1941aa	-0.009354034
128	0xbcd8893c	-0.026432626
129	0xbb6d6886	-0.003622563
130	0xbcfb61f9	-0.030686365
131	0x3d3e7d9d	0.046506513
132	0x3dce0f7f	0.100615494
133	0xbd1db68e	-0.038504176
134	0x3cd898c9	0.026440041
135	0x3d1d5364	0.038409606
136	0xbc236031	-0.009971664
137	0xbd48f578	-0.049062222
138	0xbc664283	-0.014053944
139	0xbca64369	-0.020295816
140	0xbce8ccaa	-0.028417904
141	0xbc3d4608	-0.011552341
142	0xbc4cb9e8	-0.012495495
143	0xbc6e5c68	-0.014548399
144	0xbd116637	-0.03549787
145	0xbd5ee1bb	-0.054414492
146	0xbd566d2e	-0.052350216
147	0xbd6bf543	-0.057606947
148	0x3ce0b03f	0.02742779
149	0x3cc11f82	0.023574594
150	0x3d56e7b8	0.052467078
151	0x3c2cfcb9	0.010558301
152	0xbcd29820	-0.025707304
153	0xbd2594cf	-0.040425118
154	0x3cdcd80c	0.026958488
155	0xbd1ab616	-0.037771307
156	0x3d466686	0.048437618
157	0xbdcce808	-0.10005194
158	0xbd8b4c7f	-0.068017
159	0xbda20e32	-0.07912864
160	0x3d1b9002	0.037979133
161	0xbb9f19fb	-0.004855392
162	0x3cbe46d4	0.023227133
163	0xbc79f60f	-0.015256419
164	0x3d5b8000	0.053588867
165	0xbcddf2ad	-0.027093256
166	0x3d735660	0.059408545
167	0xbd1584b9	-0.036503527
168	0xba932265	-0.001122546
169	0x3d4ef70f	0.050528582
170	0xbd6317c6	-0.055442594
171	0x3e3063df	0.17225598
172	0xbd27ac96	-0.040936075
173	0x3de97107	0.113985114
174	0xbb4125c0	-0.0029471964
175	0x3c852fb8	0.016258106
176	0x3c304e31	0.01076083
177	0xbd4f5de4	-0.05062665
178	0x3b9ff7e4	0.004881846
179	0x3c4aeeb9	0.0123860175
180	0xbbe3fa80	-0.006957352
181	0xbd4d3659	-0.050100658
182	0x3d7d5d4a	0.061856546
183	0xbc91c5a6	-0.017794441
184	0xbd3ed074	-0.046585515
185	0x3d9fc0e6	0.07800464
186	0xbd1da11b	-0.03848372
187	0x3d24c9ee	0.040231638
188	0xbcb21f0b	-0.021743318
189	0xbd8444ea	-0.06458457
190	0x3ba27dbc	0.0049588364
191	0xbd0b2bf4	-0.033977464
192	0x3ca03f3c	0.019561402
193	0x3d717cb8	0.05895683
194	0xbbaba4c2	-0.0052381465
195	0xbcfd7574	-0.030939795
196	0xbcb38cac	-0.021917664
197	0xbd7702d2	-0.060305424
198	0x3d195a41	0.03743959
199	0xbd91ef28	-0.071256936
200	0xbd4a95a4	-0.049459115
201	0xbd228bbd	-0.039684046
202	0x3d1f4386	0.038882755
203	0x3c8b0332	0.016969297
204	0x3caf1ba2	0.021375481
205	0xbc3d4198	-0.011551283
206	0xbc3e9414	-0.011631984
207	0x3c4aeaa8	0.012385048
208	0xba206a80	-0.00061193854
209	0xbca4d488	-0.020120874
210	0xbd15e402	-0.0365944
211	0xbd11e5d8	-0.035619587
212	0xbd314098	-0.043274492
213	0xbcc16903	-0.023609644
214	0xbd367dce	-0.04455357
215	0xbbea970e	-0.0071591204
216	0x3af134f6	0.0018402624
217	0x3d73d7b9	0.0595319
218	0x3a22f957	0.0006216964
219	0x3d28e313	0.04123218
220	0xbd8d1cbd	-0.06890247
221	0xbd97eced	-0.07418237
222	0xbc1cb5a8	-0.009564795
223	0xbda094e3	-0.07840898
224	0x3c65e899	0.014032506
225	0x3d3106ae	0.04321926
226	0xbcf3dccf	-0.029768376
227	0xbd28ed8b	-0.041242164
228	0xbd0bcb07	-0.03412917
229	0x3d4c983c	0.04994987
230	0xbc66189f	-0.014043956
231	0xbd43d143	-0.04780699
232	0x3de5ea58	0.11226338
233	0x3b504060	0.0031776652
234	0xbd1bb2f2	-0.038012452
235	0xbbde4f40	-0.0067843497
236	0xbd9a8c9b	-0.075463496
237	0x3d87fd03	0.06640055
238	0xbd0a9751	-0.033835713
239	0x3cbecb37	0.02329026
240	0x3d541143	0.051774275
241	0xbd35e8c3	-0.044411432
242	0xbcc87788	-0.02447106
243	0xbbf62c70	-0.0075126216
244	0xbbd9088d	-0.006623334
245	0x3cf6aabc	0.03011071
246	0xbd16e3ad	-0.036838222
247	0x3c1ba1d5	0.009499033
248	0xbc991510	-0.018686801
249	0x3cef35af	0.029200403
250	0x3d0e41c4	0.034730688
251	0xbd5aec0f	-0.05344778
252	0x3d07e670	0.033178747
253	0xbcb0832f	-0.021546928
254	0x3d46ac4c	0.04850416
255	0xbd7e0c06	-0.062023185

linear_layer.2.bias f4 [256]
0	0xbc803b8f	-0.0156534
1	0xbccc4084	-0.024933107
2	0x3c4a3622	0.012342008
3	0xbc80bf60	-0.015716255
4	0x3ca0e732	0.019641493
5	0xbd1775d0	-0.03697759
6	0xbcc0f9c3	-0.023556596
7	0x3cda4b00	0.02664709
8	0x3d644480	0.05572939
9	0xbd64c02a	-0.055847324
10	0x3c85af9c	0.016319089
11	0xbd3344a8	-0.043766648
12	0x3be1c720	0.0068901926
13	0xbcd79f7d	-0.026321167
14	0xbc8181f9	-0.015809046
15	0xbcfadec8	-0.030623809
16	0xbc389eeb	-0.011268358
17	0xbd5bd828	-0.05367294
18	0x3c9208dc	0.01782649
19	0x3d4b46e4	0.049628153
20	0x3ca5c0dc	0.020233564
21	0x3d7aba12	0.061212607
22	0x3cc1a13f	0.023636458
23	0xbd284194	-0.041078165
24	0xba077380	-0.0005167052
25	0xbd5bd445	-0.053669233
26	0x3d0af985	0.033929367
27	0xbcc9a170	-0.024613112
28	0xbd46fe58	-0.048582405
29	0x3d05028b	0.03247313
30	0xbbac6ed0	-0.0052622333
31	0x3c93d78c	0.018047117
32	0xbd924ada	-0.07143183
33	0xbc7426ae	-0.0149018
34	0x3c0c7fd6	0.0085754
35	0xbd675116	-0.056473814
36	0x3d2dcc55	0.042431194
37	0x3d1c3ad1	0.03814203
38	0xbcac9be9	-0.021070438
39	0xbd4009f8	-0.046884507
40	0x3cbe3888	0.023220316
41	0xbd045eda	-0.03231702
42	0xbd88626e	-0.06659399
43	0xbc58b599	-0.01322689
44	0xbd7ea763	-0.06217135
45	0xbad89e7a	-0.0016526722
46	0xbd2eff31	-0.04272384
47	0xbd4aa2a8	-0.049471527
48	0xbd1d0064	-0.03833045
49	0x3c75edb8	0.01501029
50	0x3cb443f4	0.022005059
51	0xbd6d934e	-0.05800181
52	0xbd7ac609	-0.061224017
53	0xbd3c9954	-0.046044663
54	0xbd2105f5	-0.03931232
55	0x3cb18570	0.021670073
56	0x3c3604df	0.01110956
57	0xbd905ddf	-0.070491545
58	0xbbbdce67	-0.0057924273
59	0x3d4288ba	0.047493674
60	0x3d020610	0.031744063
61	0xbd503541	-0.050832037
62	0xbcbf45c2	-0.023348693
63	0x3c9d1a5a	0.019177604
64	0x3d26f2bc	0.040758833
65	0x3d73124a	0.059343614
66	0x3bb70e40	0.0055864155
67	0xbc92c0a4	-0.017914124
68	0x3cf14089	0.029449718
69	0x3bbd9770	0.005785875
70	0xbcc22ead	-0.023703897
71	0xbcd113b1	-0.025522085
72	0xbc93c33e	-0.018037435
73	0x3c5da2f7	0.013527623
74	0xbd66e699	-0.05637226
75	0xbc02a77e	-0.007974504
76	0xbd0697b0	-0.032859504
77	0x3d64bf34	0.055846408
78	0xbd23f5c6	-0.04002931
79	0xbc7e6949	-0.015528032
80	0x3c185011	0.009296433
81	0xbc82fde8	-0.015990213
82	0x3d21e92c	0.03952901
83	0xbcb632d7	-0.02224104
84	0x3d4c8c19	0.049938295
85	0xbc851333	-0.016244506
86	0x3b7d76ba	0.0038675503
87	0x3d2b1837	0.04177114
88	0xbd8eab25	-0.06966237
89	0x3d81b8f7	0.06334107
90	0x3c34366a	0.010999301
91	0xbcebafc5	-0.028770337
92	0xbcc32d97	-0.02382545
93	0xbca3f8b4	-0.020016052
94	0xbcee8ba8	-0.029119328
95	0x3c1b11e3	0.009464714
96	0xbd870b3d	-0.065939404
97	0xbd6283bd	-0.055301417
98	0x3d35f70e	0.044425063
99	0x3ba7d645	0.0051219785
100	0xbd3c62ca	-0.04599265
101	0x3cafa97c	0.021443121
102	0xba6ac34f	-0.0008955495
103	0xbd07c302	-0.03314496
104	0xbc9619ff	-0.018322943
105	0x3cacd952	0.02109972
106	0x3d11ba80	0.03557825
107	0x3d28f000	0.041244507
108	0x3cbfa74f	0.023395209
109	0xbd305e55	-0.043058712
110	0x3cd37f14	0.025817432
111	0x3d403b48	0.046931535
112	0xbcd60b0d	-0.026128316
113	0xbc328367	-0.010895587
114	0xbccb8baa	-0.02484687
115	0xbd1064a4	-0.03525223
116	0xbd7008ef	-0.05860227
117	0x3d05b089	0.03263906
118	0x3d3c72d8	0.04600796
119	0x3cea3978	0.028591856
120	0x3b781edd	0.0037860193
121	0xbd1359fd	-0.03597449
122	0x3d58a66a	0.05289308
123	0x3c56231d	0.013069895
124	0x3b373839	0.0027957095
125	0x3d3c2870	0.045937
126	0x3c785f61	0.015159459
127	0x3ceb9ef0	0.02876231
128	0x3d9a05b1	0.07520617
129	0xbc4191f2	-0.011814581
130	0xbd115ee2	-0.035490878
131	0x3d6ac1b6	0.057313643
132	0xbd1af00a	-0.037826575
133	0x3bed2027	0.007236499
134	0xbd5e3c35	-0.054256637
135	0x3c2a1747	0.010381526
136	0x3d14df7e	0.03634595
137	0xbd685287	-0.05671933
138	0x3d135f25	0.03597941
139	0x3db35117	0.08755701
140	0x3ca30ffc	0.019905083
141	0xbcebc5c0	-0.028780818
142	0x3c447f31	0.011993215
143	0x3a098ef2	0.0005247436
144	0xbbbf850d	-0.0058447183
145	0x3d219bbd	0.039455164
146	0xbc65eeb3	-0.014033961
147	0xbcae1925	-0.021252224
148	0x3d463f0b	0.048399966
149	0xbb69cef4	-0.0035676332
150	0x3d32cca4	0.04365219
151	0xbd7ac794	-0.06122549
152	0xbd5950b3	-0.053055476
153	0xbd445a2d	-0.04793756
154	0x3c13657d	0.008996365
155	0xbd1cb72a	-0.038260616
156	0x3c9c3a9d	0.019070918
157	0x3d4e2e32	0.050337024
158	0xbc2bedfa	-0.01049375
159	0xbc5fe67e	-0.013665793
160	0x3c0505fc	0.008119103
161	0x3d740c79	0.059582207
162	0xbd073366	-0.033008
163	0x3c815254	0.015786327
164	0x3d12d85d	0.03585087
165	0xbd6a297c	-0.05716847
166	0xbc4483f3	-0.01199435
167	0x3ce4f270	0.027947634
168	0xbd48f6ed	-0.04906361
169	0xbd50f27c	-0.0510125
170	0x3d233e5a	0.039854385
171	0x3d5e5ccf	0.054287728
172	0x3d474ab4	0.048655227
173	0xbd6414c1	-0.055683855
174	0xbd598184	-0.05310203
175	0x3d25ae2e	0.040449314
176	0xbcbedaf4	-0.023297764
177	0xbd0e393c	-0.03472255
178	0x3cee32ec	0.029077016
179	0x3d049a81	0.03237391
180	0x3aedd487	0.0018145003
181	0xbd8b3447	-0.067970805
182	0x3cc206f2	0.023684952
183	0x3b5ab66a	0.0033372887
184	0x3d59b088	0.05314687
185	0xbd609174	-0.054826215
186	0xbcafae2e	-0.02144536
187	0xbc9182a4	-0.01776249
188	0x3d20553a	0.03914378
189	0xbab33bc0	-0.0013674423
190	0x3ccaf117	0.024773164
191	0x3d7301fb	0.05932806
192	0x3d829d2b	0.06377634
193	0x3c97bb94	0.018522061
194	0x3d46d48b	0.04854254
195	0xbd398a15	-0.0452977
196	0x3d5632fa	0.05229471
197	0x3c17c88c	0.009264123
198	0x3d94becd	0.07262955
199	0xbd782447	-0.06058147
200	0x3ccfb959	0.025356935
201	0xbd26f056	-0.040756546
202	0xbd615abc	-0.05501817
203	0xbd9497b5	-0.07255498
204	0xbd2fb250	-0.04289466
205	0xbd753266	-0.059862517
206	0x3c403410	0.011731163
207	0xbd838e61	-0.06423641
208	0xbd16891c	-0.03675185
209	0x3d5b4c00	0.053539276
210	0xbd2b5b49	-0.041835103
211	0x3d32869c	0.043585405
212	0x3d023361	0.03178728
213	0xbd1d8826	-0.03845992
214	0xbd4cf075	-0.050034005
215	0xbb792100	-0.0038014054
216	0xbd464ade	-0.048411243
217	0xbd30b7eb	-0.043144148
218	0x3d6c00a4	0.0576178
219	0x3d1e8efb	0.038710576
220	0x3b6b0c40	0.0035865456
221	0x3ae4d3a8	0.0017458098
222	0xbcf21f48	-0.029555932
223	0xbc737e88	-0.01486171
224	0x3c1c9dd0	0.00955911
225	0x3c66f54c	0.014096569
226	0x3d1b9804	0.03798677
227	0x3d5b6e1f	0.053571817
228	0xbd868585	-0.065684356
229	0xbd78be97	-0.060728636
230	0xbbc5d2f0	-0.0060371086
231	0xbd4ae6fa	-0.049536683
232	0xbd64ec5e	-0.05588948
233	0x3c94e07f	0.018173454
234	0xbda26365	-0.07929114
235	0x3bdd1c04	0.0067477245
236	0xbbc29f9a	-0.005939436
237	0x3d54de41	0.05196977
238	0xbc3d8d7c	-0.011569377
239	0x3ceb18e3	0.02869839
240	0x3d6a8708	0.057257682
241	0x3caac9c5	0.020848164
242	0xbcf9df00	-0.030501842
243	0xbd028b4e	-0.031871133
244	0x3be324b6	0.0069318665
245	0xbd803b08	-0.06261259
246	0xbceab576	-0.02865098
247	0x3d142d3c	0.03617595
248	0x3c1d7e5b	0.009612645
249	0x3d5d89dc	0.05408655
250	0xbd2215dc	-0.039571628
251	0x3cb51f42	0.022109631
252	0x3cf0a0b1	0.029373499
253	0x3d1f41a0	0.038880944
254	0xbd77c503	-0.06049062
255	0xbcd2cb48	-0.025731698

linear_layer.4.weight f4 [49, 256]
0	0xbd1a71cb	-0.037706178
1	0x3cdde2c8	0.027085677
2	0xbac508b0	-0.0015032496
3	0x3cce457e	0.02517962
4	0xbd0e62c5	-0.034762163
5	0xbce4a678	-0.02791141
6	0x3e061a92	0.13096073
7	0xbd27e544	-0.04099013
8	0x3d6a987d	0.05727433
9	0xbca5f753	-0.020259535
10	0x3cb444e6	0.02200551
11	0x3d225a22	0.03963674
12	0x3cd921a4	0.026505299
13	0xbd4f471f	-0.050604936
14	0xbce19788	-0.027538076
15	0x3d6accf0	0.05732435
16	0xbc9127dd	-0.017719204
17	0x3c793ced	0.01521228
18	0xbd235df0	-0.039884508
19	0xba637e06	-0.0008678142
20	0xbda99216	-0.08279817
21	0x3d5baeec	0.053633615
22	0x3dbd1fc8	0.092345774
23	0xbcbd8df0	-0.02313897
24	0x3d446d5e	0.047955863
25	0x3dd13919	0.10215969
26	0xbbc9ee5c	-0.006162448
27	0x3cecfec8	0.028930083
28	0x3d4a6512	0.049412794
29	0x3d5fce8e	0.054640345
30	0x3d301049	0.04298428
31	0x3c295666	0.01033554
32	0x3e103712	0.14083508
33	0x3d240576	0.04004427
34	0x3cdb1259	0.026742147
35	0x3ca641c0	0.020295024
36	0x3d4e34d7	0.05034336
37	0x3cbed8c8	0.023296729
38	0xbd8f36bb	-0.06992861
39	0x3d0c0ca1	0.03419173
40	0x3b5d429f	0.0033761633
41	0xbd8f427d	-0.069951035
42	0x3db355ba	0.087565854
43	0x3d5f18cd	0.05446701
44	0x3d896ce5	0.06710223
45	0x3c8ed520	0.01743561
46	0x3d0223f4	0.03177257
47	0x3d6701ee	0.056398325
48	0x3d232bba	0.039836623
49	0x3d0e68d8	0.034767956
50	0x3dc0b210	0.09408963
51	0x3c77fc18	0.015135787
52	0x3d2b9999	0.04189453
53	0x3e11b0c8	0.14227593
54	0x3d8f062a	0.069835976
55	0xbcb0ca1c	-0.021580748
56	0xbcc35362	-0.023843471
57	0x3ca4264e	0.020037796
58	0x3d58e782	0.052955158
59	0x3a9f22c0	0.0012141094
60	0x3d6d7856	0.05797609
61	0xbccebfbc	-0.02523791
62	0xbb1c3fa5	-0.0023841646
63	0xbcb629b3	-0.02223668
64	0x3ddc96a9	0.10770924
65	0xbbb4ed70	-0.005521469
66	0xbbadf3d0	-0.0053086057
67	0xbce9a69c	-0.028521828
68	0xbca101d0	-0.019654185
69	0xbd5862de	-0.052828662
70	0xbd3db321	-0.04631341
71	0x3d11a870	0.035561025
72	0x3d310191	0.043214384
73	0x3d7b6073	0.061371278
74	0xbccb48dd	-0.024815017
75	0xbd2551aa	-0.040361084
76	0x3cf8cad5	0.030370155
77	0x3ac0af00	0.0014700592
78	0x3c4c76eb	0.012479524
79	0xbd7cd139	-0.061722968
80	0x3d3c0560	0.045903563
81	0xbd17c950	-0.03705722
82	0x3cf5827e	0.02996945
83	0x3d375774	0.044761136
84	0xbd20ba9c	-0.039240465
85	0x3d3640f9	0.044495557
86	0x3b06c30a	0.002056303
87	0x3b79ba7c	0.0038105538
88	0x3bbc9c71	0.005755954
89	0xbd0b0b60	-0.033946395
90	0xbd853caf	-0.06505715
91	0xbd82ce24	-0.063869745
92	0x3c984373	0.01858685
93	0x3d88e615	0.0668451
94	0xbd2f241d	-0.04275905
95	0xbcad5711	-0.02115968
96	0xbd1e9c84	-0.038723484
97	0xbd43e506	-0.047825836
98	0xbcdb5510	-0.02677396
99	0x3cc75ae4	0.024335332
100	0xbd6314f2	-0.055439897
101	0xbd519b45	-0.051173467
102	0x3d58c172	0.05291886
103	0xbce49a44	-0.02790559
104	0xbc4c938f	-0.012486353
105	0x3da36e2e	0.079799995
106	0xbd740b12	-0.05958087
107	0xbd49bec7	-0.049254205
108	0xbcbb3852	-0.022854004
109	0xb9f27e20	-0.00046251807
110	0x3d60a772	0.05484719
111	0xbd02b25c	-0.031908378
112	0xbb6fbe49	-0.0036581925
113	0xbc190e23	-0.009341749
114	0x3d444cbb	0.04792474
115	0x3cf6fa94	0.030148782
116	0xbd69567a	-0.056967236
117	0x3d95c7c8	0.07313496
118	0xbd7b9d74	-0.061429456
119	0x3d620167	0.05517712
120	0xbbc793c2	-0.006090612
121	0xbceaabe2	-0.028646413
122	0x3d39ca9e	0.045359246
123	0xbd52a52b	-0.051427048
124	0xbbb54edd	-0.005533083
125	0x3d41b56a	0.04729215
126	0x3d8dfd9d	0.069331385
127	0xbd3c7084	-0.04600574
128	0xbc43e7dd	-0.011957136
129	0x3c1c20f2	0.009529339
130	0xbcc4d858	-0.024028942
131	0xbd1fa5e0	-0.03897655
132	0xbd03d1ea	-0.03218261
133	0xbcc1604e	-0.023605492
134	0x3d87b64d	0.06626568
135	0x3d06eb4e	0.032939248
136	0x3db244bd	0.08704517
137	0x3d4833d2	0.048877545
138	0xbd65147d	-0.055927742
139	0xbc923747	-0.017848624
140	0xbd51e20a	-0.05124096
141	0x3ddc4065	0.1075447
142	0x3c3587d4	0.011079747
143	0x3c3c8842	0.011507096
144	0xbc9badb9	-0.019003736
145	0x3d4b1396	0.049579225
146	0xb79e2686	-1.8853007e-05
147	0xbd58a89e	-0.05289518
148	0xba9fd813	-0.0012195132
149	0xbc7564b5	-0.014977624
150	0xbd80acf5	-0.06282989
151	0xbd73a870	-0.059486806
152	0x3c0852b2	0.008320497
153	0xbcec9118	-0.02887778
154	0xbc67605f	-0.014122098
155	0x3d26d6cb	0.040732186
156	0xbc366fa6	-0.0111350175
157	0x3d0d075c	0.034430847
158	0xbd11eaf5	-0.035624463
159	0xbd6d3920	-0.057915807
160	0xbd8172ed	-0.063207485
161	0x3d477980	0.048699856
162	0xbc9dee26	-0.019278597
163	0xbc0450f0	-0.008075938
164	0x3cb4f758	0.022090599
165	0x3d9e42d7	0.077275924
166	0x3b9c8b3c	0.00477734
167	0x3d26d7f4	0.040733293
168	0x3b9c24ac	0.004765114
169	0x3d1023b8	0.035190314
170	0xbc2e016f	-0.010620459
171	0xb9a89537	-0.0003215463
172	0x3ab73580	0.0013977736
173	0xbbd6edf6	-0.006559129
174	0xbcb6f21e	-0.022332247
175	0x3d41c726	0.047309063
176	0x3d16b15c	0.036790237
177	0x3d3c3c4b	0.045955937
178	0xbd35aec0	-0.044356108
179	0xbcd23806	-0.02566148
180	0x3d28f212	0.04124648
181	0xbccef404	-0.02526284
182	0xbc111456	-0.008854946
183	0xbc893519	-0.016748952
184	0x3d3d091a	0.046151258
185	0xbdf88953	-0.121355675
186	0xbd5e61a5	-0.05429234
187	0x3c7b7180	0.015346885
188	0x3d5f3766	0.05449619
189	0xba332680	-0.0006834045
190	0xbd22e450	-0.039768517
191	0x3c13280d	0.008981717
192	0x3d8690f0	0.065706134
193	0xbde86906	-0.11348157
194	0x3c02233f	0.007942974
195	0xbd57d06d	-0.052689005
196	0xbd5ff936	-0.054681025
197	0x3b778ff6	0.0037775016
198	0x3ca80ee0	0.020514905
199	0xbc801e9f	-0.015639601
200	0x3d45c037	0.048279013
201	0xbd479f38	-0.048735827
202	0xbd0e91e2	-0.034807093
203	0x3d97e5f7	0.07416909
204	0xbc64184c	-0.013921808
205	0x3bf906e9	0.0075997007
206	0x3d3dc2c8	0.046328336
207	0xbd1891d8	-0.037248462
208	0xbd30913d	-0.04310726
209	0xbb549c3e	-0.003244176
210	0xbc3fe6f7	-0.011712781
211	0xbcf4d4a8	-0.029886559
212	0x3d4ece85	0.05048992
213	0x3d699613	0.057027888
214	0x3d8392db	0.06424495
215	0xbc8f7590	-0.017512113
216	0x3d5200ba	0.051270224
217	0xbd25da73	-0.040491533
218	0x3d495aa0	0.049158692
219	0x3d42f3ac	0.047595665
220	0x3c20e3b8	0.009819917
221	0x3d34036c	0.043948576
222	0x3da68d1b	0.081323825
223	0xba702100	-0.0009160191
224	0x3d67c75e	0.056586616
225	0x3a85eadd	0.001021709
226	0xbc81ee30	-0.015860647
227	0x3cfe1706	0.031016838
228	0x3b26f182	0.002547354
229	0xbd63cb69	-0.05561391
230	0xbcdcaf5e	-0.02693909
231	0x3d439570	0.047749937
232	0x3c605db0	0.013694212
233	0x3bcd06ac	0.006256899
234	0x3c33e6ac	0.010980289
235	0x3d1071cb	0.03526477
236	0xbd49813d	-0.049195517
237	0x3d0d691e	0.034524076
238	0x3c0cac83	0.008586052
239	0xbd094862	-0.033516295
240	0x3d6530a4	0.05595459
241	0xbd8f556d	-0.069987155
242	0xbba19530	-0.0049311146
243	0xbd8504e4	-0.064950734
244	0xb86c3ee6	-5.6325363e-05
245	0xbd223d5c	-0.039609298
246	0x3b0de41f	0.0021650863
247	0xbd12c4b1	-0.03583211
248	0x3d71d921	0.05904496
249	0xbc3fff46	-0.011718577
250	0xbcc88304	-0.024476536
251	0xbc4853e4	-0.012227032
252	0x3cd83151	0.026390703
253	0x3b319d34	0.0027101757
254	0xb9d6bb74	-0.00040956924
255	0xba77449b	-0.0009432525

linear_layer.4.bias f4 [49]
0	0x3ce6e1fb	0.028183928
1	0x3da6b9c6	0.08140902
2	0x3c15e684	0.0091491975
3	0x3d4a038f	0.0493198
4	0xbd63ce0c	-0.055616423
5	0xbced70a8	-0.028984383
6	0xbb566d9a	-0.0032719136
7	0xbcb11a2d	-0.021618927
8	0x3c32dd3b	0.010917003
9	0xbc605ecf	-0.013694479
10	0xbcc0ce1b	-0.023535779
11	0x3d0ada47	0.03389957
12	0xbd16af58	-0.036788315
13	0x3d9dbf79	0.07702536
14	0x3d6b821f	0.05749714
15	0x3cb0f47f	0.02160096
16	0x3d64516e	0.05574172
17	0xbc02c7a9	-0.007982173
18	0xbcf2be9c	-0.029631905
19	0x3ccd9bbf	0.02509868
20	0x3d2598ab	0.0404288
21	0x3d81a590	0.06330407
22	0xbd1c0f5a	-0.038100578
23	0xbced88a0	-0.028995812
24	0xbd1dc4eb	-0.038517874
25	0xbc8ea844	-0.01741422
26	0x3c93fbf9	0.018064486
27	0xbd58c912	-0.05292613
28	0x3d7e7c45	0.06213023
29	0xbd3fe38f	-0.046847876
30	0x3c1c7007	0.009548194
31	0x3d801bca	0.062553
32	0x3d08bbc9	0.03338221
33	0x3d7dcbc9	0.061961923
34	0x3c33a1c8	0.010963865
35	0xbd02d9e4	-0.031946078
36	0x3ba7390a	0.005103235
37	0xbcf0549d	-0.029337222
38	0x3d53c049	0.05169705
39	0xbcd0ce13	-0.025488889
40	0x3d61abe5	0.055095572
41	0x3c82147a	0.015878905
42	0xbccf53cb	-0.02530851
43	0xbca3729c	-0.019952111
44	0x3d9de188	0.07709032
45	0xbcc96420	-0.024583876
46	0xbd2cc72a	-0.042182125
47	0x3cf94fe2	0.030433599
48	0x3d906bee	0.07051836
