data/Apr-13_05-51-52/models/actor_850.pth (torch, 323799 bytes, 6 tensors)

linear_layer.0.weight f4 [256, 7]
000000 7c 27 5a 3e 4b 03 23 be df ed 73 bd 49 3b 49 3e
       0.21304125 -0.15919225 -0.059553023 0.19651522
000010 f1 3b dc be 60 dc 9e 3e 3c b4 d7 3c 65 2b 1b 3e
       -0.43014482 0.31027508 0.02633106 0.15153272
000020 b2 d0 94 3c 28 db 9a bd e0 bc ac 3d 7c 80 96 3d
       0.01816592 -0.07561332 0.084344625 0.07348725
000030 62 79 1e 3e fe c6 62 be 1b fe 94 bc 17 4b 01 bc
       0.15475991 -0.22146222 -0.018187573 -0.007891438
000040 64 c6 a4 3d 97 e1 ae ba f6 f8 1c 3f 66 68 17 3e
       0.080456525 -0.0013342377 0.61317384 0.14785919
000050 5b 7d a9 be 2a c1 69 be 18 bf 81 bd b8 f1 26 be
       -0.3310345 -0.22827592 -0.06335276 -0.16303146
000060 cb 0c f8 bd 4d 41 94 3c 01 b9 66 3e 38 5e 52 3e
       -0.12111815 0.018097544 0.22531511 0.20543754
000070 70 83 c4 be 97 06 6f 3e 41 aa dd 3d 6b f1 aa 3e
       -0.3838153 0.23342358 0.10823489 0.33387312
000080 09 00 f6 3e 86 88 ca be fe 3d fd be 9c 75 55 be
       0.48046902 -0.39557284 -0.4946136 -0.20845646
000090 e0 ff 9b 3e 27 f3 91 bd 3d 5c 13 3e 57 7f 17 be
       0.30468655 -0.07126456 0.14390655 -0.1479467
0000a0 57 c4 e6 3e b8 dc 66 be 85 79 89 3e 65 ea 8d bc
       0.4507167 -0.22545135 0.26850525 -0.017323682
0000b0 3a c2 60 be 72 05 4c 3e 90 2e a7 be 23 b3 28 3e
       -0.21949092 0.19923952 -0.32652712 0.16474585
0000c0 82 59 25 bb cc ba 29 bd b4 0b ba be 11 88 38 be
       -0.0025230353 -0.04143791 -0.36337054 -0.18020655
0000d0 c9 04 52 3e bd 28 bc bd da c0 c0 3e 23 1f 9b 3e
       0.20509638 -0.09187458 0.37647134 0.30297193
0000e0 ae 76 82 bc 76 d5 7d be 6b ac 77 3e 2e 88 13 3e
       -0.015925732 -0.2478846 0.24186866 0.14407417
0000f0 4c 07 bd be c2 ad b8 3e 28 d4 71 3e e3 46 b7 3e
       -0.3691963 0.36070067 0.23616087 0.3579627
000100 6c 16 48 be b3 74 4c bd 44 54 8f 3c ce c3 0f be
       -0.19539803 -0.04991598 0.017496236 -0.14039537
000110 19 0b b7 be cc 30 65 be a5 9f 46 3e 30 83 d4 bd
       -0.35750654 -0.22381896 0.19396837 -0.103765845
000120 f7 a8 25 3e 90 f0 8a 3c c5 f5 f1 bd c9 50 9c 3c
       0.16177736 0.016960412 -0.11814455 0.01908149
000130 ae 38 9d 3e 8a ae 40 3e 78 da b2 be 6b 75 43 3e
       0.30707306 0.18816581 -0.34932303 0.1908776
000140 07 4b 88 be c4 4e 92 be 0a 5a b7 3c 40 35 83 bd
       -0.2661974 -0.28575718 0.022381801 -0.06406641
000150 18 8e 5f 3e ca 33 59 be c4 74 ac be ed f9 94 3e
       0.21831548 -0.21211162 -0.33682835 0.29096928
000160 65 04 3e be 73 30 59 3e 4d 4b 1f 3e 3e 1d 91 be
       -0.18556364 0.21209888 0.15556069 -0.28342623
000170 74 82 9b 3d e4 ed b9 3d 4f 92 81 be 3e a3 37 be
       0.07593241 0.09078577 -0.25306937 -0.17933366
000180 3f f8 03 3e 54 a7 8a 3d de 89 0e be df be ab bd
       0.12887667 0.067701966 -0.1391978 -0.08386015
000190 d4 5b c2 3e 06 be 88 bd b5 f2 fb 3e d1 59 46 3e
       0.37960684 -0.06676869 0.49208608 0.193702
0001a0 d2 27 d8 be c8 47 ae be 5d 57 a5 3e f8 30 50 bc
       -0.4221788 -0.3403914 0.32293215 -0.012706988
0001b0 21 81 6b 3e 7c 24 87 3c 81 6a f3 3d 38 81 af 3e
       0.22998478 0.01649689 0.118855484 0.34278274
0001c0 60 7a b8 3e df f9 6d be 82 39 8f 3d ea 70 8e 3e
       0.36030865 -0.2323985 0.069933906 0.27820522
0001d0 a3 04 ea 3e 02 1a 8e 3e d9 59 de be 8f ae 95 be
       0.45706663 0.27754217 -0.43427923 -0.2923474
0001e0 9b f0 7e be 47 ea e5 3c e9 72 b6 3e 16 2e 62 be
       -0.24896471 0.028065814 0.35634544 -0.22087893
0001f0 e2 f2 3c 3e 2d 69 45 be 9d e8 bb be 18 9d b5 bd
       0.18452027 -0.19278403 -0.36700907 -0.08867854
000200 08 ae 51 3e 7e 95 b8 3e 73 73 8c be 32 74 16 3e
       0.20476544 0.36051553 -0.2743183 0.14692762
000210 cf 25 92 3e cb 73 5f 3e 5d fe 50 3e 95 15 65 3e
       0.2854447 0.21821515 0.20409532 0.22371514
000220 7b ba 58 3e 40 12 61 3e 21 e8 b0 be c4 fc cc be
       0.21164887 0.21979618 -0.345521 -0.40036595
000230 13 4b 32 be 57 e5 35 bd d0 b4 6c be 6f b1 0c 3e
       -0.17411451 -0.04440817 -0.2311585 0.1373956
000240 46 cf f1 3d 21 70 b0 bd ac af 15 3e 21 96 c5 3d
       0.118071124 -0.08615137 0.14617795 0.096477754
000250 64 47 62 3e 05 c7 79 3e 23 5d 23 be 2e 82 10 3f
       0.22097546 0.24392326 -0.15953498 0.5644864
000260 40 b0 b8 bd 4b e1 2b be 59 a8 b6 be 36 1a 79 be
       -0.09017992 -0.16785161 -0.35675314 -0.24326405
000270 89 1b 62 be 44 8b 25 be d4 95 89 3e a9 f3 fc bd
       -0.22080816 -0.16166407 0.26872122 -0.12351162
000280 ba 9c 90 be 24 93 0b 3e 15 61 e1 3d 38 fd 63 3e
       -0.28244573 0.13630348 0.11004845 0.22264564
000290 f4 6c 53 be e3 7a 08 bd 28 39 38 be 86 0a 64 3c
       -0.20647031 -0.03332032 -0.17990553 0.013918525
0002a0 c8 37 9a be 4e 65 30 be b7 10 ed bd 96 82 25 3e
       -0.30120683 -0.17226145 -0.11575454 0.16163096
0002b0 25 6a 8d 3d 54 35 bf 3d b0 26 c1 3e ff 9f af 3e
       0.06905011 0.093363434 0.3772483 0.34301755
0002c0 0e 0e 75 3e 53 ce 3c bc 8d 71 94 be 85 cc af 3e
       0.23931143 -0.011523801 -0.28992882 0.34335724
0002d0 8d f7 2a be d8 3d 9f bd 1b eb a1 be 5c 44 84 bd
       -0.16695996 -0.07775468 -0.31624684 -0.06458351
0002e0 34 51 63 be a4 81 b7 3e 36 57 a2 be 2f 9f a5 be
       -0.22198945 0.35841095 -0.31707162 -0.3234801
0002f0 de 4b cf bd cd 6a 61 be 40 78 f4 3d 38 5e 25 be
       -0.101218924 -0.22013398 0.11936998 -0.16149223
000300 ba d1 44 be 68 6b 6f 3d f8 44 86 3e c2 a5 93 be
       -0.1922063 0.05845204 0.26224494 -0.288374
000310 34 71 23 3e 7a 79 72 3e 98 f2 b9 3e 06 70 91 be
       0.15961152 0.23679152 0.36317897 -0.2840578
000320 84 18 53 3e 0d 1a bb be 49 04 78 3e 60 2a 2b be
       0.2061482 -0.36543313 0.24220385 -0.16715384
000330 25 fc 5d 3e 38 c4 1a 3c 1d cc 6e bd e4 ec fa 3d
       0.21678217 0.009446196 -0.058300126 0.122522146
000340 99 34 eb 3c 5b 61 bd 3c 79 01 2d 3d 0d de b0 3d
       0.028711604 0.023117712 0.042237733 0.08636103
000350 00 4d b6 be 28 83 89 3e 16 9b cf 3e 33 aa c7 3e
       -0.3560562 0.26857877 0.4054801 0.3899704
000360 43 c3 5f 3e 8c 12 87 be 9b 51 03 be f7 2d b1 3e
       0.2185183 -0.26381338 -0.12824099 0.3460538
000370 c9 c3 8c be 62 dd b3 3e 41 00 92 be 91 49 7f be
       -0.27493122 0.3512984 -0.2851582 -0.24930407
000380 52 d8 36 3e 3d 7b 8f be 9c 6d af bd 8f fe 92 3e
       0.17855957 -0.2802371 -0.08565828 0.28709838
000390 f5 2f 55 3e 40 ca e8 3e e4 03 af bd 27 9e 88 be
       0.20819075 0.45466805 -0.08545664 -0.2668316
0003a0 a8 df cf 3e ec 46 4d bd 23 e1 0c be bf 1e 65 3e
       0.40600324 -0.050116464 -0.13757758 0.2237501
0003b0 44 43 a6 be 1e 2a 65 3e 60 91 72 3e 81 8d 99 be
       -0.32473195 0.22379348 0.23688269 -0.2999077
0003c0 3f f3 9e be 9a 9c 07 bd 98 90 22 3e 9d 59 33 bc
       -0.31044957 -0.03310833 0.1587547 -0.010946658
0003d0 d0 41 44 be c5 93 0d 3c c4 e4 b5 be 56 c5 88 be
       -0.1916573 0.008641188 -0.35526097 -0.26713055
0003e0 9f d2 80 be 27 5e 9f 3e 4b 96 aa 3e 8f 76 03 be
       -0.2516069 0.3112652 0.3331779 -0.12838195
0003f0 e2 31 5a bc dd 20 1a 3e 91 fd 03 3d 3f 2c 6b be
       -0.013317557 0.15051599 0.03222424 -0.22966097

linear_layer.0.bias f4 [256]
000000 0f 64 40 be b7 20 a7 3e 67 d6 58 3d ea 2e 4b 3e
       -0.1878817 0.32642147 0.052938845 0.19842115
000010 42 91 ba 3d 94 ef 84 3d 05 11 81 3e 03 2d 9b bc
       0.09109737 0.064910084 0.25208297 -0.018942362
000020 be ea 93 3e 52 e9 0c 3e ae 5b 7b be 65 8d 7e 3e
       0.28890032 0.1376088 -0.24546692 0.24858625
000030 0b 12 82 be cd 82 49 3e d6 64 e7 bc e1 e6 9c 3d
       -0.2540439 0.19678803 -0.028246325 0.07661224
000040 51 8d 2e bb 8d 9b 5e 3d 26 49 e8 bd 73 63 e4 3d
       -0.0026634524 0.054347564 -0.11342077 0.11151781
000050 75 e9 33 3e e0 5a b3 be ac 9e aa 3e 28 06 b0 be
       0.17569526 -0.3503027 0.33324182 -0.34379697
000060 1f c0 2c be c9 d2 fe 3d da b2 b8 3e 2a 2e db 3d
       -0.16870163 0.12442548 0.36073953 0.107021645
000070 bf a7 62 be 9e a0 99 3d 10 d7 71 be ca 12 41 3e
       -0.22134303 0.075013384 -0.23617196 0.18854824
000080 9d 81 07 3d 1c 3d 80 3d 60 71 94 be 0f 8f 4e 3e
       0.033082593 0.06261656 -0.28992748 0.2017176
000090 c0 49 bc 3e 96 f7 86 be 5e bd 40 3e 63 b2 1f be
       0.36775017 -0.26360768 0.18822238 -0.15595393
0000a0 cf 5f dc bd ed 1d 9d 3e 0d c9 b1 be fe ca a7 bd
       -0.107604615 0.30686894 -0.34723702 -0.081930146
0000b0 f0 d7 df 3d bc 2f 0b 3e a8 a0 15 be 92 e4 76 be
       0.10929859 0.13592428 -0.14612067 -0.2411063
0000c0 55 10 9c 3d af c8 c2 be 38 00 b3 3c ae fa 83 be
       0.076203026 -0.38043734 0.02185069 -0.2577719
0000d0 0d fc 88 bd 20 a6 99 3e be 0e 81 be eb 91 6f be
       -0.066887 0.30009556 -0.2520656 -0.23395507
0000e0 5f 28 93 be a3 40 58 3e 01 ee 98 3e 08 b2 60 be
       -0.28741738 0.21118407 0.29869083 -0.21942914
0000f0 fd 1c 66 3e 70 eb 77 3e de eb 7f be 4c 3b 1b 3e
       0.22471996 0.24210906 -0.2499232 0.15159339
000100 b6 44 39 3e b3 52 c6 bc 86 6f 4f 3e 25 9d 10 3b
       0.18092617 -0.024209356 0.20257387 0.0022066322
000110 83 8e 89 bd 92 e8 5a 3e df be a0 be 98 11 be be
       -0.06716635 0.21377781 -0.31395623 -0.37122798
000120 34 cf 8f 3d 24 e2 00 3d fe e3 b0 3c 68 32 4a be
       0.07021943 0.031465665 0.02159309 -0.19745791
000130 45 a1 ad 3e 90 bd 85 be 59 42 46 be f0 54 a3 be
       0.339121 -0.26121187 -0.19361247 -0.3190074
000140 d3 bb c0 be 97 9e b4 3d 84 f7 1b be fd 4e 41 3e
       -0.37643299 0.08819311 -0.15231138 0.18877788
000150 1d 95 bb 3e e0 36 0c 3e a2 58 aa 3e 70 4c 91 be
       0.36637202 0.13692808 0.33270746 -0.2837863
000160 b4 de 29 3e 32 17 4c 3e be 33 0b be 03 c4 db bc
       0.16588861 0.19930723 -0.13593957 -0.026826864
000170 1a f4 7d be 6f 1b 15 3d ed be b2 be af f1 64 be
       -0.24800149 0.036403116 -0.3491129 -0.2235782
000180 cd 69 9c be 11 a9 55 bd 0c cb 1d 3d 74 40 9d be
       -0.3054947 -0.052163187 0.03852372 -0.30713236
000190 ce 34 0e be 83 c9 46 3e f6 7b cf 3c b4 46 54 3d
       -0.13887331 0.19412808 0.025327664 0.05182524
0001a0 fa 59 3e be 4a 5f 1a be eb 5f b6 be c0 f8 8e 3e
       -0.18589011 -0.15075412 -0.35620055 0.27924156
0001b0 eb 40 9e 3b 08 44 32 3e fa cb 61 3e 06 ac a9 3e
       0.004829516 0.17408764 0.22050467 0.33139056
0001c0 f8 7b 85 be a2 e8 d0 3d d8 d1 90 be 19 ce 19 3e
       -0.26071143 0.10200621 -0.28285098 0.15020026
0001d0 b5 47 59 be 4c 4c d0 3d fd 7a 8e be 2e 77 50 3e
       -0.2121876 0.101708025 -0.27828208 0.20357963
0001e0 25 e0 8d 3e 83 ef 53 3e e9 ca a3 be 67 f5 5e 3e
       0.2771007 0.20696835 -0.31990746 0.21773301
0001f0 f9 45 8f be 96 ff b4 be 0e 58 54 3e e7 ed 4c 3c
       -0.27983072 -0.35351247 0.20736715 0.012507892
000200 ff 38 36 be d4 e6 9c be 5b 3b 0e 3d c0 f5 de bd
       -0.1779518 -0.30644858 0.034724575 -0.10886717
000210 aa 20 85 be b0 9c 63 bd 70 76 b5 be 16 ab 3e 3e
       -0.26001483 -0.05556935 -0.35441923 0.18619952
000220 42 7d 80 be 76 bd 03 be de f8 bb be 39 65 6a bd
       -0.25095564 -0.12865242 -0.36713308 -0.05722544
000230 0e d7 16 be 4d 90 55 3e 0c 3b b5 bd f7 45 82 3e
       -0.14730474 0.20855828 -0.08849153 0.25444004
000240 27 24 c3 3e f3 9b 93 3d 24 a7 04 be 6c e1 a7 be
       0.3811352 0.07207479 -0.12954384 -0.3278917
000250 32 1f 91 be e8 41 29 be 8d 6b 84 be 97 29 3f 3e
       -0.28344113 -0.16529047 -0.25863305 0.18668209
000260 5c e9 f9 bd 6a 8c 4c bc 31 58 07 3d e4 36 a7 be
       -0.12202713 -0.012484649 0.03304309 -0.32659066
000270 a3 b2 a0 3e 48 c3 0e be f2 05 ac be 0a 1b 4c bd
       0.3138629 -0.13941681 -0.33598286 -0.049830474
000280 a2 21 c0 be d4 04 71 3d bf 8f 6b be d3 0e 08 be
       -0.3752566 0.058842495 -0.23004054 -0.13286905
000290 8a ab e3 bd 34 af 8a 3e c6 4c 91 3e 1a 38 c8 3e
       -0.11116703 0.27086794 0.28378886 0.39105302
0002a0 9e 7d 96 3c 03 22 76 3e 12 df b1 be 71 ab 7d be
       0.018370446 0.24036412 -0.34740502 -0.24772431
0002b0 e5 4a 50 3e 7c 49 e0 3d b5 3e d6 3d 25 3f 5d 3e
       0.2034107 0.10951516 0.10461179 0.21606119
0002c0 b9 bd 61 3e 78 2f 32 3e ad 3d 14 be 99 e3 d6 bd
       0.2204503 0.1740092 -0.14476652 -0.104926296
0002d0 1b 06 a3 3d bf f3 9e 3e 3d 9e ea bc d0 81 06 be
       0.07960149 0.3104534 -0.028639907 -0.13135457
0002e0 23 9b 59 3e 0b 47 83 3e 1c 9c 34 bd 95 fe dd bd
       0.21250586 0.2564014 -0.04409419 -0.10839573
0002f0 4d b5 c8 be a9 d5 e8 bb a8 26 1a 3e b9 12 8e be
       -0.39200822 -0.0071055484 0.15053809 -0.2774866
000300 de ac 8f be cd 77 c1 be 6b b1 8e 3e 0a 43 a2 3e
       -0.28061575 -0.37786713 0.27869734 0.31691772
000310 69 f8 c5 3e 7b 41 a9 3e 21 54 98 bd 9f 2f 8c 3e
       0.38666084 0.3305777 -0.07437921 0.27380082
000320 79 15 65 3e 25 06 e0 bd 9c fc 5e be 44 c6 a8 3e
       0.22371472 -0.10938672 -0.2177605 0.32963765
000330 cc bb 4a bd 35 be de 3d f1 03 37 be a8 18 68 be
       -0.049495503 0.10876123 -0.17872597 -0.22665656
000340 90 6e 8f bd 82 ca 4c 3c da a5 87 3e 68 6c 7b 3e
       -0.0700351 0.0124994535 0.26493722 0.24553072
000350 de 84 42 bd 7e 56 9a 3e 5d 0b 4e be de c3 13 3d
       -0.047489993 0.30144113 -0.20121522 0.036075465
000360 34 91 6f be c0 9b 76 3d 9e 0b af 3e a3 de 8b be
       -0.23395234 0.06020713 0.3418855 -0.27318296
000370 ef f5 ef 3d 2b 65 a4 be a6 ee 93 bc 9b fb 1c be
       0.1171683 -0.32108435 -0.018058132 -0.15330355
000380 3d ba 45 bb 19 35 97 be 4d 54 0a 3e fd 8e cd be
       -0.003017082 -0.29532698 0.1350872 -0.40148154
000390 a5 fa 88 3d 08 84 29 be db 34 70 be 61 65 9d 3e
       0.06688432 -0.16554272 -0.23457663 0.30741408
0003a0 1d a4 73 3d 56 19 80 be 39 7f 53 be 3e af 2c be
       0.059482682 -0.2501933 -0.20654 -0.16863725
0003b0 bb 6f 69 be 43 f5 9e 3d f0 4f 45 3b e2 ff b6 3e
       -0.22796528 0.07761624 0.003010746 0.35742098
0003c0 3c ce ee bb 4f a4 09 be 3d 66 a6 3e dc 1c bc 3d
       -0.0072877686 -0.13441585 0.32499877 0.09185192
0003d0 4b 28 99 bd 23 a5 8b 3e b3 d4 b7 3e d3 57 a4 be
       -0.074783884 0.27274427 0.35904464 -0.32098255
0003e0 9a bb a0 be 8a b8 7a be f7 92 b5 be ca da 11 be
       -0.3139313 -0.24484459 -0.35463688 -0.14243618
0003f0 1c ae 0d 3e 10 d1 b0 be 9b 45 cb be 96 a2 a6 be
       0.13835949 -0.34534502 -0.39701542 -0.32545918

linear_layer.2.weight f4 [256, 256]
000000 15 23 1b b9 2d e2 0a 3d ea 34 6b 3d 3e 51 7e 3d
       -0.00014795021 0.033907104 0.05742351 0.062089197
000010 ef f0 8b bc b5 e2 64 bd 0f 08 79 3d 1e 15 2c bd
       -0.01708266 -0.055880267 0.0607987 -0.042012326
000020 84 0a 88 3d 75 e6 c7 3a a4 f0 29 3c 6e a2 b8 3c
       0.06642631 0.0015251177 0.010372315 0.02253839
000030 58 05 38 bd c4 85 ac bc 2c a0 35 bd 23 bf 0d 3d
       -0.04492697 -0.021059878 -0.044342205 0.03460611
000040 57 1a e4 bc 51 78 82 b9 81 dd 6c 3d f1 1e 04 3d
       -0.027844591 -0.00024885175 0.05782843 0.03225607
000050 a3 b7 2e bd 89 3d 91 bd 42 9e 4a 3d b0 d1 fa bb
       -0.0426556 -0.07091815 0.049467333 -0.007654391
000060 3a 45 44 bd 3a 7f fb 3c dd da 6d bd 06 c0 97 3d
       -0.047917582 0.030700315 -0.058070052 0.074096724
000070 5b d7 a0 3c 75 56 f4 3c 50 82 99 3b 3f 53 31 3c
       0.01963394 0.029826382 0.004684724 0.01082307
000080 2a dd d4 3c fb 01 e3 bc 00 2c 6c 3b 5c 91 3d 3d
       0.025984365 -0.027710905 0.0036036968 0.046281204
000090 ec a9 19 bd 00 a3 2c 3d 6d e6 31 3d 9d 94 b1 bc
       -0.037515566 0.042147636 0.04343264 -0.02167731
0000a0 2f af d0 39 f7 d6 4e bd 28 94 0a bd 69 10 3f bd
       0.00039803374 -0.050497975 -0.0338327 -0.04664651
0000b0 d4 7f 72 bd e0 a7 7d 3d ad aa cd bc 09 de f8 bc
       -0.059203938 0.061927676 -0.025105799 -0.030379312
0000c0 d0 16 33 3d c8 40 c3 bb e5 80 15 bd 68 fe ff bc
       0.043722928 -0.0059586503 -0.036499877 -0.03124924
0000d0 d8 dd 60 bc 50 e4 60 3c c2 a8 4b 3d ce d0 0f 3d
       -0.013724767 0.013726309 0.049721487 0.03511124
0000e0 56 21 2b bd f8 d9 a7 bc f3 17 26 3c 71 79 d8 bd
       -0.04177984 -0.020489678 0.010137546 -0.10570038
0000f0 89 72 10 3d 60 af e3 bb 8d 7b 84 3d 80 eb 9a bd
       0.03526548 -0.0069483966 0.06468878 -0.07564449
000100 41 db 98 3d f9 ee 5f bd 6b 30 68 bc a8 06 83 3d
       0.07463694 -0.05467126 -0.0141717 0.06397754
000110 86 98 cc 3c 24 0f b6 bc 67 01 ce 3c 38 37 49 bd
       0.024975073 -0.022224016 0.025147153 -0.049124926
000120 80 1e ae 3b 90 a6 4a 3c b0 00 1f 3d 3f 1a 44 3d
       0.0053136945 0.012368813 0.038819015 0.047876593
000130 ac ce 53 bd 33 89 67 bd 3f a0 88 3b 8c 17 b8 bc
       -0.05171077 -0.056527328 0.0041694934 -0.022472166
000140 68 57 d0 bc 12 bf c1 bd 64 0b 7b bd a4 dd 4b bd
       -0.025432304 -0.09460272 -0.06129016 -0.04977192
000150 f0 56 05 bb 45 0d 0b bb f9 f9 14 bc c5 1f d0 bc
       -0.0020346008 -0.0021217626 -0.009092801 -0.025405774
000160 ff 97 dd bc 69 65 a3 bd 1f 85 41 3c 58 51 3b bd
       -0.027050016 -0.07978327 0.011811524 -0.045731872
000170 a8 87 1b bc c8 6e cb 3c c0 fc 8d 3b 7a 95 86 bd
       -0.009492792 0.024833098 0.0043331087 -0.06571479
000180 af 0e 9c bd 79 d5 bc 3c 00 72 e9 3a 3b 41 70 3d
       -0.07619988 0.02305101 0.0017810464 0.05865596
000190 9c e0 ee 3c 91 f4 8f 3c b6 47 1e 3c 23 d9 4c bc
       0.029159836 0.017572673 0.009660652 -0.012502941
0001a0 92 9d 42 bd fd 86 94 bc 69 0f 82 3d 04 4d be 3c
       -0.047513552 -0.018130774 0.063505955 0.023230083
0001b0 49 3e 05 3d 84 14 70 3d 9f 1d 5c 3d 5a b0 0f bd
       0.032530103 0.058613315 0.053739186 -0.03508029
0001c0 0e 6b 0b bd 49 1b 81 bb c5 7d 36 bb 57 1a 7f bd
       -0.034037642 -0.00394002 -0.002784596 -0.06228098
0001d0 3b c1 0d bc 81 9d 14 3d e0 b6 89 bb a3 46 77 3d
       -0.008652027 0.03628302 -0.0042027086 0.0603701
0001e0 d0 e2 48 bd 5d 49 7f bd c1 34 7c 3c 9a e1 48 3c
       -0.04904443 -0.062325824 0.015393437 0.012260819
0001f0 92 28 21 bd 98 8d 01 bd 47 e7 5d 3b 05 09 2b bc
       -0.03934533 -0.031629175 0.0033859776 -0.010439162
000200 f3 bc e4 bc 26 50 84 bb 80 90 03 bd 93 57 20 3d
       -0.02792213 -0.0040378748 -0.032120228 0.039146017
000210 36 aa c9 3d 8e b6 1d bd 9c 2a cb 3c 64 53 1d 3d
       0.09846918 -0.038504176 0.024800591 0.038409606
000220 cb 1a 35 bc 78 f5 48 bd 64 42 66 bc 69 43 a6 bc
       -0.011053751 -0.049062222 -0.014053915 -0.020295816
000230 03 6b f4 bc 08 46 3d bc 69 c7 53 bc 68 5c 6e bc
       -0.029836183 -0.011552341 -0.012925961 -0.014548399
000240 72 93 16 bd bb e1 5e bd 2e 6d 56 bd 43 f5 6b bd
       -0.03676171 -0.054414492 -0.052350216 -0.057606947
000250 3f b0 e0 3c 94 16 b7 3c b8 e7 56 3d b9 fc 2c 3c
       0.02742779 0.022349633 0.052467078 0.010558301
000260 20 98 d2 bc cf 94 25 bd d7 68 d3 3c 16 b6 1a bd
       -0.025707304 -0.040425118 0.025806827 -0.037771307
000270 86 66 46 3d 18 10 cd bd 4e 24 8e bd 04 b4 a2 bd
       0.048437618 -0.10012835 -0.06940518 -0.079444915
000280 a0 58 16 3d c2 bc cf bb 4a d8 b1 3c 67 ea 86 bc
       0.036705613 -0.0063396404 0.02170958 -0.016469194
000290 00 80 5b 3d 48 de ed bc a1 a8 6c 3d b9 84 15 bd
       0.053588867 -0.029036656 0.057778005 -0.036503527
0002a0 36 0f 11 bb 69 5e 4a 3d 0b 8d 67 bd dc 9f 2b 3e
       -0.002213431 0.049406443 -0.056530993 0.167602
0002b0 96 ac 27 bd d7 e0 e5 3d c0 25 41 bb b8 2f 85 3c
       -0.040936075 0.112245254 -0.0029471964 0.016258106
0002c0 31 4e 30 3c e4 5d 4f bd db 9c 93 3b 9f 6b 38 3c
       0.01076083 -0.05062665 0.0045047826 0.011256128
0002d0 80 fa e3 bb 97 13 4e bd 4a 5d 7d 3d f2 be 9c bc
       -0.006957352 -0.05031165 0.061856546 -0.019134019
0002e0 4d 87 43 bd 6f 83 9d 3d 11 31 23 bd ee c9 24 3d
       -0.047736455 0.076910846 -0.039841715 0.040231638
0002f0 02 8c b5 bc cf 44 84 bd 6d 7a eb 3a f4 2b 0b bd
       -0.022161487 -0.06458437 0.0017965563 -0.033977464
000300 3c 3f a0 3c b8 7c 71 3d 93 f3 da bb 6e e6 04 bd
       0.019561402 0.05895683 -0.0066818683 -0.032446317
000310 2a ff bf bc 97 2b 7b bd 2b b1 14 3d 81 4b 93 bd
       -0.023437101 -0.061320867 0.036301773 -0.071921356
000320 a4 95 4a bd bd 8b 22 bd 86 43 1f 3d 98 e2 7a 3c
       -0.049459115 -0.039684046 0.038882755 0.015312813
000330 09 b7 a6 3c 65 6a 56 bc 14 94 3e bc 28 dc 33 3c
       0.02035095 -0.01308689 -0.011631984 0.010977782
000340 80 6a 20 ba 88 d4 a4 bc 65 ec 19 bd d8 e5 11 bd
       -0.00061193854 -0.020120874 -0.03757896 -0.035619587
000350 98 40 31 bd 9d 83 c5 bc ce 7d 36 bd cc 71 0a bc
       -0.043274492 -0.02411061 -0.04455357 -0.008449983
000360 18 2d 3b 3a b9 d7 73 3d 47 c4 0c ba ed 4e 1f 3d
       0.00071402034 0.0595319 -0.0005369824 0.03889363
000370 6c ce 8f bd dd a8 98 bd ed 49 3e bc e3 94 a0 bd
       -0.07021794 -0.07454083 -0.011614305 -0.07840898
000380 99 e8 65 3c 7a a2 2b 3d 70 df 01 bd 58 db 2d bd
       0.014032506 0.041902997 -0.031707227 -0.04244551
000390 9e a2 0e bd 03 0b 47 3d 9f 18 66 bc 43 d1 43 bd
       -0.034823053 0.048594486 -0.014043956 -0.04780699
0003a0 cf cb db 3d 60 40 50 3b ec a9 26 bd 40 4f de bb
       0.10732233 0.0031776652 -0.040689394 -0.0067843497
0003b0 8a 58 9c bd 2f b8 83 3d 95 50 14 bd 99 07 b6 3c
       -0.07634075 0.064316146 -0.03620966 0.02222042
0003c0 2f 0e 4d 3d 62 8d 0d bd 88 77 c8 bc 07 72 01 bc
       0.050062355 -0.03455866 -0.02447106 -0.007900721
0003d0 a3 a9 00 bc 40 1d ec 3c 84 64 1f bd d5 a1 1b 3c
       -0.007852945 0.028822541 -0.03891422 0.009499033
0003e0 10 15 99 bc af 35 ef 3c c4 41 0e 3d 0f 14 5f bd
       -0.018686801 0.029200403 0.034730688 -0.05446249
0003f0 70 e6 07 3d f6 f2 b6 bc 0f 1d 42 3d 06 0c 7e bd
       0.033178747 -0.02233265 0.047390994 -0.062023185

linear_layer.2.bias f4 [256]
000000 70 ee 8c bc 84 40 cc bc b5 02 43 3c 60 bf 80 bc
       -0.01720354 -0.024933107 0.011902501 -0.015716255
000010 3c f7 90 3c d0 75 17 bd 1a e5 d7 bc 00 4b da 3c
       0.017696016 -0.03697759 -0.026354361 0.02664709
000020 80 44 64 3d 2a c0 64 bd 21 b7 c2 3c fe 9d 56 bd
       0.05572939 -0.055847324 0.023768963 -0.052396767
000030 20 c7 e1 3b c4 5a ed bc ab 05 30 bc 44 82 e9 bc
       0.0068901926 -0.028973944 -0.010743539 -0.028504498
000040 eb 9e 38 bc ae 6e 6d bd dc 08 92 3c b9 2e 48 3d
       -0.011268358 -0.05796688 0.01782649 0.048872683
000050 b0 23 8e 3c 12 ba 7a 3d ad e3 bd 3c 94 41 28 bd
       0.017351002 0.061212607 0.023179853 -0.041078165
000060 80 73 07 ba a2 39 61 bd 85 f9 0a 3d 70 a1 c9 bc
       -0.0005167052 -0.054986604 0.033929367 -0.024613112
000070 7b cb 50 bd 8b 02 05 3d b7 54 03 bb 9c 51 97 3c
       -0.050975304 0.03247313 -0.0020039508 0.018471532
000080 12 34 95 bd ae 26 74 bc d6 7f 0c 3c 16 51 67 bd
       -0.07285322 -0.0149018 0.0085754 -0.056473814
000090 55 cc 2d 3d b8 e4 26 3d 8c ef 90 bc f8 09 40 bd
       0.042431194 0.040745467 -0.01769235 -0.046884507
0000a0 6c f4 e4 3c e5 78 06 bd 3b 11 8f bd 24 75 8e bc
       0.02794858 -0.032830138 -0.06985708 -0.017389841
0000b0 18 58 83 bd 7a 9e d8 ba 31 ff 2e bd a8 a2 4a bd
       -0.06413287 -0.0016526722 -0.04272384 -0.049471527
0000c0 64 00 1d bd b8 ed 75 3c 6a a1 87 3c 4e 93 6d bd
       -0.03833045 0.01501029 0.01655646 -0.05800181
0000d0 09 c6 7a bd 19 b5 53 bd 1c fe 31 bd 70 85 b1 3c
       -0.061224017 -0.05168638 -0.04345523 0.021670073
0000e0 df 04 36 3c cc e1 9a bd 67 ce bd bb ba 88 42 3d
       0.01110956 -0.075625986 -0.0057924273 0.047493674
0000f0 10 06 02 3d a1 ce 61 bd f1 77 84 bc 5a 1a 9d 3c
       0.031744063 -0.055128697 -0.016170474 0.019177604
000100 4f c4 19 3d 4a 12 73 3d 40 0e b7 3b a4 c0 92 bc
       0.03754073 0.059343614 0.0055864155 -0.017914124
000110 89 40 f1 3c 70 97 bd 3b 58 23 ce bc b1 13 d1 bc
       0.029449718 0.005785875 -0.025163338 -0.025522085
000120 3e c3 93 bc f7 a2 5d 3c 99 e6 66 bd 7e a7 02 bc
       -0.018037435 0.013527623 -0.05637226 -0.007974504
000130 b0 97 06 bd 34 bf 64 3d c6 f5 23 bd 49 69 7e bc
       -0.032859504 0.055846408 -0.04002931 -0.015528032
000140 29 ec dc 3b 77 8d f6 bb 2c e9 21 3d 4d 12 f7 bc
       0.0067420197 -0.007524188 0.03952901 -0.030160094
000150 19 8c 4c 3d 33 13 85 bc c0 7d a1 3b c2 20 27 3d
       0.049938295 -0.016244506 0.0049283206 0.040802725
000160 25 ab 8e bd 86 61 84 3d 6a 36 34 3c c5 af eb bc
       -0.06966237 0.064639136 0.010999301 -0.028770337
000170 97 2d c3 bc 3d 6a a6 bc 06 6e d6 bc e3 11 1b 3c
       -0.02382545 -0.02031433 -0.02617551 0.009464714
000180 3d 0b 87 bd bd 83 62 bd 0e f7 35 3d 21 41 91 3b
       -0.065939404 -0.055301417 0.044425063 0.004432813
000190 ca 62 3c bd 7c a9 af 3c 4f c3 6a ba 02 c3 07 bd
       -0.04599265 0.021443121 -0.0008955495 -0.03314496
0001a0 ff 19 96 bc 0d 67 b7 3c 80 ba 11 3d 00 f0 28 3d
       -0.018322943 0.022388006 0.03557825 0.041244507
0001b0 4f a7 bf 3c 0d 87 2a bd 14 7f d3 3c 1a 24 3a 3d
       0.023395209 -0.0416327 0.025817432 0.045444585
0001c0 44 fc 6d bc 67 83 32 bc 2e 4e f9 bc a4 64 10 bd
       -0.014525477 -0.010895587 -0.030432787 -0.03525223
0001d0 ef 08 70 bd 88 7f d9 3c d8 72 3c 3d 78 39 ea 3c
       -0.05860227 0.02655007 0.04600796 0.028591856
0001e0 f0 ce 11 3b a1 f4 e0 bc 6a a6 58 3d 26 f2 21 3c
       0.0022248589 -0.027460398 0.05289308 0.009884393
0001f0 4c 0d ef 39 70 28 3c 3d 9b ce a2 3c f0 9e eb 3c
       0.0004559554 0.045937 0.019873908 0.02876231
000200 e5 08 a9 3d bf da 63 bc e2 5e 11 bd b6 c1 6a 3d
       0.082536496 -0.013907134 -0.035490878 0.057313643
000210 0a f0 1a bd 3c a7 db 3b 65 48 75 bd 47 17 2a 3c
       -0.037826575 0.0067032855 -0.059883494 0.010381526
000220 48 3a 2a 3d a2 78 86 bd 25 5f 13 3d f1 d9 b8 3d
       0.041559488 -0.06565978 0.03597941 0.09025944
000230 fc 0f a3 3c d1 b5 07 bd 31 7f 44 3c 55 76 8d bb
       0.019905083 -0.033132378 0.011993215 -0.004317085
000240 6c d3 ff bb d2 12 0d 3d 22 2b 41 bc 25 19 ae bc
       -0.007807186 0.034441777 -0.011790069 -0.021252224
000250 d8 ee 39 3d e7 aa 88 bb a4 cc 32 3d 94 c7 7a bd
       0.045393795 -0.004170764 0.04365219 -0.06122549
000260 58 05 76 bd 2d 5a 44 bd 7d 65 13 3c b2 d6 17 bd
       -0.06006369 -0.04793756 0.008996365 -0.037069984
000270 9d 3a 9c 3c 32 2e 4e 3d fa ed 2b bc 7e e6 5f bc
       0.019070918 0.050337024 -0.01049375 -0.013665793
000280 17 05 7f 3c 79 0c 74 3d 66 33 07 bd 54 52 81 3c
       0.015565178 0.059582207 -0.033008 0.015786327
000290 f3 87 14 3d 0e c7 80 bd f3 83 44 bc 2a 12 f3 3c
       0.036262464 -0.06287967 -0.01199435 0.029671747
0002a0 ed f6 48 bd ac fd 4a bd 5a 3e 23 3d aa 6f 5f 3d
       -0.04906361 -0.049558327 0.039854385 0.05454985
0002b0 b4 4a 47 3d 97 e2 4c bd 84 81 59 bd 2e ae 25 3d
       0.048655227 -0.05002078 -0.05310203 0.040449314
0002c0 f4 da be bc 3c 39 0e bd ec 32 ee 3c 9a ee 28 3d
       -0.023297764 -0.03472255 0.029077016 0.041243173
0002d0 67 06 ab 3b 47 34 8b bd f2 06 c2 3c 6a b6 5a 3b
       0.005219269 -0.067970805 0.023684952 0.0033372887
0002e0 88 b0 59 3d 74 91 60 bd 2e ae af bc a4 82 91 bc
       0.05314687 -0.054826215 -0.02144536 -0.01776249
0002f0 3a 55 20 3d c0 3b b3 ba 17 f1 ca 3c fb 01 73 3d
       0.03914378 -0.0013674423 0.024773164 0.05932806
000300 1e b4 82 3d 94 bb 97 3c 8b d4 46 3d 15 8a 39 bd
       0.06382011 0.018522061 0.04854254 -0.0452977
000310 fa 32 56 3d 77 05 ea 3b d8 8d 95 3d 8b 88 85 bd
       0.05229471 0.0071417647 0.07302445 -0.06520184
000320 59 b9 cf 3c 56 f0 26 bd bc 5a 61 bd c2 e8 a1 bd
       0.025356935 -0.040756546 -0.05501817 -0.07905723
000330 a8 fc 36 bd 66 32 75 bd 10 34 40 3c 61 8e 83 bd
       -0.044674546 -0.059862517 0.011731163 -0.06423641
000340 1c 89 16 bd 8b 25 5b 3d 76 be 2b bd 9c 86 32 3d
       -0.03675185 0.0535026 -0.041929685 0.043585405
000350 d8 08 e5 3c 26 88 1d bd cf 83 4e bd 00 21 79 bb
       0.027958319 -0.03845992 -0.05041867 -0.0038014054
000360 de 4a 46 bd eb b7 30 bd a4 00 6c 3d 2e 21 0d 3d
       -0.048411243 -0.043144148 0.0576178 0.03445547
000370 40 0c 6b 3b a8 d3 e4 3a e4 d6 0f bd 88 7e 73 bc
       0.0035865456 0.0017458098 -0.035117045 -0.01486171
000380 d0 9d 1c 3c fe 83 45 3c 04 98 1b 3d 1f 6e 5b 3d
       0.00955911 0.012055395 0.03798677 0.053571817
000390 85 85 86 bd 97 be 78 bd f0 d2 c5 bb fa e6 4a bd
       -0.065684356 -0.060728636 -0.0060371086 -0.049536683
0003a0 5e ec 64 bd 7f e0 94 3c 2e ac b0 bd f9 24 ad 3b
       -0.05588948 0.018173454 -0.08626591 0.0052839485
0003b0 9a 9f c2 bb 5d b5 50 3d 0d 77 ab bc e3 18 eb 3c
       -0.005939436 0.05095421 -0.020930791 0.02869839
0003c0 08 87 6a 3d cf 88 8b 3c 00 df f9 bc 17 9c 0d bd
       0.057257682 0.017033009 -0.030501842 -0.034572687
0003d0 b6 24 e3 3b 08 3b 80 bd 12 de eb bc 49 95 da 3c
       0.0069318665 -0.06261259 -0.028792415 0.026682513
0003e0 98 b9 fe 3b dc 89 5d 3d dc 15 22 bd 42 1f b5 3c
       0.0077735893 0.05408655 -0.039571628 0.022109631
0003f0 81 bb e1 3c a0 41 1f 3d 03 c5 77 bd 35 af d7 bc
       0.02755523 0.038880944 -0.06049062 -0.026328662

linear_layer.4.weight f4 [49, 256]
000000 cb 71 1a bd c8 e2 dd 3c b0 08 c5 ba 7e 45 ce 3c
       -0.037706178 0.027085677 -0.0015032496 0.02517962
000010 21 53 0e bd 78 a6 e4 bc a6 ab 03 3e 44 e5 27 bd
       -0.034747247 -0.02791141 0.12858447 -0.04099013
000020 7d 98 6a 3d 53 f7 a5 bc 07 11 8e 3c c8 7a 6d 3d
       0.05727433 -0.020259535 0.017342104 0.05797842
000030 a4 21 d9 3c 4a 4e 64 bd 3d 76 00 bd f2 ab 56 3d
       0.026505299 -0.055738725 -0.03136276 0.052410074
000040 dd 27 91 bc 1b 3f 66 3c f0 5d 23 bd f5 91 64 ba
       -0.017719204 0.014053131 -0.039884508 -0.0008719259
000050 b0 54 b5 bd ec ae 5b 3d c8 1f bd 3d f0 8d bd bc
       -0.088540435 0.053633615 0.092345774 -0.02313897
000060 5e 6d 44 3d 42 39 d1 3d 5c ee c9 bb c8 fe ec 3c
       0.047955863 0.10215999 -0.006162448 0.028930083
000070 6b 8f 37 3d 8e ce 5f 3d 67 6f 22 3d a4 c7 8d 3b
       0.04481451 0.054640345 0.039657023 0.0043267775
000080 16 36 10 3e 76 05 24 3d 59 12 db 3c c0 41 a6 3c
       0.14083132 0.04004427 0.026742147 0.020295024
000090 d7 34 4e 3d 65 34 93 3c c3 c3 97 bd a1 0c 0c 3d
       0.05034336 0.01796932 -0.074103855 0.03419173
0000a0 cc 17 17 3b c1 62 9b bd 5f 6e a8 3d 4f cb 4f 3d
       0.0023054956 -0.07587195 0.082241766 0.050731
0000b0 05 e6 83 3d 20 d5 8e 3c f4 23 02 3d ee 01 67 3d
       0.06440357 0.01743561 0.03177257 0.056398325
0000c0 ba 2b 23 3d d8 68 0e 3d b4 c9 b7 3d 18 fc 77 3c
       0.039836623 0.034767956 0.08974019 0.015135787
0000d0 99 99 2b 3d 76 1c 0f 3e 40 90 86 3d 1c ca b0 bc
       0.04189453 0.139757 0.06570482 -0.021580748
0000e0 62 53 c3 bc 19 9a 87 3c 82 e7 58 3d c0 22 9f 3a
       -0.023843471 0.016552972 0.052955158 0.0012141094
0000f0 56 78 6d 3d f0 88 e8 bc 68 78 67 bb b3 29 b6 bc
       0.05797609 -0.02838561 -0.003531957 -0.02223668
000100 3d 84 d7 3d 70 ed b4 bb d0 f3 ad bb 9c a6 e9 bc
       0.10523269 -0.005521469 -0.0053086057 -0.028521828
000110 d0 01 a1 bc de 62 58 bd 59 d5 55 bd 70 a8 11 3d
       -0.019654185 -0.052828662 -0.052205417 0.035561025
000120 91 01 31 3d 73 60 7b 3d dd 48 cb bc aa 51 25 bd
       0.043214384 0.061371278 -0.024815017 -0.040361084
000130 d5 ca f8 3c 00 af c0 3a eb 76 4c 3c 39 d1 7c bd
       0.030370155 0.0014700592 0.012479524 -0.061722968
000140 da 8d 29 3d 9a 3d d4 3d 7e 82 f5 3c 1a fa 2b 3d
       0.041395046 0.10363312 0.02996945 0.041986562
000150 9c ba 20 bd f9 40 36 3d 96 c2 07 bb 24 6a 1d ba
       -0.039240465 0.044495557 -0.0020715347 -0.0006004891
000160 71 9c bc 3b 13 62 1e bd af 3c 85 bd 24 ce 82 bd
       0.005755954 -0.03866775 -0.06505715 -0.063869745
000170 73 43 98 3c 79 86 83 3d 7d 85 4f bd 11 57 ad bc
       0.01858685 0.06422133 -0.050664414 -0.02115968
000180 84 9c 1e bd 06 e5 43 bd 10 55 db bc 48 57 a2 3c
       -0.038723484 -0.047825836 -0.02677396 0.01981701
000190 f2 14 63 bd 45 9b 51 bd 72 c1 58 3d 44 9a e4 bc
       -0.055439897 -0.051173467 0.05291886 -0.02790559
0001a0 8f 93 4c bc 24 ba 9a 3d 12 0b 74 bd c7 be 49 bd
       -0.012486353 0.07555035 -0.05958087 -0.049254205
0001b0 52 38 bb bc 4c 7a ad bb 72 a7 60 3d aa 8c 09 bd
       -0.022854004 -0.00529412 0.05484719 -0.033581413
0001c0 a3 fe 8e bb 23 0e 19 bc fe d7 33 3d 94 fa f6 3c
       -0.004363851 -0.009341749 0.043907158 0.030148782
0001d0 7a 56 69 bd 13 42 8a 3d 74 9d 7b bd 67 01 62 3d
       -0.056967236 0.06750884 -0.061429456 0.05517712
0001e0 5a de 0f bc 62 9d 0b bd 9e ca 39 3d ae a0 68 bd
       -0.00878104 -0.03408564 0.045359246 -0.05679386
0001f0 b7 69 b5 bb 6a b5 41 3d f9 a1 85 3d 84 70 3c bd
       -0.005536284 0.04729215 0.065250345 -0.04600574
000200 30 a4 84 bc 27 44 b1 3b 58 d8 c4 bc e0 a5 1f bd
       -0.016191572 0.0054097357 -0.024028942 -0.03897655
000210 ea d1 03 bd 86 1b c3 bc a5 ff 82 3d 4e eb 06 3d
       -0.03218261 -0.023816835 0.063964166 0.032939248
000220 24 a1 a8 3d d0 33 48 3d 7d 14 65 bd 29 9e b9 bc
       0.0823386 0.048877537 -0.055927742 -0.022658424
000230 0a e2 51 bd 79 8f d6 3d d4 87 35 3c 47 9b b9 3b
       -0.05124096 0.10476584 0.011079747 0.0056642625
000240 05 c1 bb bc 0c b3 3b 3d 12 ad 86 bb 9e a8 58 bd
       -0.022919187 0.04582505 -0.004109987 -0.05289518
000250 ea 44 9a bb 07 d8 a2 bc f5 ac 80 bd 70 a8 73 bd
       -0.004707922 -0.0198784 -0.06282989 -0.059486806
000260 3c 80 b7 3b 18 91 ec bc 5f 60 67 bc e2 f4 15 3d
       0.0056000035 -0.02887778 -0.014122098 0.03661049
000270 a6 6f 36 bc 5c 07 0d 3d f5 ea 11 bd 20 39 6d bd
       -0.0111350175 0.034430847 -0.035624463 -0.057915807
000280 16 6c 87 bd 80 79 47 3d 26 ee 9d bc f0 50 04 bc
       -0.06612413 0.048699856 -0.019278597 -0.008075938
000290 96 ee 82 3c a9 43 97 3d 3c 8b 9c 3b d1 3d 12 3d
       0.015982907 0.07385952 0.00477734 0.035703484
0002a0 ac 24 9c 3b c0 f7 0f 3d 6f 01 2e bc 45 89 a9 bb
       0.004765114 0.035148382 -0.010620459 -0.0051738345
0002b0 80 35 b7 3a 00 ec 01 bc 1e f2 b6 bc 26 c7 41 3d
       0.0013977736 -0.007929802 -0.022332247 0.047309063
0002c0 5c b1 16 3d 4b 3c 3c 3d c0 ae 35 bd 62 a4 a3 bc
       0.036790237 0.045955937 -0.044356108 -0.019975845
0002d0 29 cb 13 3d 04 f4 ce bc 56 14 11 bc 19 35 89 bc
       0.03608242 -0.02526284 -0.008854946 -0.016748952
0002e0 1a 09 3d 3d 53 89 f8 bd a5 61 5e bd 80 71 7b 3c
       0.046151258 -0.121355675 -0.05429234 0.015346885
0002f0 66 37 5f 3d 80 26 33 ba 50 e4 22 bd 0d 28 13 3c
       0.05449619 -0.0006834045 -0.039768517 0.008981717
000300 e0 43 7c 3d 06 69 e8 bd 3f 23 02 3c 6d d0 57 bd
       0.06158817 -0.11348157 0.007942974 -0.052689005
000310 36 f9 5f bd a3 76 79 b9 bd 2b 80 3c 7c 00 93 bc
       -0.054681025 -0.00023790686 0.015645856 -0.017944567
000320 37 c0 45 3d 38 9f 47 bd e2 91 0e bd c3 b9 91 3d
       0.048279013 -0.048735827 -0.034807093 0.07115509
000330 c2 21 8a bc e9 06 f9 3b c8 c2 3d 3d d8 91 18 bd
       -0.0168618 0.0075997007 0.046328336 -0.037248462
000340 3d 91 30 bd 5f 8f d8 bb f7 e6 3f bc a8 d4 f4 bc
       -0.04310726 -0.006608888 -0.011712781 -0.029886559
000350 18 1e 3e 3d 13 96 69 3d fb a0 76 3d 90 75 8f bc
       0.04641542 0.057027888 0.060212117 -0.017512113
000360 ba 00 52 3d 73 da 25 bd a0 5a 49 3d 92 ce 34 3d
       0.051270224 -0.040491533 0.049158692 0.044142313
000370 b8 e3 20 3c 6c 03 34 3d d1 08 a3 3d 00 21 70 ba
       0.009819917 0.043948576 0.07960666 -0.0009160191
000380 5e c7 67 3d 8a 3a 71 bb 30 ee 81 bc 06 17 fe 3c
       0.056586616 -0.0036808574 -0.015860647 0.031016838
000390 82 f1 26 3b 69 cb 63 bd 5e af dc bc 70 95 43 3d
       0.002547354 -0.05561391 -0.02693909 0.047749937
0003a0 b0 5d 60 3c ac 06 cd 3b 14 b4 1a 3c cb 71 10 3d
       0.013694212 0.006256899 0.009442348 0.03526477
0003b0 3d 81 49 bd 10 f1 f0 3c 0c 55 07 3c 62 48 09 bd
       -0.049195517 0.029411823 0.008260023 -0.033516295
0003c0 a4 30 65 3d 4e 32 92 bd 30 95 a1 bb 47 38 8e bd
       0.05595459 -0.07138501 -0.0049311146 -0.06944328
0003d0 e6 3e 6c b8 5c 3d 22 bd a7 3b 9b ba d0 c7 19 bd
       -5.6325363e-05 -0.039609298 -0.0011843339 -0.03754407
0003e0 9e 94 63 3d 46 ff 3f bc 04 83 c8 bc e4 53 48 bc
       0.055561654 -0.011718577 -0.024476536 -0.012227032
0003f0 88 b3 c9 3c 34 9d 31 3b 74 bb d6 b9 bd ae b4 bb
       0.02462174 0.0027101757 -0.00040956924 -0.0055139945

linear_layer.4.bias f4 [49]
000000 f8 d6 c5 3c a4 93 a5 3d 57 2e 96 3b 72 c4 71 3d
       0.024150357 0.08084801 0.004583161 0.059025235
000010 81 6c 63 bd 5d 05 da bc 07 42 54 bb 20 73 6d bc
       -0.0555234 -0.026613886 -0.0032387988 -0.01449278
000020 e0 b8 33 3c 99 d1 ba bc e9 51 18 bc 42 41 ef 3c
       0.010969371 -0.022805022 -0.009296873 0.029205922
000030 b3 04 00 bd d2 9a 8d 3d 7a 0d 92 3d 7f 1a b1 3c
       -0.03125448 0.06914295 0.07131477 0.02161908
000040 fc ac 65 3d 5a fc 33 3c 56 6e f0 bc 19 7c bb 3c
       0.056073174 0.010985458 -0.029349487 0.022886323
000050 0b 22 6a 3d b6 08 85 3d a2 27 1b bd 92 43 eb bc
       0.057161372 0.06495802 -0.037879594 -0.028718743
000060 64 7e 1c bd 9f bc 6f bc 45 7a 97 3c b2 b0 58 bd
       -0.038206473 -0.014632373 0.01849092 -0.052902885
000070 31 24 82 3d 14 07 40 bd 1a 12 1f 3c d0 74 69 3d
       0.06354559 -0.04688175 0.009708906 0.056996167
000080 2d cf 37 3d aa 7b 80 3d 42 35 30 3c 81 0f fd bc
       0.044875313 0.06273587 0.010754885 -0.030891182
000090 61 72 b4 3a a3 17 d6 bc f1 7f 46 3d 77 38 cf bc
       0.0013766998 -0.026134318 0.04846186 -0.02529548
0000a0 04 07 62 3d 1d 9b 8a 3c 3b 7d ce bc 4e 2e a3 bc
       0.055182472 0.016919667 -0.025206199 -0.01991954
0000b0 e6 7e 9c 3d e4 c2 b6 bc d3 a7 27 bd e4 02 f1 3c
       0.076413915 -0.022309728 -0.040931534 0.029420324
0000c0 26 7e 92 3d
       0.07152967
