data/Apr-13_05-51-52/models/actor_2050.pth (torch, 323799 bytes, 6 tensors)

linear_layer.0.weight f4 [256, 7]
000000 f9 b7 58 3e bc 1a 3a be a6 0e a1 bd f7 5d 3d 3e
       0.2116393 -0.18174261 -0.07864122 0.18492876
000010 17 a0 d0 be f2 e9 9a 3e 34 8e 29 3d 35 60 fb 3d
       -0.4074714 0.3025661 0.04139538 0.122742094
000020 e4 4a 39 bc f8 e5 e3 bd 91 71 a2 3d 2f 8f ee 3d
       -0.011309359 -0.111278474 0.07931817 0.11648404
000030 63 56 f7 3d 3f 46 80 be da 7f b5 bc 73 63 e2 bb
       0.12077024 -0.25053594 -0.022155691 -0.006908828
000040 dd 78 a5 3d f3 1f 69 bc b7 5d 26 3f 17 9b 19 3e
       0.080796935 -0.014228809 0.6498675 0.15000568
000050 40 bf c0 be 2a c1 69 be 18 bf 81 bd b8 f1 26 be
       -0.37645912 -0.22827592 -0.06335276 -0.16303146
000060 cb 0c f8 bd 4d 41 94 3c 01 b9 66 3e 38 5e 52 3e
       -0.12111815 0.018097544 0.22531511 0.20543754
000070 1f 6e c5 be 9e c7 6e 3e a9 71 cc 3d 37 7b a6 3e
       -0.38560578 0.23318335 0.099826165 0.3251588
000080 3a 2f 11 3f a3 94 d6 be 5c 03 0e bf e9 5d 60 be
       0.56712687 -0.41910276 -0.55473876 -0.21910824
000090 23 59 97 3e 53 f0 97 bd dc cd 05 3e e9 92 17 be
       0.29560193 -0.07418885 0.1306681 -0.14802136
0000a0 e2 1d e9 3e 32 bd 81 be ee 39 88 3e 0f 19 c1 bc
       0.4553061 -0.25339657 0.26606697 -0.02357152
0000b0 dd fe 63 be fe 50 53 3e 9a 3a c3 be 69 74 28 3e
       -0.22265191 0.20636365 -0.38130647 0.16450657
0000c0 cb 2d 49 3d cc ba 29 bd b4 0b ba be 11 88 38 be
       0.049115937 -0.04143791 -0.36337054 -0.18020655
0000d0 c9 04 52 3e bd 28 bc bd da c0 c0 3e 23 1f 9b 3e
       0.20509638 -0.09187458 0.37647134 0.30297193
0000e0 c2 bf c3 bc 80 44 80 be b6 64 83 3e 47 f9 11 3e
       -0.023895148 -0.2505226 0.25662774 0.14255248
0000f0 89 db e7 be f3 1b c8 3e 55 ab 87 3e 1a d6 c7 3e
       -0.4528468 0.39083824 0.26497903 0.39030534
000100 8e f1 2d be c2 2e 0e bd df 38 59 3d 07 59 61 3c
       -0.16986677 -0.03471256 0.053032752 0.013754136
000110 bd 89 95 be 29 92 5c be 76 40 41 3e 5d 4b e4 bd
       -0.29206648 -0.2154013 0.18872246 -0.11147187
000120 52 72 1e 3e 93 53 8a 3c b2 26 30 be 47 61 68 3c
       0.15473297 0.016885554 -0.17202261 0.014183349
000130 b4 aa b2 3e 8a ae 40 3e 78 da b2 be 6b 75 43 3e
       0.3489586 0.18816581 -0.34932303 0.1908776
000140 07 4b 88 be c4 4e 92 be 0a 5a b7 3c 40 35 83 bd
       -0.2661974 -0.28575718 0.022381801 -0.06406641
000150 57 83 7a 3e a4 f2 37 be ab e9 9b be 51 a5 a6 3e
       0.24464165 -0.17963654 -0.30451712 0.32548
000160 61 9f 83 be 96 4a 80 3e 19 9d 54 3e 3e 1d 91 be
       -0.25707534 0.25056905 0.20763053 -0.28342623
000170 74 82 9b 3d e4 ed b9 3d 4f 92 81 be 3e a3 37 be
       0.07593241 0.09078577 -0.25306937 -0.17933366
000180 3f f8 03 3e 54 a7 8a 3d 01 ab 1b be 68 11 b5 bd
       0.12887667 0.067701966 -0.15201952 -0.088412106
000190 ec 11 c1 3e 02 8c a1 bd 60 20 f9 3e 24 eb 4e 3e
       0.37708986 -0.078880325 0.48657513 0.20206887
0001a0 5c 44 f1 be cf 05 bc be 2b b4 93 3e fe 0d 22 bd
       -0.47122467 -0.36723182 0.28848395 -0.039564125
0001b0 5f 2c 4e 3e 71 ea bc 3b 91 03 df 3d f0 b8 b7 3e
       0.20134114 0.0057652523 0.10889352 0.35883284
0001c0 e7 bf b6 3e 79 b7 68 be 4f 38 9d 3d 4b 4d 8c 3e
       0.35693285 -0.2272624 0.07676756 0.2740272
0001d0 97 d1 d0 3e 22 33 95 3e 92 dd e8 be 8f ae 95 be
       0.40784904 0.29140574 -0.45481545 -0.2923474
0001e0 9b f0 7e be 47 ea e5 3c e9 72 b6 3e 16 2e 62 be
       -0.24896471 0.028065814 0.35634544 -0.22087893
0001f0 e2 f2 3c 3e 2d 69 45 be a0 76 c2 be 72 a4 cf bd
       0.18452027 -0.19278403 -0.3798113 -0.10138787
000200 ab 2d 52 3e 0d 9b b6 3e 8f 41 a5 be 7f 18 3f 3e
       0.20525233 0.3566517 -0.3227658 0.18661688
000210 9c cd 8d 3e 6b de 4b 3e 3a 4d 39 3e 8a 88 41 3e
       0.2769593 0.19909064 0.18095866 0.18899742
000220 69 21 4f 3e 3f cb 8d 3e e8 fb c5 be ba ec db be
       0.20227589 0.27694127 -0.38668752 -0.42954046
000230 13 4b 32 be 57 e5 35 bd d0 b4 6c be 6f b1 0c 3e
       -0.17411451 -0.04440817 -0.2311585 0.1373956
000240 46 cf f1 3d 21 70 b0 bd ac af 15 3e 33 24 b5 3d
       0.118071124 -0.08615137 0.14617795 0.08844795
000250 3f b5 5d 3e fa 3d 6e 3e 19 6c 34 be 3b e0 21 3f
       0.21651171 0.2326583 -0.17619361 0.63232774
000260 55 d8 dd bd 05 87 71 be 59 a8 b6 be 36 1a 79 be
       -0.10832278 -0.23586662 -0.35675314 -0.24326405
000270 89 1b 62 be 44 8b 25 be d4 95 89 3e a9 f3 fc bd
       -0.22080816 -0.16166407 0.26872122 -0.12351162
000280 ba 9c 90 be 5e 5b f2 3d ba d1 c0 3d 11 97 49 3e
       -0.28244573 0.11833833 0.09415002 0.19686534
000290 a7 96 6b be 9a 52 a8 3b 41 e5 66 be 88 9b 6e bc
       -0.23006688 0.0051368 -0.22548391 -0.014563449
0002a0 c8 37 9a be 4e 65 30 be b7 10 ed bd 96 82 25 3e
       -0.30120683 -0.17226145 -0.11575454 0.16163096
0002b0 25 6a 8d 3d 54 35 bf 3d b0 26 c1 3e e2 15 ac 3e
       0.06905011 0.093363434 0.3772483 0.33610445
0002c0 7f 3f 6f 3e cf 38 00 bd f2 98 9b be d8 b6 da 3e
       0.23364066 -0.031304177 -0.30390126 0.42717624
0002d0 f9 b8 4d be 46 a4 22 be 10 e9 a1 be 38 39 84 bd
       -0.20090093 -0.15882978 -0.31623125 -0.06456226
0002e0 51 4e 63 be cb 83 b7 3e a0 63 a2 be c6 9c a5 be
       -0.22197844 0.35842738 -0.31716633 -0.3234617
0002f0 6c 3d cf bd cd 6a 61 be 40 78 f4 3d 38 5e 25 be
       -0.10119137 -0.22013398 0.11936998 -0.16149223
000300 ba d1 44 be 68 6b 6f 3d f8 44 86 3e c2 a5 93 be
       -0.1922063 0.05845204 0.26224494 -0.288374
000310 05 18 1f 3e c4 53 6e 3e 38 a0 b1 3e bf 4c 99 be
       0.15536506 0.23274142 0.3469255 -0.29941365
000320 8e 75 94 3e 3d 48 cb be 68 64 35 3e 6e 87 30 be
       0.28995937 -0.3970355 0.17714083 -0.17239162
000330 19 8c 57 3e b9 37 9e 39 02 0f 9a bd f2 73 56 3e
       0.21049537 0.00030177625 -0.07522394 0.20942667
000340 8f 2c 64 3c 66 1f 38 bd 92 bd 0a 3d d1 13 94 3d
       0.013926639 -0.04495182 0.033872195 0.07230342
000350 88 c1 b9 be 31 d8 88 3e ed 8b b4 3e 45 0a c7 3e
       -0.36280465 0.2672744 0.35263005 0.38875023
000360 96 ac 87 3e 8c 12 87 be 9b 51 03 be f7 2d b1 3e
       0.2649886 -0.26381338 -0.12824099 0.3460538
000370 c9 c3 8c be 62 dd b3 3e 41 00 92 be 91 49 7f be
       -0.27493122 0.3512984 -0.2851582 -0.24930407
000380 2a 55 31 3e 56 72 8d be ac 11 90 bd 87 c6 98 3e
       0.17317644 -0.27626294 -0.07034621 0.29838964
000390 f2 08 c5 3d b8 16 fc 3e bf 5a 24 bd a9 b1 90 be
       0.09620847 0.49236083 -0.040125605 -0.28260544
0003a0 19 f6 ca 3e c6 f0 a2 bd 9d b7 22 be 5f ef 8f 3e
       0.39640883 -0.0795608 -0.15890355 0.28112313
0003b0 73 03 bb be 8c 5f 25 3e 60 91 72 3e 81 8d 99 be
       -0.3652607 0.1614973 0.23688269 -0.2999077
0003c0 3f f3 9e be 9a 9c 07 bd 98 90 22 3e 9d 59 33 bc
       -0.31044957 -0.03310833 0.1587547 -0.010946658
0003d0 d0 41 44 be c5 93 0d 3c c4 e4 b5 be 56 c5 88 be
       -0.1916573 0.008641188 -0.35526097 -0.26713055
0003e0 9f d2 80 be 27 5e 9f 3e 4b 96 aa 3e 8f 76 03 be
       -0.2516069 0.3112652 0.3331779 -0.12838195
0003f0 eb e5 9c bc b8 b4 17 3e 54 4e f6 3c 27 37 7b be
       -0.019152602 0.14815032 0.030066647 -0.24532758

linear_layer.0.bias f4 [256]
000000 1b 33 4f be 22 8b 8a 3e 33 90 6f 3d ea 2e 4b 3e
       -0.20234339 0.27059275 0.05848713 0.19842115
000010 c4 24 91 3d e9 64 98 3d a5 fd 7d 3e 03 2d 9b bc
       0.070870906 0.07441122 0.24803789 -0.018942362
000020 64 e6 a6 3e 9d 59 06 3e 45 f7 81 be 65 8d 7e 3e
       0.3259765 0.13120122 -0.25383964 0.24858625
000030 56 3d 56 be cd 82 49 3e 75 2d b6 bc 67 fe 62 3d
       -0.20921835 0.19678803 -0.022238472 0.0554184
000040 44 ab 8c 3c 8d 9b 5e 3d 20 65 bf bd ef ac 66 3d
       0.01717151 0.054347564 -0.0934546 0.056317266
000050 75 e9 33 3e 66 e2 ba be ac 9e aa 3e 42 f2 c5 be
       0.17569526 -0.36500853 0.33324182 -0.3866139
000060 1f c0 2c be 48 f7 b1 3d fe b4 b8 3e 2a 2e db 3d
       -0.16870163 0.08689743 0.36075586 0.107021645
000070 0c a9 81 be cc cb 81 3d a4 07 71 be ca 12 41 3e
       -0.25324285 0.06337699 -0.23538071 0.18854824
000080 70 a6 97 3d 4e 72 6f 3c 60 71 94 be 0f 8f 4e 3e
       0.07404792 0.014614655 -0.28992748 0.2017176
000090 52 fd bd 3e d6 fb 87 be 49 01 54 3e 63 b2 1f be
       0.3710733 -0.26559323 0.20703615 -0.15595393
0000a0 62 08 e5 bd 5a 36 9a 3e 0d c9 b1 be 04 bb a7 bd
       -0.111832395 0.30119592 -0.34723702 -0.08189967
0000b0 31 d1 a0 3d bc 2f 0b 3e a8 a0 15 be 24 7f 84 be
       0.078524 0.13592428 -0.14612067 -0.2587825
0000c0 55 10 9c 3d 46 03 9a be 7c 2b 12 3d 23 2c 78 be
       0.076203026 -0.30080622 0.035686 -0.24235587
0000d0 0d fc 88 bd 6b 07 94 3e b0 d4 84 be ef 46 96 be
       -0.066887 0.2891191 -0.25943518 -0.29350993
0000e0 d4 9a 80 be c9 dd 58 3e 01 ee 98 3e 35 3f 50 be
       -0.25118124 0.21178354 0.29869083 -0.20336612
0000f0 d3 23 5b 3e 70 eb 77 3e 4e 94 65 be 16 41 22 3e
       0.21400385 0.24210906 -0.22419855 0.15845141
000100 b6 44 39 3e 90 56 50 3a c5 48 40 3e 27 78 e0 3c
       0.18092617 0.0007947469 0.1877776 0.027401043
000110 2f 8f 89 bd 13 f5 50 3e ff 28 97 be 98 11 be be
       -0.06716763 0.20405988 -0.29523465 -0.37122798
000120 34 cf 8f 3d 57 53 8f 3d fe e3 b0 3c 28 ef 45 be
       0.07021943 0.06998318 0.02159309 -0.19329512
000130 2f bc a7 3e 76 77 92 be 54 c0 5f be f0 54 a3 be
       0.3276076 -0.28606766 -0.21850711 -0.3190074
000140 d3 bb c0 be dd 26 77 3d 84 f7 1b be a3 10 3b 3e
       -0.37643299 0.060339797 -0.15231138 0.18268065
000150 9d 67 b8 3e 7d 0d 06 3e 84 a8 a8 3e fb bb 93 be
       0.3601655 0.13091083 0.32941067 -0.28854355
000160 96 46 0f 3e 64 ac 32 3e 71 71 0e be 03 c4 db bc
       0.1399177 0.17448574 -0.13910462 -0.026826864
000170 43 31 8a be 6f 1b 15 3d da f6 b9 be 03 e5 6a be
       -0.2699071 0.036403116 -0.36321145 -0.22938924
000180 a1 b0 8e be c2 5c 56 bd 0c cb 1d 3d 74 40 9d be
       -0.27869132 -0.052334554 0.03852372 -0.30713236
000190 ce 34 0e be b7 fe 43 3e 8b 78 cf 3c d7 23 93 3c
       -0.13887331 0.19140135 0.025326034 0.017961426
0001a0 fa 9e 4a be 45 c6 2d be 63 b3 bd be 8a d9 84 3e
       -0.19787207 -0.16970165 -0.37050924 0.2594722
0001b0 b3 43 12 bc 08 44 32 3e fa cb 61 3e 06 ac a9 3e
       -0.008927274 0.17408764 0.22050467 0.33139056
0001c0 f8 7b 85 be 01 ed ad 3d 54 04 79 be 56 ef 1f 3e
       -0.26071143 0.084924705 -0.24318057 0.15618643
0001d0 78 de 42 be 37 6f ad 3d fd 7a 8e be 43 97 4c 3e
       -0.19030178 0.08468478 -0.27828208 0.19979577
0001e0 25 e0 8d 3e 83 ef 53 3e e9 ca a3 be 67 f5 5e 3e
       0.2771007 0.20696835 -0.31990746 0.21773301
0001f0 b0 69 9d be 96 ff b4 be 59 1e 5b 3e 9c c6 2e bd
       -0.30744696 -0.35351247 0.21398295 -0.042669877
000200 e5 4c 54 be 6a 6c 99 be 41 16 5c 3c d9 9f f0 bd
       -0.20732458 -0.29965526 0.01343304 -0.117492385
000210 73 20 6a be b0 9c 63 bd ef 9e ba be 16 ab 3e 3e
       -0.22863941 -0.05556935 -0.36449382 0.18619952
000220 a6 a0 8a be 76 bd 03 be d1 e7 bc be 39 65 6a bd
       -0.2707569 -0.12865242 -0.36895612 -0.05722544
000230 ea 35 44 be 4d 90 55 3e 29 75 c2 bd f7 45 82 3e
       -0.19161192 0.20855828 -0.09495003 0.25444004
000240 18 b9 d1 3e 43 4a 97 3d 24 a7 04 be 6c e1 a7 be
       0.40961528 0.07387211 -0.12954384 -0.3278917
000250 32 1f 91 be 59 2d 59 be 8d 6b 84 be 97 29 3f 3e
       -0.28344113 -0.21208705 -0.25863305 0.18668209
000260 5c e9 f9 bd 6a 8c 4c bc 04 98 2a 3d e4 36 a7 be
       -0.12202713 -0.012484649 0.04164888 -0.32659066
000270 a3 b2 a0 3e b3 4e 29 be 0a 88 b3 be c6 cd 24 bc
       0.3138629 -0.16533928 -0.35064727 -0.010058826
000280 1e c3 cd be e0 6c 80 3d f3 b6 5d be f9 fd 2e be
       -0.40187925 0.06270766 -0.21651821 -0.1708907
000290 8a ab e3 bd 13 77 68 3e 83 57 95 3e b9 12 c8 3e
       -0.11116703 0.22701673 0.2916833 0.39076784
0002a0 01 d2 77 3c 8f 2f 77 3e b6 8c b5 be a3 f6 5a be
       0.015125752 0.24139236 -0.35458916 -0.21383147
0002b0 e5 4a 50 3e 24 06 15 3e b5 3e d6 3d 25 3f 5d 3e
       0.2034107 0.14553124 0.10461179 0.21606119
0002c0 96 2d 6e 3e 92 77 3b 3e 13 6b 3a be e4 6a bc bd
       0.23259577 0.18307331 -0.18204908 -0.09200075
0002d0 1b 06 a3 3d d0 c9 a5 3e 3d 9e ea bc ed eb e6 bd
       0.07960149 0.32380533 -0.028639907 -0.11275468
0002e0 67 3e 4e 3e 2a 1a 9d 3e ff cc 4d bd 95 fe dd bd
       0.20140992 0.30684024 -0.050244328 -0.10839573
0002f0 1a 54 d6 be 6c ad 0b 3d 16 5f 3a 3e b9 12 8e be
       -0.4186104 0.034100935 0.18200335 -0.2774866
000300 de ac 8f be cd 77 c1 be e0 49 91 3e a8 b7 94 3e
       -0.28061575 -0.37786713 0.28376675 0.2904637
000310 39 49 c7 3e 26 a3 9c 3e 83 b1 d6 bd d6 e1 8a 3e
       0.38923052 0.30593222 -0.104830764 0.27125424
000320 79 15 65 3e 25 06 e0 bd 9c fc 5e be 6e 7e a6 3e
       0.22371472 -0.10938672 -0.2177605 0.32518333
000330 fe a0 a9 bd fa 12 c5 3d f1 03 37 be f6 20 5b be
       -0.0828266 0.0962276 -0.17872597 -0.21399292
000340 90 6e 8f bd 82 ca 4c 3c fb 51 8a 3e 68 6c 7b 3e
       -0.0700351 0.0124994535 0.2701567 0.24553072
000350 de 84 42 bd 5d fd 8d 3e 5d 0b 4e be 8b 05 d5 3c
       -0.047489993 0.27732363 -0.20121522 0.02600362
000360 f0 d2 65 be c0 9b 76 3d 54 d7 a7 3e 8a 2f 79 be
       -0.22443748 0.06020713 0.3278147 -0.24334541
000370 20 23 ee 3d e8 73 a8 be 42 fe d7 bc 04 60 18 be
       0.11627793 -0.3290093 -0.026366357 -0.14880377
000380 3d ba 45 bb af 2f 98 be c9 02 cc 3d cf e9 da be
       -0.003017082 -0.2972388 0.09961469 -0.42756507
000390 73 0e 67 3d 17 0e 4d be 90 5f 60 be 9a 64 9a 3e
       0.056410264 -0.20024906 -0.21911454 0.30154878
0003a0 8e be cb 3d 56 19 80 be 2f 6d 61 be 3e af 2c be
       0.09948455 -0.2501933 -0.22014306 -0.16863725
0003b0 f8 2c 92 be 57 86 d2 3d 4f fe 8a 3b 52 8e b0 3e
       -0.28549933 0.102795295 0.0042417417 0.34483582
0003c0 eb f6 0a bc a3 6b 0d be 3d 66 a6 3e eb ee b6 3d
       -0.008481721 -0.13810591 0.32499877 0.08932289
0003d0 35 2f 99 bd 02 af 8b 3e 30 0f b7 3e d3 57 a4 be
       -0.07479707 0.27281958 0.35753775 -0.32098255
0003e0 9a bb a0 be 55 8c 85 be 51 34 c0 be 7c e5 e3 bd
       -0.3139313 -0.26083627 -0.37539914 -0.11127755
0003f0 1c ae 0d 3e 0e c7 aa be c3 8f ca be 96 a2 a6 be
       0.13835949 -0.33354992 -0.39562806 -0.32545918

linear_layer.2.weight f4 [256, 256]
000000 5d b1 35 bb a1 28 05 3d f0 59 5d 3d 3e 51 7e 3d
       -0.0027724125 0.03250945 0.05404085 0.062089197
000010 df c2 a3 bc d2 37 72 bd ef 21 6f 3d 1e 15 2c bd
       -0.019990383 -0.059135266 0.05838197 -0.042012326
000020 65 3d 7d 3d c8 92 c7 3a 60 90 0c 3c 6e a2 b8 3c
       0.06182613 0.0015226239 0.008579344 0.02253839
000030 58 05 38 bd c4 85 ac bc d5 3a 43 bd be 93 02 3d
       -0.04492697 -0.021059878 -0.04766353 0.03187918
000040 93 e0 fd bc 51 78 82 b9 93 0a 1a 3d 8c 36 f7 3c
       -0.030990874 -0.00024885175 0.03760774 0.030177377
000050 a3 b7 2e bd 89 44 95 bd 42 9e 4a 3d 74 b2 0e bc
       -0.0426556 -0.07288463 0.049467333 -0.008709539
000060 3a 45 44 bd 30 17 f4 3c dd da 6d bd 06 c0 97 3d
       -0.047917582 0.029796213 -0.058070052 0.074096724
000070 86 44 94 3c 7b 7b e3 3c c0 84 97 3a 3f 53 31 3c
       0.01809908 0.027768841 0.0011559948 0.01082307
000080 38 ed b1 3c 22 2e ef bc 00 2c 6c 3b 5c 91 3d 3d
       0.02171956 -0.029196803 0.0036036968 0.046281204
000090 4f 9f 20 bd 64 0a 23 3d f6 2f 29 3d 9d 94 b1 bc
       -0.03921443 0.03980483 0.041305505 -0.02167731
0000a0 ee af e5 ba 27 99 58 bd 28 94 0a bd 69 10 3f bd
       -0.0017523745 -0.052880432 -0.0338327 -0.04664651
0000b0 d3 65 78 bd e0 a7 7d 3d ad aa cd bc ec 03 08 bd
       -0.060643982 0.061927676 -0.025105799 -0.033206865
0000c0 d0 16 33 3d c8 40 c3 bb a2 5a 16 bd 41 df 08 bd
       0.043722928 -0.0059586503 -0.036707528 -0.033416037
0000d0 d8 dd 60 bc db 1b 50 3c c2 a8 4b 3d 59 e0 0a 3d
       -0.013724767 0.012701954 0.049721487 0.03390536
0000e0 30 d1 31 bd ba fc ba bc f3 17 26 3c 71 79 d8 bd
       -0.043412387 -0.022825588 0.010137546 -0.10570038
0000f0 90 0a 05 3d 60 af e3 bb b3 63 79 3d 80 eb 9a bd
       0.032480776 -0.0069483966 0.060886096 -0.07564449
000100 41 db 98 3d 4e c6 ab bd cd d9 84 bc d8 04 4a 3d
       0.07463694 -0.08387433 -0.016217137 0.049321026
000110 86 98 cc 3c 57 b9 bb bc 94 85 33 bc 38 37 49 bd
       0.024975073 -0.022915525 -0.0109571405 -0.049124926
000120 80 1e ae 3b 7a e0 5e bc b0 00 1f 3d ea bf 30 3d
       0.0053136945 -0.013603324 0.038819015 0.043151774
000130 39 9b 54 bd 33 89 67 bd 6f a1 d3 3a 8c 17 b8 bc
       -0.051905844 -0.056527328 0.0016146133 -0.022472166
000140 68 57 d0 bc 19 f9 ce bd 64 0b 7b bd a1 11 52 bd
       -0.025432304 -0.10106105 -0.06129016 -0.051286343
000150 80 b0 92 bb bd 42 80 bb fa e2 1a bc 08 31 db bc
       -0.004476607 -0.003914206 -0.0094535295 -0.026756778
000160 85 0c f0 bc fe c3 a7 bd d0 5f 38 3c 58 51 3b bd
       -0.029302845 -0.081916794 0.011253312 -0.045731872
000170 98 7e 3e bc c8 6e cb 3c af 65 ad ba 66 a5 87 bd
       -0.011626862 0.024833098 -0.0013229157 -0.06623344
000180 f5 4d ae bd 3b 0c ae 3c 00 72 e9 3a 3b 41 70 3d
       -0.08510963 0.021246066 0.0017810464 0.05865596
000190 9c e0 ee 3c 4b f1 7e 3c b6 47 1e 3c 17 0a 5c bc
       0.029159836 0.015560458 0.009660652 -0.01343014
0001a0 bf 05 4c bd c7 e7 9c bc 82 ed 78 3d 0f fe a9 3c
       -0.049810167 -0.019153489 0.06077338 0.020751027
0001b0 26 7b 00 3d 84 14 70 3d 9f 1d 5c 3d 5a b0 0f bd
       0.031367444 0.058613315 0.053739186 -0.03508029
0001c0 0e 6b 0b bd 99 36 de bb f6 7d ef bb 90 5a 7f bd
       -0.034037642 -0.006781411 -0.007308717 -0.062342227
0001d0 71 ff 44 bc 00 cd 0d 3d e0 b6 89 bb 0e 91 5f 3d
       -0.012023793 0.03461933 -0.0042027086 0.054581694
0001e0 d0 e2 48 bd 5d 49 7f bd c1 34 7c 3c 9a e1 48 3c
       -0.04904443 -0.062325824 0.015393437 0.012260819
0001f0 43 e1 23 bd 98 8d 01 bd 74 c7 b5 3a a6 31 47 bc
       -0.04000975 -0.031629175 0.0013868646 -0.012157833
000200 46 c8 f4 bc 26 50 84 bb 07 72 0f bd 70 a9 0b 3d
       -0.029880654 -0.0040378748 -0.035020854 0.034097135
000210 ef 00 bb 3d 8e b6 1d bd 57 b8 b1 3c 64 53 1d 3d
       0.091310374 -0.038504176 0.021694345 0.038409606
000220 c3 5d 58 bc 78 f5 48 bd 64 35 6d bc 69 43 a6 bc
       -0.013205948 -0.049062222 -0.014478061 -0.020295816
000230 1d b6 03 bd 08 46 3d bc 64 db 59 bc 68 5c 6e bc
       -0.0321561 -0.011552341 -0.013296936 -0.014548399
000240 0e b5 23 bd bb e1 5e bd 2e 6d 56 bd 43 f5 6b bd
       -0.03996759 -0.054414492 -0.052350216 -0.057606947
000250 3f b0 e0 3c 1c 4e a5 3c b8 e7 56 3d b9 fc 2c 3c
       0.02742779 0.020178847 0.052467078 0.010558301
000260 20 98 d2 bc cf 94 25 bd a8 a9 ba 3c 16 b6 1a bd
       -0.025707304 -0.040425118 0.022785977 -0.037771307
000270 86 66 46 3d 18 10 cd bd e7 a1 93 bd ea e4 a2 bd
       0.048437618 -0.10012835 -0.07208615 -0.07953818
000280 5d d5 0c 3d 73 e6 e9 bb 62 14 90 3c a6 4b 95 bc
       0.034383167 -0.0071380674 0.017587844 -0.018224549
000290 00 80 5b 3d 48 de ed bc dc de 5d 3d b9 84 15 bd
       0.053588867 -0.029036656 0.054167613 -0.036503527
0002a0 c7 e2 96 bb d6 87 40 3d 6a cd 70 bd d5 01 17 3e
       -0.0046046707 0.047004543 -0.058789648 0.14746793
0002b0 96 ac 27 bd c2 a2 d8 3d c0 25 41 bb b8 2f 85 3c
       -0.040936075 0.105779186 -0.0029471964 0.016258106
0002c0 31 4e 30 3c e4 5d 4f bd 15 0b 89 3b 1e de e4 3b
       0.01076083 -0.05062665 0.0041822293 0.0069844862
0002d0 80 fa e3 bb 27 58 56 bd 4a 5d 7d 3d 9b 31 b5 bc
       -0.006957352 -0.052330162 0.061856546 -0.02211838
0002e0 4e de 4c bd 16 be 98 3d 99 d7 2d bd ee c9 24 3d
       -0.050016694 0.07458131 -0.042441938 0.040231638
0002f0 cb 93 b5 bc 5a 73 84 bd 4c cf da bb f4 2b 0b bd
       -0.0221652 -0.06467314 -0.0066775437 -0.033977464
000300 3c 3f a0 3c b8 7c 71 3d 22 14 1e bc 95 fd 0e bd
       0.019561402 0.05895683 -0.009648355 -0.034909803
000310 e2 8e da bc 7e e1 80 bd a2 6e 0d 3d 26 6e 96 bd
       -0.02667946 -0.06293009 0.034529336 -0.07345228
000320 a4 95 4a bd bd 8b 22 bd 86 43 1f 3d aa 1f 3e 3c
       -0.049459115 -0.039684046 0.038882755 0.011604229
000330 e5 6b 97 3c cd 79 82 bc 14 94 3e bc eb 4a 0a 3c
       0.018484065 -0.01592722 -0.011631984 0.008440713
000340 80 6a 20 ba 88 d4 a4 bc 53 68 25 bd d8 e5 11 bd
       -0.00061193854 -0.020120874 -0.040382694 -0.035619587
000350 98 40 31 bd 9d 83 c5 bc ce 7d 36 bd 56 fd 31 bc
       -0.043274492 -0.02411061 -0.04455357 -0.010863623
000360 15 2d 1e bb b9 d7 73 3d ee 12 35 bb d9 41 ee 3c
       -0.0024135758 0.0595319 -0.0027629691 0.029084133
000370 51 c5 95 bd a5 98 98 bd 49 37 73 bc e3 94 a0 bd
       -0.07313026 -0.0745099 -0.014844724 -0.07840898
000380 99 e8 65 3c 4b 4a 21 3d 3d 43 08 bd 2b 86 35 bd
       0.014032506 0.039377492 -0.03326725 -0.044317406
000390 3a 0c 14 bd 2b da 3e 3d 9f 18 66 bc 43 d1 43 bd
       -0.036144473 0.04659478 -0.014043956 -0.04780699
0003a0 b4 15 ad 3d 60 40 50 3b d5 e8 37 bd 40 4f de bb
       0.08451405 0.0031776652 -0.04489978 -0.0067843497
0003b0 9e 07 9d bd 4a 27 78 3d ec c6 26 bd 70 55 a1 3c
       -0.076674685 0.060584344 -0.04071705 0.01969406
0003c0 98 dc 3e 3d c5 43 1d bd 88 77 c8 bc 76 38 1b bc
       0.046597093 -0.03839471 -0.02447106 -0.009473911
0003d0 bc 38 2c bc eb 58 d4 3c 71 5d 2d bd d5 a1 1b 3c
       -0.010511573 0.025921306 -0.04232544 0.009499033
0003e0 10 15 99 bc af 35 ef 3c c4 41 0e 3d 46 05 63 bd
       -0.018686801 0.029200403 0.034730688 -0.05542495
0003f0 70 e6 07 3d 04 5e c9 bc ff 2e 38 3d 06 0c 7e bd
       0.033178747 -0.024580963 0.044966694 -0.062023185

linear_layer.2.bias f4 [256]
000000 03 5c a4 bc 84 40 cc bc b5 02 43 3c 60 bf 80 bc
       -0.020063406 -0.024933107 0.011902501 -0.015716255
000010 f0 9e 3a 3c d0 75 17 bd 3e d3 12 bd 00 4b da 3c
       0.011390433 -0.03697759 -0.035845987 0.02664709
000020 80 44 64 3d 2a c0 64 bd 94 26 11 3d 3d 06 9b 3b
       0.05572939 -0.055847324 0.03543718 0.0047309683
000030 20 c7 e1 3b ed 07 58 bb 27 ac 43 bb ec ed 7c bc
       0.0068901926 -0.0032963709 -0.002985725 -0.015437584
000040 eb 9e 38 bc 0e cc 90 bd dc 08 92 3c 8d ef 39 3d
       -0.011268358 -0.0707017 0.01782649 0.04539447
000050 a2 ef 4f bc 12 ba 7a 3d 09 8a b6 3c 94 41 28 bd
       -0.01269141 0.061212607 0.022282617 -0.041078165
000060 e2 72 07 ba bf e3 61 bd 85 f9 0a 3d 70 a1 c9 bc
       -0.000516696 -0.055148836 0.033929367 -0.024613112
000070 65 ce 72 bd 8b 02 05 3d c7 f9 a8 3b 0d 6c 9d 3c
       -0.059278864 0.03247313 0.005156729 0.019216562
000080 fc 6d 9d bd ae 26 74 bc d6 7f 0c 3c 16 51 67 bd
       -0.076869935 -0.0149018 0.0085754 -0.056473814
000090 55 cc 2d 3d a2 2a 1d 3d b4 a5 b2 bc f8 09 40 bd
       0.042431194 0.038370736 -0.021807529 -0.046884507
0000a0 62 16 66 3d ec 58 f2 bc 00 2c 98 bd 49 8d eb bc
       0.05617369 -0.029583417 -0.07430267 -0.028753893
0000b0 06 c9 72 bd 6c 22 4f bc 31 ff 2e bd a8 a2 4a bd
       -0.059273742 -0.012642484 -0.04272384 -0.049471527
0000c0 64 00 1d bd b8 ed 75 3c 10 e1 21 3c 4e 93 6d bd
       -0.03833045 0.01501029 0.009880319 -0.05800181
0000d0 09 c6 7a bd 8b e3 5b bd 55 73 59 bd 70 85 b1 3c
       -0.061224017 -0.0536838 -0.053088505 0.021670073
0000e0 df 04 36 3c 25 e1 b2 bd 67 ce bd bb ba 88 42 3d
       0.01110956 -0.08734349 -0.0057924273 0.047493674
0000f0 10 06 02 3d 13 ca 61 bd 12 bb 5c bc 21 52 1e 3c
       0.031744063 -0.055124354 -0.013472335 0.009663136
000100 02 45 cf 3c 4a 12 73 3d 40 0e b7 3b a4 c0 92 bc
       0.02530146 0.059343614 0.0055864155 -0.017914124
000110 89 40 f1 3c 70 97 bd 3b 18 50 56 bd 3f 13 d1 bc
       0.029449718 0.005785875 -0.052322477 -0.025521873
000120 3e c3 93 bc ab 62 38 3c 99 e6 66 bd 7e a7 02 bc
       -0.018037435 0.011253993 -0.05637226 -0.007974504
000130 b0 97 06 bd 34 bf 64 3d c6 f5 23 bd 49 69 7e bc
       -0.032859504 0.055846408 -0.04002931 -0.015528032
000140 f2 1a fd 3a c7 22 6e bc 2c e9 21 3d 2a 6f 71 bd
       0.0019310398 -0.014534659 0.03952901 -0.058943905
000150 19 8c 4c 3d 33 13 85 bc 04 d1 c4 3c 08 fa 5f 3d
       0.049938295 -0.016244506 0.024025448 0.054681808
000160 25 ab 8e bd 02 c8 98 3d 6a 36 34 3c c5 af eb bc
       -0.06966237 0.074600235 0.010999301 -0.028770337
000170 97 2d c3 bc bb 41 15 bd 8a 55 28 bc e3 11 1b 3c
       -0.02382545 -0.03643964 -0.0102743 0.009464714
000180 3d 0b 87 bd bd 83 62 bd 0e f7 35 3d dd 7a ab bc
       -0.065939404 -0.055301417 0.044425063 -0.02093261
000190 ca 62 3c bd 7c a9 af 3c 4f c3 6a ba 02 c3 07 bd
       -0.04599265 0.021443121 -0.0008955495 -0.03314496
0001a0 ff 19 96 bc f2 7f c5 3c 80 ba 11 3d 00 f0 28 3d
       -0.018322943 0.02410886 0.03557825 0.041244507
0001b0 4f a7 bf 3c f2 bc 26 bd 47 73 a8 3c 9f 65 6d 3d
       0.023395209 -0.040707536 0.020562781 0.05795824
0001c0 15 d5 8f 3c 67 83 32 bc 7f 22 9f bb a4 64 10 bd
       0.01755766 -0.010895587 -0.004856407 -0.03525223
0001d0 7e 48 8b bd 84 16 95 3b d8 72 3c 3d 78 39 ea 3c
       -0.06800936 0.004549803 0.04600796 0.028591856
0001e0 da 5a 80 bb cc bb fc 3b 6a a6 58 3d 33 5a 56 3b
       -0.0039170804 0.007712817 0.05289308 0.0032707572
0001f0 24 a9 ac bb 70 28 3c 3d 0c 71 17 3d f0 9e eb 3c
       -0.0052691866 0.045937 0.036973044 0.02876231
000200 d9 c7 c2 3d f8 68 89 bc e2 5e 11 bd d1 a9 4d 3d
       0.09510774 -0.016773686 -0.035490878 0.050210778
000210 0a f0 1a bd 54 5a fb 3a 66 ec aa bd 47 17 2a 3c
       -0.037826575 0.00191767 -0.08345871 0.010381526
000220 a0 14 23 3d a2 78 86 bd 25 5f 13 3d ae be c2 3d
       0.03981459 -0.06565978 0.03597941 0.095090255
000230 fc 0f a3 3c 69 cf 3d bd 31 7f 44 3c 41 f0 9f bc
       0.019905083 -0.04634038 0.011993215 -0.019523742
000240 f4 83 01 bd 4f 46 e8 3c 9b 10 d1 3c 25 19 ae bc
       -0.03161998 0.028353838 0.025520613 -0.021252224
000250 cb db 1d 3d da a6 ac bc 86 b7 1e 3d 94 c7 7a bd
       0.03853969 -0.021075655 0.03874924 -0.06122549
000260 6e e5 9d bd 2d 5a 44 bd 7d 65 13 3c 0e 5f 12 bd
       -0.07709776 -0.04793756 0.008996365 -0.035735182
000270 9d 3a 9c 3c 32 2e 4e 3d 99 20 5c bc 7e e6 5f bc
       0.019070918 0.050337024 -0.013435506 -0.013665793
000280 fd ab fa 3c 79 0c 74 3d 66 33 07 bd 54 52 81 3c
       0.030599589 0.059582207 -0.033008 0.015786327
000290 b2 01 08 3d 38 df 9b bd 7f a2 5f bc 9c 45 a2 3c
       0.03320474 -0.07610935 -0.013649582 0.019808583
0002a0 ed f6 48 bd d6 c1 ef bc 5a 3e 23 3d 1a f2 8e 3d
       -0.04906361 -0.029267233 0.039854385 0.06979771
0002b0 b4 4a 47 3d 91 3e 8c bd 84 81 59 bd 2e ae 25 3d
       0.048655227 -0.06847871 -0.05310203 0.040449314
0002c0 f4 da be bc 69 4c 17 bd ec 32 ee 3c 35 4d 84 3d
       -0.023297764 -0.036938105 0.029077016 0.064600386
0002d0 87 8e ba ba 47 34 8b bd f2 06 c2 3c 6a b6 5a 3b
       -0.001423315 -0.067970805 0.023684952 0.0033372887
0002e0 88 b0 59 3d 4e ad 83 bd e5 d9 b2 bc a4 82 91 bc
       0.05314687 -0.064295396 -0.021832416 -0.01776249
0002f0 3a 55 20 3d c0 3b b3 ba 17 f1 ca 3c 6b 1d 60 3d
       0.03914378 -0.0013674423 0.024773164 0.054715555
000300 29 0f 81 3d f2 77 84 3c 8b d4 46 3d 15 8a 39 bd
       0.0630172 0.016170476 0.04854254 -0.0452977
000310 fa 32 56 3d f5 94 03 3d 9f c2 73 3d 9a 93 c4 bd
       0.05229471 0.03212448 0.059511777 -0.09598465
000320 73 b9 cf 3c 56 f0 26 bd bc 5a 61 bd 31 da c3 bd
       0.025356984 -0.040756546 -0.05501817 -0.09563101
000330 d3 d3 42 bd 66 32 75 bd 10 34 40 3c 61 8e 83 bd
       -0.047565293 -0.059862517 0.011731163 -0.06423641
000340 1c 89 16 bd 8f 2e 47 3d 48 d8 34 bd 9c 86 32 3d
       -0.03675185 0.048628386 -0.044151574 0.043585405
000350 d9 45 45 3d db ca 3b bd 42 a5 35 bd 00 21 79 bb
       0.048162315 -0.045847755 -0.044347055 -0.0038014054
000360 de 4a 46 bd eb b7 30 bd a4 00 6c 3d b2 32 cb 3c
       -0.048411243 -0.043144148 0.0576178 0.024804447
000370 40 0c 6b 3b a8 d3 e4 3a 78 47 6d bd 88 7e 73 bc
       0.0035865456 0.0017458098 -0.057929486 -0.01486171
000380 d0 9d 1c 3c b5 7a 8a 3c 04 98 1b 3d b3 7a 43 3d
       0.00955911 0.016904214 0.03798677 0.047724437
000390 85 85 86 bd 97 be 78 bd f0 d2 c5 bb 93 e9 4a bd
       -0.065684356 -0.060728636 -0.0060371086 -0.04953916
0003a0 5e ec 64 bd 7f e0 94 3c 59 74 9d bd 99 23 66 3a
       -0.05588948 0.018173454 -0.07688207 0.0008779108
0003b0 9a 9f c2 bb c5 cd 2f 3d 0d 77 ab bc e3 18 eb 3c
       -0.005939436 0.042920846 -0.020930791 0.02869839
0003c0 08 87 6a 3d 89 17 e9 ba 00 df f9 bc e7 8d 6d bd
       0.057257682 -0.0017783503 -0.030501842 -0.057996657
0003d0 5d 79 09 39 08 3b 80 bd bf 05 85 bc 49 95 da 3c
       0.0001311055 -0.06261259 -0.016238092 0.026682513
0003e0 90 00 ed bb dc 89 5d 3d 78 2c 24 bd 42 1f b5 3c
       -0.007232733 0.05408655 -0.04008147 0.022109631
0003f0 2c 38 3e bb a0 41 1f 3d 03 c5 77 bd 98 b4 aa bc
       -0.002902518 0.038880944 -0.06049062 -0.020838067

linear_layer.4.weight f4 [49, 256]
000000 cb 71 1a bd c8 e2 dd 3c b0 08 c5 ba 7e 45 ce 3c
       -0.037706178 0.027085677 -0.0015032496 0.02517962
000010 7b 54 0e bd 78 a6 e4 bc 9c a2 00 3e 44 e5 27 bd
       -0.034748536 -0.02791141 0.1256203 -0.04099013
000020 7d 98 6a 3d 53 f7 a5 bc c4 0b 91 3c 8a 4c a2 3d
       0.05727433 -0.020259535 0.017705806 0.07924755
000030 a4 21 d9 3c 7c 24 6d bd 97 3e bd bc 91 f0 4e 3d
       0.026505299 -0.057896122 -0.023101134 0.05052239
000040 dd 27 91 bc 63 db 42 3c f0 5d 23 bd a5 b4 65 ba
       -0.017719204 0.011893126 -0.039884508 -0.0008762575
000050 f1 60 bd bd ec ae 5b 3d c8 1f bd 3d f0 8d bd bc
       -0.09247006 0.053633615 0.092345774 -0.02313897
000060 5e 6d 44 3d 42 39 d1 3d 5c ee c9 bb c8 fe ec 3c
       0.047955863 0.10215999 -0.006162448 0.028930083
000070 20 53 31 3d 8e ce 5f 3d 94 41 22 3d c6 9f 37 3c
       0.043292165 0.054640345 0.03961332 0.011207527
000080 16 36 10 3e 76 05 24 3d 59 12 db 3c c0 41 a6 3c
       0.14083132 0.04004427 0.026742147 0.020295024
000090 d7 34 4e 3d 7d b9 42 3c 87 ca 86 bd a1 0c 0c 3d
       0.05034336 0.011885044 -0.06581598 0.03419173
0000a0 d1 2c 0c 3c 57 c4 a6 bd 21 dd 5c 3d 6f 17 4c 3d
       0.008555607 -0.081429176 0.053921822 0.049827036
0000b0 4e 86 8f 3d 76 1e 90 3c f4 23 02 3d ee 01 67 3d
       0.070080385 0.01759265 0.03177257 0.056398325
0000c0 ba 2b 23 3d d8 68 0e 3d 09 8c b0 3d 18 fc 77 3c
       0.039836623 0.034767956 0.086204596 0.015135787
0000d0 99 99 2b 3d 62 53 0d 3e a1 9f 88 3d 1c ca b0 bc
       0.04189453 0.1380134 0.06671072 -0.021580748
0000e0 62 53 c3 bc b8 e8 54 3c 82 e7 58 3d c0 22 9f 3a
       -0.023843471 0.012994938 0.052955158 0.0012141094
0000f0 56 78 6d 3d de 5b a2 bc 4a ce 03 3c b3 29 b6 bc
       0.05797609 -0.019819196 0.008044789 -0.02223668
000100 1d 7e e2 3d 70 ed b4 bb d0 f3 ad bb 9c a6 e9 bc
       0.110592104 -0.005521469 -0.0053086057 -0.028521828
000110 d0 01 a1 bc de 62 58 bd 44 cc 79 bd 70 a8 11 3d
       -0.019654185 -0.052828662 -0.06098582 0.035561025
000120 91 01 31 3d 73 60 7b 3d dd 48 cb bc aa 51 25 bd
       0.043214384 0.061371278 -0.024815017 -0.040361084
000130 d5 ca f8 3c 00 af c0 3a eb 76 4c 3c 39 d1 7c bd
       0.030370155 0.0014700592 0.012479524 -0.061722968
000140 f0 88 25 3d aa 57 1f 3e 7e 82 f5 3c 5d c9 4c 3d
       0.040413797 0.15560785 0.02996945 0.049996722
000150 9c ba 20 bd f9 40 36 3d 48 b9 c4 bb 97 22 4d 3a
       -0.039240465 0.044495557 -0.0060035326 0.00078252837
000160 71 9c bc 3b 62 45 7c bd af 3c 85 bd 24 ce 82 bd
       0.005755954 -0.061589606 -0.06505715 -0.063869745
000170 73 43 98 3c 3b 38 af 3d cb d4 1e bd 11 57 ad bc
       0.01858685 0.08555647 -0.038777154 -0.02115968
000180 84 9c 1e bd 06 e5 43 bd 10 55 db bc eb 29 f6 3c
       -0.038723484 -0.047825836 -0.02677396 0.030049285
000190 f2 14 63 bd 45 9b 51 bd 72 c1 58 3d 44 9a e4 bc
       -0.055439897 -0.051173467 0.05291886 -0.02790559
0001a0 8f 93 4c bc 9b e8 98 3d 12 0b 74 bd c7 be 49 bd
       -0.012486353 0.07466241 -0.05958087 -0.049254205
0001b0 52 38 bb bc 3d 21 e7 bb b7 d8 60 3d ad 60 06 bd
       -0.022854004 -0.007053523 0.054894175 -0.03280704
0001c0 fe be a9 b9 23 0e 19 bc 6d 96 26 3d 94 fa f6 3c
       -0.00032376492 -0.009341749 0.0406708 0.030148782
0001d0 36 e3 68 bd 47 4e 80 3d 74 9d 7b bd 67 01 62 3d
       -0.05685731 0.0626493 -0.061429456 0.05517712
0001e0 d0 ea 80 3b 27 8e 26 bd 9e ca 39 3d 3d 79 6b bd
       0.003934242 -0.04066291 0.045359246 -0.05748867
0001f0 b7 69 b5 bb 6a b5 41 3d 5c df 83 3d 84 70 3c bd
       -0.005536284 0.04729215 0.06439087 -0.04600574
000200 07 2f a1 bc 67 44 69 3c 58 d8 c4 bc e0 a5 1f bd
       -0.019675745 0.0142375 -0.024028942 -0.03897655
000210 ea d1 03 bd d0 97 c3 bc 72 c4 80 3d 4e eb 06 3d
       -0.03218261 -0.0238761 0.06287469 0.032939248
000220 0b d2 a7 3d d0 33 48 3d 7d 14 65 bd f6 7e 98 bc
       0.081943594 0.048877537 -0.055927742 -0.018615227
000230 0a e2 51 bd 4d 84 d1 3d d4 87 35 3c 63 f3 6b 3b
       -0.05124096 0.102303125 0.011079747 0.0036003224
000240 1b 73 ec bc 2c eb 2d 3d 9d 93 14 bc 9e a8 58 bd
       -0.02886348 0.042460606 -0.009068397 -0.05289518
000250 14 ef 4e bc 74 12 a7 bc 05 ac 80 bd 70 a8 73 bd
       -0.012630243 -0.020394541 -0.0628281 -0.059486806
000260 db 0b ad 3b 18 91 ec bc 5f 60 67 bc e6 13 1a 3d
       0.0052809543 -0.02887778 -0.014122098 0.037616633
000270 a6 6f 36 bc 5c 07 0d 3d f5 ea 11 bd 20 39 6d bd
       -0.0111350175 0.034430847 -0.035624463 -0.057915807
000280 7b 6b 77 bd 80 79 47 3d 26 ee 9d bc f0 50 04 bc
       -0.060405236 0.048699856 -0.019278597 -0.008075938
000290 92 f3 5a 3c 85 0b 99 3d 3c 8b 9c 3b 0a 11 3e 3d
       0.013363736 0.074729 0.00477734 0.04640297
0002a0 ac 24 9c 3b 1e 59 1a 3d 6f 01 2e bc f4 9b fc bb
       0.004765114 0.037682645 -0.010620459 -0.0077090207
0002b0 80 35 b7 3a e9 17 ce bb 1e f2 b6 bc 26 c7 41 3d
       0.0013977736 -0.0062894714 -0.022332247 0.047309063
0002c0 5c b1 16 3d 41 bc 7b 3d c0 ae 35 bd 84 d6 44 bc
       0.036790237 0.06145883 -0.044356108 -0.012014035
0002d0 84 96 17 3d 04 f4 ce bc 56 14 11 bc 19 35 89 bc
       0.037008777 -0.02526284 -0.008854946 -0.016748952
0002e0 1a 09 3d 3d 15 93 f8 bd a5 61 5e bd 80 71 7b 3c
       0.046151258 -0.12137429 -0.05429234 0.015346885
0002f0 66 37 5f 3d 80 26 33 ba 50 e4 22 bd 9d 15 61 3b
       0.05449619 -0.0006834045 -0.039768517 0.0034345158
000300 c5 dd 84 3d 06 69 e8 bd 3f 23 02 3c 6d d0 57 bd
       0.06487612 -0.11348157 0.007942974 -0.052689005
000310 36 f9 5f bd 29 39 d4 39 7f eb 9e 3c 53 ab 24 bc
       -0.054681025 0.0004047838 0.019399403 -0.0100506125
000320 37 c0 45 3d 38 9f 47 bd e2 91 0e bd ed 6e 8c 3d
       0.048279013 -0.048735827 -0.034807093 0.06857095
000330 cc 32 df bc e9 06 f9 3b c8 c2 3d 3d d8 91 18 bd
       -0.027245902 0.0075997007 0.046328336 -0.037248462
000340 3d 91 30 bd a9 f3 fe bb f7 e6 3f bc a8 d4 f4 bc
       -0.04310726 -0.0077805114 -0.011712781 -0.029886559
000350 30 af 3a 3d 13 96 69 3d 4f fd 6d 3d 90 75 8f bc
       0.045577228 0.057027888 0.058102902 -0.017512113
000360 ba 00 52 3d 73 da 25 bd a0 5a 49 3d 1a 80 20 3d
       0.051270224 -0.040491533 0.049158692 0.039184667
000370 b8 e3 20 3c 6c 03 34 3d eb 49 a5 3d 00 21 70 ba
       0.009819917 0.043948576 0.08070739 -0.0009160191
000380 5e c7 67 3d 6a 65 15 3b 30 ee 81 bc 11 23 fe 3c
       0.056586616 0.0022796043 -0.015860647 0.03102258
000390 82 f1 26 3b 69 cb 63 bd 5e af dc bc 70 95 43 3d
       0.002547354 -0.05561391 -0.02693909 0.047749937
0003a0 b0 5d 60 3c ac 06 cd 3b ff 66 e0 3b 1a 20 82 3c
       0.013694212 0.006256899 0.0068482156 0.015884448
0003b0 3d 81 49 bd 46 30 0e 3d 0c 55 07 3c 62 48 09 bd
       -0.049195517 0.034714006 0.008260023 -0.033516295
0003c0 a4 30 65 3d 02 9d 88 bd 30 95 a1 bb 5a a6 78 bd
       0.05595459 -0.06670572 -0.0049311146 -0.06070552
0003d0 af 17 6c b8 5c 3d 22 bd 0a 63 8e 3b d0 c7 19 bd
       -5.628884e-05 -0.039609298 0.0043453025 -0.03754407
0003e0 54 36 61 3d 46 ff 3f bc 04 83 c8 bc e4 53 48 bc
       0.054983452 -0.011718577 -0.024476536 -0.012227032
0003f0 17 ea 47 3d 34 9d 31 3b 74 bb d6 b9 ea 39 76 3a
       0.04880723 0.0027101757 -0.00040956924 0.0009392785

linear_layer.4.bias f4 [49]
000000 3b cd be 3c 7f d4 a6 3d b1 a0 9c 3b f7 81 6e 3d
       0.02329122 0.08145999 0.004779898 0.058229413
000010 06 bc 6b bd 45 cb e1 bc e9 6a b5 ba 0e fe d3 bc
       -0.05755236 -0.027562747 -0.0013841066 -0.025877979
000020 de c1 35 3c d6 be f0 bc 1a c2 10 3d ff cb f3 3c
       0.011093585 -0.029387873 0.03534136 0.029760359
000030 88 3f 1b bd 94 b5 91 3d e6 0c 83 3d b9 06 b6 3c
       -0.037902385 0.071147114 0.063989446 0.022220002
000040 33 a8 5d 3d af 12 04 bc 50 2c e5 bc f6 c1 db 3c
       0.054115485 -0.008061095 -0.027975231 0.026825886
000050 7e 34 68 3c 74 27 8a 3d b3 0b 1a bd 03 e2 d1 bc
       0.014172671 0.06745806 -0.037608813 -0.025620466
000060 ea 76 31 bd e7 5a 12 bc a5 96 cb 3c f3 97 57 bd
       -0.043326296 -0.008932806 0.024852106 -0.052635144
000070 80 23 95 3d ec 8b 5e bd 48 ac 34 3b b8 83 6d 3d
       0.07282162 -0.05433266 0.0027568508 0.057986945
000080 d1 51 17 3d 2e 09 65 3d f8 49 31 3c 48 fe cf bc
       0.03694326 0.055916958 0.010820858 -0.025389805
000090 bb 19 89 3b cd b8 e3 bc e1 e9 2f 3d 8d a1 c3 bc
       0.0041839755 -0.02779808 0.042947654 -0.023880744
0000a0 b2 a1 63 3d 76 ff 70 3c c3 0f c1 bc f3 f2 a1 bc
       0.055574127 0.014709344 -0.023567086 -0.019769168
0000b0 b2 1a 92 3d 69 d4 4c bc a1 d9 3e bd 34 63 bf 3c
       0.07133998 -0.012501814 -0.046594266 0.023362733
0000c0 c3 54 97 3d
       0.07389214
