data/Apr-13_05-51-52/models/actor_900.pth (torch, 323799 bytes, 6 tensors)

linear_layer.0.weight f4 [256, 7]
000000 87 cf 5a 3e 29 e1 22 be 0f 45 7a bd 78 93 4a 3e
       0.21368228 -0.15906204 -0.061101016 0.19782817
000010 49 f8 d7 be 96 dc 9e 3e 3b 6e ec 3c 4b 01 15 3e
       -0.42181614 0.3102767 0.028861156 0.14551274
000020 d4 71 70 3c 95 2c a8 bd f3 c7 ab 3d d1 7b 9b 3d
       0.014675576 -0.08211628 0.08387747 0.075919755
000030 4a 18 1a 3e 53 ab 67 be 1c 41 9c bc df c8 04 bc
       0.15048328 -0.22623949 -0.019074015 -0.008104532
000040 18 1b a5 3d ac 66 0c bb 17 23 1b 3f 10 3b 17 3e
       0.08061808 -0.0021423502 0.6060042 0.14768624
000050 76 e8 aa be 2a c1 69 be 18 bf 81 bd b8 f1 26 be
       -0.3338048 -0.22827592 -0.06335276 -0.16303146
000060 cb 0c f8 bd 4d 41 94 3c 01 b9 66 3e 38 5e 52 3e
       -0.12111815 0.018097544 0.22531511 0.20543754
000070 c1 61 c4 be e2 d8 6e 3e ce 4d df 3d a0 32 aa 3e
       -0.3835583 0.23324922 0.10903512 0.3324175
000080 b0 f1 f4 3e d4 4c cb be 5e 58 ff be 00 3d 57 be
       0.47840643 -0.39707053 -0.49872106 -0.21019363
000090 24 cf 9b 3e 84 44 93 bd a9 46 13 3e e5 b4 1e be
       0.30431473 -0.07190803 0.14382423 -0.15498693
0000a0 22 d4 e6 3e 56 90 68 be 3c 62 89 3e 88 f2 8f bc
       0.4508372 -0.2271131 0.2683276 -0.017571703
0000b0 ec ed 61 be ec 54 4d 3e e7 af a4 be 50 60 28 3e
       -0.22063416 0.20051926 -0.32165453 0.1644299
0000c0 22 76 0a 3a cc ba 29 bd b4 0b ba be 11 88 38 be
       0.00052818854 -0.04143791 -0.36337054 -0.18020655
0000d0 c9 04 52 3e bd 28 bc bd da c0 c0 3e 23 1f 9b 3e
       0.20509638 -0.09187458 0.37647134 0.30297193
0000e0 ed 72 89 bc b2 62 7d be f3 59 78 3e 90 4f 15 3e
       -0.016778434 -0.2474468 0.24253063 0.14581132
0000f0 72 25 c0 be da 0f b9 3e 98 6d 75 3e 76 5a b7 3e
       -0.37528569 0.36144906 0.23967588 0.35811204
000100 40 eb 48 be 12 ec 49 bd 6a de b9 3c 3a 8b 10 be
       -0.19620991 -0.0492974 0.022689063 -0.1411561
000110 f3 60 b3 be b0 0f 68 be 00 bb 46 3e 9a 87 d5 bd
       -0.35034904 -0.22662234 0.19407272 -0.104262546
000120 1b ad 24 3e 1c c3 8a 3c fd c9 e3 bd 76 1a 99 3c
       0.1608166 0.016938739 -0.111225106 0.018689375
000130 80 66 9e 3e 8a ae 40 3e 78 da b2 be 6b 75 43 3e
       0.30937576 0.18816581 -0.34932303 0.1908776
000140 07 4b 88 be c4 4e 92 be 0a 5a b7 3c 40 35 83 bd
       -0.2661974 -0.28575718 0.022381801 -0.06406641
000150 e7 d6 54 3e db 0c 65 be fa 85 b1 be 57 7e 91 3e
       0.20785104 -0.22368185 -0.34672529 0.28416702
000160 61 3c 48 be b2 5d 48 3e 46 4d 1c 3e 3e 1d 91 be
       -0.19554283 0.19566992 0.15263852 -0.28342623
000170 74 82 9b 3d e4 ed b9 3d 4f 92 81 be 3e a3 37 be
       0.07593241 0.09078577 -0.25306937 -0.17933366
000180 3f f8 03 3e 54 a7 8a 3d 14 c2 0e be c6 bd aa bd
       0.12887667 0.067701966 -0.13941222 -0.08336978
000190 5d c0 c2 3e 8f 84 89 bd de cf f7 3e 6b ab 46 3e
       0.38037387 -0.06714737 0.48400778 0.19401328
0001a0 72 3d d9 be 4e ef ae be b8 d3 a3 3e ec 56 75 bc
       -0.42429692 -0.3416695 0.31997466 -0.014974337
0001b0 2a f0 69 3e 53 99 a0 3c a4 b3 ed 3d 89 d5 af 3e
       0.22845522 0.01960436 0.11606529 0.34342602
0001c0 c6 47 b8 3e 79 f9 6c be 4c 1b 91 3d d9 fa 8e 3e
       0.3599226 -0.23142041 0.070852846 0.27925757
0001d0 7a 81 e5 3e 2f 58 8e 3e 78 5e de be 8f ae 95 be
       0.44825345 0.27801654 -0.4343145 -0.2923474
0001e0 9b f0 7e be 47 ea e5 3c e9 72 b6 3e 16 2e 62 be
       -0.24896471 0.028065814 0.35634544 -0.22087893
0001f0 e2 f2 3c 3e 2d 69 45 be e6 77 bd be 3f aa b6 bd
       0.18452027 -0.19278403 -0.37005538 -0.089191906
000200 7b 48 4f 3e 31 37 b9 3e 6d 8e 8f be b4 70 18 3e
       0.20242493 0.3617492 -0.2803835 0.14886743
000210 45 4a 91 3e c5 f7 5f 3e b1 99 50 3e 4e 19 64 3e
       0.28376976 0.2187186 0.20371129 0.22275278
000220 6f 44 58 3e 31 18 6a 3e b5 59 b1 be 4a 32 ce be
       0.21119855 0.22860791 -0.34638754 -0.40272743
000230 13 4b 32 be 57 e5 35 bd d0 b4 6c be 6f b1 0c 3e
       -0.17411451 -0.04440817 -0.2311585 0.1373956
000240 46 cf f1 3d 21 70 b0 bd ac af 15 3e 23 5f c4 3d
       0.118071124 -0.08615137 0.14617795 0.095884584
000250 00 f6 61 3e ce ca 79 3e 0e e2 24 be 8f 6c 0f 3f
       0.22066498 0.2439377 -0.16101858 0.5602502
000260 96 5c bb bd 2b 50 30 be 59 a8 b6 be 36 1a 79 be
       -0.09148519 -0.17218082 -0.35675314 -0.24326405
000270 89 1b 62 be 44 8b 25 be d4 95 89 3e a9 f3 fc bd
       -0.22080816 -0.16166407 0.26872122 -0.12351162
000280 ba 9c 90 be 3f a1 0c 3e d6 82 df 3d 73 80 64 3e
       -0.28244573 0.13733386 0.10913627 0.22314624
000290 2d 96 55 be fd 07 f0 bc df 1d 3a be 42 62 6b 3c
       -0.20858069 -0.029300684 -0.18175457 0.014366688
0002a0 c8 37 9a be 4e 65 30 be b7 10 ed bd 96 82 25 3e
       -0.30120683 -0.17226145 -0.11575454 0.16163096
0002b0 25 6a 8d 3d 54 35 bf 3d b0 26 c1 3e 84 5a af 3e
       0.06905011 0.093363434 0.3772483 0.34248745
0002c0 9b 9c 72 3e 92 4d 4f bc 58 27 96 be 98 68 b0 3e
       0.23692553 -0.012652772 -0.29326892 0.344548
0002d0 7d d0 2e be 34 08 ae bd 1b eb a1 be 5c 44 84 bd
       -0.1707172 -0.08497658 -0.31624684 -0.06458351
0002e0 34 51 63 be a4 81 b7 3e 36 57 a2 be 2f 9f a5 be
       -0.22198945 0.35841095 -0.31707162 -0.3234801
0002f0 de 4b cf bd cd 6a 61 be 40 78 f4 3d 38 5e 25 be
       -0.101218924 -0.22013398 0.11936998 -0.16149223
000300 ba d1 44 be 68 6b 6f 3d f8 44 86 3e c2 a5 93 be
       -0.1922063 0.05845204 0.26224494 -0.288374
000310 d0 b3 24 3e 77 ca 71 3e bc 4e ba 3e e9 e3 92 be
       0.16084218 0.2361239 0.36388195 -0.28689507
000320 e1 36 57 3e f5 f2 bb be 8a 81 74 3e 30 c1 2a be
       0.21017028 -0.367088 0.2387754 -0.16675258
000330 79 a0 5e 3e 15 c4 28 3c 61 91 6e bd 4e 9f fd 3d
       0.21740903 0.010300656 -0.058244113 0.123839006
000340 02 d2 ef 3c 43 b2 a1 3c 20 a1 26 3d 0e 02 b0 3d
       0.029274944 0.019738322 0.040681005 0.08594142
000350 e9 09 b7 be d0 9e 8a 3e a7 e1 ce 3e af 89 c7 3e
       -0.35749748 0.2707429 0.40406534 0.38972232
000360 c3 1e 63 3e 8c 12 87 be 9b 51 03 be f7 2d b1 3e
       0.22179703 -0.26381338 -0.12824099 0.3460538
000370 c9 c3 8c be 62 dd b3 3e 41 00 92 be 91 49 7f be
       -0.27493122 0.3512984 -0.2851582 -0.24930407
000380 fc f2 33 3e 1c 2c 8f be c6 22 b0 bd 8b 68 94 3e
       0.1757316 -0.2796334 -0.086003825 0.2898601
000390 20 d2 42 3e eb de e9 3e 23 12 a8 bd 74 8b 86 be
       0.19025469 0.45677885 -0.08206584 -0.2627827
0003a0 3b e1 d0 3e 90 75 3e bd 05 db 0b be 86 09 69 3e
       0.40796837 -0.046498835 -0.13657768 0.22757539
0003b0 e7 6c a6 be ea 6d 62 3e 60 91 72 3e 81 8d 99 be
       -0.3250496 0.22112241 0.23688269 -0.2999077
0003c0 3f f3 9e be 9a 9c 07 bd 98 90 22 3e 9d 59 33 bc
       -0.31044957 -0.03310833 0.1587547 -0.010946658
0003d0 d0 41 44 be c5 93 0d 3c c4 e4 b5 be 56 c5 88 be
       -0.1916573 0.008641188 -0.35526097 -0.26713055
0003e0 9f d2 80 be 27 5e 9f 3e 4b 96 aa 3e 8f 76 03 be
       -0.2516069 0.3112652 0.3331779 -0.12838195
0003f0 10 73 67 bc 18 f8 19 3e 23 da 05 3d 5e 03 6c be
       -0.014126554 0.15036047 0.032678735 -0.2304816

linear_layer.0.bias f4 [256]
000000 91 19 42 be 87 b1 a3 3e e8 97 5b 3d ea 2e 4b 3e
       -0.18955065 0.3197138 0.053611666 0.19842115
000010 3c cc bb 3d 64 24 85 3d 5b 55 80 3e 03 2d 9b bc
       0.09169814 0.065010816 0.2506512 -0.018942362
000020 cd bf 94 3e 54 f0 0c 3e ff c6 7c be 65 8d 7e 3e
       0.29052582 0.13763553 -0.24685286 0.24858625
000030 d0 8e 85 be cd 82 49 3e cc de dc bc d8 c7 97 3d
       -0.2608552 0.19678803 -0.026961707 0.07411164
000040 b4 be 83 ba 8d 9b 5e 3d 22 b3 ea bd 40 80 e0 3d
       -0.0010051341 0.054347564 -0.11459948 0.10961962
000050 75 e9 33 3e 0f 43 b3 be ac 9e aa 3e db 26 b0 be
       0.17569526 -0.350121 0.33324182 -0.34404644
000060 1f c0 2c be b1 44 fb 3d da b2 b8 3e 2a 2e db 3d
       -0.16870163 0.12268961 0.36073953 0.107021645
000070 3b ca 62 be 98 a6 9b 3d 2a cc 72 be ca 12 41 3e
       -0.22147457 0.076001346 -0.23710695 0.18854824
000080 3c 53 0d 3d 0b 2c 85 3d 60 71 94 be 0f 8f 4e 3e
       0.034503207 0.06502541 -0.28992748 0.2017176
000090 a4 cb bc 3e 28 42 86 be dd 06 44 3e 63 b2 1f be
       0.36874115 -0.26222348 0.19143243 -0.15595393
0000a0 cf b3 d9 bd e8 76 9c 3e 0d c9 b1 be fe ca a7 bd
       -0.10629999 0.30559468 -0.34723702 -0.081930146
0000b0 d9 6b dd 3d bc 2f 0b 3e a8 a0 15 be b6 7c 79 be
       0.10811586 0.13592428 -0.14612067 -0.2436398
0000c0 55 10 9c 3d 75 77 c2 be 44 74 ad 3c 83 88 84 be
       0.076203026 -0.37981763 0.021173604 -0.258854
0000d0 0d fc 88 bd 7c 1f 99 3e 2e 07 81 be d6 4a 71 be
       -0.066887 0.29906833 -0.2520079 -0.23563704
0000e0 7a 24 93 be d0 d0 56 3e 01 ee 98 3e 3b 26 5e be
       -0.28738767 0.20978093 0.29869083 -0.21694271
0000f0 f3 32 65 3e 70 eb 77 3e 13 cd 7f be 5f 71 13 3e
       0.22382717 0.24210906 -0.24980573 0.14398716
000100 b6 44 39 3e 9b 5c cc bc 8f 4c 4e 3e 9e bc 0a 3b
       0.18092617 -0.024946501 0.20146392 0.0021169554
000110 1a 8f 89 bd ed 5d 5b 3e 30 65 a0 be 98 11 be be
       -0.067167476 0.21422549 -0.313272 -0.37122798
000120 34 cf 8f 3d 96 4e 7b 3d fe e3 b0 3c e7 3f 4b be
       0.07021943 0.061354242 0.02159309 -0.19848596
000130 70 32 ae 3e 7a 66 86 be 2e 3c 48 be f0 54 a3 be
       0.34022856 -0.26250058 -0.19554207 -0.3190074
000140 d3 bb c0 be f7 44 bd 3d 84 f7 1b be f6 b2 3e 3e
       -0.37643299 0.092416696 -0.15231138 0.18622956
000150 44 d8 bb 3e 1e 70 0c 3e a7 32 aa 3e a9 9c 91 be
       0.36688435 0.13714644 0.3324177 -0.28439835
000160 69 9a 28 3e 71 8e 4c 3e 5d 9c 0c be 03 c4 db bc
       0.16465153 0.19976212 -0.13731523 -0.026826864
000170 a0 3e 7f be 6f 1b 15 3d df b2 b1 be da 25 66 be
       -0.24926233 0.036403116 -0.3470678 -0.22475377
000180 f8 ce 96 be 4a 52 52 bd 0c cb 1d 3d 74 40 9d be
       -0.2945478 -0.05134801 0.03852372 -0.30713236
000190 ce 34 0e be 62 22 45 3e f6 7b cf 3c 49 09 39 3d
       -0.13887331 0.19251397 0.025327664 0.04517487
0001a0 7b c5 3f be 7e 8d 1b be 22 64 b7 be be 45 8e 3e
       -0.18727677 -0.15190694 -0.35818583 0.27787584
0001b0 7c 55 7b 3b 08 44 32 3e fa cb 61 3e 06 ac a9 3e
       0.0038350513 0.17408764 0.22050467 0.33139056
0001c0 f8 7b 85 be 81 1e d0 3d 16 3c 8e be d9 19 1d 3e
       -0.26071143 0.10162068 -0.27780217 0.15341891
0001d0 ae b6 5b be 9b e1 cf 3d fd 7a 8e be 61 98 4f 3e
       -0.21456406 0.10150453 -0.27828208 0.20272972
0001e0 25 e0 8d 3e 83 ef 53 3e e9 ca a3 be 67 f5 5e 3e
       0.2771007 0.20696835 -0.31990746 0.21773301
0001f0 d2 a9 8f be 96 ff b4 be 73 cc 54 3e f2 55 02 3c
       -0.2805925 -0.35351247 0.20781116 0.007955061
000200 5f 50 36 be 2f ab 9e be 96 66 04 3d 0b 8c e1 bd
       -0.17804097 -0.30989978 0.032324396 -0.11013039
000210 40 3a 85 be b0 9c 63 bd 0a b7 b6 be 16 ab 3e 3e
       -0.26021004 -0.05556935 -0.35686523 0.18619952
000220 03 72 80 be 76 bd 03 be 52 33 ba be 39 65 6a bd
       -0.25086984 -0.12865242 -0.3636728 -0.05722544
000230 4e ed 17 be 4d 90 55 3e 97 2c b6 bd f7 45 82 3e
       -0.14836618 0.20855828 -0.088952236 0.25444004
000240 e9 62 c6 3e f3 9b 93 3d 24 a7 04 be 6c e1 a7 be
       0.38747337 0.07207479 -0.12954384 -0.3278917
000250 32 1f 91 be 77 99 28 be 8d 6b 84 be 97 29 3f 3e
       -0.28344113 -0.16464792 -0.25863305 0.18668209
000260 5c e9 f9 bd 6a 8c 4c bc 16 3c 09 3d e4 36 a7 be
       -0.12202713 -0.012484649 0.033504568 -0.32659066
000270 a3 b2 a0 3e 93 75 0e be e3 ee ac be 9a ac 49 bd
       0.3138629 -0.13912039 -0.33776006 -0.04923687
000280 90 d0 c1 be ca 80 84 3d 6c e8 6a be cf a5 08 be
       -0.37854433 0.06469877 -0.22940224 -0.13344501
000290 8a ab e3 bd 9d f2 88 3e 8e c1 91 3e 1a 38 c8 3e
       -0.11116703 0.267476 0.28467983 0.39105302
0002a0 2d bd 8d 3c 71 a6 75 3e 7b 8a b2 be 20 d8 79 be
       0.01730212 0.23989274 -0.34871277 -0.24398851
0002b0 e5 4a 50 3e 2c 2c e0 3d b5 3e d6 3d 25 3f 5d 3e
       0.2034107 0.10945925 0.10461179 0.21606119
0002c0 60 a7 57 3e 78 2f 32 3e 98 32 15 be 95 c5 d4 bd
       0.21059942 0.1740092 -0.14570081 -0.10389248
0002d0 1b 06 a3 3d 5b 4e 9c 3e 3d 9e ea bc 6d f9 07 be
       0.07960149 0.3052853 -0.028639907 -0.13278742
0002e0 3d 91 59 3e e5 f8 84 3e 2b e4 39 bd 95 fe dd bd
       0.2124681 0.2597114 -0.045383614 -0.10839573
0002f0 7a f7 c9 be 89 c1 7a bc b2 20 20 3e b9 12 8e be
       -0.39446622 -0.015304931 0.15637472 -0.2774866
000300 de ac 8f be cd 77 c1 be ae 06 8e 3e db a2 a1 3e
       -0.28061575 -0.37786713 0.2773947 0.3156956
000310 b4 57 c6 3e 24 2a a9 3e 39 5b 97 bd 27 5e 8b 3e
       0.38738787 0.33039963 -0.07390446 0.2722027
000320 79 15 65 3e 25 06 e0 bd 9c fc 5e be c0 3a a9 3e
       0.22371472 -0.10938672 -0.2177605 0.33052635
000330 a5 06 4d bd 91 ca db 3d f1 03 37 be f6 72 69 be
       -0.050055165 0.10731996 -0.17872597 -0.2279776
000340 90 6e 8f bd 82 ca 4c 3c 4b c6 88 3e 68 6c 7b 3e
       -0.0700351 0.0124994535 0.26713786 0.24553072
000350 de 84 42 bd ea 7e 98 3e 5d 0b 4e be 27 61 14 3d
       -0.047489993 0.29784328 -0.20121522 0.036225464
000360 3e 5a 6e be c0 9b 76 3d a1 30 af 3e 4b 8d 8b be
       -0.23276612 0.06020713 0.34216788 -0.27256235
000370 b4 a2 ed 3d 60 77 a3 be f7 e4 88 bc 55 56 1c be
       0.11603299 -0.31927013 -0.016710741 -0.15267308
000380 3d ba 45 bb 9b 2a 98 be 90 ae 0e 3e e2 2f ce be
       -0.003017082 -0.29720005 0.13933778 -0.40270907
000390 7b a8 8b 3d 32 ad 2a be de 07 5e be 61 65 9d 3e
       0.068192445 -0.16667631 -0.21682689 0.30741408
0003a0 f3 c7 7e 3d 56 19 80 be aa 8f 52 be 3e af 2c be
       0.062202405 -0.2501933 -0.20562616 -0.16863725
0003b0 a9 2a 69 be 91 6b 97 3d f6 a0 cf 3a fd 38 b8 3e
       -0.2277018 0.073935635 0.0015840817 0.3598098
0003c0 cf e1 10 bc ef 2c 09 be 3d 66 a6 3e 84 9b bd 3d
       -0.008842899 -0.13396047 0.32499877 0.09258178
0003d0 84 8a 97 bd 66 b8 8b 3e d2 22 b7 3e d3 57 a4 be
       -0.07399467 0.27289122 0.35768753 -0.32098255
0003e0 9a bb a0 be 8a b0 81 be 16 33 b6 be 14 95 ff bd
       -0.3139313 -0.2533 -0.3558585 -0.12479606
0003f0 1c ae 0d 3e 93 7f b0 be 98 04 cc be 96 a2 a6 be
       0.13835949 -0.3447233 -0.39847255 -0.32545918

linear_layer.2.weight f4 [256, 256]
000000 15 23 1b b9 2d e2 0a 3d ea 34 6b 3d 3e 51 7e 3d
       -0.00014795021 0.033907104 0.05742351 0.062089197
000010 ef f0 8b bc b5 e2 64 bd 0f 08 79 3d 1e 15 2c bd
       -0.01708266 -0.055880267 0.0607987 -0.042012326
000020 84 0a 88 3d 75 e6 c7 3a a4 f0 29 3c 6e a2 b8 3c
       0.06642631 0.0015251177 0.010372315 0.02253839
000030 58 05 38 bd c4 85 ac bc 2c a0 35 bd 23 bf 0d 3d
       -0.04492697 -0.021059878 -0.044342205 0.03460611
000040 57 1a e4 bc 51 78 82 b9 81 dd 6c 3d f1 1e 04 3d
       -0.027844591 -0.00024885175 0.05782843 0.03225607
000050 a3 b7 2e bd 89 3d 91 bd 42 9e 4a 3d b0 d1 fa bb
       -0.0426556 -0.07091815 0.049467333 -0.007654391
000060 3a 45 44 bd 3a 7f fb 3c dd da 6d bd 06 c0 97 3d
       -0.047917582 0.030700315 -0.058070052 0.074096724
000070 5b d7 a0 3c 75 56 f4 3c 50 82 99 3b 3f 53 31 3c
       0.01963394 0.029826382 0.004684724 0.01082307
000080 2a dd d4 3c fb 01 e3 bc 00 2c 6c 3b 5c 91 3d 3d
       0.025984365 -0.027710905 0.0036036968 0.046281204
000090 ec a9 19 bd 00 a3 2c 3d 6d e6 31 3d 9d 94 b1 bc
       -0.037515566 0.042147636 0.04343264 -0.02167731
0000a0 2f af d0 39 f7 d6 4e bd 28 94 0a bd 69 10 3f bd
       0.00039803374 -0.050497975 -0.0338327 -0.04664651
0000b0 d4 7f 72 bd e0 a7 7d 3d ad aa cd bc 09 de f8 bc
       -0.059203938 0.061927676 -0.025105799 -0.030379312
0000c0 d0 16 33 3d c8 40 c3 bb e5 80 15 bd 68 fe ff bc
       0.043722928 -0.0059586503 -0.036499877 -0.03124924
0000d0 d8 dd 60 bc 50 e4 60 3c c2 a8 4b 3d ce d0 0f 3d
       -0.013724767 0.013726309 0.049721487 0.03511124
0000e0 56 21 2b bd f8 d9 a7 bc f3 17 26 3c 71 79 d8 bd
       -0.04177984 -0.020489678 0.010137546 -0.10570038
0000f0 89 72 10 3d 60 af e3 bb 8d 7b 84 3d 80 eb 9a bd
       0.03526548 -0.0069483966 0.06468878 -0.07564449
000100 41 db 98 3d f9 ee 5f bd 6b 30 68 bc a8 06 83 3d
       0.07463694 -0.05467126 -0.0141717 0.06397754
000110 86 98 cc 3c 24 0f b6 bc 67 01 ce 3c 38 37 49 bd
       0.024975073 -0.022224016 0.025147153 -0.049124926
000120 80 1e ae 3b 90 a6 4a 3c b0 00 1f 3d 3f 1a 44 3d
       0.0053136945 0.012368813 0.038819015 0.047876593
000130 ac ce 53 bd 33 89 67 bd 3f a0 88 3b 8c 17 b8 bc
       -0.05171077 -0.056527328 0.0041694934 -0.022472166
000140 68 57 d0 bc 12 bf c1 bd 64 0b 7b bd a4 dd 4b bd
       -0.025432304 -0.09460272 -0.06129016 -0.04977192
000150 f0 56 05 bb 45 0d 0b bb f9 f9 14 bc c5 1f d0 bc
       -0.0020346008 -0.0021217626 -0.009092801 -0.025405774
000160 ff 97 dd bc 69 65 a3 bd 1f 85 41 3c 58 51 3b bd
       -0.027050016 -0.07978327 0.011811524 -0.045731872
000170 a8 87 1b bc c8 6e cb 3c c0 fc 8d 3b 7a 95 86 bd
       -0.009492792 0.024833098 0.0043331087 -0.06571479
000180 af 0e 9c bd 79 d5 bc 3c 00 72 e9 3a 3b 41 70 3d
       -0.07619988 0.02305101 0.0017810464 0.05865596
000190 9c e0 ee 3c 91 f4 8f 3c b6 47 1e 3c 23 d9 4c bc
       0.029159836 0.017572673 0.009660652 -0.012502941
0001a0 92 9d 42 bd fd 86 94 bc 69 0f 82 3d 04 4d be 3c
       -0.047513552 -0.018130774 0.063505955 0.023230083
0001b0 49 3e 05 3d 84 14 70 3d 9f 1d 5c 3d 5a b0 0f bd
       0.032530103 0.058613315 0.053739186 -0.03508029
0001c0 0e 6b 0b bd 49 1b 81 bb c5 7d 36 bb 57 1a 7f bd
       -0.034037642 -0.00394002 -0.002784596 -0.06228098
0001d0 3b c1 0d bc 81 9d 14 3d e0 b6 89 bb a3 46 77 3d
       -0.008652027 0.03628302 -0.0042027086 0.0603701
0001e0 d0 e2 48 bd 5d 49 7f bd c1 34 7c 3c 9a e1 48 3c
       -0.04904443 -0.062325824 0.015393437 0.012260819
0001f0 92 28 21 bd 98 8d 01 bd 47 e7 5d 3b 05 09 2b bc
       -0.03934533 -0.031629175 0.0033859776 -0.010439162
000200 f3 bc e4 bc 26 50 84 bb 80 90 03 bd 93 57 20 3d
       -0.02792213 -0.0040378748 -0.032120228 0.039146017
000210 36 aa c9 3d 8e b6 1d bd 9c 2a cb 3c 64 53 1d 3d
       0.09846918 -0.038504176 0.024800591 0.038409606
000220 cb 1a 35 bc 78 f5 48 bd 64 42 66 bc 69 43 a6 bc
       -0.011053751 -0.049062222 -0.014053915 -0.020295816
000230 03 6b f4 bc 08 46 3d bc 69 c7 53 bc 68 5c 6e bc
       -0.029836183 -0.011552341 -0.012925961 -0.014548399
000240 72 93 16 bd bb e1 5e bd 2e 6d 56 bd 43 f5 6b bd
       -0.03676171 -0.054414492 -0.052350216 -0.057606947
000250 3f b0 e0 3c 94 16 b7 3c b8 e7 56 3d b9 fc 2c 3c
       0.02742779 0.022349633 0.052467078 0.010558301
000260 20 98 d2 bc cf 94 25 bd d7 68 d3 3c 16 b6 1a bd
       -0.025707304 -0.040425118 0.025806827 -0.037771307
000270 86 66 46 3d 18 10 cd bd 4e 24 8e bd 04 b4 a2 bd
       0.048437618 -0.10012835 -0.06940518 -0.079444915
000280 a0 58 16 3d c2 bc cf bb 4a d8 b1 3c 67 ea 86 bc
       0.036705613 -0.0063396404 0.02170958 -0.016469194
000290 00 80 5b 3d 48 de ed bc a1 a8 6c 3d b9 84 15 bd
       0.053588867 -0.029036656 0.057778005 -0.036503527
0002a0 36 0f 11 bb 69 5e 4a 3d 0b 8d 67 bd dc 9f 2b 3e
       -0.002213431 0.049406443 -0.056530993 0.167602
0002b0 96 ac 27 bd d7 e0 e5 3d c0 25 41 bb b8 2f 85 3c
       -0.040936075 0.112245254 -0.0029471964 0.016258106
0002c0 31 4e 30 3c e4 5d 4f bd db 9c 93 3b 9f 6b 38 3c
       0.01076083 -0.05062665 0.0045047826 0.011256128
0002d0 80 fa e3 bb 97 13 4e bd 4a 5d 7d 3d f2 be 9c bc
       -0.006957352 -0.05031165 0.061856546 -0.019134019
0002e0 4d 87 43 bd 6f 83 9d 3d 11 31 23 bd ee c9 24 3d
       -0.047736455 0.076910846 -0.039841715 0.040231638
0002f0 02 8c b5 bc cf 44 84 bd 6d 7a eb 3a f4 2b 0b bd
       -0.022161487 -0.06458437 0.0017965563 -0.033977464
000300 3c 3f a0 3c b8 7c 71 3d 93 f3 da bb 6e e6 04 bd
       0.019561402 0.05895683 -0.0066818683 -0.032446317
000310 2a ff bf bc 97 2b 7b bd 2b b1 14 3d 81 4b 93 bd
       -0.023437101 -0.061320867 0.036301773 -0.071921356
000320 a4 95 4a bd bd 8b 22 bd 86 43 1f 3d 98 e2 7a 3c
       -0.049459115 -0.039684046 0.038882755 0.015312813
000330 09 b7 a6 3c 65 6a 56 bc 14 94 3e bc 28 dc 33 3c
       0.02035095 -0.01308689 -0.011631984 0.010977782
000340 80 6a 20 ba 88 d4 a4 bc 65 ec 19 bd d8 e5 11 bd
       -0.00061193854 -0.020120874 -0.03757896 -0.035619587
000350 98 40 31 bd 9d 83 c5 bc ce 7d 36 bd cc 71 0a bc
       -0.043274492 -0.02411061 -0.04455357 -0.008449983
000360 18 2d 3b 3a b9 d7 73 3d 47 c4 0c ba ed 4e 1f 3d
       0.00071402034 0.0595319 -0.0005369824 0.03889363
000370 6c ce 8f bd dd a8 98 bd ed 49 3e bc e3 94 a0 bd
       -0.07021794 -0.07454083 -0.011614305 -0.07840898
000380 99 e8 65 3c 7a a2 2b 3d 70 df 01 bd 58 db 2d bd
       0.014032506 0.041902997 -0.031707227 -0.04244551
000390 9e a2 0e bd 03 0b 47 3d 9f 18 66 bc 43 d1 43 bd
       -0.034823053 0.048594486 -0.014043956 -0.04780699
0003a0 cf cb db 3d 60 40 50 3b ec a9 26 bd 40 4f de bb
       0.10732233 0.0031776652 -0.040689394 -0.0067843497
0003b0 8a 58 9c bd 2f b8 83 3d 95 50 14 bd 99 07 b6 3c
       -0.07634075 0.064316146 -0.03620966 0.02222042
0003c0 2f 0e 4d 3d 62 8d 0d bd 88 77 c8 bc 07 72 01 bc
       0.050062355 -0.03455866 -0.02447106 -0.007900721
0003d0 a3 a9 00 bc 40 1d ec 3c 84 64 1f bd d5 a1 1b 3c
       -0.007852945 0.028822541 -0.03891422 0.009499033
0003e0 10 15 99 bc af 35 ef 3c c4 41 0e 3d 0f 14 5f bd
       -0.018686801 0.029200403 0.034730688 -0.05446249
0003f0 70 e6 07 3d f6 f2 b6 bc 0f 1d 42 3d 06 0c 7e bd
       0.033178747 -0.02233265 0.047390994 -0.062023185

linear_layer.2.bias f4 [256]
000000 70 ee 8c bc 84 40 cc bc b5 02 43 3c 60 bf 80 bc
       -0.01720354 -0.024933107 0.011902501 -0.015716255
000010 0b eb 90 3c d0 75 17 bd 9a 86 e2 bc 00 4b da 3c
       0.017690202 -0.03697759 -0.027652074 0.02664709
000020 80 44 64 3d 2a c0 64 bd 8d ae ca 3c 36 a3 41 bd
       0.05572939 -0.055847324 0.024741435 -0.04727479
000030 20 c7 e1 3b 7e ef cb bc c1 40 35 bc 96 95 df bc
       0.0068901926 -0.024894472 -0.011062802 -0.027293008
000040 eb 9e 38 bc 0d d5 70 bd dc 08 92 3c b9 2e 48 3d
       -0.011268358 -0.05879693 0.01782649 0.048872683
000050 fe ea 84 3c 12 ba 7a 3d c5 00 be 3c 94 41 28 bd
       0.016225334 0.061212607 0.023193726 -0.041078165
000060 80 73 07 ba a2 39 61 bd 85 f9 0a 3d 70 a1 c9 bc
       -0.0005167052 -0.054986604 0.033929367 -0.024613112
000070 f2 b3 4c bd 8b 02 05 3d ed 71 7c ba be 86 9b 3c
       -0.049976297 0.03247313 -0.00096300134 0.018985149
000080 12 34 95 bd ae 26 74 bc d6 7f 0c 3c 16 51 67 bd
       -0.07285322 -0.0149018 0.0085754 -0.056473814
000090 55 cc 2d 3d e3 dd 21 3d 36 2a 84 bc f8 09 40 bd
       0.042431194 0.03951825 -0.016133409 -0.046884507
0000a0 d4 0a e2 3c 74 6d 02 bd a5 a5 90 bd 06 e5 93 bc
       0.027593054 -0.031842664 -0.07062844 -0.018053543
0000b0 61 9f 83 bd 7a 9e d8 ba 31 ff 2e bd a8 a2 4a bd
       -0.064268835 -0.0016526722 -0.04272384 -0.049471527
0000c0 64 00 1d bd b8 ed 75 3c e8 d8 78 3c 4e 93 6d bd
       -0.03833045 0.01501029 0.015188433 -0.05800181
0000d0 09 c6 7a bd 77 95 55 bd 74 c7 35 bd 70 85 b1 3c
       -0.061224017 -0.052144494 -0.044379666 0.021670073
0000e0 df 04 36 3c 09 d6 9d bd 67 ce bd bb ba 88 42 3d
       0.01110956 -0.077068396 -0.0057924273 0.047493674
0000f0 10 06 02 3d 1f c4 64 bd 00 50 99 bc 5a 1a 9d 3c
       0.031744063 -0.0558511 -0.018714905 0.019177604
000100 44 69 13 3d 4a 12 73 3d 40 0e b7 3b a4 c0 92 bc
       0.03598906 0.059343614 0.0055864155 -0.017914124
000110 89 40 f1 3c 70 97 bd 3b 6c 4a d5 bc b1 13 d1 bc
       0.029449718 0.005785875 -0.026036464 -0.025522085
000120 3e c3 93 bc f7 a2 5d 3c 99 e6 66 bd 7e a7 02 bc
       -0.018037435 0.013527623 -0.05637226 -0.007974504
000130 b0 97 06 bd 34 bf 64 3d c6 f5 23 bd 49 69 7e bc
       -0.032859504 0.055846408 -0.04002931 -0.015528032
000140 0e 5e b6 3b a1 99 30 bc 2c e9 21 3d aa 9e f6 bc
       0.0055654114 -0.0107788155 0.03952901 -0.030104954
000150 19 8c 4c 3d 33 13 85 bc 64 78 ce 3b c6 82 31 3d
       0.049938295 -0.016244506 0.006300973 0.043337606
000160 25 ab 8e bd b8 64 86 3d 6a 36 34 3c c5 af eb bc
       -0.06966237 0.06562179 0.010999301 -0.028770337
000170 97 2d c3 bc 89 07 b0 bc 97 d8 d1 bc e3 11 1b 3c
       -0.02382545 -0.021487968 -0.025615973 0.009464714
000180 3d 0b 87 bd bd 83 62 bd 0e f7 35 3d 00 fb 3a 3b
       -0.065939404 -0.055301417 0.044425063 0.0028530955
000190 ca 62 3c bd 7c a9 af 3c 4f c3 6a ba 02 c3 07 bd
       -0.04599265 0.021443121 -0.0008955495 -0.03314496
0001a0 ff 19 96 bc 0e 20 ad 3c 80 ba 11 3d 00 f0 28 3d
       -0.018322943 0.021133449 0.03557825 0.041244507
0001b0 4f a7 bf 3c b1 29 2f bd 14 7f d3 3c 8a 0d 40 3d
       0.023395209 -0.04276437 0.025817432 0.04688791
0001c0 43 e3 85 bc 67 83 32 bc b9 5e d8 bc a4 64 10 bd
       -0.016343718 -0.010895587 -0.026412355 -0.03525223
0001d0 ef 08 70 bd c2 84 d9 3c d8 72 3c 3d 78 39 ea 3c
       -0.05860227 0.026552562 0.04600796 0.028591856
0001e0 38 6e ec 3a 72 3e e1 bc 6a a6 58 3d ad fb 1c 3c
       0.0018038219 -0.027495597 0.05289308 0.009581489
0001f0 4c 0d ef 39 70 28 3c 3d f1 2b a6 3c f0 9e eb 3c
       0.0004559554 0.045937 0.020284625 0.02876231
000200 77 1a a7 3d 3c c0 85 bc e2 5e 11 bd b6 c1 6a 3d
       0.08159345 -0.016327016 -0.035490878 0.057313643
000210 0a f0 1a bd 2b 4a a1 3b f9 f3 78 bd 47 17 2a 3c
       -0.037826575 0.0049221716 -0.060779545 0.010381526
000220 71 96 29 3d a2 78 86 bd 25 5f 13 3d 31 c7 b7 3d
       0.041403238 -0.06565978 0.03597941 0.089735396
000230 fc 0f a3 3c 70 21 0d bd 31 7f 44 3c bd 9b 81 bb
       0.019905083 -0.034455717 0.011993215 -0.003955333
000240 d2 8c 00 bc fc 08 0c 3d ac 74 14 bc 25 19 ae bc
       -0.007846074 0.034188256 -0.00906102 -0.021252224
000250 6c fb 34 3d bd 97 57 bb a4 cc 32 3d 94 c7 7a bd
       0.044185087 -0.003289684 0.04365219 -0.06122549
000260 28 9e 74 bd 2d 5a 44 bd 7d 65 13 3c 86 c2 11 bd
       -0.059721142 -0.04793756 0.008996365 -0.035585903
000270 9d 3a 9c 3c 32 2e 4e 3d fa ed 2b bc 7e e6 5f bc
       0.019070918 0.050337024 -0.01049375 -0.013665793
000280 35 cd 84 3c 79 0c 74 3d 66 33 07 bd 54 52 81 3c
       0.016211132 0.059582207 -0.033008 0.015786327
000290 c2 b3 0d 3d 4e d2 82 bd f3 83 44 bc 9b 2e ef 3c
       0.03459526 -0.06387769 -0.01199435 0.029197028
0002a0 ed f6 48 bd bf 06 57 bd 5a 3e 23 3d 07 32 69 3d
       -0.04906361 -0.052496668 0.039854385 0.056932475
0002b0 b4 4a 47 3d 86 e8 57 bd 84 81 59 bd 2e ae 25 3d
       0.048655227 -0.052711986 -0.05310203 0.040449314
0002c0 f4 da be bc 3c 39 0e bd ec 32 ee 3c 00 7d 2c 3d
       -0.023297764 -0.03472255 0.029077016 0.042111397
0002d0 40 53 9a 3b 47 34 8b bd f2 06 c2 3c 6a b6 5a 3b
       0.004709631 -0.067970805 0.023684952 0.0033372887
0002e0 88 b0 59 3d 74 91 60 bd e5 d9 b2 bc a4 82 91 bc
       0.05314687 -0.054826215 -0.021832416 -0.01776249
0002f0 3a 55 20 3d c0 3b b3 ba 17 f1 ca 3c fb 01 73 3d
       0.03914378 -0.0013674423 0.024773164 0.05932806
000300 e7 9d 85 3d 94 bb 97 3c 8b d4 46 3d 15 8a 39 bd
       0.06524258 0.018522061 0.04854254 -0.0452977
000310 fa 32 56 3d 39 4d 2b 3c 89 cf 98 3d 24 29 89 bd
       0.05229471 0.010455423 0.07461459 -0.066973
000320 59 b9 cf 3c 56 f0 26 bd bc 5a 61 bd ce 76 a4 bd
       0.025356935 -0.040756546 -0.05501817 -0.08030473
000330 25 d7 3f bd 66 32 75 bd 10 34 40 3c 61 8e 83 bd
       -0.046836037 -0.059862517 0.011731163 -0.06423641
000340 1c 89 16 bd d9 c0 5e 3d 55 85 34 bd 9c 86 32 3d
       -0.03675185 0.054383133 -0.044072468 0.043585405
000350 06 56 f6 3c 26 88 1d bd 3e d3 50 bd 00 21 79 bb
       0.030070316 -0.03845992 -0.050982706 -0.0038014054
000360 de 4a 46 bd eb b7 30 bd a4 00 6c 3d 1e a2 0a 3d
       -0.048411243 -0.043144148 0.0576178 0.033846013
000370 40 0c 6b 3b a8 d3 e4 3a 67 b6 15 bd 88 7e 73 bc
       0.0035865456 0.0017458098 -0.036550906 -0.01486171
000380 d0 9d 1c 3c 73 b5 32 3c 04 98 1b 3d 1f 6e 5b 3d
       0.00955911 0.010907519 0.03798677 0.053571817
000390 85 85 86 bd 97 be 78 bd f0 d2 c5 bb fa e6 4a bd
       -0.065684356 -0.060728636 -0.0060371086 -0.049536683
0003a0 5e ec 64 bd 7f e0 94 3c df 99 b1 bd f9 24 ad 3b
       -0.05588948 0.018173454 -0.08671927 0.0052839485
0003b0 9a 9f c2 bb 33 39 56 3d 0d 77 ab bc e3 18 eb 3c
       -0.005939436 0.052300643 -0.020930791 0.02869839
0003c0 08 87 6a 3d f7 c3 7a 3c 00 df f9 bc 63 92 0a bd
       0.057257682 0.015305511 -0.030501842 -0.03383101
0003d0 b6 24 e3 3b 08 3b 80 bd 28 03 ff bc 49 95 da 3c
       0.0069318665 -0.06261259 -0.031129435 0.026682513
0003e0 cc bf 0b 3c dc 89 5d 3d dc 15 22 bd 42 1f b5 3c
       0.008529615 0.05408655 -0.039571628 0.022109631
0003f0 85 80 c9 3c a0 41 1f 3d 03 c5 77 bd 37 31 df bc
       0.024597416 0.038880944 -0.06049062 -0.027245147

linear_layer.4.weight f4 [49, 256]
000000 cb 71 1a bd c8 e2 dd 3c b0 08 c5 ba 7e 45 ce 3c
       -0.037706178 0.027085677 -0.0015032496 0.02517962
000010 21 53 0e bd 78 a6 e4 bc 99 34 04 3e 44 e5 27 bd
       -0.034747247 -0.02791141 0.1291069 -0.04099013
000020 7d 98 6a 3d 53 f7 a5 bc 3a f3 92 3c 12 84 6d 3d
       0.05727433 -0.020259535 0.017938245 0.05798728
000030 a4 21 d9 3c ca 4a 62 bd be e2 fc bc 54 24 59 3d
       0.026505299 -0.055247106 -0.030869838 0.05301316
000040 dd 27 91 bc ee d6 72 3c f0 5d 23 bd f5 91 64 ba
       -0.017719204 0.014821751 -0.039884508 -0.0008719259
000050 e4 97 b5 bd ec ae 5b 3d c8 1f bd 3d f0 8d bd bc
       -0.088668615 0.053633615 0.092345774 -0.02313897
000060 5e 6d 44 3d 42 39 d1 3d 5c ee c9 bb c8 fe ec 3c
       0.047955863 0.10215999 -0.006162448 0.028930083
000070 c1 21 3a 3d 8e ce 5f 3d fd f9 24 3d 3c 37 8a 3b
       0.045442346 0.054640345 0.04027747 0.00421801
000080 16 36 10 3e 76 05 24 3d 59 12 db 3c c0 41 a6 3c
       0.14083132 0.04004427 0.026742147 0.020295024
000090 d7 34 4e 3d a6 65 95 3c 92 56 96 bd a1 0c 0c 3d
       0.05034336 0.018236946 -0.07340731 0.03419173
0000a0 93 83 1c 3b 6c 44 9b bd 05 8e a9 3d a6 b5 51 3d
       0.0023882135 -0.0758141 0.08279041 0.051198624
0000b0 09 24 85 3d 20 d5 8e 3c f4 23 02 3d ee 01 67 3d
       0.06501014 0.01743561 0.03177257 0.056398325
0000c0 ba 2b 23 3d d8 68 0e 3d cb 35 b8 3d 18 fc 77 3c
       0.039836623 0.034767956 0.08994635 0.015135787
0000d0 99 99 2b 3d 53 b1 0f 3e e2 f4 86 3d 1c ca b0 bc
       0.04189453 0.14032488 0.065896764 -0.021580748
0000e0 62 53 c3 bc c8 8c 8b 3c 82 e7 58 3d c0 22 9f 3a
       -0.023843471 0.017034903 0.052955158 0.0012141094
0000f0 56 78 6d 3d 9f 3b e7 bc 0f d4 43 bb b3 29 b6 bc
       0.05797609 -0.028226672 -0.0029881035 -0.02223668
000100 fa fe d9 3d 70 ed b4 bb d0 f3 ad bb 9c a6 e9 bc
       0.10644336 -0.005521469 -0.0053086057 -0.028521828
000110 d0 01 a1 bc de 62 58 bd 43 ad 55 bd 70 a8 11 3d
       -0.019654185 -0.052828662 -0.05216719 0.035561025
000120 91 01 31 3d 73 60 7b 3d dd 48 cb bc aa 51 25 bd
       0.043214384 0.061371278 -0.024815017 -0.040361084
000130 d5 ca f8 3c 00 af c0 3a eb 76 4c 3c 39 d1 7c bd
       0.030370155 0.0014700592 0.012479524 -0.061722968
000140 c3 5d 2b 3d ce 70 1f 3e 7e 82 f5 3c b9 c2 2c 3d
       0.041837465 0.15570375 0.02996945 0.04217789
000150 9c ba 20 bd f9 40 36 3d 49 b8 06 bb c9 72 14 b8
       -0.039240465 0.044495557 -0.002055662 -3.539285e-05
000160 71 9c bc 3b f8 9f 1e bd af 3c 85 bd 24 ce 82 bd
       0.005755954 -0.038726777 -0.06505715 -0.063869745
000170 73 43 98 3c f5 96 84 3d 88 4c 4b bd 11 57 ad bc
       0.01858685 0.06474105 -0.049633533 -0.02115968
000180 84 9c 1e bd 06 e5 43 bd 10 55 db bc a4 4f a6 3c
       -0.038723484 -0.047825836 -0.02677396 0.020301647
000190 f2 14 63 bd 45 9b 51 bd 72 c1 58 3d 44 9a e4 bc
       -0.055439897 -0.051173467 0.05291886 -0.02790559
0001a0 8f 93 4c bc 40 31 9c 3d 12 0b 74 bd c7 be 49 bd
       -0.012486353 0.07626581 -0.05958087 -0.049254205
0001b0 52 38 bb bc 39 24 95 bb 72 a7 60 3d 2e 1e 07 bd
       -0.022854004 -0.004551437 0.05484719 -0.032987766
0001c0 3b cf 6c bb 23 0e 19 bc c1 41 36 3d 94 fa f6 3c
       -0.0036134261 -0.009341749 0.0444963 0.030148782
0001d0 7a 56 69 bd 79 d3 89 3d 74 9d 7b bd 67 01 62 3d
       -0.056967236 0.06729788 -0.061429456 0.05517712
0001e0 0c 11 0d bc fa 19 0b bd 9e ca 39 3d f3 ba 66 bd
       -0.008610021 -0.03396032 0.045359246 -0.056330632
0001f0 b7 69 b5 bb 6a b5 41 3d 97 ee 86 3d 84 70 3c bd
       -0.005536284 0.04729215 0.06588476 -0.04600574
000200 a5 ee 80 bc 37 0f b9 3b 58 d8 c4 bc e0 a5 1f bd
       -0.015738795 0.0056475657 -0.024028942 -0.03897655
000210 ea d1 03 bd aa 95 c3 bc 06 ea 83 3d 4e eb 06 3d
       -0.03218261 -0.023875076 0.06441121 0.032939248
000220 91 ac a9 3d d0 33 48 3d 7d 14 65 bd 1a 04 b7 bc
       0.082848676 0.048877537 -0.055927742 -0.022340823
000230 0a e2 51 bd 22 c1 d7 3d d4 87 35 3c 15 96 c0 3b
       -0.05124096 0.10534884 0.011079747 0.005877266
000240 45 44 ba bc 4f 5b 3d 3d 12 26 7c bb 9e a8 58 bd
       -0.022737632 0.046229657 -0.003847484 -0.05289518
000250 25 b2 8a bb fa b0 9d bc f5 ac 80 bd 70 a8 73 bd
       -0.0042326623 -0.019249428 -0.06282989 -0.059486806
000260 26 4c c5 3b 18 91 ec bc 5f 60 67 bc 47 48 16 3d
       0.0060210405 -0.02887778 -0.014122098 0.036690023
000270 a6 6f 36 bc 5c 07 0d 3d f5 ea 11 bd 20 39 6d bd
       -0.0111350175 0.034430847 -0.035624463 -0.057915807
000280 b8 eb 85 bd 80 79 47 3d 26 ee 9d bc f0 50 04 bc
       -0.065391004 0.048699856 -0.019278597 -0.008075938
000290 e9 f0 85 3c 42 91 98 3d 3c 8b 9c 3b be 74 13 3d
       0.016350226 0.07449581 0.00477734 0.036000006
0002a0 ac 24 9c 3b e3 1d 10 3d 6f 01 2e bc 3e cc 9c bb
       0.004765114 0.035184752 -0.010620459 -0.0047850898
0002b0 80 35 b7 3a f1 bf f2 bb 1e f2 b6 bc 26 c7 41 3d
       0.0013977736 -0.007408135 -0.022332247 0.047309063
0002c0 5c b1 16 3d 4b 3c 3c 3d c0 ae 35 bd cd 2a 90 bc
       0.036790237 0.045955937 -0.044356108 -0.017598534
0002d0 00 63 15 3d 04 f4 ce bc 56 14 11 bc 19 35 89 bc
       0.036471367 -0.02526284 -0.008854946 -0.016748952
0002e0 1a 09 3d 3d 53 89 f8 bd a5 61 5e bd 80 71 7b 3c
       0.046151258 -0.121355675 -0.05429234 0.015346885
0002f0 66 37 5f 3d 80 26 33 ba 50 e4 22 bd 0d 28 13 3c
       0.05449619 -0.0006834045 -0.039768517 0.008981717
000300 83 9f 7e 3d 06 69 e8 bd 3f 23 02 3c 6d d0 57 bd
       0.06216384 -0.11348157 0.007942974 -0.052689005
000310 36 f9 5f bd df 0a 02 39 83 ff 83 3c 9f ca 8f bc
       -0.054681025 0.00012401816 0.016113048 -0.017552672
000320 37 c0 45 3d 38 9f 47 bd e2 91 0e bd 83 70 92 3d
       0.048279013 -0.048735827 -0.034807093 0.07150366
000330 e9 8b 87 bc e9 06 f9 3b c8 c2 3d 3d d8 91 18 bd
       -0.016546207 0.0075997007 0.046328336 -0.037248462
000340 3d 91 30 bd 71 9b cc bb f7 e6 3f bc a8 d4 f4 bc
       -0.04310726 -0.006244116 -0.011712781 -0.029886559
000350 37 4a 3f 3d 13 96 69 3d e7 a6 79 3d 90 75 8f bc
       0.046701636 0.057027888 0.060950186 -0.017512113
000360 ba 00 52 3d 73 da 25 bd a0 5a 49 3d 31 30 35 3d
       0.051270224 -0.040491533 0.049158692 0.044235412
000370 b8 e3 20 3c 6c 03 34 3d ae 10 a4 3d 00 21 70 ba
       0.009819917 0.043948576 0.08010994 -0.0009160191
000380 5e c7 67 3d 0f b2 58 bb 30 ee 81 bc 06 17 fe 3c
       0.056586616 -0.0033065116 -0.015860647 0.031016838
000390 82 f1 26 3b 69 cb 63 bd 5e af dc bc 70 95 43 3d
       0.002547354 -0.05561391 -0.02693909 0.047749937
0003a0 b0 5d 60 3c ac 06 cd 3b b6 21 1b 3c cb 71 10 3d
       0.013694212 0.006256899 0.0094684865 0.03526477
0003b0 3d 81 49 bd e2 a1 f4 3c 0c 55 07 3c 62 48 09 bd
       -0.049195517 0.029862348 0.008260023 -0.033516295
0003c0 a4 30 65 3d 51 07 91 bd 30 95 a1 bb 05 6d 8d bd
       0.05595459 -0.070814736 -0.0049311146 -0.069055595
0003d0 e6 3e 6c b8 5c 3d 22 bd 63 91 b7 ba d0 c7 19 bd
       -5.6325363e-05 -0.039609298 -0.0014005121 -0.03754407
0003e0 21 11 65 3d 46 ff 3f bc 04 83 c8 bc e4 53 48 bc
       0.05592454 -0.011718577 -0.024476536 -0.012227032
0003f0 82 d8 ce 3c 34 9d 31 3b 74 bb d6 b9 12 d7 b2 bb
       0.025249723 0.0027101757 -0.00040956924 -0.0054577673

linear_layer.4.bias f4 [49]
000000 e7 bb c9 3c 12 57 ac 3d a3 fd 96 3b 2f 80 76 3d
       0.024625732 0.08415045 0.0046078726 0.06018084
000010 1a 29 63 bd ac 5c ff bc 49 c7 52 bb 71 49 9e bc
       -0.05545912 -0.03117212 -0.003216224 -0.019322129
000020 60 06 34 3c de 2d b9 bc eb a5 c4 bb 7d 28 f9 3c
       0.010987848 -0.022604879 -0.0060012243 0.030414814
000030 8d 80 12 bd ee f3 8d 3d eb 07 92 3d 88 2d b1 3c
       -0.035767127 0.069312915 0.071304165 0.021628156
000040 c0 02 69 3d 72 ae 17 3c 54 6e ef bc 4d 36 bd 3c
       0.05688739 0.0092579 -0.029227413 0.023097182
000050 83 0d 4a 3d ae 87 a0 3d 13 7c 1a bd 3a dd e9 bc
       0.049329292 0.07838379 -0.037715983 -0.028547872
000060 2f 6b 1a bd 8a b8 58 bc 65 8c 9b 3c 67 a3 58 bd
       -0.037699874 -0.013227591 0.018987844 -0.052890208
000070 c5 70 87 3d 43 aa 34 bd d5 9b 19 3c 56 8e 6a 3d
       0.06613306 -0.044107687 0.009375532 0.05726465
000080 2b 0f 2f 3d 8b ac 82 3d 1b 95 36 3c 74 26 f7 bc
       0.042739075 0.06380566 0.011143948 -0.030169703
000090 f5 cd f6 3a 3b 05 dd bc 1b 0a 2f 3d 3a 4a ce bc
       0.001882969 -0.026980033 0.042734247 -0.025181878
0000a0 5c 64 62 3d 66 f9 91 3c 98 8d cd bc cb 13 a3 bc
       0.05527149 0.017819118 -0.025091931 -0.019906899
0000b0 d8 59 9d 3d 30 b0 93 bb c1 3c 25 bd cb a1 be 3c
       0.07683152 -0.004507087 -0.040341143 0.023270508
0000c0 fb b4 94 3d
       0.07261082
