data/Apr-13_05-51-52/models/actor_1550.pth (torch, 323799 bytes, 6 tensors)

linear_layer.0.weight f4 [256, 7]
0.21152301 -0.17312613 -0.07144859 0.19083117 -0.4188469 0.30292633 0.038728554 0.127943
-0.004829731 -0.10745203 0.07988848 0.110221066 0.12862585 -0.27192974 -0.021530807 -0.0075230566
0.081401706 -0.0100649 0.6295942 0.1515241 -0.35784626 -0.22827592 -0.06335276 -0.16303146
-0.12111815 0.018097544 0.22531511 0.20543754 -0.38435197 0.23344363 0.10337582 0.32763615
0.5447137 -0.40981576 -0.5378574 -0.2169597 0.29859042 -0.07314471 0.13589263 -0.16245784
0.45520362 -0.23940937 0.26658618 -0.021575239 -0.2229452 0.20424308 -0.36178327 0.1628571
0.02824597 -0.04143791 -0.36337054 -0.18020655 0.20509638 -0.09187458 0.37647134 0.30297193
-0.025338976 -0.2528168 0.24956354 0.1415584 -0.44449574 0.37892783 0.26556972 0.38359365
-0.17362887 -0.034962233 0.048547834 -0.035881426 -0.2987984 -0.207628 0.1909288 -0.1088621
0.15616287 0.016577851 -0.1492757 0.013825754 0.3321859 0.18816581 -0.34932303 0.1908776
-0.2661974 -0.28575718 0.022381801 -0.06406641 0.2248873 -0.20390227 -0.32401407 0.30566013
-0.25219345 0.20912409 0.18453796 -0.28342623 0.07593241 0.09078577 -0.25306937 -0.17933366
0.12887667 0.067701966 -0.14660163 -0.087539196 0.37809393 -0.07530936 0.49670985 0.20001723
-0.4523241 -0.3548524 0.30286926 -0.02875686 0.21133122 0.005936206 0.111595824 0.35350457
0.35865927 -0.22551663 0.07768011 0.2785205 0.40703082 0.2894913 -0.43939188 -0.2923474
-0.24896471 0.028065814 0.35634544 -0.22087893 0.18452027 -0.19278403 -0.36243162 -0.08909207
0.21689257 0.36940226 -0.29616258 0.18596978 0.2986838 0.20975599 0.19278836 0.20307112
0.20830695 0.27029037 -0.36896572 -0.42839238 -0.17411451 -0.04440817 -0.2311585 0.1373956
0.118071124 -0.08615137 0.14617795 0.09100368 0.21784681 0.23647493 -0.17090839 0.6132644
-0.10136792 -0.21468206 -0.35675314 -0.24326405 -0.22080816 -0.16166407 0.26872122 -0.12351162
-0.28244573 0.12988925 0.10142805 0.2103337 -0.22207578 0.002175549 -0.20756292 0.0013141517
-0.30120683 -0.17226145 -0.11575454 0.16163096 0.06905011 0.093363434 0.3772483 0.3404424
0.23630238 -0.023683153 -0.29983154 0.40892646 -0.18857612 -0.13724339 -0.31623125 -0.06456238
-0.22197844 0.35842738 -0.31716588 -0.3234617 -0.10119156 -0.22013398 0.11936998 -0.16149223
-0.1922063 0.05845204 0.26224494 -0.288374 0.1584855 0.23488054 0.3539612 -0.29517028
0.270312 -0.38469213 0.19969773 -0.17152523 0.21192676 0.003316204 -0.06979406 0.18468127
0.019181425 -0.022327835 0.03385291 0.07667234 -0.36174026 0.26878121 0.35385144 0.3902579
0.2514198 -0.26381338 -0.12824099 0.3460538 -0.27493122 0.3512984 -0.2851582 -0.24930407
0.1729896 -0.27344504 -0.073127605 0.30048454 0.10084842 0.48576227 -0.04462218 -0.26420668
0.4078325 -0.057700947 -0.14109895 0.28444165 -0.34692577 0.17443469 0.23688269 -0.2999077
-0.31044957 -0.03310833 0.1587547 -0.010946658 -0.1916573 0.008641188 -0.35526097 -0.26713055
-0.2516069 0.3112652 0.3331779 -0.12838195 -0.016047174 0.15003216 0.03360375 -0.23785038
00000000: 7d99 583e fa47 31be a353 92bd 3f69 433e
00000010: 1a73 d6be 2919 9b3e d5a1 1e3d 7d03 033e
00000020: b842 9ebb cf0f dcbd 929c a33d 95bb e13d
00000030: 7fb6 033e 603a 8bbe 6061 b0bc f983 f6bb
00000040: f0b5 a63d 40e7 24bc 162d 213f 2229 1b3e
00000050: a037 b7be 2ac1 69be 18bf 81bd b8f1 26be
00000060: cb0c f8bd 4d41 943c 01b9 663e 385e 523e
00000070: c8c9 c4be d90b 6f3e b4b6 d33d edbf a73e
00000080: 5b72 0b3f 5fd3 d1be 06b1 09bf af2a 5ebe
00000090: d8e0 983e e5cc 95bd 7027 0b3e 595b 26be
000000a0: 7310 e93e bb27 75be fc7d 883e 8ebe b0bc
000000b0: bf4b 64be 1925 513e a83b b9be 03c4 263e
000000c0: 1864 e73c ccba 29bd b40b babe 1188 38be
000000d0: c904 523e bd28 bcbd dac0 c03e 231f 9b3e
000000e0: af93 cfbc 3471 81be 968d 7f3e aff4 103e
000000f0: f294 e3be d402 c23e c1f8 873e 6366 c43e
00000100: c4cb 31be 8f34 0fbd 18da 463d 67f8 12bd
00000110: 1bfc 98be 6f9c 54be d782 433e 18f3 debd
00000120: 29e9 1f3e 46ce 873c bbdb 18be 6a85 623c
00000130: 4514 aa3e 8aae 403e 78da b2be 6b75 433e
00000140: 074b 88be c44e 92be 0a5a b73c 4035 83bd
00000150: db48 663e c2cb 50be 2ce5 a5be 7c7f 9c3e
00000160: 801f 81be a024 563e 85f7 3c3e 3e1d 91be
00000170: 7482 9b3d e4ed b93d 4f92 81be 3ea3 37be
00000180: 3ff8 033e 54a7 8a3d bd1e 16be c047 b3bd
00000190: 8795 c13e cb3b 9abd c150 fe3e 51d1 4c3e
000001a0: 0697 e7be 37af b5be ae11 9b3e 8293 ebbc
000001b0: 3667 583e 8184 c23b 5a8c e43d 8dfe b43e
000001c0: 30a2 b73e d5ed 66be c016 9f3d 3d9a 8e3e
000001d0: 5866 d03e 3438 943e f9f7 e0be 8fae 95be
000001e0: 9bf0 7ebe 47ea e53c e972 b63e 162e 62be
000001f0: e2f2 3c3e 2d69 45be a390 b9be e775 b6bd
00000200: 1619 5e3e 4b22 bd3e 9fa2 97be dd6e 3e3e
00000210: 15ed 983e 46ca 563e 506a 453e e0f1 4f3e
00000220: 6b4e 553e 8063 8a3e 13e9 bcbe 3f56 dbbe
00000230: 134b 32be 57e5 35bd d0b4 6cbe 6fb1 0c3e
00000240: 46cf f13d 2170 b0bd acaf 153e 2360 ba3d
00000250: 3c13 5f3e 7c26 723e 9c02 2fbe e5fe 1c3f
00000260: fc99 cfbd 9dd5 5bbe 59a8 b6be 361a 79be
00000270: 891b 62be 448b 25be d495 893e a9f3 fcbd
00000280: ba9c 90be b001 053e 82b9 cf3d b861 573e
00000290: d567 63be a893 0e3b 608b 54be 9d3f ac3a
000002a0: c837 9abe 4e65 30be b710 edbd 9682 253e
000002b0: 256a 8d3d 5435 bf3d b026 c13e 774e ae3e
000002c0: 40f9 713e 2c03 c2bc 8583 99be cf5e d13e
000002d0: 191a 41be 8889 0cbe 10e9 a1be 4839 84bd
000002e0: 514e 63be cb83 b73e 9163 a2be c69c a5be
000002f0: 853d cfbd cd6a 61be 4078 f43d 385e 25be
00000300: bad1 44be 686b 6f3d f844 863e c2a5 93be
00000310: 064a 223e 8684 703e 673a b53e 8f20 97be
00000320: 5666 8a3e 5ef6 c4be 907d 4c3e 4fa4 2fbe
00000330: 5403 593e ac54 593b 30f0 8ebd 161d 3d3e
00000340: 5d22 9d3c dde8 b6bc 59a9 0a3d 6306 9d3d
00000350: 0536 b9be b19d 893e 042c b53e e2cf c73e
00000360: 19ba 803e 8c12 87be 9b51 03be f72d b13e
00000370: c9c3 8cbe 62dd b33e 4100 92be 9149 7fbe
00000380: 3024 313e fd00 8cbe edc3 95bd 1cd9 993e
00000390: 9e89 ce3d d5b5 f83e bfc5 36bd 1946 87be
000003a0: 6ccf d03e d457 6cbd 3e7c 10be 56a2 913e
000003b0: 41a0 b1be 029f 323e 6091 723e 818d 99be
000003c0: 3ff3 9ebe 9a9c 07bd 9890 223e 9d59 33bc
000003d0: d041 44be c593 0d3c c4e4 b5be 56c5 88be
000003e0: 9fd2 80be 275e 9f3e 4b96 aa3e 8f76 03be
000003f0: 5d75 83bc 08a2 193e 16a4 093d 0d8f 73be

linear_layer.0.bias f4 [256]
-0.19809847 0.2805659 0.05765275 0.19842115 0.08001242 0.070604905 0.2472391 -0.018942362
0.31078944 0.1420626 -0.25269875 0.24858625 -0.23778893 0.19678803 -0.024379387 0.06356053
0.01342274 0.054347564 -0.09013356 0.078304686 0.17569526 -0.3593096 0.33324182 -0.36533633
-0.16870163 0.10196462 0.36075586 0.107021645 -0.23923649 0.067469954 -0.2376022 0.18854824
0.062012706 0.042817917 -0.28992748 0.2017176 0.37313968 -0.2630848 0.19816709 -0.15595393
-0.108603805 0.3010878 -0.34723702 -0.08189967 0.08922138 0.13592428 -0.14612067 -0.25476295
0.076203026 -0.29854575 0.031648 -0.25085193 -0.066887 0.29169565 -0.25842103 -0.2658191
-0.2639637 0.21226877 0.29869083 -0.19963369 0.21517985 0.24210906 -0.233583 0.15632638
0.18092617 -0.0032264958 0.19162782 0.020313215 -0.06716763 0.21232389 -0.2978429 -0.37122798
0.07021943 0.06854978 0.02159309 -0.19645305 0.33587098 -0.27674386 -0.21126522 -0.3190074
-0.37643299 0.06449622 -0.15231138 0.17839676 0.36419564 0.13525355 0.3329823 -0.2882477
0.14890169 0.18594405 -0.14051181 -0.026826864 -0.26351717 0.036403116 -0.35589612 -0.23098312
-0.2754321 -0.051203683 0.03852372 -0.30713236 -0.13887331 0.19070332 0.025326034 0.016203422
-0.1954617 -0.16357358 -0.3670681 0.2645253 -0.004770884 0.17408764 0.22050467 0.33139056
-0.26071143 0.09087139 -0.25907272 0.15650578 -0.2009937 0.092019275 -0.27828208 0.2008858
0.2771007 0.20696835 -0.31990746 0.21773301 -0.30086923 -0.35351247 0.21412659 -0.025147766
-0.19455224 -0.29330644 0.018680139 -0.11558503 -0.24153109 -0.05556935 -0.3618264 0.18619952
-0.26341927 -0.12865242 -0.36835793 -0.05722544 -0.17306677 0.20855828 -0.08831725 0.25444004
0.4134121 0.07067944 -0.12954384 -0.3278917 -0.28344113 -0.18954746 -0.25863305 0.18668209
-0.12202713 -0.012484649 0.03879444 -0.32659066 0.3138629 -0.15303546 -0.3473128 -0.037102904
-0.39535254 0.059763316 -0.2221117 -0.15761676 -0.11116703 0.2420889 0.2900183 0.39076784
0.014916397 0.24084619 -0.35315958 -0.22680159 0.2034107 0.12991507 0.10461179 0.21606119
0.23480761 0.17943795 -0.16395406 -0.09534311 0.07960149 0.3233364 -0.028639907 -0.122278705
0.20657255 0.281258 -0.049018435 -0.10839573 -0.4074 0.0316812 0.16861604 -0.2774866
-0.28061575 -0.37786713 0.2803897 0.29870227 0.3890474 0.3158359 -0.08801131 0.27035755
0.22371472 -0.10938672 -0.2177605 0.32715282 -0.068634406 0.098737836 -0.17872597 -0.22106172
-0.0700351 0.0124994535 0.2714016 0.24553072 -0.047489993 0.28117317 -0.20121522 0.03133028
-0.2255063 0.06020713 0.33545467 -0.25389352 0.114305094 -0.3253895 -0.026000848 -0.14696606
-0.003017082 -0.29814973 0.11856811 -0.4177172 0.06369035 -0.18723933 -0.22186589 0.30154878
0.08608896 -0.2501933 -0.21517912 -0.16863725 -0.2629538 0.09265073 -0.0011396143 0.35826707
-0.011234071 -0.1327466 0.32499877 0.093514 -0.07300164 0.27404633 0.3578976 -0.32098255
-0.3139313 -0.26776108 -0.37539914 -0.124218926 0.13835949 -0.33593917 -0.39738742 -0.32545918
00000000: 53da 4abe 55a6 8f3e 4a25 6c3d ea2e 4b3e
00000010: 8ddd a33d 4e99 903d 3f2c 7d3e 032d 9bbc
00000020: cb1f 9f3e dc78 113e bb61 81be 658d 7e3e
00000030: f17e 73be cd82 493e 48b7 c7bc 062c 823d
00000040: 0deb 5b3c 8d9b 5e3d f297 b8bd 355e a03d
00000050: 75e9 333e 6ef7 b7be ac9e aa3e 5d0d bbbe
00000060: 1fc0 2cbe d4d2 d03d feb4 b83e 2a2e db3d
00000070: 69fa 74be b02d 8a3d fe4d 73be ca12 413e
00000080: 0901 7e3d d761 2f3d 6071 94be 0f8f 4e3e
00000090: 2a0c bf3e 0db3 86be 50ec 4a3e 63b2 1fbe
000000a0: ac6b debd 2e28 9a3e 0dc9 b1be 04bb a7bd
000000b0: b3b9 b63d bc2f 0b3e a8a0 15be 4a70 82be
000000c0: 5510 9c3d fdda 98be 55a1 013d aa6f 80be
000000d0: 0dfc 88bd 2259 953e c34f 84be 7119 88be
000000e0: 4026 87be fc5c 593e 01ee 983e c66c 4cbe
000000f0: 1b58 5c3e 70eb 773e 6230 6fbe 0614 203e
00000100: b644 393e 9e73 53bb 153a 443e e667 a63c
00000110: 2f8f 89bd 6f6b 593e dd7e 98be 9811 bebe
00000120: 34cf 8f3d d463 8c3d fee3 b03c fd2a 49be
00000130: 48f7 ab3e 5fb1 8dbe e955 58be f054 a3be
00000140: d3bb c0be 9816 843d 84f7 1bbe a4ad 363e
00000150: da77 ba3e e87f 0a3e a87c aa3e 3495 93be
00000160: af79 183e 1e68 3e3e 54e2 0fbe 03c4 dbbc
00000170: b9eb 86be 6f1b 153d 0438 b6be d786 6cbe
00000180: 7005 8dbe f4ba 51bd 0ccb 1d3d 7440 9dbe
00000190: ce34 0ebe bb47 433e 8b78 cf3c 0abd 843c
000001a0: 1d27 48be d57f 27be 5af0 bbbe dc6f 873e
000001b0: 1355 9cbb 0844 323e facb 613e 06ac a93e
000001c0: f87b 85be c81a ba3d 2ea5 84be 0d43 203e
000001d0: 4bd1 4dbe 9a74 bc3d fd7a 8ebe 02b5 4d3e
000001e0: 25e0 8d3e 83ef 533e e9ca a3be 67f5 5e3e
000001f0: 880b 9abe 96ff b4be 0044 5b3e b002 cebc
00000200: b438 47be 432c 96be 1707 993c d8b7 ecbd
00000210: ed53 77be b09c 63bd 4f41 b9be 16ab 3e3e
00000220: e4de 86be 76bd 03be 6999 bcbe 3965 6abd
00000230: 6a38 31be 4d90 553e addf b4bd f745 823e
00000240: c0aa d33e 62c0 903d 24a7 04be 6ce1 a7be
00000250: 321f 91be bb18 42be 8d6b 84be 9729 3f3e
00000260: 5ce9 f9bd 6a8c 4cbc ebe6 1e3d e436 a7be
00000270: a3b2 a03e 54b5 1cbe fcd2 b1be 37f9 17bd
00000280: a66b cabe 61ca 743d 4071 63be 4a66 21be
00000290: 8aab e3bd 27e6 773e 477d 943e b912 c83e
000002a0: e763 743c 62a0 763e 55d1 b4be ad3e 68be
000002b0: e54a 503e 7508 053e b53e d63d 253f 5d3e
000002c0: 6871 703e 95be 373e 93e3 27be 4043 c3bd
000002d0: 1b06 a33d 598c a53e 3d9e eabc 426d fabd
000002e0: c187 533e 0c01 903e 8ec7 48bd 95fe ddbd
000002f0: bc96 d0be 25c4 013d afa9 2c3e b912 8ebe
00000300: deac 8fbe cd77 c1be 3d8f 8f3e 81ef 983e
00000310: 3931 c73e 3eb5 a13e 463f b4bd 4e6c 8a3e
00000320: 7915 653e 2506 e0bd 9cfc 5ebe 9380 a73e
00000330: 3290 8cbd 1037 ca3d f103 37be 015e 62be
00000340: 906e 8fbd 82ca 4c3c 27f5 8a3e 686c 7b3e
00000350: de84 42bd eef5 8f3e 5d0b 4ebe 2e54 003d
00000360: 20eb 66be c09b 763d b7c0 ab3e 55fe 81be
00000370: ca18 ea3d 7499 a6be bbff d4bc 457e 16be
00000380: 3dba 45bb 15a7 98be d6d3 f23d 07df d5be
00000390: 1670 823d abbb 3fbe d030 63be 9a64 9a3e
000003a0: 694f b03d 5619 80be ea57 5cbe 3eaf 2cbe
000003b0: e1a1 86be aabf bd3d 1c5f 95ba c86e b73e
000003c0: 1c0f 38bc baee 07be 3d66 a63e 4584 bf3d
000003d0: e281 95bd cd4f 8c3e 5b3e b73e d357 a4be
000003e0: 9abb a0be fb17 89be 5134 c0be 7e66 febd
000003f0: 1cae 0d3e 3800 acbe 5d76 cbbe 96a2 a6be

linear_layer.2.weight f4 [256, 256]
-0.0027724125 0.03250945 0.05404085 0.062089197 -0.019990383 -0.059135266 0.05838197 -0.042012326
0.06182613 0.0015226239 0.008579344 0.02253839 -0.04492697 -0.021059878 -0.04766353 0.03187918
-0.030990874 -0.00024885175 0.03760774 0.030177377 -0.0426556 -0.07288463 0.049467333 -0.008709539
-0.047917582 0.029796213 -0.058070052 0.074096724 0.01809908 0.027768841 0.0011559948 0.01082307
0.02171956 -0.029196803 0.0036036968 0.046281204 -0.03921443 0.03980483 0.041305505 -0.02167731
-0.0017523745 -0.052880432 -0.0338327 -0.04664651 -0.060643982 0.061927676 -0.025105799 -0.033206865
0.043722928 -0.0059586503 -0.036707528 -0.033416037 -0.013724767 0.012701954 0.049721487 0.03390536
-0.043412387 -0.022825588 0.010137546 -0.10570038 0.032480776 -0.0069483966 0.060886096 -0.07564449
0.07463694 -0.08387433 -0.016217137 0.049321026 0.024975073 -0.022915525 -0.0109571405 -0.049124926
0.0053136945 -0.013603324 0.038819015 0.043151774 -0.051905844 -0.056527328 0.0016146133 -0.022472166
-0.025432304 -0.10106105 -0.06129016 -0.051286343 -0.004476607 -0.003914206 -0.0094535295 -0.026756778
-0.029302845 -0.081916794 0.011253312 -0.045731872 -0.011626862 0.024833098 -0.0013229157 -0.06623344
-0.08510963 0.021246066 0.0017810464 0.05865596 0.029159836 0.015560458 0.009660652 -0.01343014
-0.049810167 -0.019153489 0.06077338 0.020751027 0.031367444 0.058613315 0.053739186 -0.03508029
-0.034037642 -0.006781411 -0.007308717 -0.062342227 -0.012023793 0.03461933 -0.0042027086 0.054581694
-0.04904443 -0.062325824 0.015393437 0.012260819 -0.04000975 -0.031629175 0.0013868646 -0.012157833
-0.029880654 -0.0040378748 -0.035020854 0.034097135 0.091310374 -0.038504176 0.021694345 0.038409606
-0.013205948 -0.049062222 -0.014478061 -0.020295816 -0.0321561 -0.011552341 -0.013296936 -0.014548399
-0.03996759 -0.054414492 -0.052350216 -0.057606947 0.02742779 0.020178847 0.052467078 0.010558301
-0.025707304 -0.040425118 0.022785977 -0.037771307 0.048437618 -0.10012835 -0.07208615 -0.07953818
0.034383167 -0.0071380674 0.017587844 -0.018224549 0.053588867 -0.029036656 0.054167613 -0.036503527
-0.0046046707 0.047004543 -0.058789648 0.14746793 -0.040936075 0.105779186 -0.0029471964 0.016258106
0.01076083 -0.05062665 0.0041822293 0.0069844862 -0.006957352 -0.052330162 0.061856546 -0.02211838
-0.050016694 0.07458131 -0.042441938 0.040231638 -0.0221652 -0.06467314 -0.0066775437 -0.033977464
0.019561402 0.05895683 -0.009648355 -0.034909803 -0.02667946 -0.06293009 0.034529336 -0.07345228
-0.049459115 -0.039684046 0.038882755 0.011604229 0.018484065 -0.01592722 -0.011631984 0.008440713
-0.00061193854 -0.020120874 -0.040382694 -0.035619587 -0.043274492 -0.02411061 -0.04455357 -0.010863623
-0.0024135758 0.0595319 -0.0027629691 0.029084133 -0.07313026 -0.0745099 -0.014844724 -0.07840898
0.014032506 0.039377492 -0.03326725 -0.044317406 -0.036144473 0.04659478 -0.014043956 -0.04780699
0.08451405 0.0031776652 -0.04489978 -0.0067843497 -0.076674685 0.060584344 -0.04071705 0.01969406
0.046597093 -0.03839471 -0.02447106 -0.009473911 -0.010511573 0.025921306 -0.04232544 0.009499033
-0.018686801 0.029200403 0.034730688 -0.05542495 0.033178747 -0.024580963 0.044966694 -0.062023185
00000000: 5db1 35bb a128 053d f059 5d3d 3e51 7e3d
00000010: dfc2 a3bc d237 72bd ef21 6f3d 1e15 2cbd
00000020: 653d 7d3d c892 c73a 6090 0c3c 6ea2 b83c
00000030: 5805 38bd c485 acbc d53a 43bd be93 023d
00000040: 93e0 fdbc 5178 82b9 930a 1a3d 8c36 f73c
00000050: a3b7 2ebd 8944 95bd 429e 4a3d 74b2 0ebc
00000060: 3a45 44bd 3017 f43c ddda 6dbd 06c0 973d
00000070: 8644 943c 7b7b e33c c084 973a 3f53 313c
00000080: 38ed b13c 222e efbc 002c 6c3b 5c91 3d3d
00000090: 4f9f 20bd 640a 233d f62f 293d 9d94 b1bc
000000a0: eeaf e5ba 2799 58bd 2894 0abd 6910 3fbd
000000b0: d365 78bd e0a7 7d3d adaa cdbc ec03 08bd
000000c0: d016 333d c840 c3bb a25a 16bd 41df 08bd
000000d0: d8dd 60bc db1b 503c c2a8 4b3d 59e0 0a3d
000000e0: 30d1 31bd bafc babc f317 263c 7179 d8bd
000000f0: 900a 053d 60af e3bb b363 793d 80eb 9abd
00000100: 41db 983d 4ec6 abbd cdd9 84bc d804 4a3d
00000110: 8698 cc3c 57b9 bbbc 9485 33bc 3837 49bd
00000120: 801e ae3b 7ae0 5ebc b000 1f3d eabf 303d
00000130: 399b 54bd 3389 67bd 6fa1 d33a 8c17 b8bc
00000140: 6857 d0bc 19f9 cebd 640b 7bbd a111 52bd
00000150: 80b0 92bb bd42 80bb fae2 1abc 0831 dbbc
00000160: 850c f0bc fec3 a7bd d05f 383c 5851 3bbd
00000170: 987e 3ebc c86e cb3c af65 adba 66a5 87bd
00000180: f54d aebd 3b0c ae3c 0072 e93a 3b41 703d
00000190: 9ce0 ee3c 4bf1 7e3c b647 1e3c 170a 5cbc
000001a0: bf05 4cbd c7e7 9cbc 82ed 783d 0ffe a93c
000001b0: 267b 003d 8414 703d 9f1d 5c3d 5ab0 0fbd
000001c0: 0e6b 0bbd 9936 debb f67d efbb 905a 7fbd
000001d0: 71ff 44bc 00cd 0d3d e0b6 89bb 0e91 5f3d
000001e0: d0e2 48bd 5d49 7fbd c134 7c3c 9ae1 483c
000001f0: 43e1 23bd 988d 01bd 74c7 b53a a631 47bc
00000200: 46c8 f4bc 2650 84bb 0772 0fbd 70a9 0b3d
00000210: ef00 bb3d 8eb6 1dbd 57b8 b13c 6453 1d3d
00000220: c35d 58bc 78f5 48bd 6435 6dbc 6943 a6bc
00000230: 1db6 03bd 0846 3dbc 64db 59bc 685c 6ebc
00000240: 0eb5 23bd bbe1 5ebd 2e6d 56bd 43f5 6bbd
00000250: 3fb0 e03c 1c4e a53c b8e7 563d b9fc 2c3c
00000260: 2098 d2bc cf94 25bd a8a9 ba3c 16b6 1abd
00000270: 8666 463d 1810 cdbd e7a1 93bd eae4 a2bd
00000280: 5dd5 0c3d 73e6 e9bb 6214 903c a64b 95bc
00000290: 0080 5b3d 48de edbc dcde 5d3d b984 15bd
000002a0: c7e2 96bb d687 403d 6acd 70bd d501 173e
000002b0: 96ac 27bd c2a2 d83d c025 41bb b82f 853c
000002c0: 314e 303c e45d 4fbd 150b 893b 1ede e43b
000002d0: 80fa e3bb 2758 56bd 4a5d 7d3d 9b31 b5bc
000002e0: 4ede 4cbd 16be 983d 99d7 2dbd eec9 243d
000002f0: cb93 b5bc 5a73 84bd 4ccf dabb f42b 0bbd
00000300: 3c3f a03c b87c 713d 2214 1ebc 95fd 0ebd
00000310: e28e dabc 7ee1 80bd a26e 0d3d 266e 96bd
00000320: a495 4abd bd8b 22bd 8643 1f3d aa1f 3e3c
00000330: e56b 973c cd79 82bc 1494 3ebc eb4a 0a3c
00000340: 806a 20ba 88d4 a4bc 5368 25bd d8e5 11bd
00000350: 9840 31bd 9d83 c5bc ce7d 36bd 56fd 31bc
00000360: 152d 1ebb b9d7 733d ee12 35bb d941 ee3c
00000370: 51c5 95bd a598 98bd 4937 73bc e394 a0bd
00000380: 99e8 653c 4b4a 213d 3d43 08bd 2b86 35bd
00000390: 3a0c 14bd 2bda 3e3d 9f18 66bc 43d1 43bd
000003a0: b415 ad3d 6040 503b d5e8 37bd 404f debb
000003b0: 9e07 9dbd 4a27 783d ecc6 26bd 7055 a13c
000003c0: 98dc 3e3d c543 1dbd 8877 c8bc 7638 1bbc
000003d0: bc38 2cbc eb58 d43c 715d 2dbd d5a1 1b3c
000003e0: 1015 99bc af35 ef3c c441 0e3d 4605 63bd
000003f0: 70e6 073d 045e c9bc ff2e 383d 060c 7ebd

linear_layer.2.bias f4 [256]
-0.020063406 -0.024933107 0.011902501 -0.015716255 0.013906644 -0.03697759 -0.03500165 0.02664709
0.05572939 -0.055847324 0.030816952 -0.008699634 0.0068901926 -0.0056960066 -0.0061327973 -0.022010261
-0.011268358 -0.06718272 0.01782649 0.045529414 -0.0035604443 0.061212607 0.022282617 -0.041078165
-0.0005167052 -0.054986548 0.033929367 -0.024613112 -0.05127266 0.03247313 -0.0011351397 0.021745402
-0.076869935 -0.0149018 0.0085754 -0.056473814 0.042431194 0.036407832 -0.017889867 -0.046884507
0.044308487 -0.024943512 -0.075035706 -0.023230445 -0.056090664 -0.0016526722 -0.04272384 -0.049471527
-0.03833045 0.01501029 0.01074863 -0.05800181 -0.061224017 -0.05523066 -0.051658552 0.021670073
0.01110956 -0.084906444 -0.0057924273 0.047493674 0.031744063 -0.057811145 -0.012555535 0.009663136
0.027153874 0.059343614 0.0055864155 -0.017914124 0.029449718 0.005785875 -0.041425824 -0.025522085
-0.018037435 0.013527623 -0.05637226 -0.007974504 -0.032859504 0.055846408 -0.04002931 -0.015528032
0.001774005 -0.014530252 0.03952901 -0.047713228 0.049938295 -0.016244506 0.020091357 0.055394005
-0.06966237 0.07110212 0.010999301 -0.028770337 -0.02382545 -0.032798313 -0.024838777 0.009464714
-0.065939404 -0.055301417 0.044425063 -0.012471531 -0.04599265 0.021443121 -0.0008955495 -0.03314496
-0.018322943 0.021558704 0.03557825 0.041244507 0.023395209 -0.0438833 0.020562781 0.04529046
0.00348356 -0.010895587 -0.006298602 -0.03525223 -0.06800936 0.015237707 0.04600796 0.028591856
0.00037943 -0.0037867907 0.05289308 0.0054251784 -0.0052691866 0.045937 0.028097812 0.02876231
0.0864726 -0.019383105 -0.035490878 0.050210778 -0.037826575 0.0030130076 -0.07594593 0.010381526
0.039185382 -0.06565978 0.03597941 0.09304489 0.019905083 -0.043401025 0.011993215 -0.011061182
-0.024736334 0.029542714 0.016596897 -0.021252224 0.03813705 -0.008778221 0.03874924 -0.06122549
-0.066148266 -0.04793756 0.008996365 -0.033031162 0.019070918 0.050337024 -0.013435506 -0.013665793
0.027998488 0.059582207 -0.033008 0.015786327 0.030781822 -0.07245884 -0.013649582 0.021417674
-0.04906361 -0.036023546 0.039854385 0.068525136 0.048655227 -0.06712116 -0.05310203 0.040449314
-0.023297764 -0.03472255 0.029077016 0.05573739 0.00056676357 -0.067970805 0.023684952 0.0033372887
0.05314687 -0.058576856 -0.021832416 -0.01776249 0.03914378 -0.0013674423 0.024773164 0.054715555
0.06586832 0.016170476 0.04854254 -0.0452977 0.05229471 0.026796501 0.06527543 -0.08564496
0.025356935 -0.040756546 -0.05501817 -0.09007312 -0.049506534 -0.059862517 0.011731163 -0.06423641
-0.03675185 0.053069953 -0.044075526 0.043585405 0.043784074 -0.038653314 -0.04821602 -0.0038014054
-0.048411243 -0.043144148 0.0576178 0.028949602 0.0035865456 0.0017458098 -0.050494798 -0.01486171
0.00955911 0.010046502 0.03798677 0.04772461 -0.065684356 -0.060728636 -0.0060371086 -0.049536683
-0.05588948 0.018173454 -0.0804306 0.00071979134 -0.005939436 0.04910661 -0.020930791 0.02869839
0.057257682 0.0034032457 -0.030501842 -0.048739653 0.0001311055 -0.06261259 -0.02722609 0.026682513
-0.0007095917 0.05408655 -0.039571628 0.022109631 0.004872833 0.038880944 -0.06049062 -0.023009015
00000000: 035c a4bc 8440 ccbc b502 433c 60bf 80bc
00000010: b1d8 633c d075 17bd e45d 0fbd 004b da3c
00000020: 8044 643d 2ac0 64bd d573 fc3c e988 0ebc
00000030: 20c7 e13b 91a5 babb a2f5 c8bb dd4e b4bc
00000040: eb9e 38bc 1897 89bd dc08 923c 0d7d 3a3d
00000050: 5856 69bb 12ba 7a3d 098a b63c 9441 28bd
00000060: 8073 07ba 9339 61bd 85f9 0a3d 70a1 c9bc
00000070: 4803 52bd 8b02 053d f8c8 94ba 6a23 b23c
00000080: fc6d 9dbd ae26 74bc d67f 0c3c 1651 67bd
00000090: 55cc 2d3d 6120 153d c58d 92bc f809 40bd
000000a0: d17c 353d 5656 ccbc 52ac 99bd c64d bebc
000000b0: 53bf 65bd 7a9e d8ba 31ff 2ebd a8a2 4abd
000000c0: 6400 1dbd b8ed 753c 061b 303c 4e93 6dbd
000000d0: 09c6 7abd 8b39 62bd eb97 53bd 7085 b13c
000000e0: df04 363c 6ee3 adbd 67ce bdbb ba88 423d
000000f0: 1006 023d 61cb 6cbd bbb5 4dbc 2152 1e3c
00000100: cd71 de3c 4a12 733d 400e b73b a4c0 92bc
00000110: 8940 f13c 7097 bd3b 20ae 29bd b113 d1bc
00000120: 3ec3 93bc f7a2 5d3c 99e6 66bd 7ea7 02bc
00000130: b097 06bd 34bf 643d c6f5 23bd 4969 7ebc
00000140: bb85 e83a 4b10 6ebc 2ce9 213d f26e 43bd
00000150: 198c 4c3d 3313 85bc a196 a43c d3e4 623d
00000160: 25ab 8ebd fd9d 913d 6a36 343c c5af ebbc
00000170: 972d c3bc 8657 06bd b17a cbbc e311 1b3c
00000180: 3d0b 87bd bd83 62bd 0ef7 353d 6455 4cbc
00000190: ca62 3cbd 7ca9 af3c 4fc3 6aba 02c3 07bd
000001a0: ff19 96bc e19b b03c 80ba 113d 00f0 283d
000001b0: 4fa7 bf3c fabe 33bd 4773 a83c 7d82 393d
000001c0: 704c 643b 6783 32bc 8164 cebb a464 10bd
000001d0: 7e48 8bbd 93a7 793c d872 3c3d 7839 ea3c
000001e0: 3cee c639 ce2b 78bb 6aa6 583d b2c5 b13b
000001f0: 24a9 acbb 7028 3c3d 622d e63c f09e eb3c
00000200: 8c18 b13d 51c9 9ebc e25e 11bd d1a9 4d3d
00000210: 0af0 1abd e175 453b 8a89 9bbd 4717 2a3c
00000220: da80 203d a278 86bd 255f 133d 528e be3d
00000230: fc0f a33c 46c5 31bd 317f 443c f639 35bc
00000240: daa3 cabc 9003 f23c 37f6 873c 2519 aebc
00000250: 9835 1c3d 87d2 0fbc 86b7 1e3d 94c7 7abd
00000260: be78 87bd 2d5a 44bd 7d65 133c af4b 07bd
00000270: 9d3a 9c3c 322e 4e3d 9920 5cbc 7ee6 5fbc
00000280: 165d e53c 790c 743d 6633 07bd 5452 813c
00000290: 292a fc3c 4d65 94bd 7fa2 5fbc 1e74 af3c
000002a0: edf6 48bd 6d8d 13bd 5a3e 233d e856 8c3d
000002b0: b44a 473d d276 89bd 8481 59bd 2eae 253d
000002c0: f4da bebc 3c39 0ebd ec32 ee3c e44c 643d
000002d0: dc92 143a 4734 8bbd f206 c23c 6ab6 5a3b
000002e0: 88b0 593d 49ee 6fbd e5d9 b2bc a482 91bc
000002f0: 3a55 203d c03b b3ba 17f1 ca3c 6b1d 603d
00000300: f8e5 863d f277 843c 8bd4 463d 158a 39bd
00000310: fa32 563d 5684 db3c 20af 853d a066 afbd
00000320: 59b9 cf3c 56f0 26bd bc5a 61bd 4278 b8bd
00000330: 5dc7 4abd 6632 75bd 1034 403c 618e 83bd
00000340: 1c89 16bd e15f 593d 8a88 34bd 9c86 323d
00000350: ee56 333d f052 1ebd 297e 45bd 0021 79bb
00000360: de4a 46bd ebb7 30bd a400 6c3d b727 ed3c
00000370: 400c 6b3b a8d3 e43a a2d3 4ebd 887e 73bc
00000380: d09d 1c3c 159a 243c 0498 1b3d e17a 433d
00000390: 8585 86bd 97be 78bd f0d2 c5bb fae6 4abd
000003a0: 5eec 64bd 7fe0 943c ccb8 a4bd 61b0 3c3a
000003b0: 9a9f c2bb 0324 493d 0d77 abbc e318 eb3c
000003c0: 0887 6a3d fd08 5f3b 00df f9bc 3ba3 47bd
000003d0: 5d79 0939 083b 80bd 4009 dfbc 4995 da3c
000003e0: e503 3aba dc89 5d3d dc15 22bd 421f b53c
000003f0: 49ac 9f3b a041 1f3d 03c5 77bd 677d bcbc

linear_layer.4.weight f4 [49, 256]
-0.037706178 0.027085677 -0.0015032496 0.02517962 -0.034748536 -0.02791141 0.12987357 -0.04099013
0.05727433 -0.020259535 0.022916669 0.07803302 0.026505299 -0.051572777 -0.022452326 0.056049086
-0.017719204 0.015858635 -0.039884508 -0.0008762575 -0.08691747 0.053633615 0.092345774 -0.02313897
0.047955863 0.10215999 -0.006162448 0.028930083 0.049218502 0.054640345 0.04879298 0.014707464
0.14083132 0.04004427 0.026742147 0.020295024 0.05034336 0.018380614 -0.06155213 0.03419173
0.011994422 -0.07417931 0.065895215 0.051763687 0.072926596 0.01743561 0.03177257 0.056398325
0.039836623 0.034767956 0.08792365 0.015135787 0.04189453 0.14286275 0.06671072 -0.021580748
-0.023843471 0.017693726 0.052955158 0.0012141094 0.05797609 -0.018630413 0.0025246516 -0.02223668
0.11303901 -0.005521469 -0.0053086057 -0.028521828 -0.019654185 -0.052828662 -0.05315372 0.035561025
0.043214384 0.061371278 -0.024815017 -0.040361084 0.030370155 0.0014700592 0.012479524 -0.061722968
0.04276231 0.15560785 0.02996945 0.05052831 -0.039240465 0.044495557 0.00350998 0.006535743
0.005755954 -0.051824763 -0.06505715 -0.063869745 0.01858685 0.08560804 -0.040837243 -0.02115968
-0.038723484 -0.047825836 -0.02677396 0.032112025 -0.055439897 -0.051173467 0.05291886 -0.02790559
-0.012486353 0.07967581 -0.05958087 -0.049254205 -0.022854004 -0.0012055258 0.054894175 -0.028988212
0.0037419554 -0.009341749 0.045282766 0.030148782 -0.05685731 0.069433704 -0.061429456 0.05517712
0.0054376917 -0.03332703 0.045359246 -0.052138697 -0.005536284 0.04729215 0.06937548 -0.04600574
-0.01226735 0.014326785 -0.024028942 -0.03897655 -0.03218261 -0.023876078 0.06838174 0.032939248
0.08720059 0.048877537 -0.055927742 -0.015975991 -0.05124096 0.106740125 0.011079747 0.009476726
-0.021560995 0.04412356 -0.0023387475 -0.05289518 -0.005501651 -0.014515436 -0.0628281 -0.059486806
0.0107827075 -0.02887778 -0.014122098 0.0424401 -0.0111350175 0.034430847 -0.035624463 -0.057915807
-0.0563362 0.048699856 -0.019278597 -0.008075938 0.01867322 0.07901115 0.00477734 0.047166485
0.004765114 0.042417374 -0.010620459 -0.0014490974 0.0013977736 -0.0062894714 -0.022332247 0.047309063
0.036790237 0.045955937 -0.044356108 -0.0071640043 0.041221153 -0.02526284 -0.008854946 -0.016748952
0.046151258 -0.12137416 -0.05429234 0.015346885 0.05449619 -0.0006834045 -0.039768517 0.0034345158
0.070632696 -0.11348157 0.007942974 -0.052689005 -0.054681025 0.0062622107 0.02415899 -0.007806176
0.048279013 -0.048735827 -0.034807093 0.0732386 -0.020835025 0.0075997007 0.046328336 -0.037248462
-0.04310726 -0.0012889057 -0.011712781 -0.029886559 0.051455267 0.057027888 0.063611336 -0.017512113
0.051270224 -0.040491533 0.049158692 0.044245373 0.009819917 0.043948576 0.08508779 -0.0009160191
0.056586616 0.0044209776 -0.015860647 0.03102258 0.002547354 -0.05561391 -0.02693909 0.047749937
0.013694212 0.006256899 0.01025431 0.03526477 -0.049195517 0.03849498 0.008260023 -0.033516295
0.05595459 -0.06425058 -0.0049311146 -0.05801808 -5.628884e-05 -0.039609298 0.0011662184 -0.03754407
0.06090888 -0.011718577 -0.024476536 -0.012227032 0.042040527 0.0027101757 -0.00040956924 0.0026727887
00000000: cb71 1abd c8e2 dd3c b008 c5ba 7e45 ce3c
00000010: 7b54 0ebd 78a6 e4bc 94fd 043e 44e5 27bd
00000020: 7d98 6a3d 53f7 a5bc bdbb bb3c c7cf 9f3d
00000030: a421 d93c fa3d 53bd f1ed b7bc ba93 653d
00000040: dd27 91bc f8e9 813c f05d 23bd a5b4 65ba
00000050: c901 b2bd ecae 5b3d c81f bd3d f08d bdbc
00000060: 5e6d 443d 4239 d13d 5cee c9bb c8fe ec3c
00000070: 5799 493d 8ece 5f3d 26db 473d 93f7 703c
00000080: 1636 103e 7605 243d 5912 db3c c041 a63c
00000090: d734 4e3d f192 963c 161e 7cbd a10c 0c3d
000000a0: 4184 443c 52eb 97bd 12f4 863d 2906 543d
000000b0: 8a5a 953d 20d5 8e3c f423 023d ee01 673d
000000c0: ba2b 233d d868 0e3d 5111 b43d 18fc 773c
000000d0: 9999 2b3d 9d4a 123e a19f 883d 1cca b0bc
000000e0: 6253 c3bc 6ff2 903c 82e7 583d c022 9f3a
000000f0: 5678 6d3d cf9e 98bc a074 253b b329 b6bc
00000100: ff80 e73d 70ed b4bb d0f3 adbb 9ca6 e9bc
00000110: d001 a1bc de62 58bd b7b7 59bd 70a8 113d
00000120: 9101 313d 7360 7b3d dd48 cbbc aa51 25bd
00000130: d5ca f83c 00af c03a eb76 4c3c 39d1 7cbd
00000140: 8827 2f3d aa57 1f3e 7e82 f53c c6f6 4e3d
00000150: 9cba 20bd f940 363d b107 663b c929 d63b
00000160: 719c bc3b 3446 54bd af3c 85bd 24ce 82bd
00000170: 7343 983c 4553 af3d f444 27bd 1157 adbc
00000180: 849c 1ebd 06e5 43bd 1055 dbbc e687 033d
00000190: f214 63bd 459b 51bd 72c1 583d 449a e4bc
000001a0: 8f93 4cbc 122d a33d 120b 74bd c7be 49bd
000001b0: 5238 bbbc bc02 9eba b7d8 603d b078 edbc
000001c0: 983b 753b 230e 19bc 6c7a 393d 94fa f63c
000001d0: 36e3 68bd 4233 8e3d 749d 7bbd 6701 623d
000001e0: aa2e b23b ec81 08bd 9eca 393d 638f 55bd
000001f0: b769 b5bb 6ab5 413d bb14 8e3d 8470 3cbd
00000200: fffc 48bc e4ba 6a3c 58d8 c4bc e0a5 1fbd
00000210: ead1 03bd c497 c3bc ba0b 8c3d 4eeb 063d
00000220: 3996 b23d d033 483d 7d14 65bd 15e0 82bc
00000230: 0ae2 51bd 919a da3d d487 353c 4544 1b3c
00000240: afa0 b0bc e8ba 343d ac45 19bb 9ea8 58bd
00000250: 3247 b4bb 27d2 6dbc 05ac 80bd 70a8 73bd
00000260: f4a9 303c 1891 ecbc 5f60 67bc acd5 2d3d
00000270: a66f 36bc 5c07 0d3d f5ea 11bd 2039 6dbd
00000280: cac0 66bd 8079 473d 26ee 9dbc f050 04bc
00000290: 95f8 983c 99d0 a13d 3c8b 9c3b a531 413d
000002a0: ac24 9c3b d7bd 2d3d 6f01 2ebc a4ef bdba
000002b0: 8035 b73a e917 cebb 1ef2 b6bc 26c7 413d
000002c0: 5cb1 163d 4b3c 3c3d c0ae 35bd 06c0 eabb
000002d0: 83d7 283d 04f4 cebc 5614 11bc 1935 89bc
000002e0: 1a09 3d3d 0493 f8bd a561 5ebd 8071 7b3c
000002f0: 6637 5f3d 8026 33ba 50e4 22bd 9d15 613b
00000300: e0a7 903d 0669 e8bd 3f23 023c 6dd0 57bd
00000310: 36f9 5fbd 3b33 cd3b 13e9 c53c f3ca ffbb
00000320: 37c0 453d 389f 47bd e291 0ebd 1efe 953d
00000330: 37ae aabc e906 f93b c8c2 3d3d d891 18bd
00000340: 3d91 30bd 80f0 a8ba f7e6 3fbc a8d4 f4bc
00000350: c2c2 523d 1396 693d a946 823d 9075 8fbc
00000360: ba00 523d 73da 25bd a05a 493d a33a 353d
00000370: b8e3 203c 6c03 343d 8242 ae3d 0021 70ba
00000380: 5ec7 673d d9dd 903b 30ee 81bc 1123 fe3c
00000390: 82f1 263b 69cb 63bd 5eaf dcbc 7095 433d
000003a0: b05d 603c ac06 cd3b b201 283c cb71 103d
000003b0: 3d81 49bd eaac 1d3d 0c55 073c 6248 09bd
000003c0: a430 653d cf95 83bd 3095 a1bb 5ea4 6dbd
000003d0: af17 6cb8 5c3d 22bd ccdb 983a d0c7 19bd
000003e0: 977b 793d 46ff 3fbc 0483 c8bc e453 48bc
000003f0: b032 2c3d 349d 313b 74bb d6b9 f429 2f3b

linear_layer.4.bias f4 [49]
0.028495427 0.08510174 0.0046286955 0.059362583 -0.055067323 -0.030412756 -0.0023345633 -0.020661928
0.010998573 -0.022391193 0.021454742 0.028286483 -0.040239695 0.06967034 0.06524588 0.021741122
0.059057053 0.0002285136 -0.028602527 0.028858384 0.023406493 0.06692898 -0.037157994 -0.02795503
-0.036483254 -0.008775911 0.029586129 -0.052817844 0.08033302 -0.046028625 0.0034278913 0.057425182
0.04053513 0.06291067 0.011680544 -0.029052878 0.0033870332 -0.028561924 0.0427937 -0.024456533
0.05532479 0.020630954 -0.024943473 -0.019860983 0.072421476 -0.012779084 -0.046833456 0.023304466
0.072956
00000000: 3e6f e93c d249 ae3d 50ac 973b 2e26 733d
00000010: 468e 61bd 2c24 f9bc 79ff 18bb 3443 a9bc
00000020: 5c33 343c bc6d b7bc dbc1 af3c 0eb9 e73c
00000030: 61d2 24bd 53af 8e3d a29f 853d 701a b23c
00000040: cfe5 713d 279d 6f39 d94f eabc 6b68 ec3c
00000050: f9be bf3c 1012 893d fb32 18bd f201 e5bc
00000060: 776f 15bd d7c8 0fbc 9c5e f23c 8657 58bd
00000070: a385 a43d 8388 3cbd 79a6 603b ab36 6b3d
00000080: 2a08 263d 4fd7 803d c15f 3f3c 4d00 eebc
00000090: fdf8 5d3b b2fa e9bc 7248 2f3d 1159 c8bc
000000a0: 3f9c 623d 3f02 a93c 4156 ccbc 80b3 a2bc
000000b0: b651 943d 5d5f 51bc 70d4 3fbd 02e9 be3c
000000c0: f569 953d
