data/Apr-13_05-51-52/models/actor_800.pth (torch, 323799 bytes, 6 tensors)

linear_layer.0.weight f4 [256, 7]
0	0x3e5cd9c9	0.21567453
1	0xbe1ee11d	-0.15515561
2	0xbd67c819	-0.056587312
3	0x3e4a7683	0.19771771
4	0xbed84c35	-0.4224564
5	0x3e9fa899	0.31183317
6	0x3cedfe35	0.02905188
7	0x3e1c7019	0.15277137
8	0x3c9a338f	0.018823413
9	0xbd9a0e86	-0.075223014
10	0x3dab4c85	0.08364204
11	0x3dbb590c	0.09147844
12	0x3e202fa8	0.1564318
13	0xbe63aa4b	-0.2223293
14	0xbc98cc3f	-0.01865208
15	0xbc0b4702	-0.008500816
16	0x3da493ff	0.080360405
17	0xbaa6b6f2	-0.0012719317
18	0x3f1b9c7f	0.6078567
19	0x3e179932	0.14804533
20	0xbea861d0	-0.32887125
21	0xbe69c12a	-0.22827592
22	0xbd81bf18	-0.06335276
23	0xbe26f1b8	-0.16303146
24	0xbdf80ccb	-0.12111815
25	0x3c94414d	0.018097544
26	0x3e66b901	0.22531511
27	0x3e525e38	0.20543754
28	0xbec488fe	-0.38385767
29	0x3e6f05e2	0.23342088
30	0x3dde48c9	0.108537264
31	0x3eabc9eb	0.3355249
32	0x3eefc343	0.4682866
33	0xbec9abcc	-0.39388883
34	0xbefc4cd8	-0.49277377
35	0xbe54ed65	-0.20793684
36	0x3e9c544c	0.30533063
37	0xbd8fc863	-0.070206426
38	0x3e1380fd	0.14404674
39	0xbe18e91c	-0.14932674
40	0x3ee7544c	0.451815
41	0xbe637685	-0.2221318
42	0x3e89a052	0.26880127
43	0xbc8a8ee7	-0.016913844
44	0xbe610b02	-0.21976855
45	0x3e4afccf	0.19823001
46	0xbea109c1	-0.31452754
47	0x3e286041	0.16442968
48	0xbb9b4d1f	-0.004739418
49	0xbd29bacc	-0.04143791
50	0xbeba0bb4	-0.36337054
51	0xbe388811	-0.18020655
52	0x3e5204c9	0.20509638
53	0xbdbc28bd	-0.09187458
54	0x3ec0c0da	0.37647134
55	0x3e9b1f23	0.30297193
56	0xbc2b7cf1	-0.0104668
57	0xbe77a74a	-0.2418491
58	0x3e7cb5cd	0.24678726
59	0x3e16318b	0.14667337
60	0xbeb728e4	-0.35773385
61	0x3ebb8a80	0.36629105
62	0x3e7900e3	0.24316745
63	0x3eb59163	0.35462484
64	0xbe4b7ffd	-0.19873042
65	0xbd5e25a5	-0.05423512
66	0x3c487ff1	0.012237535
67	0xbe1849eb	-0.14871947
68	0xbeb7009b	-0.3574265
69	0xbe672e7a	-0.22576323
70	0x3e482e9a	0.19549027
71	0xbdd18a59	-0.10231466
72	0x3e26b132	0.16278532
73	0x3c904e90	0.017615587
74	0xbde14350	-0.10999167
75	0x3ca07b82	0.019590143
76	0x3e9c95cd	0.3058304
77	0x3e40ae8a	0.18816581
78	0xbeb2da78	-0.34932303
79	0x3e43756b	0.1908776
80	0xbe884b07	-0.2661974
81	0xbe924ec4	-0.28575718
82	0x3cb75a0a	0.022381801
83	0xbd833540	-0.06406641
84	0x3e504393	0.20338278
85	0xbe67b5bc	-0.2262792
86	0xbeb2dcca	-0.34934074
87	0x3e8d10cc	0.27551877
88	0xbe2ffcc4	-0.17186266
89	0x3e4b0f47	0.19830047
90	0x3e133e3a	0.14379206
91	0xbe911d3e	-0.28342623
92	0x3d9b8274	0.07593241
93	0x3db9ede4	0.09078577
94	0xbe81924f	-0.25306937
95	0xbe37a33e	-0.17933366
96	0x3e03f83f	0.12887667
97	0x3d8aa754	0.067701966
98	0xbe0d93ef	-0.13825963
99	0xbda9d130	-0.082918525
100	0x3ec31508	0.38101983
101	0xbd859f38	-0.06524509
102	0x3ef7a5e0	0.4836874
103	0x3e479cb2	0.19493368
104	0xbed63567	-0.41837618
105	0xbead78f0	-0.3388133
106	0x3ea74e0e	0.32676739
107	0xbc2a08d8	-0.010378085
108	0x3e6f6fc6	0.23382482
109	0x3c890707	0.016726984
110	0x3dfa8138	0.12231678
111	0x3eb14478	0.3462255
112	0x3eb7e553	0.35917148
113	0xbe6ff0ad	-0.23431654
114	0x3d8cca3e	0.06874512
115	0x3e8d9dab	0.27659354
116	0x3eeab487	0.45840856
117	0x3e8dec97	0.27719566
118	0xbede2323	-0.43386182
119	0xbe95ae8f	-0.2923474
120	0xbe7ef09b	-0.24896471
121	0x3ce5ea47	0.028065814
122	0x3eb672e9	0.35634544
123	0xbe622e16	-0.22087893
124	0x3e3cf2e2	0.18452027
125	0xbe45692d	-0.19278403
126	0xbeba97f1	-0.36444047
127	0xbdaee8e9	-0.08540518
128	0x3e54fc25	0.2079931
129	0x3eb87b30	0.36031485
130	0xbe8c78e2	-0.27435976
131	0x3e161459	0.146562
132	0x3e95ea4c	0.29280317
133	0x3e610987	0.2197629
134	0x3e5219d2	0.20517662
135	0x3e66239c	0.22474521
136	0x3e59e83d	0.21279998
137	0x3e5b58d8	0.2142061
138	0xbeb09114	-0.34485686
139	0xbecdc15f	-0.40186593
140	0xbe324b13	-0.17411451
141	0xbd35e557	-0.04440817
142	0xbe6cb4d0	-0.2311585
143	0x3e0cb16f	0.1373956
144	0x3df1cf46	0.118071124
145	0xbdb07021	-0.08615137
146	0x3e15afac	0.14617795
147	0x3dc4236b	0.09577068
148	0x3e61cdc0	0.22051144
149	0x3e79cdd1	0.24394919
150	0xbe225efd	-0.15856548
151	0x3f0d8e36	0.5529512
152	0xbdb7599f	-0.08952641
153	0xbe296451	-0.16542174
154	0xbeb6a859	-0.35675314
155	0xbe791a36	-0.24326405
156	0xbe621b89	-0.22080816
157	0xbe258b44	-0.16166407
158	0x3e8995d4	0.26872122
159	0xbdfcf3a9	-0.12351162
160	0xbe909cba	-0.28244573
161	0x3e0babe2	0.13639787
162	0x3de37c87	0.11107736
163	0x3e640a21	0.22269489
164	0xbe515e74	-0.20446187
165	0xbd2305ab	-0.039800327
166	0xbe36a407	-0.17836009
167	0x3c50fdec	0.012755852
168	0xbe9a37c8	-0.30120683
169	0xbe30654e	-0.17226145
170	0xbded10b7	-0.11575454
171	0x3e258296	0.16163096
172	0x3d8d6a25	0.06905011
173	0x3dbf3554	0.093363434
174	0x3ec126b0	0.3772483
175	0x3eaf4d96	0.3423888
176	0x3e7534d1	0.23945929
177	0xbc383d57	-0.011245093
178	0xbe93c12a	-0.2885831
179	0x3ea7f46b	0.32803664
180	0xbe2990a5	-0.16559084
181	0xbd9c1ff6	-0.076232836
182	0xbea1eb1b	-0.31624684
183	0xbd84445c	-0.06458351
184	0xbe635134	-0.22198945
185	0x3eb781a4	0.35841095
186	0xbea25736	-0.31707162
187	0xbea59f2f	-0.3234801
188	0xbdcf4bde	-0.101218924
189	0xbe616acd	-0.22013398
190	0x3df47840	0.11936998
191	0xbe255e38	-0.16149223
192	0xbe44d1ba	-0.1922063
193	0x3d6f6b68	0.05845204
194	0x3e8644f8	0.26224494
195	0xbe93a5c2	-0.288374
196	0x3e230d6c	0.15923089
197	0x3e724243	0.2365809
198	0x3eb9f8d5	0.36322656
199	0xbe909c17	-0.28244087
200	0x3e444b29	0.19169296
201	0xbebabcf9	-0.364723
202	0x3e7711c4	0.24127871
203	0xbe2ad952	-0.16684464
204	0x3e5f135e	0.21784732
205	0x3c2df9ac	0.010618608
206	0xbd65649c	-0.05600415
207	0x3ddf1274	0.108921915
208	0x3cfb58cb	0.030681988
209	0x3cda6c95	0.026663104
210	0x3d33f1ae	0.043931656
211	0x3db5e118	0.08880824
212	0xbeb565cf	-0.35429236
213	0x3e89a037	0.26880047
214	0x3ed5603b	0.4167498
215	0x3ec88e20	0.39170933
216	0x3e62b00d	0.2213747
217	0xbe87128c	-0.26381338
218	0xbe03519b	-0.12824099
219	0x3eb12df7	0.3460538
220	0xbe8cc3c9	-0.27493122
221	0x3eb3dd62	0.3512984
222	0xbe920041	-0.2851582
223	0xbe7f4991	-0.24930407
224	0x3e3bd2bb	0.18342106
225	0xbe8cbe16	-0.27488774
226	0xbda86189	-0.08221728
227	0x3e93d4c1	0.28873256
228	0x3e6be257	0.2303556
229	0x3eebda97	0.46065208
230	0xbda85045	-0.08218435
231	0xbe88c230	-0.26710653
232	0x3ecfa0ad	0.40552273
233	0xbd4c96ff	-0.04994869
234	0xbe0ac019	-0.13549842
235	0x3e58b9f3	0.21164684
236	0xbea63927	-0.3246548
237	0x3e645ad6	0.22300276
238	0x3e729160	0.23688269
239	0xbe998d81	-0.2999077
240	0xbe9ef33f	-0.31044957
241	0xbd079c9a	-0.03310833
242	0x3e229098	0.1587547
243	0xbc33599d	-0.010946658
244	0xbe4441d0	-0.1916573
245	0x3c0d93c5	0.008641188
246	0xbeb5e4c4	-0.35526097
247	0xbe88c556	-0.26713055
248	0xbe80d29f	-0.2516069
249	0x3e9f5e27	0.3112652
250	0x3eaa964b	0.3331779
251	0xbe03768f	-0.12838195
252	0xbc539f32	-0.012916373
253	0x3e1a7f71	0.15087678
254	0x3d07f039	0.03318808
255	0xbe69ba37	-0.22824942

linear_layer.0.bias f4 [256]
0	0xbe3e446c	-0.18580788
1	0x3ea679ad	0.32514706
2	0x3d57a0aa	0.052643456
3	0x3e4b2eea	0.19842115
4	0x3dbd2f6c	0.09237561
5	0x3d85527e	0.06509875
6	0x3e80b20c	0.2513584
7	0xbc9b2d03	-0.018942362
8	0x3e957fd7	0.29199097
9	0x3e0a3454	0.13496524
10	0xbe7a5d9c	-0.24449772
11	0x3e7e8d65	0.24858625
12	0xbe89821f	-0.26857087
13	0x3e4982cd	0.19678803
14	0xbcdcd8d2	-0.026958857
15	0x3da2c141	0.079470165
16	0xbb99c582	-0.004692734
17	0x3d5e9b8d	0.054347564
18	0xbde49e0a	-0.11162956
19	0x3de8a47a	0.113594964
20	0x3e33e975	0.17569526
21	0xbeb30d0f	-0.349709
22	0x3eaa9eac	0.33324182
23	0xbeaf384b	-0.34222636
24	0xbe2cc01f	-0.16870163
25	0x3e0137e2	0.12618974
26	0x3eb8b2da	0.36073953
27	0x3ddb2e2a	0.107021645
28	0xbe60e37b	-0.21961777
29	0x3d9d30a7	0.07675295
30	0xbe71b211	-0.23603083
31	0x3e4112ca	0.18854824
32	0x3d0cfdbe	0.034421675
33	0x3d83c56a	0.06434138
34	0xbe947160	-0.28992748
35	0x3e4e8f0f	0.2017176
36	0x3ebcc487	0.36868688
37	0xbe86492c	-0.262277
38	0x3e4063e6	0.18788108
39	0xbe1fb263	-0.15595393
40	0xbddaf3c8	-0.10691029
41	0x3e9cee42	0.30650526
42	0xbeb1c90d	-0.34723702
43	0xbda7cafe	-0.081930146
44	0x3ddfd8d4	0.109300286
45	0x3e0b2fbc	0.13592428
46	0xbe15a0a8	-0.14612067
47	0xbe75a708	-0.23989499
48	0x3d9c1055	0.076203026
49	0xbec4b4f4	-0.38419306
50	0x3cb7f448	0.02245535
51	0xbe84bb44	-0.25924122
52	0xbd88fc0d	-0.066887
53	0x3e99a9d1	0.30012372
54	0xbe81100e	-0.2520756
55	0xbe6be5c8	-0.23036873
56	0xbe90d4fb	-0.2828749
57	0x3e580608	0.2109605
58	0x3e98ee01	0.29869083
59	0xbe5bca0a	-0.2146379
60	0x3e659338	0.22419441
61	0x3e77eb70	0.24210906
62	0xbe803672	-0.25041538
63	0x3e1c0546	0.15236387
64	0x3e3944b6	0.18092617
65	0xbcf45694	-0.02982644
66	0x3e4fa096	0.20276102
67	0x3a2ded3a	0.0006634776
68	0xbd898b32	-0.067160025
69	0x3e5b9bd4	0.21446162
70	0xbea006ea	-0.31255275
71	0xbebe1198	-0.37122798
72	0x3d8fcf34	0.07021943
73	0x3cce2138	0.025162324
74	0x3cb0e3fe	0.02159309
75	0xbe4a8350	-0.19776654
76	0x3eae0eec	0.3399576
77	0xbe857a9a	-0.260701
78	0xbe458dbb	-0.19292347
79	0xbea354f0	-0.3190074
80	0xbec0bbd3	-0.37643299
81	0x3db7c5ff	0.08973312
82	0xbe1bf784	-0.15231138
83	0x3e40f9a7	0.18845235
84	0x3ebc34c2	0.36759
85	0x3e0daf00	0.13836288
86	0x3eab1dfa	0.33421308
87	0xbe918973	-0.28425178
88	0x3e2b5d2f	0.16734765
89	0x3e4ec434	0.20192033
90	0xbe0ad1bf	-0.13556574
91	0xbcdbc403	-0.026826864
92	0xbe7d0dbd	-0.24712272
93	0x3d151b6f	0.036403116
94	0xbeb23f31	-0.34813836
95	0xbe673491	-0.22578646
96	0xbe9c2d15	-0.30503145
97	0xbd52c3a0	-0.051456094
98	0x3d1dcb0c	0.03852372
99	0xbe9d4074	-0.30713236
100	0xbe0e34ce	-0.13887331
101	0x3e47baa7	0.19504796
102	0x3ccf7bf6	0.025327664
103	0x3d5bec35	0.05369206
104	0xbe3e3fb3	-0.18578987
105	0xbe19d04d	-0.15020867
106	0xbeb6ae14	-0.35679686
107	0x3e8f8afb	0.2803572
108	0x3baa66d3	0.005200246
109	0x3e324408	0.17408764
110	0x3e61cbfa	0.22050467
111	0x3ea9ac06	0.33139056
112	0xbe857bf8	-0.26071143
113	0x3dd4865e	0.10377191
114	0xbe918644	-0.2842275
115	0x3e1ac267	0.15113221
116	0xbe5a3d6a	-0.2131249
117	0x3dd4a2d1	0.10382617
118	0xbe8e7afd	-0.27828208
119	0x3e503e93	0.2033637
120	0x3e8de025	0.2771007
121	0x3e53ef83	0.20696835
122	0xbea3cae9	-0.31990746
123	0x3e5ef567	0.21773301
124	0xbe8dea27	-0.27717707
125	0xbeb4ff96	-0.35351247
126	0x3e54b4d3	0.20772104
127	0x3c897037	0.016777141
128	0xbe35f754	-0.1777013
129	0xbe9c2d66	-0.30503386
130	0x3d113925	0.035454888
131	0xbdde566c	-0.108563274
132	0xbe84a8ff	-0.25910184
133	0xbd639cb0	-0.05556935
134	0xbeb5b467	-0.354892
135	0x3e3eab16	0.18619952
136	0xbe800507	-0.25003836
137	0xbe03bd76	-0.12865242
138	0xbebe29a7	-0.37141153
139	0xbd6a6539	-0.05722544
140	0xbe162af7	-0.14664827
141	0x3e55904d	0.20855828
142	0xbdb42f9c	-0.08798143
143	0x3e8245f7	0.25444004
144	0x3ec5b592	0.3861509
145	0x3d939c5a	0.07207556
146	0xbe04a724	-0.12954384
147	0xbea7e16c	-0.3278917
148	0xbe911f32	-0.28344113
149	0xbe22d877	-0.15902887
150	0xbe846b8d	-0.25863305
151	0x3e3f2997	0.18668209
152	0xbdf9e95c	-0.12202713
153	0xbc4c8c6a	-0.012484649
154	0x3d08c47d	0.03339051
155	0xbea736e4	-0.32659066
156	0x3ea0b2a3	0.3138629
157	0xbe0d2a15	-0.13785584
158	0xbeaba447	-0.3352377
159	0xbd46edf4	-0.048566774
160	0xbebfe763	-0.37481222
161	0x3d7f29a8	0.062295586
162	0xbe6b0cc1	-0.22954084
163	0xbe06117c	-0.13092607
164	0xbde3ab8a	-0.11116703
165	0x3e8c0caf	0.27353427
166	0x3e912e10	0.28355455
167	0x3ec8381a	0.39105302
168	0x3c80b56c	0.015711509
169	0x3e75a102	0.23987201
170	0xbeb1b595	-0.3470885
171	0xbe7f0f5d	-0.24908204
172	0x3e504ae5	0.2034107
173	0x3de40799	0.11134262
174	0x3dd63eb5	0.10461179
175	0x3e5d3f25	0.21606119
176	0x3e5e2c88	0.21696675
177	0x3e322f78	0.1740092
178	0xbe144b79	-0.14481916
179	0xbdd7e108	-0.10540968
180	0x3da3061b	0.07960149
181	0x3ea076e9	0.3134072
182	0xbcea9e3d	-0.028639907
183	0xbe0865f9	-0.1332015
184	0x3e5a5382	0.21320918
185	0x3e8221b8	0.2541635
186	0xbd32468c	-0.04352431
187	0xbdddfe95	-0.10839573
188	0xbec76cb1	-0.38950112
189	0xbc227ba9	-0.009917178
190	0x3e17d266	0.14826354
191	0xbe8e12b9	-0.2774866
192	0xbe8facde	-0.28061575
193	0xbec177cd	-0.37786713
194	0x3e8eb429	0.27871826
195	0x3ea3583d	0.31903258
196	0x3ec64d2e	0.38730758
197	0x3eaa3985	0.3324701
198	0xbd922382	-0.07135679
199	0x3e8bdc0b	0.27316317
200	0x3e651579	0.22371472
201	0xbde00625	-0.10938672
202	0xbe5efc9c	-0.2177605
203	0x3ea922f9	0.33034495
204	0xbd42e402	-0.047580726
205	0x3dde6038	0.10858196
206	0xbe3703f1	-0.17872597
207	0xbe65f18a	-0.22455421
208	0xbd8f6e90	-0.0700351
209	0x3c4cca82	0.0124994535
210	0x3e86840b	0.26272616
211	0x3e7b6c68	0.24553072
212	0xbd4284de	-0.047489993
213	0x3e9a3f5d	0.30126467
214	0xbe4e0b5d	-0.20121522
215	0x3d13dd4a	0.03609971
216	0xbe6f6b06	-0.2338067
217	0x3d769bc0	0.06020713
218	0x3eafae00	0.3431244
219	0xbe8c2909	-0.27375057
220	0x3dee87db	0.11647006
221	0xbea4cbe4	-0.32186806
222	0xbc896eff	-0.01677656
223	0xbe1bc97f	-0.15213583
224	0xbb45ba3d	-0.003017082
225	0xbe96f1ca	-0.29481345
226	0x3e04c246	0.12964734
227	0xbecd3f42	-0.40087324
228	0x3d8a557b	0.06754585
229	0xbe26b74b	-0.16280858
230	0xbe7034db	-0.23457663
231	0x3e9d6561	0.30741408
232	0x3d70739f	0.058704015
233	0xbe801956	-0.2501933
234	0xbe5174da	-0.20454732
235	0xbe2caf3e	-0.16863725
236	0xbe6b4624	-0.22975975
237	0x3d999577	0.07499211
238	0x3b2b4702	0.0026134853
239	0x3eb65a32	0.3561569
240	0xbc004839	-0.007829719
241	0xbe07f97c	-0.13278764
242	0x3ea6663d	0.32499877
243	0x3dbe52f4	0.09293166
244	0xbd98c396	-0.0745918
245	0x3e8c0189	0.2734492
246	0x3eb90093	0.3613325
247	0xbea457d3	-0.32098255
248	0xbea0bb9a	-0.3139313
249	0xbe790008	-0.24316418
250	0xbeb592f7	-0.35463688
251	0xbe1df90c	-0.15427035
252	0x3e0dae1c	0.13835949
253	0xbeb0797e	-0.3446769
254	0xbecb1fbf	-0.39672658
255	0xbea6a296	-0.32545918

linear_layer.2.weight f4 [256, 256]
0	0x3a9b9dc9	0.0011872585
1	0x3d0e9cae	0.03481739
2	0x3d6dd4c1	0.058064226
3	0x3d7e513e	0.062089197
4	0xbc7ac64e	-0.015306069
5	0xbd5fae51	-0.0546096
6	0x3d7e70e4	0.06211938
7	0xbd2c151e	-0.042012326
8	0x3d8abcae	0.06774269
9	0x3ac7e675	0.0015251177
10	0x3c390c96	0.011294505
11	0x3cb8a26e	0.02253839
12	0xbd380558	-0.04492697
13	0xbcac85c4	-0.021059878
14	0xbd34415e	-0.04400765
15	0x3d134337	0.035952773
16	0xbcd973de	-0.026544508
17	0xb9827851	-0.00024885175
18	0x3d8598e9	0.06523306
19	0x3d0905ff	0.033452984
20	0xbd2eb7a3	-0.0426556
21	0xbd8f5cdd	-0.07000134
22	0x3d4a9e42	0.049467333
23	0xbbe23768	-0.0069035776
24	0xbd44453a	-0.047917582
25	0x3d0070b4	0.031357482
26	0xbd6ddadd	-0.058070052
27	0x3d97c006	0.074096724
28	0x3ca7fb0c	0.02050545
29	0x3cfbd1ad	0.03073963
30	0x3bc8079a	0.006104422
31	0x3c31533f	0.01082307
32	0x3cdd70ae	0.027031269
33	0xbcd881a6	-0.026429009
34	0x3b6c2c00	0.0036036968
35	0x3d3d915c	0.046281204
36	0xbd19a9c0	-0.0375154
37	0x3d3061b2	0.04306192
38	0x3d31e66d	0.04343264
39	0xbcb1949d	-0.02167731
40	0x3acc971d	0.0015609
41	0xbd4a9681	-0.049459938
42	0xbd0a9428	-0.0338327
43	0xbd3f1069	-0.04664651
44	0xbd6e2e7b	-0.058149796
45	0x3d7da7e0	0.061927676
46	0xbccdaaad	-0.025105799
47	0xbced5c46	-0.028974663
48	0x3d3316d0	0.043722928
49	0xbbc340c8	-0.0059586503
50	0xbd1580df	-0.036499854
51	0xbcfaf320	-0.03063351
52	0xbc60ddd8	-0.013724767
53	0x3c7dfaea	0.015501717
54	0x3d4ba8c2	0.049721487
55	0x3d134569	0.035954867
56	0xbd2aaa4a	-0.041666307
57	0xbc9cd286	-0.019143354
58	0x3c2617f3	0.010137546
59	0xbdd87971	-0.10570038
60	0x3d15c5b2	0.03656549
61	0xbbe3af60	-0.0069483966
62	0x3d866ef4	0.065641314
63	0xbd9aeb80	-0.07564449
64	0x3d98db41	0.07463694
65	0xbd29d5bf	-0.04146361
66	0xbc533ae5	-0.0128924595
67	0x3d8c781c	0.068588465
68	0x3ccc9886	0.024975073
69	0xbcb5a80e	-0.022174861
70	0x3cce0167	0.025147153
71	0xbd493738	-0.049124926
72	0x3bae1e80	0.0053136945
73	0x3c96ab76	0.018392306
74	0x3d1f00b0	0.038819015
75	0x3d49cb1d	0.04926597
76	0xbd53ce99	-0.0517107
77	0xbd67117d	-0.056413162
78	0x3bc027a3	0.0058641
79	0xbcb8178c	-0.022472166
80	0xbcd05768	-0.025432304
81	0xbdb6f3d4	-0.08933225
82	0xbd7b0b64	-0.06129016
83	0xbd4764b4	-0.048680022
84	0xba5a7357	-0.0008333227
85	0xbaace835	-0.0013191762
86	0xbc14f9ad	-0.0090927305
87	0xbcce9bd7	-0.025220795
88	0xbcd3e833	-0.025867557
89	0xbda1475f	-0.07874941
90	0x3c4a6c17	0.012354872
91	0xbd3b5158	-0.045731872
92	0xbc0359ed	-0.008017045
93	0x3ccb6ec8	0.024833098
94	0x3c2a1a96	0.010382315
95	0xbd869525	-0.06571416
96	0xbd9a241b	-0.07526418
97	0x3cc08567	0.023501111
98	0x3ae97200	0.0017810464
99	0x3d70413b	0.05865596
100	0x3ceee09c	0.029159836
101	0x3c97c59d	0.018526847
102	0x3c1e47b6	0.009660652
103	0xbc39db48	-0.011343785
104	0xbd3cdcde	-0.046109073
105	0xbc878bd8	-0.016546175
106	0x3d84ad76	0.064783975
107	0x3cc8e848	0.024524823
108	0x3d09a395	0.03360327
109	0x3d701484	0.058613315
110	0x3d5c1d9f	0.053739186
111	0xbd0fb05a	-0.03508029
112	0xbd0b6b0e	-0.034037642
113	0xbb313a43	-0.0027042783
114	0xbab6260f	-0.001389684
115	0xbd7f1a57	-0.06228098
116	0xbbf530d1	-0.007482626
117	0x3d17c345	0.037051458
118	0xbb89b6e0	-0.0042027086
119	0x3d81b2bf	0.06332921
120	0xbd48e2d0	-0.04904443
121	0xbd7f495d	-0.062325824
122	0x3c7c34c1	0.015393437
123	0x3c48e19a	0.012260819
124	0xbd1cb675	-0.038259942
125	0xbd018d98	-0.031629175
126	0x3b88dba6	0.0041765748
127	0xbc1aa696	-0.009439131
128	0xbcdab607	-0.026698126
129	0xbb8446ab	-0.0040367446
130	0xbcfc7e55	-0.030821959
131	0x3d3fa572	0.04678864
132	0x3dcde173	0.10052767
133	0xbd1db68e	-0.038504176
134	0x3cd711ea	0.02625366
135	0x3d1d5364	0.038409606
136	0xbc271590	-0.010198012
137	0xbd48f578	-0.049062222
138	0xbc66426e	-0.014053924
139	0xbca64369	-0.020295816
140	0xbce9c8b9	-0.028538095
141	0xbc3d4608	-0.011552341
142	0xbc53c59b	-0.012925531
143	0xbc6e5c68	-0.014548399
144	0xbd117cbf	-0.035519358
145	0xbd5ee1bb	-0.054414492
146	0xbd566d2e	-0.052350216
147	0xbd6bf543	-0.057606947
148	0x3ce0b03f	0.02742779
149	0x3cc0516c	0.023476325
150	0x3d56e7b8	0.052467078
151	0x3c2cfcb9	0.010558301
152	0xbcd29820	-0.025707304
153	0xbd2594cf	-0.040425118
154	0x3cdbcf4d	0.026832247
155	0xbd1ab616	-0.037771307
156	0x3d466686	0.048437618
157	0xbdcd1011	-0.1001283
158	0xbd8b911b	-0.06814786
159	0xbda23bd3	-0.07921567
160	0x3d1b18a4	0.037865296
161	0xbb9f15c3	-0.004854889
162	0x3cbcde87	0.023055328
163	0xbc7b9695	-0.015355726
164	0x3d5b8000	0.053588867
165	0xbce19d22	-0.027540747
166	0x3d734664	0.0593933
167	0xbd1584b9	-0.036503527
168	0xbaadeb60	-0.0013269
169	0x3d4e8493	0.0504194
170	0xbd63b2fb	-0.05559061
171	0x3e2fdb4d	0.171735
172	0xbd27ac96	-0.040936075
173	0x3de93fbe	0.11389111
174	0xbb4125c0	-0.0029471964
175	0x3c852fb8	0.016258106
176	0x3c304e31	0.01076083
177	0xbd4f5de4	-0.05062665
178	0x3b9b5a41	0.0047409837
179	0x3c45bc72	0.012068855
180	0xbbe3fa80	-0.006957352
181	0xbd4d643a	-0.05014441
182	0x3d7d5d4a	0.061856546
183	0xbc9325d0	-0.017962366
184	0xbd3f1fe7	-0.046661284
185	0x3d9fc483	0.078011535
186	0xbd1e30c7	-0.038620736
187	0x3d24c9ee	0.040231638
188	0xbcb58b0f	-0.022161035
189	0xbd8444cf	-0.06458437
190	0x3b91b6a4	0.0044468213
191	0xbd0b2bf4	-0.033977464
192	0x3ca03f3c	0.019561402
193	0x3d717cb8	0.05895683
194	0xbbb0504a	-0.005380665
195	0xbcfe5aa2	-0.031049076
196	0xbcb4712b	-0.022026619
197	0xbd776bdb	-0.060405593
198	0x3d18c348	0.03729561
199	0xbd91eeb5	-0.07125608
200	0xbd4a95a4	-0.049459115
201	0xbd228bbd	-0.039684046
202	0x3d1f4386	0.038882755
203	0x3c89ba0f	0.016812352
204	0x3cae0a86	0.021245252
205	0xbc4073f0	-0.011746392
206	0xbc3e9414	-0.011631984
207	0x3c498a06	0.012300974
208	0xba206a80	-0.00061193854
209	0xbca4d488	-0.020120874
210	0xbd15efec	-0.03660576
211	0xbd11e5d8	-0.035619587
212	0xbd314098	-0.043274492
213	0xbcc17342	-0.02361453
214	0xbd367dce	-0.04455357
215	0xbbebbc29	-0.0071940613
216	0x3ad95fdc	0.0016584354
217	0x3d73d7b9	0.0595319
218	0x3a0301b4	0.0004997507
219	0x3d263f7b	0.040587883
220	0xbd8e6b4b	-0.06954058
221	0xbd98a8bc	-0.074540585
222	0xbc1dac19	-0.009623551
223	0xbda094e3	-0.07840898
224	0x3c65e899	0.014032506
225	0x3d3099de	0.04311549
226	0xbcf3a117	-0.0297399
227	0xbd2953b1	-0.04133958
228	0xbd0c0737	-0.034186568
229	0x3d4c41be	0.049867384
230	0xbc66189f	-0.014043956
231	0xbd43d143	-0.04780699
232	0x3de4b948	0.11168152
233	0x3b504060	0.0031776652
234	0xbd1d0b37	-0.038340773
235	0xbbde4f40	-0.0067843497
236	0xbd9a89c7	-0.0754581
237	0x3d880051	0.06640685
238	0xbd0b6279	-0.034029458
239	0x3cbf6172	0.023361895
240	0x3d53674a	0.051612176
241	0xbd0d83ad	-0.034549404
242	0xbcc87788	-0.02447106
243	0xbc017066	-0.007900333
244	0xbbddd88a	-0.0067701982
245	0x3cf5505a	0.029945541
246	0xbd16664f	-0.036718663
247	0x3c1ba1d5	0.009499033
248	0xbc991510	-0.018686801
249	0x3cef35af	0.029200403
250	0x3d0e41c4	0.034730688
251	0xbd5aec86	-0.053448223
252	0x3d07e670	0.033178747
253	0xbcb17d8b	-0.021666309
254	0x3d460c13	0.04835136
255	0xbd7e0c06	-0.062023185

linear_layer.2.bias f4 [256]
0	0xbc812f8e	-0.015769746
1	0xbccc4084	-0.024933107
2	0x3c4302b5	0.011902501
3	0xbc80bf60	-0.015716255
4	0x3c9b3b98	0.018949315
5	0xbd1775d0	-0.03697759
6	0xbce06db7	-0.027396066
7	0x3cda4b00	0.02664709
8	0x3d644480	0.05572939
9	0xbd64c02a	-0.055847324
10	0x3cd2dcd7	0.02574007
11	0xbd54e4ed	-0.051976133
12	0x3be1c720	0.0068901926
13	0xbcd60951	-0.02612749
14	0xbc3147cf	-0.010820343
15	0xbcefe0c8	-0.029281989
16	0xbc389eeb	-0.011268358
17	0xbd6dbdd2	-0.058042355
18	0x3c9208dc	0.01782649
19	0x3d4c6da9	0.049909268
20	0x3c983ab8	0.018582687
21	0x3d7aba12	0.061212607
22	0x3cbdd8c1	0.023174645
23	0xbd284194	-0.041078165
24	0xba077380	-0.0005167052
25	0xbd6139a2	-0.054986604
26	0x3d0af985	0.033929367
27	0xbcc9a170	-0.024613112
28	0xbd5650bd	-0.05232309
29	0x3d05028b	0.03247313
30	0xbaae5297	-0.001329976
31	0x3c9a7dc7	0.018858803
32	0xbd93c4a8	-0.072152436
33	0xbc7426ae	-0.0149018
34	0x3c0c7fd6	0.0085754
35	0xbd675116	-0.056473814
36	0x3d2dcc55	0.042431194
37	0x3d233498	0.03984508
38	0xbc949fb8	-0.018142566
39	0xbd4009f8	-0.046884507
40	0x3cdbc721	0.02682835
41	0xbd06c131	-0.032899085
42	0xbd8d3a7c	-0.06895921
43	0xbc91d924	-0.017803736
44	0xbd7ae3c1	-0.06125236
45	0xbad89e7a	-0.0016526722
46	0xbd2eff31	-0.04272384
47	0xbd4aa2a8	-0.049471527
48	0xbd1d0064	-0.03833045
49	0x3c75edb8	0.01501029
50	0x3c87dd96	0.016585153
51	0xbd6d934e	-0.05800181
52	0xbd7ac609	-0.061224017
53	0xbd529363	-0.05141009
54	0xbd34d76f	-0.044150766
55	0x3cb18570	0.021670073
56	0x3c3604df	0.01110956
57	0xbd9a8575	-0.07544986
58	0xbbbdce67	-0.0057924273
59	0x3d4288ba	0.047493674
60	0x3d020610	0.031744063
61	0xbd58dd2f	-0.052945312
62	0xbc87a27a	-0.016556967
63	0x3c9d1a5a	0.019177604
64	0x3d1770ee	0.036972933
65	0x3d73124a	0.059343614
66	0x3bb70e40	0.0055864155
67	0xbc92c0a4	-0.017914124
68	0x3cf14089	0.029449718
69	0x3bbd9770	0.005785875
70	0xbcc5354a	-0.024073262
71	0xbcd113b1	-0.025522085
72	0xbc93c33e	-0.018037435
73	0x3c5da2f7	0.013527623
74	0xbd66e699	-0.05637226
75	0xbc02a77e	-0.007974504
76	0xbd0697b0	-0.032859504
77	0x3d64bf34	0.055846408
78	0xbd23f5c6	-0.04002931
79	0xbc7e6949	-0.015528032
80	0x3bd090be	0.006364911
81	0xbbff878a	-0.00779814
82	0x3d21e92c	0.03952901
83	0xbce55266	-0.027993392
84	0x3d4c8c19	0.049938295
85	0xbc851333	-0.016244506
86	0x3b90cc4b	0.004418885
87	0x3d2d00d3	0.042237114
88	0xbd8eab25	-0.06966237
89	0x3d858b91	0.06520761
90	0x3c34366a	0.010999301
91	0xbcebafc5	-0.028770337
92	0xbcc32d97	-0.02382545
93	0xbca3b501	-0.01998377
94	0xbcf2cb15	-0.029637853
95	0x3c1b11e3	0.009464714
96	0xbd870b3d	-0.065939404
97	0xbd6283bd	-0.055301417
98	0x3d35f70e	0.044425063
99	0x3ba4a712	0.005024799
100	0xbd3c62ca	-0.04599265
101	0x3cafa97c	0.021443121
102	0xba6ac34f	-0.0008955495
103	0xbd07c302	-0.03314496
104	0xbc9619ff	-0.018322943
105	0x3cae5d66	0.02128477
106	0x3d11ba80	0.03557825
107	0x3d28f000	0.041244507
108	0x3cbfa74f	0.023395209
109	0xbd2ea2af	-0.042635616
110	0x3cd37f14	0.025817432
111	0x3d475691	0.04866654
112	0xbc8bc573	-0.017061925
113	0xbc328367	-0.010895587
114	0xbcf48b97	-0.029851718
115	0xbd1064a4	-0.03525223
116	0xbd7008ef	-0.05860227
117	0x3cdeab6b	0.027181348
118	0x3d3c72d8	0.04600796
119	0x3cea3978	0.028591856
120	0x3b8e08ff	0.0043345685
121	0xbcec85da	-0.02887242
122	0x3d58a66a	0.05289308
123	0x3c63960c	0.013890754
124	0x3b3dfb79	0.0028989
125	0x3d3c2870	0.045937
126	0x3c917cc6	0.017759692
127	0x3ceb9ef0	0.02876231
128	0x3da1f502	0.0790806
129	0xbc5e6ef8	-0.013576262
130	0xbd115ee2	-0.035490878
131	0x3d6ac1b6	0.057313643
132	0xbd1af00a	-0.037826575
133	0x3bd01982	0.006350697
134	0xbd736507	-0.05942252
135	0x3c2a1747	0.010381526
136	0x3d2ae805	0.041725177
137	0xbd685287	-0.05671933
138	0x3d135f25	0.03597941
139	0x3db708c2	0.08937217
140	0x3ca30ffc	0.019905083
141	0xbd07d9ba	-0.033166625
142	0x3c447f31	0.011993215
143	0xbb20d7f3	-0.0024542778
144	0xbbf0fda2	-0.007354454
145	0x3d0db9ec	0.034601137
146	0xbc426bdd	-0.011866537
147	0xbcae1925	-0.021252224
148	0x3d3ad73b	0.045615416
149	0xbb77ebf2	-0.0037829843
150	0x3d32cca4	0.04365219
151	0xbd7ac794	-0.06122549
152	0xbd700594	-0.05859907
153	0xbd445a2d	-0.04793756
154	0x3c13657d	0.008996365
155	0xbd1314d9	-0.035908554
156	0x3c9c3a9d	0.019070918
157	0x3d4e2e32	0.050337024
158	0xbc2bedfa	-0.01049375
159	0xbc5fe67e	-0.013665793
160	0x3c732278	0.014839761
161	0x3d740c79	0.059582207
162	0xbd073366	-0.033008
163	0x3c815254	0.015786327
164	0x3d14e7a5	0.036353726
165	0xbd7feba4	-0.062480584
166	0xbc4483f3	-0.01199435
167	0x3cfb4979	0.030674683
168	0xbd48f6ed	-0.04906361
169	0xbd4cbc06	-0.049984
170	0x3d233e5a	0.039854385
171	0x3d660fc2	0.05616737
172	0x3d474ab4	0.048655227
173	0xbd559118	-0.052140325
174	0xbd598184	-0.05310203
175	0x3d25ae2e	0.040449314
176	0xbcbedaf4	-0.023297764
177	0xbd0e393c	-0.03472255
178	0x3cee32ec	0.029077016
179	0x3d132361	0.03592241
180	0x3ba12726	0.004917997
181	0xbd8b3447	-0.067970805
182	0x3cc206f2	0.023684952
183	0x3b5ab66a	0.0033372887
184	0x3d59b088	0.05314687
185	0xbd609174	-0.054826215
186	0xbcafae2e	-0.02144536
187	0xbc9182a4	-0.01776249
188	0x3d20553a	0.03914378
189	0xbab33bc0	-0.0013674423
190	0x3ccaf117	0.024773164
191	0x3d7301fb	0.05932806
192	0x3d8534db	0.06504222
193	0x3c97bb94	0.018522061
194	0x3d46d48b	0.04854254
195	0xbd398a15	-0.0452977
196	0x3d5632fa	0.05229471
197	0x3c2ee8db	0.010675634
198	0x3d97ce24	0.07412365
199	0xbd845686	-0.064618155
200	0x3ccfb959	0.025356935
201	0xbd26f056	-0.040756546
202	0xbd615abc	-0.05501817
203	0xbda104ac	-0.07862219
204	0xbd3b576b	-0.045737665
205	0xbd753266	-0.059862517
206	0x3c403410	0.011731163
207	0xbd838e61	-0.06423641
208	0xbd16891c	-0.03675185
209	0x3d5ed8b9	0.0544059
210	0xbd2ba589	-0.041905914
211	0x3d32869c	0.043585405
212	0x3d005146	0.03132751
213	0xbd1d8826	-0.03845992
214	0xbd509c4d	-0.05093031
215	0xbb792100	-0.0038014054
216	0xbd464ade	-0.048411243
217	0xbd30b7eb	-0.043144148
218	0x3d6c00a4	0.0576178
219	0x3d0f20e6	0.034943484
220	0x3b6b0c40	0.0035865456
221	0x3ae4d3a8	0.0017458098
222	0xbd0de3b2	-0.034640975
223	0xbc737e88	-0.01486171
224	0x3c1c9dd0	0.00955911
225	0x3c762c2e	0.015025182
226	0x3d1b9804	0.03798677
227	0x3d5b6e1f	0.053571817
228	0xbd868585	-0.065684356
229	0xbd78be97	-0.060728636
230	0xbbc5d2f0	-0.0060371086
231	0xbd4ae6fa	-0.049536683
232	0xbd64ec5e	-0.05588948
233	0x3c94e07f	0.018173454
234	0xbdab4821	-0.08363367
235	0x3bdea739	0.006794837
236	0xbbc29f9a	-0.005939436
237	0x3d5745ca	0.05255679
238	0xbcab770d	-0.020930791
239	0x3ceb18e3	0.02869839
240	0x3d6a8708	0.057257682
241	0x3c89a2cf	0.016801266
242	0xbcf9df00	-0.030501842
243	0xbd0963ce	-0.033542447
244	0x3be324b6	0.0069318665
245	0xbd803b08	-0.06261259
246	0xbcd017c3	-0.025401955
247	0x3cda9549	0.026682513
248	0x3c0fcf2a	0.008777419
249	0x3d5d89dc	0.05408655
250	0xbd2215dc	-0.039571628
251	0x3cb51f42	0.022109631
252	0x3ce2c2e5	0.027680824
253	0x3d1f41a0	0.038880944
254	0xbd77c503	-0.06049062
255	0xbcd87b3c	-0.02642595

linear_layer.4.weight f4 [49, 256]
0	0xbd1a71cb	-0.037706178
1	0x3cdde2c8	0.027085677
2	0xbac508b0	-0.0015032496
3	0x3cce457e	0.02517962
4	0xbd0e5275	-0.034746606
5	0xbce4a678	-0.02791141
6	0x3e0272d0	0.1273911
7	0xbd27e544	-0.04099013
8	0x3d6a987d	0.05727433
9	0xbca5f753	-0.020259535
10	0x3c8554be	0.01627576
11	0x3d6d7b5b	0.05797897
12	0x3cd921a4	0.026505299
13	0xbd682a18	-0.05668077
14	0xbd04f0c5	-0.03245618
15	0x3d519110	0.051163733
16	0xbc9127dd	-0.017719204
17	0x3c5a71ff	0.013332843
18	0xbd235df0	-0.039884508
19	0xba647a28	-0.00087157125
20	0xbdb6b90e	-0.08922015
21	0x3d5baeec	0.053633615
22	0x3dbd1fc8	0.092345774
23	0xbcbd8df0	-0.02313897
24	0x3d446d5e	0.047955863
25	0x3dd13942	0.10215999
26	0xbbc9ee5c	-0.006162448
27	0x3cecfec8	0.028930083
28	0x3d3346a6	0.043768547
29	0x3d5fce8e	0.054640345
30	0x3d1e4040	0.038635492
31	0x3b7ec75f	0.0038876159
32	0x3e103616	0.14083132
33	0x3d240576	0.04004427
34	0x3cdb1259	0.026742147
35	0x3ca641c0	0.020295024
36	0x3d4e34d7	0.05034336
37	0x3c8ced4e	0.017203
38	0xbd99d6d1	-0.07511676
39	0x3d0c0ca1	0.03419173
40	0x3a798cae	0.0009519559
41	0xbd9c8f8a	-0.076445654
42	0x3da5be99	0.08092994
43	0x3d4c3a66	0.04986038
44	0x3d81818e	0.06323539
45	0x3c8ed520	0.01743561
46	0x3d0223f4	0.03177257
47	0x3d6701ee	0.056398325
48	0x3d232bba	0.039836623
49	0x3d0e68d8	0.034767956
50	0x3db66113	0.08905234
51	0x3c77fc18	0.015135787
52	0x3d2b9999	0.04189453
53	0x3e0dc8dc	0.13846153
54	0x3d855b7d	0.06511591
55	0xbcb0ca1c	-0.021580748
56	0xbcc35362	-0.023843471
57	0x3c7d795f	0.015470832
58	0x3d58e782	0.052955158
59	0x3a9f22c0	0.0012141094
60	0x3d6d7856	0.05797609
61	0xbcf1fe0e	-0.029540088
62	0xbb81917e	-0.0039541116
63	0xbcb629b3	-0.02223668
64	0x3dd5d9c2	0.10441925
65	0xbbb4ed70	-0.005521469
66	0xbbadf3d0	-0.0053086057
67	0xbce9a69c	-0.028521828
68	0xbca101d0	-0.019654185
69	0xbd5862de	-0.052828662
70	0xbd57e036	-0.05270406
71	0x3d11a870	0.035561025
72	0x3d310191	0.043214384
73	0x3d7b6073	0.061371278
74	0xbccb48dd	-0.024815017
75	0xbd2551aa	-0.040361084
76	0x3cf8cad5	0.030370155
77	0x3ac0af00	0.0014700592
78	0x3c4c76eb	0.012479524
79	0xbd7cd139	-0.061722968
80	0x3d252b32	0.040324397
81	0x3c50e620	0.012750179
82	0x3cf5827e	0.02996945
83	0x3d2a83ab	0.041629475
84	0xbd20ba9c	-0.039240465
85	0x3d3640f9	0.044495557
86	0xbb07b3e1	-0.0020706581
87	0xbafaba59	-0.0019129022
88	0x3bbc9c71	0.005755954
89	0xbd2154e3	-0.039387595
90	0xbd853caf	-0.06505715
91	0xbd82ce24	-0.063869745
92	0x3c984373	0.01858685
93	0x3d805bae	0.062674865
94	0xbd4ff1a0	-0.05076754
95	0xbcad5711	-0.02115968
96	0xbd1e9c84	-0.038723484
97	0xbd43e506	-0.047825836
98	0xbcdb5510	-0.02677396
99	0x3c9b548e	0.018961217
100	0xbd6314f2	-0.055439897
101	0xbd519b45	-0.051173467
102	0x3d58c172	0.05291886
103	0xbce49a44	-0.02790559
104	0xbc4c938f	-0.012486353
105	0x3d980834	0.074234396
106	0xbd740b12	-0.05958087
107	0xbd49bec7	-0.049254205
108	0xbcbb3852	-0.022854004
109	0xbbd63694	-0.006537268
110	0x3d60a772	0.05484719
111	0xbd0e08a6	-0.034676217
112	0xbbbc8365	-0.005752968
113	0xbc190e23	-0.009341749
114	0x3d30165f	0.042990085
115	0x3cf6fa94	0.030148782
116	0xbd69567a	-0.056967236
117	0x3d88fa1b	0.06688329
118	0xbd7b9d74	-0.061429456
119	0x3d620167	0.05517712
120	0xbc15b895	-0.009138246
121	0xbd0e5cf8	-0.03475663
122	0x3d39ca9e	0.045359246
123	0xbd6c1d59	-0.057645176
124	0xbbb54edd	-0.005533083
125	0x3d41b56a	0.04729215
126	0x3d83461a	0.06409855
127	0xbd3c7084	-0.04600574
128	0xbc8c5092	-0.017128263
129	0x3b94c05d	0.004539533
130	0xbcc4d858	-0.024028942
131	0xbd1fa5e0	-0.03897655
132	0xbd03d1ea	-0.03218261
133	0xbcc31854	-0.023815311
134	0x3d8215a4	0.06351784
135	0x3d06eb4e	0.032939248
136	0x3da6a019	0.08136005
137	0x3d4833d2	0.048877545
138	0xbd65147d	-0.055927742
139	0xbcbfdf77	-0.023421986
140	0xbd51e20a	-0.05124096
141	0x3dd4e2ee	0.10394846
142	0x3c3587d4	0.011079747
143	0x3ba64ebe	0.005075305
144	0xbcc40674	-0.023928858
145	0x3d381a93	0.04494722
146	0xbba23957	-0.004950683
147	0xbd58a89e	-0.05289518
148	0xbbb3b501	-0.005484224
149	0xbcabbdec	-0.020964585
150	0xbd80acf5	-0.06282989
151	0xbd73a870	-0.059486806
152	0x3b9cd958	0.0047866516
153	0xbcec9118	-0.02887778
154	0xbc67605f	-0.014122098
155	0x3d12fade	0.035883777
156	0xbc366fa6	-0.0111350175
157	0x3d0d075c	0.034430847
158	0xbd11eaf5	-0.035624463
159	0xbd6d3920	-0.057915807
160	0xbd89ece7	-0.06734639
161	0x3d477980	0.048699856
162	0xbc9dee26	-0.019278597
163	0xbc0450f0	-0.008075938
164	0x3c755beb	0.014975528
165	0x3d963b5a	0.07335539
166	0x3b9c8b3c	0.00477734
167	0x3d0ef83c	0.034904703
168	0x3b9c24ac	0.004765114
169	0x3d07d422	0.03316129
170	0xbc2e016f	-0.010620459
171	0xbbc558b3	-0.0060225367
172	0x3ab73580	0.0013977736
173	0xbc12da9b	-0.008963252
174	0xbcb6f21e	-0.022332247
175	0x3d41c726	0.047309063
176	0x3d16b15c	0.036790237
177	0x3d3c3c4b	0.045955937
178	0xbd35aec0	-0.044356108
179	0xbcb7ec66	-0.02245159
180	0x3d1020af	0.03518742
181	0xbccef404	-0.02526284
182	0xbc111456	-0.008854946
183	0xbc893519	-0.016748952
184	0x3d3d091a	0.046151258
185	0xbdf88953	-0.121355675
186	0xbd5e61a5	-0.05429234
187	0x3c7b7180	0.015346885
188	0x3d5f3766	0.05449619
189	0xba332680	-0.0006834045
190	0xbd22e450	-0.039768517
191	0x3c13280d	0.008981717
192	0x3d787ec9	0.060667787
193	0xbde86906	-0.11348157
194	0x3c02233f	0.007942974
195	0xbd57d06d	-0.052689005
196	0xbd5ff936	-0.054681025
197	0xba7f8e38	-0.000974867
198	0x3c74d663	0.014943692
199	0xbc96d861	-0.018413724
200	0x3d45c037	0.048279013
201	0xbd479f38	-0.048735827
202	0xbd0e91e2	-0.034807093
203	0x3d907d4a	0.07055147
204	0xbc8e7668	-0.017390445
205	0x3bf906e9	0.0075997007
206	0x3d3dc2c8	0.046328336
207	0xbd1891d8	-0.037248462
208	0xbd30913d	-0.04310726
209	0xbbef1b9b	-0.007296992
210	0xbc3fe6f7	-0.011712781
211	0xbcf4d4a8	-0.029886559
212	0x3d3b5bad	0.045741726
213	0x3d699613	0.057027888
214	0x3d716035	0.05892964
215	0xbc8f7590	-0.017512113
216	0x3d5200ba	0.051270224
217	0xbd25da73	-0.040491533
218	0x3d495aa0	0.049158692
219	0x3d30fd6a	0.043210424
220	0x3c20e3b8	0.009819917
221	0x3d34036c	0.043948576
222	0x3da153c2	0.07877304
223	0xba702100	-0.0009160191
224	0x3d67c75e	0.056586616
225	0xbb90b127	-0.0044156495
226	0xbc81ee30	-0.015860647
227	0x3cfe1706	0.031016838
228	0x3b26f182	0.002547354
229	0xbd63cb69	-0.05561391
230	0xbcdcaf5e	-0.02693909
231	0x3d439570	0.047749937
232	0x3c605db0	0.013694212
233	0x3bcd06ac	0.006256899
234	0x3c18fd90	0.009337798
235	0x3d1071cb	0.03526477
236	0xbd49813d	-0.049195517
237	0x3ce95234	0.02848158
238	0x3c07550c	0.008260023
239	0xbd094862	-0.033516295
240	0x3d6530a4	0.05595459
241	0xbd92feef	-0.07177531
242	0xbba19530	-0.0049311146
243	0xbd8f36d7	-0.06992882
244	0xb86c3ee6	-5.6325363e-05
245	0xbd223d5c	-0.039609298
246	0xbabe638f	-0.001452552
247	0xbd19c7d0	-0.03754407
248	0x3d6042ea	0.054751314
249	0xbc3fff46	-0.011718577
250	0xbcc88304	-0.024476536
251	0xbc4853e4	-0.012227032
252	0x3cc45256	0.023965042
253	0x3b319d34	0.0027101757
254	0xb9d6bb74	-0.00040956924
255	0xbbd2f52d	-0.0064379186

linear_layer.4.bias f4 [49]
0	0x3cbd5928	0.023113802
1	0x3da97ffb	0.082763635
2	0x3b957dad	0.004562101
3	0x3d61c03f	0.05511498
4	0xbd63995a	-0.05556617
5	0xbcdf6291	-0.02726868
6	0xbb5501cf	-0.0032502299
7	0xbcbfd36e	-0.023416247
8	0x3c336df6	0.01095151
9	0xbcad8892	-0.021183286
10	0xbb9e88d2	-0.0048380876
11	0x3cfb7077	0.030693276
12	0xbd09408a	-0.033508815
13	0x3d93fd2c	0.07226023
14	0x3d7089b5	0.058725078
15	0x3cb10b71	0.021611901
16	0x3d643ab1	0.055720035
17	0xbc467bb6	-0.012114456
18	0xbcf14d6f	-0.029455869
19	0x3cbaf830	0.022823423
20	0x3d29647c	0.041355595
21	0x3d829285	0.06375603
22	0xbd1e9cb1	-0.03872365
23	0xbcec656a	-0.028856952
24	0xbd1d4be8	-0.038402468
25	0xbc65fcc0	-0.014037311
26	0x3c95ad12	0.018271003
27	0xbd58bb75	-0.052913148
28	0x3d80670e	0.06269656
29	0xbd3b7556	-0.045766197
30	0x3c20f1f9	0.009823316
31	0x3d69754d	0.056996632
32	0x3d1ec80a	0.03876499
33	0x3d7ed677	0.06221625
34	0x3c2cb7fa	0.01054191
35	0xbd0092fd	-0.03139018
36	0x393e6292	0.00018156532
37	0xbcc40a25	-0.023930619
38	0x3d45691c	0.048195943
39	0xbcd004af	-0.025392858
40	0x3d61d7b2	0.055137344
41	0x3c87c6e8	0.016574338
42	0xbcceff3c	-0.02526819
43	0xbca34325	-0.019929478
44	0x3da79860	0.0818336
45	0xbcab1cf7	-0.020887835
46	0xbd1ab479	-0.03776977
47	0x3cebd9bb	0.028790345
48	0x3d9111d9	0.07083482
