data/Apr-13_05-51-52/models/actor_2300.pth (torch, 323799 bytes, 6 tensors)

linear_layer.0.weight f4 [256, 7]
0.2138173 -0.17958449 -0.07751164 0.18640211 -0.42062628 0.3086248 0.053774487 0.099587254
-0.036903225 -0.13687079 0.060256097 0.11922412 0.10148324 -0.25568092 -0.021971755 -0.0057087215
0.08241989 -0.014575428 0.64500266 0.15140955 -0.38397935 -0.22827592 -0.06335276 -0.16303146
-0.12111815 0.018097544 0.22531511 0.20543754 -0.38677675 0.23346004 0.09873002 0.32602313
0.56729245 -0.42079967 -0.56552947 -0.22127388 0.29191527 -0.07524131 0.12689984 -0.15007585
0.45359528 -0.2596632 0.2655158 -0.025122643 -0.22412929 0.20512432 -0.37964743 0.16246842
0.060180493 -0.04143791 -0.36337054 -0.18020655 0.20509638 -0.09187458 0.37647134 0.30297193
-0.025031561 -0.25396416 0.2578926 0.13981746 -0.45408553 0.39013827 0.26384124 0.3770024
-0.18507539 -0.051214658 0.044740304 0.018855248 -0.30848214 -0.24019454 0.18795876 -0.1126157
0.15313326 0.01585758 -0.17049974 0.0126831215 0.35813257 0.18816581 -0.34932303 0.1908776
-0.2661974 -0.28575718 0.022381801 -0.06406641 0.24679321 -0.17778218 -0.29797375 0.3275115
-0.2743632 0.25379708 0.21823534 -0.28342623 0.07593241 0.09078577 -0.25306937 -0.17933366
0.12887667 0.067701966 -0.15696202 -0.09184719 0.3773097 -0.08277111 0.4613544 0.1982633
-0.47941858 -0.36999848 0.28296232 -0.0436404 0.19718549 0.01541421 0.101757005 0.3622917
0.35609084 -0.227588 0.07767651 0.27270263 0.3898435 0.29325747 -0.4571818 -0.2923474
-0.24896471 0.028065814 0.35634544 -0.22087893 0.18452027 -0.19278403 -0.3833302 -0.10193743
0.2074168 0.35670358 -0.35694563 0.18561059 0.27739057 0.195983 0.17976777 0.18463637
0.20195052 0.27180657 -0.39125353 -0.4314823 -0.17411451 -0.04440817 -0.2311585 0.1373956
0.118071124 -0.08615137 0.14617795 0.086646244 0.21570653 0.23103824 -0.1779641 0.63307977
-0.10832924 -0.24814804 -0.35675314 -0.24326405 -0.22080816 -0.16166407 0.26872122 -0.12351162
-0.28244573 0.11411703 0.090982504 0.19127491 -0.23244439 0.01962151 -0.23187625 -0.03657903
-0.30120683 -0.17226145 -0.11575454 0.16163096 0.06905011 0.093363434 0.3772483 0.3342292
0.2332702 -0.03407956 -0.30465263 0.43327713 -0.20264651 -0.17397173 -0.31623024 -0.06456129
-0.22197804 0.35842794 -0.3171691 -0.32346144 -0.10119068 -0.22013398 0.11936998 -0.16149223
-0.1922063 0.05845204 0.26224494 -0.288374 0.1533739 0.23175743 0.34402767 -0.30053973
0.29714045 -0.40097168 0.15891407 -0.17586851 0.20835042 -0.0028022968 -0.07956965 0.20656379
0.011922162 -0.05894651 0.035526842 0.071453765 -0.36271086 0.26470146 0.34823167 0.38541424
0.2812579 -0.26381338 -0.12824099 0.3460538 -0.27493122 0.3512984 -0.2851582 -0.24930407
0.17978895 -0.27109775 -0.060640555 0.3021534 0.081667446 0.49978516 -0.018786697 -0.2821672
0.39848992 -0.080506384 -0.16216254 0.2880896 -0.36330613 0.15229045 0.23688269 -0.2999077
-0.31044957 -0.03310833 0.1587547 -0.010946658 -0.1916573 0.008641188 -0.35526097 -0.26713055
-0.2516069 0.3112652 0.3331779 -0.12838195 -0.018938163 0.1481228 0.031055791 -0.24577364
00000000: ecf2 5a3e ffe4 37be 6cbe 9ebd 32e0 3e3e
00000010: 545c d7be 1204 9e3e a342 5c3d 67f4 cb3d
00000020: d627 17bd db27 0cbe 19cf 763d c72b f43d
00000030: 72d6 cf3d 9ce8 82be 1cfe b3bc 3a10 bbbb
00000040: c2cb a83d c7cd 6ebc e51e 253f 1b0b 1b3e
00000050: f198 c4be 2ac1 69be 18bf 81bd b8f1 26be
00000060: cb0c f8bd 4d41 943c 01b9 663e 385e 523e
00000070: 9a07 c6be 2610 6f3e f732 ca3d 81ec a63e
00000080: 143a 113f 0e73 d7be 8ac6 10bf 9f95 62be
00000090: eb75 953e 1e18 9abd 08f2 013e 7cad 19be
000000a0: a43d e83e 93f2 84be b0f1 873e 00ce cdbc
000000b0: 2682 65be 1c0c 523e 2661 c2be 1f5e 263e
000000c0: d27f 763d ccba 29bd b40b babe 1188 38be
000000d0: c904 523e bd28 bcbd dac0 c03e 231f 9b3e
000000e0: fd0e cdbc 9707 82be 800a 843e 4f2c 0f3e
000000f0: e67d e8be 34c0 c73e 3316 873e 7506 c13e
00000100: 6784 3dbe 76c6 51bd 9c41 373d 5276 9a3c
00000110: 5ff1 9dbe 8ff5 75be 4378 403e 0fa3 e6bd
00000120: f7ce 1c3e c1e7 813c 7c97 2ebe decc 4f3c
00000130: 275d b73e 8aae 403e 78da b2be 6b75 433e
00000140: 074b 88be c44e 92be 0a5a b73c 4035 83bd
00000150: 5cb7 7c3e 880c 36be 0490 98be 96af a73e
00000160: 5579 8cbe b1f1 813e 1679 5f3e 3e1d 91be
00000170: 7482 9b3d e4ed b93d 4f92 81be 3ea3 37be
00000180: 3ff8 033e 54a7 8a3d a7ba 20be 611a bcbd
00000190: bd2e c13e e683 a9bd a536 ec3e 8905 4b3e
000001a0: 5a76 f5be 7170 bdbe 70e0 903e 47c0 32bd
000001b0: feea 493e e28b 7c3c fa65 d03d 4c7e b93e
000001c0: 8a51 b63e d40c 69be dd14 9f3d ae9f 8b3e
000001d0: 9199 c73e d825 963e bc13 eabe 8fae 95be
000001e0: 9bf0 7ebe 47ea e53c e972 b63e 162e 62be
000001f0: e2f2 3c3e 2d69 45be db43 c4be 92c4 d0bd
00000200: 1265 543e daa1 b63e 94c1 b6be b410 3e3e
00000210: 2306 8e3e c4af 483e 0b15 383e 5111 3d3e
00000220: 1ecc 4e3e 3b2a 8b3e 6252 c8be 3feb dcbe
00000230: 134b 32be 57e5 35bd d0b4 6cbe 6fb1 0c3e
00000240: 46cf f13d 2170 b0bd acaf 153e 9673 b13d
00000250: 2ce2 5c3e 4a95 6c3e 393c 36be 8411 223f
00000260: b8db ddbd 851a 7ebe 59a8 b6be 361a 79be
00000270: 891b 62be 448b 25be d495 893e a9f3 fcbd
00000280: ba9c 90be 30b6 e93d 0955 ba3d 92dd 433e
00000290: e705 6ebe 4abd a03c f870 6dbe e5d3 15bd
000002a0: c837 9abe 4e65 30be b710 edbd 9682 253e
000002b0: 256a 8d3d 5435 bf3d b026 c13e 1720 ab3e
000002c0: 62de 6e3e 0297 0bbd 6efb 9bbe 80d6 dd3e
000002d0: 9182 4fbe a525 32be eee8 a1be b638 84bd
000002e0: 364e 63be de83 b73e fd63 a2be bd9c a5be
000002f0: 0f3d cfbd cd6a 61be 4078 f43d 385e 25be
00000300: bad1 44be 686b 6f3d f844 863e c2a5 93be
00000310: 0c0e 1d3e d251 6d3e 6524 b03e 58e0 99be
00000320: cb22 983e 294c cdbe 5fba 223e e016 34be
00000330: d059 553e bda6 37bb 6af5 a2bd 7585 533e
00000340: 2c55 433c e571 71bd 9884 113d 5a56 923d
00000350: 3db5 b9be f386 873e 6c4b b23e 0455 c53e
00000360: 0901 903e 8c12 87be 9b51 03be f72d b13e
00000370: c9c3 8cbe 62dd b33e 4100 92be 9149 7fbe
00000380: 981a 383e 53cd 8abe 3b62 78bd dab3 9a3e
00000390: 4341 a73d d7e3 ff3e 8fe6 99bc 3878 90be
000003a0: df06 cc3e 88e0 a4bd f00d 26be 7b80 933e
000003b0: 4303 babe 07f2 1b3e 6091 723e 818d 99be
000003c0: 3ff3 9ebe 9a9c 07bd 9890 223e 9d59 33bc
000003d0: d041 44be c593 0d3c c4e4 b5be 56c5 88be
000003e0: 9fd2 80be 275e 9f3e 4b96 aa3e 8f76 03be
000003f0: 3524 9bbc 81ad 173e b768 fe3c 16ac 7bbe

linear_layer.0.bias f4 [256]
-0.19953065 0.24036765 0.061528303 0.19842115 0.066514395 0.076776624 0.24638642 -0.018942362
0.33207217 0.10804116 -0.2556495 0.24858625 -0.19603103 0.19678803 -0.019111542 0.05134297
0.022135522 0.054347564 -0.08571134 0.047446072 0.17569526 -0.36726654 0.33324182 -0.39774114
-0.16870163 0.080302976 0.3607561 0.107021645 -0.26059154 0.06001261 -0.23334192 0.18854824
0.09017619 0.010602134 -0.28992748 0.2017176 0.37312198 -0.2662922 0.20532423 -0.15595393
-0.11402435 0.29964653 -0.34723702 -0.08189967 0.071947515 0.13592428 -0.14612067 -0.26325354
0.076203026 -0.30317935 0.030111078 -0.23948607 -0.066887 0.28621083 -0.2571285 -0.306346
-0.24806556 0.21556197 0.29869083 -0.19803452 0.2168432 0.24210906 -0.2140146 0.16254799
0.18092617 -0.0030054804 0.1836101 0.035999436 -0.06716763 0.2014183 -0.29009926 -0.37122798
0.07021943 0.08219388 0.02159309 -0.19272472 0.32563233 -0.29200578 -0.22491291 -0.3190074
-0.37643299 0.056310125 -0.15231138 0.18834504 0.36093023 0.13043201 0.33116987 -0.28949592
0.1339768 0.16932039 -0.14091305 -0.026826864 -0.27505153 0.036403116 -0.36716247 -0.23629422
-0.27453786 -0.051132966 0.03852372 -0.30713236 -0.13887331 0.18879424 0.025326034 0.016122563
-0.20090199 -0.17423044 -0.37323678 0.2551649 -0.012479179 0.17408764 0.22050467 0.33139056
-0.26071143 0.085196875 -0.2388829 0.1600595 -0.18684998 0.083331354 -0.27828208 0.19808625
0.2771007 0.20696835 -0.31990746 0.21773301 -0.3144443 -0.35351247 0.2164282 -0.058984485
-0.21323979 -0.2954725 0.009343327 -0.12029873 -0.22046788 -0.05556935 -0.36645818 0.18619952
-0.27438262 -0.12865242 -0.36602053 -0.05722544 -0.1984864 0.20855828 -0.09373656 0.25444004
0.41962707 0.086727016 -0.12954384 -0.32789207 -0.28344113 -0.22188653 -0.25863305 0.18668209
-0.12202713 -0.012484649 0.04426392 -0.32659066 0.3138629 -0.17105447 -0.35247397 -0.00021427491
-0.40827793 0.05660105 -0.21403365 -0.1807911 -0.11116703 0.22955965 0.2941411 0.39076784
0.013205718 0.24473913 -0.35693377 -0.20472674 0.2034107 0.15518679 0.10461179 0.21606119
0.22761671 0.1811222 -0.18570702 -0.08742112 0.07960149 0.32632682 -0.028639907 -0.10926523
0.19883816 0.3125161 -0.051664907 -0.10839573 -0.4279313 0.051913228 0.1923948 -0.2774866
-0.28061575 -0.37786713 0.28522834 0.28421813 0.39149976 0.2996699 -0.1108231 0.27030957
0.22371472 -0.10938672 -0.2177605 0.32525304 -0.09004581 0.092758514 -0.17872597 -0.21418864
-0.0700351 0.0124994535 0.27031735 0.24553072 -0.047489993 0.27769706 -0.20121522 0.019887006
-0.22206338 0.06020713 0.3240754 -0.23468122 0.115359955 -0.3264662 -0.028165895 -0.14799678
-0.003017082 -0.29757726 0.077209674 -0.43493533 0.054962285 -0.20783396 -0.21995324 0.30154878
0.106278375 -0.2501933 -0.22348833 -0.16863725 -0.30478826 0.111869425 0.002332216 0.33460402
-0.008272268 -0.13615017 0.32499877 0.088696525 -0.07389212 0.27383462 0.35553333 -0.32098255
-0.3139313 -0.27600354 -0.37539914 -0.10010928 0.13835949 -0.33019376 -0.3955868 -0.32545918
00000000: c351 4cbe f022 763e 1a05 7c3d ea2e 4b3e
00000010: b338 883d 103d 9d3d b94c 7c3e 032d 9bbc
00000020: 5d05 aa3e af44 dd3d 7ee4 82be 658d 7e3e
00000030: 5cbc 48be cd82 493e cf8f 9cbc 024d 523d
00000040: 8e55 b53c 8d9b 5e3d 6d89 afbd d056 423d
00000050: 75e9 333e 5c0a bcbe ac9e aa3e baa4 cbbe
00000060: 1fc0 2cbe e375 a43d 06b5 b83e 2a2e db3d
00000070: 416c 85be c8cf 753d 2ff1 6ebe ca12 413e
00000080: 4bae b83d 93b4 2d3c 6071 94be 0f8f 4e3e
00000090: d809 bf3e 7457 88be 8440 523e 63b2 1fbe
000000a0: 9985 e9bd 456b 993e 0dc9 b1be 04bb a7bd
000000b0: 3859 933d bc2f 0b3e a8a0 15be 2bc9 86be
000000c0: 5510 9c3d 533a 9bbe 82ab f63c d63b 75be
000000d0: 0dfc 88bd 3a8a 923e 59a6 83be 62d9 9cbe
000000e0: e604 7ebe 47bc 5c3e 01ee 983e 90c9 4abe
000000f0: 250c 5e3e 70eb 773e a526 5bbe fb72 263e
00000100: b644 393e 98f7 44bb 4904 3c3e 2574 133d
00000110: 2f8f 89bd 9940 4e3e e487 94be 9811 bebe
00000120: 34cf 8f3d 4455 a83d fee3 b03c a159 45be
00000130: 48b9 a63e c881 95be 924f 66be f054 a3be
00000140: d3bb c0be 72a5 663d 84f7 1bbe 86dd 403e
00000150: d9cb b83e f88f 053e 198f a93e cf38 94be
00000160: 3731 093e 5362 2d3e 834b 10be 03c4 dbbc
00000170: 8ed3 8cbe 6f1b 153d b8fc bbbe 1df7 71be
00000180: 3a90 8cbe cd70 51bd 0ccb 1d3d 7440 9dbe
00000190: ce34 0ebe 4753 413e 8b78 cf3c 7713 843c
000001a0: 40b9 4dbe 7769 32be e418 bfbe f9a4 823e
000001b0: 7875 4cbc 0844 323e facb 613e 06ac a93e
000001c0: f87b 85be b37b ae3d b89d 74be a3e6 233e
000001d0: 9a55 3fbe a1a9 aa3d fd7a 8ebe 1fd7 4a3e
000001e0: 25e0 8d3e 83ef 533e e9ca a3be 67f5 5e3e
000001f0: d8fe a0be 96ff b4be 5b9f 5d3e b799 71bd
00000200: 885b 5abe 2c48 97be c114 193c 2e5f f6bd
00000210: 55c2 61be b09c 63bd 68a0 bbbe 16ab 3e3e
00000220: e17b 8cbe 76bd 03be 0b67 bbbe 3965 6abd
00000230: 0540 4bbe 4d90 553e f4f8 bfbd f745 823e
00000240: 5cd9 d63e ef9d b13d 24a7 04be 78e1 a7be
00000250: 321f 91be 3936 63be 8d6b 84be 9729 3f3e
00000260: 5ce9 f9bd 6a8c 4cbc 164e 353d e436 a7be
00000270: a3b2 a03e e728 2fbe 7877 b4be fcae 60b9
00000280: ce09 d1be 81d6 673d a32b 5bbe 4d21 39be
00000290: 8aab e3bd af11 6b3e aa99 963e b912 c83e
000002a0: cc5c 583c e59c 7a3e 06c0 b6be e3a3 51be
000002b0: e54a 503e 49e9 1e3e b53e d63d 253f 5d3e
000002c0: 5b14 693e 1978 393e fb29 3ebe d809 b3bd
000002d0: 1b06 a33d 4f14 a73e 3d9e eabc 73c6 dfbd
000002e0: 3b9c 4b3e 1c02 a03e 959e 53bd 95fe ddbd
000002f0: d019 dbbe f7a2 543d 2403 453e b912 8ebe
00000300: deac 8fbe cd77 c1be 7309 923e 0a85 913e
00000310: a872 c83e 556e 993e 39f7 e2bd 0466 8a3e
00000320: 7915 653e 2506 e0bd 9cfc 5ebe 9187 a63e
00000330: f069 b8bd 2df8 bd3d f103 37be 4454 5bbe
00000340: 906e 8fbd 82ca 4c3c 0967 8a3e 686c 7b3e
00000350: de84 42bd 4f2e 8e3e 5d0b 4ebe 13ea a23c
00000360: 9564 63be c09b 763d 36ed a53e 4650 70be
00000370: d741 ec3d 9426 a7be 2abc e6bc 788c 17be
00000380: 3dba 45bb 0c5c 98be 1b20 9e3d d8af debe
00000390: 2220 613d 6dd2 54be 6c3b 61be 9a64 9a3e
000003a0: 7aa8 d93d 5619 80be 20da 64be 3eaf 2cbe
000003b0: 350d 9cbe cc1b e53d 17d8 183b 3851 ab3e
000003c0: 6888 07bc f36a 0bbe 3d66 a63e 86a6 b53d
000003d0: c054 97bd 0d34 8c3e 7708 b63e d357 a4be
000003e0: 9abb a0be 5650 8dbe 5134 c0be 1806 cdbd
000003f0: 1cae 0d3e 280f a9be 5a8a cabe 96a2 a6be

linear_layer.2.weight f4 [256, 256]
-0.0027724125 0.03250945 0.05404085 0.062089197 -0.019990383 -0.059135266 0.05838197 -0.042012326
0.06182613 0.0015226239 0.008579344 0.02253839 -0.04492697 -0.021059878 -0.04766353 0.03187918
-0.030990874 -0.00024885175 0.03760774 0.030177377 -0.0426556 -0.07288463 0.049467333 -0.008709539
-0.047917582 0.029796213 -0.058070052 0.074096724 0.01809908 0.027768841 0.0011559948 0.01082307
0.02171956 -0.029196803 0.0036036968 0.046281204 -0.03921443 0.03980483 0.041305505 -0.02167731
-0.0017523745 -0.052880432 -0.0338327 -0.04664651 -0.060643982 0.061927676 -0.025105799 -0.033206865
0.043722928 -0.0059586503 -0.036707528 -0.033416037 -0.013724767 0.012701954 0.049721487 0.03390536
-0.043412387 -0.022825588 0.010137546 -0.10570038 0.032480776 -0.0069483966 0.060886096 -0.07564449
0.07463694 -0.08387433 -0.016217137 0.049321026 0.024975073 -0.022915525 -0.0109571405 -0.049124926
0.0053136945 -0.013603324 0.038819015 0.043151774 -0.051905844 -0.056527328 0.0016146133 -0.022472166
-0.025432304 -0.10106105 -0.06129016 -0.051286343 -0.004476607 -0.003914206 -0.0094535295 -0.026756778
-0.029302845 -0.081916794 0.011253312 -0.045731872 -0.011626862 0.024833098 -0.0013229157 -0.06623344
-0.08510963 0.021246066 0.0017810464 0.05865596 0.029159836 0.015560458 0.009660652 -0.01343014
-0.049810167 -0.019153489 0.06077338 0.020751027 0.031367444 0.058613315 0.053739186 -0.03508029
-0.034037642 -0.006781411 -0.007308717 -0.062342227 -0.012023793 0.03461933 -0.0042027086 0.054581694
-0.04904443 -0.062325824 0.015393437 0.012260819 -0.04000975 -0.031629175 0.0013868646 -0.012157833
-0.029880654 -0.0040378748 -0.035020854 0.034097135 0.091310374 -0.038504176 0.021694345 0.038409606
-0.013205948 -0.049062222 -0.014478061 -0.020295816 -0.0321561 -0.011552341 -0.013296936 -0.014548399
-0.03996759 -0.054414492 -0.052350216 -0.057606947 0.02742779 0.020178847 0.052467078 0.010558301
-0.025707304 -0.040425118 0.022785977 -0.037771307 0.048437618 -0.10012835 -0.07208615 -0.07953818
0.034383167 -0.0071380674 0.017587844 -0.018224549 0.053588867 -0.029036656 0.054167613 -0.036503527
-0.0046046707 0.047004543 -0.058789648 0.14746793 -0.040936075 0.105779186 -0.0029471964 0.016258106
0.01076083 -0.05062665 0.0041822293 0.0069844862 -0.006957352 -0.052330162 0.061856546 -0.02211838
-0.050016694 0.07458131 -0.042441938 0.040231638 -0.0221652 -0.06467314 -0.0066775437 -0.033977464
0.019561402 0.05895683 -0.009648355 -0.034909803 -0.02667946 -0.06293009 0.034529336 -0.07345228
-0.049459115 -0.039684046 0.038882755 0.011604229 0.018484065 -0.01592722 -0.011631984 0.008440713
-0.00061193854 -0.020120874 -0.040382694 -0.035619587 -0.043274492 -0.02411061 -0.04455357 -0.010863623
-0.0024135758 0.0595319 -0.0027629691 0.029084133 -0.07313026 -0.0745099 -0.014844724 -0.07840898
0.014032506 0.039377492 -0.03326725 -0.044317406 -0.036144473 0.04659478 -0.014043956 -0.04780699
0.08451405 0.0031776652 -0.04489978 -0.0067843497 -0.076674685 0.060584344 -0.04071705 0.01969406
0.046597093 -0.03839471 -0.02447106 -0.009473911 -0.010511573 0.025921306 -0.04232544 0.009499033
-0.018686801 0.029200403 0.034730688 -0.05542495 0.033178747 -0.024580963 0.044966694 -0.062023185
00000000: 5db1 35bb a128 053d f059 5d3d 3e51 7e3d
00000010: dfc2 a3bc d237 72bd ef21 6f3d 1e15 2cbd
00000020: 653d 7d3d c892 c73a 6090 0c3c 6ea2 b83c
00000030: 5805 38bd c485 acbc d53a 43bd be93 023d
00000040: 93e0 fdbc 5178 82b9 930a 1a3d 8c36 f73c
00000050: a3b7 2ebd 8944 95bd 429e 4a3d 74b2 0ebc
00000060: 3a45 44bd 3017 f43c ddda 6dbd 06c0 973d
00000070: 8644 943c 7b7b e33c c084 973a 3f53 313c
00000080: 38ed b13c 222e efbc 002c 6c3b 5c91 3d3d
00000090: 4f9f 20bd 640a 233d f62f 293d 9d94 b1bc
000000a0: eeaf e5ba 2799 58bd 2894 0abd 6910 3fbd
000000b0: d365 78bd e0a7 7d3d adaa cdbc ec03 08bd
000000c0: d016 333d c840 c3bb a25a 16bd 41df 08bd
000000d0: d8dd 60bc db1b 503c c2a8 4b3d 59e0 0a3d
000000e0: 30d1 31bd bafc babc f317 263c 7179 d8bd
000000f0: 900a 053d 60af e3bb b363 793d 80eb 9abd
00000100: 41db 983d 4ec6 abbd cdd9 84bc d804 4a3d
00000110: 8698 cc3c 57b9 bbbc 9485 33bc 3837 49bd
00000120: 801e ae3b 7ae0 5ebc b000 1f3d eabf 303d
00000130: 399b 54bd 3389 67bd 6fa1 d33a 8c17 b8bc
00000140: 6857 d0bc 19f9 cebd 640b 7bbd a111 52bd
00000150: 80b0 92bb bd42 80bb fae2 1abc 0831 dbbc
00000160: 850c f0bc fec3 a7bd d05f 383c 5851 3bbd
00000170: 987e 3ebc c86e cb3c af65 adba 66a5 87bd
00000180: f54d aebd 3b0c ae3c 0072 e93a 3b41 703d
00000190: 9ce0 ee3c 4bf1 7e3c b647 1e3c 170a 5cbc
000001a0: bf05 4cbd c7e7 9cbc 82ed 783d 0ffe a93c
000001b0: 267b 003d 8414 703d 9f1d 5c3d 5ab0 0fbd
000001c0: 0e6b 0bbd 9936 debb f67d efbb 905a 7fbd
000001d0: 71ff 44bc 00cd 0d3d e0b6 89bb 0e91 5f3d
000001e0: d0e2 48bd 5d49 7fbd c134 7c3c 9ae1 483c
000001f0: 43e1 23bd 988d 01bd 74c7 b53a a631 47bc
00000200: 46c8 f4bc 2650 84bb 0772 0fbd 70a9 0b3d
00000210: ef00 bb3d 8eb6 1dbd 57b8 b13c 6453 1d3d
00000220: c35d 58bc 78f5 48bd 6435 6dbc 6943 a6bc
00000230: 1db6 03bd 0846 3dbc 64db 59bc 685c 6ebc
00000240: 0eb5 23bd bbe1 5ebd 2e6d 56bd 43f5 6bbd
00000250: 3fb0 e03c 1c4e a53c b8e7 563d b9fc 2c3c
00000260: 2098 d2bc cf94 25bd a8a9 ba3c 16b6 1abd
00000270: 8666 463d 1810 cdbd e7a1 93bd eae4 a2bd
00000280: 5dd5 0c3d 73e6 e9bb 6214 903c a64b 95bc
00000290: 0080 5b3d 48de edbc dcde 5d3d b984 15bd
000002a0: c7e2 96bb d687 403d 6acd 70bd d501 173e
000002b0: 96ac 27bd c2a2 d83d c025 41bb b82f 853c
000002c0: 314e 303c e45d 4fbd 150b 893b 1ede e43b
000002d0: 80fa e3bb 2758 56bd 4a5d 7d3d 9b31 b5bc
000002e0: 4ede 4cbd 16be 983d 99d7 2dbd eec9 243d
000002f0: cb93 b5bc 5a73 84bd 4ccf dabb f42b 0bbd
00000300: 3c3f a03c b87c 713d 2214 1ebc 95fd 0ebd
00000310: e28e dabc 7ee1 80bd a26e 0d3d 266e 96bd
00000320: a495 4abd bd8b 22bd 8643 1f3d aa1f 3e3c
00000330: e56b 973c cd79 82bc 1494 3ebc eb4a 0a3c
00000340: 806a 20ba 88d4 a4bc 5368 25bd d8e5 11bd
00000350: 9840 31bd 9d83 c5bc ce7d 36bd 56fd 31bc
00000360: 152d 1ebb b9d7 733d ee12 35bb d941 ee3c
00000370: 51c5 95bd a598 98bd 4937 73bc e394 a0bd
00000380: 99e8 653c 4b4a 213d 3d43 08bd 2b86 35bd
00000390: 3a0c 14bd 2bda 3e3d 9f18 66bc 43d1 43bd
000003a0: b415 ad3d 6040 503b d5e8 37bd 404f debb
000003b0: 9e07 9dbd 4a27 783d ecc6 26bd 7055 a13c
000003c0: 98dc 3e3d c543 1dbd 8877 c8bc 7638 1bbc
000003d0: bc38 2cbc eb58 d43c 715d 2dbd d5a1 1b3c
000003e0: 1015 99bc af35 ef3c c441 0e3d 4605 63bd
000003f0: 70e6 073d 045e c9bc ff2e 383d 060c 7ebd

linear_layer.2.bias f4 [256]
-0.020063406 -0.024933107 0.011902501 -0.015716255 0.011390398 -0.03697759 -0.03869117 0.02664709
0.05572939 -0.055847324 0.03881175 0.015629048 0.0068901926 0.0014733576 1.3083476e-05 -0.014764374
-0.011268358 -0.07375608 0.01782649 0.045393273 -0.01864222 0.061212607 0.022282617 -0.041078165
-0.00051691436 -0.055272534 0.033929367 -0.024613112 -0.061061297 0.03247313 0.005967029 0.023527814
-0.076855205 -0.0149018 0.0085754 -0.064643346 0.042431194 0.039345972 -0.020415949 -0.046884507
0.061263975 -0.026214791 -0.07626639 -0.025576234 -0.05874738 -0.012642484 -0.04272384 -0.049471527
-0.03833045 0.01501029 0.0072708763 -0.05800181 -0.061224017 -0.05513396 -0.054499775 0.021670073
0.01110956 -0.090767086 -0.0057924273 0.047493674 0.031744063 -0.05585559 -0.01778804 0.009663136
0.022859687 0.059343614 0.0055864155 -0.017914124 0.029449718 0.005785875 -0.0575084 -0.025521671
-0.018037435 0.011253993 -0.05637226 -0.007974504 -0.032859504 0.055846408 -0.04002931 -0.015528032
0.00039409244 -0.02257281 0.03952901 -0.06409982 0.049938295 -0.016244506 0.026308568 0.055211402
-0.06966237 0.078494646 0.010999301 -0.028770337 -0.02382545 -0.03690998 -0.010416398 0.009464714
-0.065939404 -0.055301417 0.044425063 -0.025313213 -0.04599265 0.021443121 -0.0008955495 -0.03314496
-0.018322943 0.024196515 0.03557825 0.041244507 0.023395209 -0.040783536 0.020562781 0.06748077
0.02054557 -0.010938042 -0.005739894 -0.03525223 -0.06800936 -0.0032407078 0.039086603 0.028591856
-0.0061679855 0.013801097 0.05289308 0.0036396598 -0.0052691866 0.045937 0.03867535 0.02876231
0.100863986 -0.020153975 -0.035490878 0.050210778 -0.037826575 0.00191767 -0.0898387 0.010381526
0.039833747 -0.06565978 0.03597941 0.09686813 0.019905083 -0.049751267 0.011993215 -0.023291275
-0.03891543 0.026165843 0.030401405 -0.021252224 0.036390405 -0.02771329 0.03874924 -0.06122549
-0.08440049 -0.04793756 0.008996365 -0.035504732 0.019070918 0.050337024 -0.013435506 -0.022131722
0.033912454 0.059582207 -0.033008 0.015786327 0.03238801 -0.0803429 -0.013649582 0.01589221
-0.04906361 -0.0280731 0.039854385 0.07136632 0.048655227 -0.07026901 -0.05310203 0.040449314
-0.023297764 -0.036971513 0.029077016 0.06744066 -0.0012984793 -0.067970805 0.023684952 0.0033372887
0.05314687 -0.064295396 -0.021832416 -0.01776249 0.03914378 -0.0013674423 0.024773164 0.054715555
0.06383197 0.016170476 0.04854254 -0.0452977 0.05229471 0.035587166 0.055794206 -0.10352636
0.016692353 -0.040756546 -0.05501817 -0.100730486 -0.04785216 -0.059862517 0.011731163 -0.06423641
-0.03675185 0.047787417 -0.056146197 0.043585405 0.0495013 -0.045847755 -0.044284113 -0.0038014054
-0.048411243 -0.043144148 0.0576178 0.020445036 0.0035865456 0.0017458098 -0.064472206 -0.01486171
0.00955911 0.018409306 0.03798677 0.047724266 -0.065684356 -0.060728636 -0.0060371086 -0.04972747
-0.05588948 0.018173454 -0.07711971 0.00087791873 -0.005939436 0.040839646 -0.020930791 0.02869839
0.057257682 -0.0055875606 -0.030501842 -0.06275699 0.0001311055 -0.06261259 -0.0036160082 0.026682513
-0.012028751 0.054086298 -0.04008147 0.022109631 -0.0120367985 0.038880944 -0.06049062 -0.015700597
00000000: 035c a4bc 8440 ccbc b502 433c 60bf 80bc
00000010: cb9e 3a3c d075 17bd a27a 1ebd 004b da3c
00000020: 8044 643d 2ac0 64bd 12f9 1e3d 7d08 803c
00000030: 20c7 e13b ad1d c13a 1a81 5b37 46e6 71bc
00000040: eb9e 38bc 6d0d 97bd dc08 923c 4cee 393d
00000050: 92b7 98bc 12ba 7a3d 098a b63c 9441 28bd
00000060: 8981 07ba 7465 62bd 85f9 0a3d 70a1 c9bc
00000070: 691b 7abd 8b02 053d 1187 c33b 67bd c03c
00000080: 4366 9dbd ae26 74bc d67f 0c3c bb63 84bd
00000090: 55cc 2d3d 3e29 213d 593f a7bc f809 40bd
000000a0: efef 7a3d 67c0 d6bc 8e31 9cbd 4085 d1bc
000000b0: 18a1 70bd 6c22 4fbc 31ff 2ebd a8a2 4abd
000000c0: 6400 1dbd b8ed 753c 8840 ee3b 4e93 6dbd
000000d0: 09c6 7abd 26d4 61bd 283b 5fbd 7085 b13c
000000e0: df04 363c 18e4 b9bd 67ce bdbb ba88 423d
000000f0: 1006 023d d5c8 64bd 39b8 91bc 2152 1e3c
00000100: 3d44 bb3c 4a12 733d 400e b73b a4c0 92bc
00000110: 8940 f13c 7097 bd3b ee8d 6bbd d312 d1bc
00000120: 3ec3 93bc ab62 383c 99e6 66bd 7ea7 02bc
00000130: b097 06bd 34bf 643d c6f5 23bd 4969 7ebc
00000140: 319e ce39 9dea b8bc 2ce9 213d c446 83bd
00000150: 198c 4c3d 3313 85bc 1185 d73c 5a25 623d
00000160: 25ab 8ebd cdc1 a03d 6a36 343c c5af ebbc
00000170: 972d c3bc eb2e 17bd 8aa9 2abc e311 1b3c
00000180: 3d0b 87bd bd83 62bd 0ef7 353d a85d cfbc
00000190: ca62 3cbd 7ca9 af3c 4fc3 6aba 02c3 07bd
000001a0: ff19 96bc c537 c63c 80ba 113d 00f0 283d
000001b0: 4fa7 bf3c a30c 27bd 4773 a83c 5c33 8a3d
000001c0: 2f4f a83c 7935 33bc b915 bcbb a464 10bd
000001d0: 7e48 8bbd 0e62 54bb 4619 203d 7839 ea3c
000001e0: d01c cabb ff1d 623c 6aa6 583d 5c87 6e3b
000001f0: 24a9 acbb 7028 3c3d 0b6a 1e3d f09e eb3c
00000200: c791 ce3d f319 a5bc e25e 11bd d1a9 4d3d
00000210: 0af0 1abd 545a fb3a 5afd b7bd 4717 2a3c
00000220: b628 233d a278 86bd 255f 133d cc62 c63d
00000230: fc0f a33c fcc7 4bbd 317f 443c 58cd bebc
00000240: c965 1fbd c059 d63c 5e0c f93c 2519 aebc
00000250: 1b0e 153d fb06 e3bc 86b7 1e3d 94c7 7abd
00000260: 2ada acbd 2d5a 44bd 7d65 133c 696d 11bd
00000270: 9d3a 9c3c 322e 4e3d 9920 5cbc 964d b5bc
00000280: c9e7 0a3d 790c 743d 6633 07bd 5452 813c
00000290: 4aa9 043d d18a a4bd 7fa2 5fbc 6130 823c
000002a0: edf6 48bd 8ff9 e5bc 5a3e 233d 8128 923d
000002b0: b44a 473d 33e9 8fbd 8481 59bd 2eae 253d
000002c0: f4da bebc 716f 17bd ec32 ee3c 541e 8a3d
000002d0: bc31 aaba 4734 8bbd f206 c23c 6ab6 5a3b
000002e0: 88b0 593d 4ead 83bd e5d9 b2bc a482 91bc
000002f0: 3a55 203d c03b b3ba 17f1 ca3c 6b1d 603d
00000300: 56ba 823d f277 843c 8bd4 463d 158a 39bd
00000310: fa32 563d d9c3 113d 7788 643d a105 d4bd
00000320: 67be 883c 56f0 26bd bc5a 61bd c94b cebd
00000330: a000 44bd 6632 75bd 1034 403c 618e 83bd
00000340: 1c89 16bd bdbc 433d 8ef9 65bd 9c86 323d
00000350: e0c1 4a3d dbca 3bbd 4263 35bd 0021 79bb
00000360: de4a 46bd ebb7 30bd a400 6c3d 597c a73c
00000370: 400c 6b3b a8d3 e43a 010a 84bd 887e 73bc
00000380: d09d 1c3c 1dcf 963c 0498 1b3d 857a 433d
00000390: 8585 86bd 97be 78bd f0d2 c5bb 08af 4bbd
000003a0: 5eec 64bd 7fe0 943c f0f0 9dbd 2124 663a
000003b0: 9a9f c2bb 7947 273d 0d77 abbc e318 eb3c
000003c0: 0887 6a3d db17 b7bb 00df f9bc bd86 80bd
000003d0: 5d79 0939 083b 80bd 8dfa 6cbb 4995 da3c
000003e0: 3d14 45bc 9889 5d3d 782c 24bd 421f b53c
000003f0: fe35 45bc a041 1f3d 03c5 77bd 8a9e 80bc

linear_layer.4.weight f4 [49, 256]
-0.037706178 0.027085677 -0.0015032496 0.02517962 -0.034748536 -0.02791141 0.12758388 -0.04099013
0.05727433 -0.020259535 0.01841162 0.07994567 0.026505299 -0.05712264 -0.022334022 0.05147054
-0.017719204 0.012957398 -0.039884508 -0.0008762575 -0.092012666 0.053633615 0.092345774 -0.02313897
0.047955863 0.10215999 -0.006162448 0.028930083 0.044132236 0.054640345 0.0401699 0.011985502
0.14083132 0.04004427 0.026742147 0.020295024 0.05034336 0.012898323 -0.06539733 0.03419173
0.009587095 -0.08132051 0.057318322 0.0502159 0.07053525 0.01759265 0.03177257 0.056398325
0.039836623 0.034767956 0.08813305 0.015135787 0.04189453 0.13947779 0.06671072 -0.021580748
-0.023843471 0.014392182 0.052955158 0.0012141094 0.05797609 -0.018913658 0.008703399 -0.02223668
0.1112135 -0.005521469 -0.0053086057 -0.028521828 -0.019654185 -0.052828662 -0.060493737 0.035561025
0.043214384 0.061371278 -0.024815017 -0.040361084 0.030370155 0.0014700592 0.012479524 -0.061722968
0.04181378 0.15560785 0.02996945 0.05043778 -0.039240465 0.044495557 -0.0052273255 0.0015969244
0.005755954 -0.060729027 -0.06505715 -0.063869745 0.01858685 0.08555647 -0.035246145 -0.02115968
-0.038723484 -0.047825836 -0.02677396 0.030506223 -0.055439897 -0.051173467 0.05291886 -0.02790559
-0.012486353 0.07558839 -0.05958087 -0.049254205 -0.022854004 -0.0061814575 0.054894175 -0.03189251
0.0014127413 -0.009341749 0.041476864 0.030148782 -0.05685731 0.06350749 -0.061397348 0.05517712
0.004321834 -0.03956661 0.045359246 -0.056694597 -0.005536284 0.04729215 0.06532069 -0.04600574
-0.019158358 0.014408896 -0.024028942 -0.03897655 -0.03218261 -0.0238761 0.06361555 0.032939248
0.08263679 0.048877537 -0.055927742 -0.017966999 -0.05124096 0.10389178 0.011079747 0.004512123
-0.027587486 0.04426317 -0.0077697528 -0.05289518 -0.011492086 -0.01976682 -0.0628281 -0.059486806
0.0063754325 -0.02887778 -0.014122098 0.038053516 -0.0111350175 0.034430847 -0.035624463 -0.057915807
-0.059923895 0.048699856 -0.019278597 -0.008075938 0.014335545 0.07546099 0.00477734 0.04674905
0.004765114 0.038550906 -0.010620459 -0.0069030453 0.0013977736 -0.0062894714 -0.022332247 0.047309063
0.036790237 0.06145883 -0.044356108 -0.0110502625 0.037565988 -0.02526284 -0.008854946 -0.016748952
0.046151258 -0.12137429 -0.05429234 0.015346885 0.05449619 -0.0006834045 -0.039768517 0.0034345158
0.065454446 -0.11348157 0.007942974 -0.052689005 -0.054681025 0.0012775788 0.019985566 -0.0095533375
0.048279013 -0.048735827 -0.034807093 0.06970843 -0.024437686 0.0075997007 0.046328336 -0.037248462
-0.04310726 -0.006724398 -0.011712781 -0.029886559 0.04654446 0.057027888 0.059158348 -0.017512113
0.051270224 -0.040491533 0.049158692 0.040421385 0.009819917 0.043948576 0.08178212 -0.0009160191
0.056586616 0.0027674013 -0.015860647 0.03102258 0.002547354 -0.05561391 -0.02693909 0.047749937
0.013694212 0.006256899 0.0077642784 0.015884448 -0.049195517 0.03530996 0.008260023 -0.033516295
0.05595459 -0.06613922 -0.0049311146 -0.06029723 -5.628884e-05 -0.039609298 0.005191381 -0.03754407
0.055778407 -0.011718577 -0.024476536 -0.012227032 0.049279463 0.0027101757 -0.00040956924 0.0013794214
00000000: cb71 1abd c8e2 dd3c b008 c5ba 7e45 ce3c
00000010: 7b54 0ebd 78a6 e4bc 59a5 023e 44e5 27bd
00000020: 7d98 6a3d 53f7 a5bc f7d3 963c 8eba a33d
00000030: a421 d93c 6ef9 69bd d7f5 b6bc c6d2 523d
00000040: dd27 91bc 444b 543c f05d 23bd a5b4 65ba
00000050: 2371 bcbd ecae 5b3d c81f bd3d f08d bdbc
00000060: 5e6d 443d 4239 d13d 5cee c9bb c8fe ec3c
00000070: 01c4 343d 8ece 5f3d 3189 243d d75e 443c
00000080: 1636 103e 7605 243d 5912 db3c c041 a63c
00000090: d734 4e3d 7d53 533c 09ef 85bd a10c 0c3d
000000a0: 3113 1d3c 5e8b a6bd 9ec6 6a3d 30af 4d3d
000000b0: c974 903d 761e 903c f423 023d ee01 673d
000000c0: ba2b 233d d868 0e3d 1a7f b43d 18fc 773c
000000d0: 9999 2b3d 44d3 0e3e a19f 883d 1cca b0bc
000000e0: 6253 c3bc 30cd 6b3c 82e7 583d c022 9f3a
000000f0: 5678 6d3d d1f0 9abc b498 0e3c b329 b6bc
00000100: e7c3 e33d 70ed b4bb d0f3 adbb 9ca6 e9bc
00000110: d001 a1bc de62 58bd 48c8 77bd 70a8 113d
00000120: 9101 313d 7360 7b3d dd48 cbbc aa51 25bd
00000130: d5ca f83c 00af c03a eb76 4c3c 39d1 7cbd
00000140: ed44 2b3d aa57 1f3e 7e82 f53c d897 4e3d
00000150: 9cba 20bd f940 363d fc49 abbb e44f d13a
00000160: 719c bc3b 00bf 78bd af3c 85bd 24ce 82bd
00000170: 7343 983c 3b38 af3d 435e 10bd 1157 adbc
00000180: 849c 1ebd 06e5 43bd 1055 dbbc 30e8 f93c
00000190: f214 63bd 459b 51bd 72c1 583d 449a e4bc
000001a0: 8f93 4cbc 16ce 9a3d 120b 74bd c7be 49bd
000001b0: 5238 bbbc d38d cabb b7d8 603d b8a1 02bd
000001c0: bb2b b93a 230e 19bc a5e3 293d 94fa f63c
000001d0: 36e3 68bd 3710 823d c97b 7bbd 6701 623d
000001e0: 2c9e 8d3b 9910 22bd 9eca 393d 9838 68bd
000001f0: b769 b5bb 6ab5 413d dbc6 853d 8470 3cbd
00000200: fdf1 9cbc 4a13 6c3c 58d8 c4bc e0a5 1fbd
00000210: ead1 03bd d097 c3bc df48 823d 4eeb 063d
00000220: 7a3d a93d d033 483d 7d14 65bd 872f 93bc
00000230: 0ae2 51bd 37c5 d43d d487 353c 6eda 933b
00000240: 27ff e1bc 4c4d 353d 6999 febb 9ea8 58bd
00000250: 4d49 3cbc 07ee a1bc 05ac 80bd 70a8 73bd
00000260: 01e9 d03b 1891 ecbc 5f60 67bc 01de 1b3d
00000270: a66f 36bc 5c07 0d3d f5ea 11bd 2039 6dbd
00000280: c272 75bd 8079 473d 26ee 9dbc f050 04bc
00000290: a2df 6a3c 4b8b 9a3d 3c8b 9c3b ef7b 3f3d
000002a0: ac24 9c3b 8ee7 1d3d 6f01 2ebc f132 e2bb
000002b0: 8035 b73a e917 cebb 1ef2 b6bc 26c7 413d
000002c0: 5cb1 163d 41bc 7b3d c0ae 35bd 290c 35bc
000002d0: cbde 193d 04f4 cebc 5614 11bc 1935 89bc
000002e0: 1a09 3d3d 1593 f8bd a561 5ebd 8071 7b3c
000002f0: 6637 5f3d 8026 33ba 50e4 22bd 9d15 613b
00000300: fb0c 863d 0669 e8bd 3f23 023c 6dd0 57bd
00000310: 36f9 5fbd 6e74 a73a c5b8 a33c 9a85 1cbc
00000320: 37c0 453d 389f 47bd e291 0ebd 4bc3 8e3d
00000330: 8b31 c8bc e906 f93b c8c2 3d3d d891 18bd
00000340: 3d91 30bd 5758 dcbb f7e6 3fbc a8d4 f4bc
00000350: 67a5 3e3d 1396 693d 0650 723d 9075 8fbc
00000360: ba00 523d 73da 25bd a05a 493d e590 253d
00000370: b8e3 203c 6c03 343d 627d a73d 0021 70ba
00000380: 5ec7 673d 4a5d 353b 30ee 81bc 1123 fe3c
00000390: 82f1 263b 69cb 63bd 5eaf dcbc 7095 433d
000003a0: b05d 603c ac06 cd3b 7d6b fe3b 1a20 823c
000003b0: 3d81 49bd 2da1 103d 0c55 073c 6248 09bd
000003c0: a430 653d 0074 87bd 3095 a1bb 3afa 76bd
000003d0: af17 6cb8 5c3d 22bd 761c aa3b d0c7 19bd
000003e0: e677 643d 46ff 3fbc 0483 c8bc e453 48bc
000003f0: 43d9 493d 349d 313b 74bb d6b9 b4cd b43a

linear_layer.4.bias f4 [49]
0.024166951 0.082483955 0.0050618234 0.058631804 -0.055734355 -0.027440745 -0.0008514912 -0.030530464
0.0113419 -0.02936446 0.04495322 0.052663483 -0.03228494 0.07423151 0.06427836 0.022533176
0.060720902 -0.008010185 -0.016603168 0.044639956 0.00831153 0.06681868 -0.035536584 -0.00433603
-0.04330619 -0.00785374 0.025216727 -0.05256219 0.06833115 -0.05429414 0.0030107212 0.059073187
0.03709338 0.05599139 0.011116541 -0.025043294 0.0040872972 -0.026402583 0.04313153 -0.023506926
0.055967223 0.014741213 -0.0040086526 -0.019647423 0.081068896 -0.009917658 -0.033674918 0.023400197
0.068417504
00000000: c5f9 c53c 59ed a83d a7dd a53b e727 703d
00000010: b549 64bd 6acb e0bc 9b36 5fba 061b fabc
00000020: 60d3 393c bc8d f0bc de20 383d aab5 573d
00000030: 373d 04bd b106 983d 5fa4 833d 7f97 b83c
00000040: 7bb6 783d 273d 03bc 5e03 88bc 63d8 363d
00000050: 152d 083c 3bd8 883d cf8e 11bd 4215 8ebb
00000060: d561 31bd f9ac 00bc 4f93 ce3c 734b 57bd
00000070: 34f1 8b3d 8863 5ebd 854f 453b baf6 713d
00000080: 3aef 173d 3a57 653d 2722 363c 9827 cdbc
00000090: bcee 853b 3b4a d8bc b0aa 303d 9991 c0bc
000000a0: e33d 653d 2185 713c 045b 83bb a2f3 a0bc
000000b0: 7307 a63d ac7d 22bc b6ee 09bd c5b1 bf3c
000000c0: 7a1e 8c3d
