data/Apr-13_05-51-52/models/critic_1050.pth (torch, 274455 bytes, 5 tensors)

linear_layer.0.weight f4 [256, 7]
000000 93 d7 a5 be 55 f0 95 3e ab 34 b0 be be 75 5d be
       -0.32391033 0.2928492 -0.34415182 -0.21626946
000010 e4 09 52 be be 4b ac be 46 00 88 be 9d a3 70 be
       -0.20511585 -0.33651537 -0.2656271 -0.23499914
000020 5b e4 2e be 2b a7 7b 3d 9f 70 18 3e 0b 13 51 3e
       -0.17079298 0.06143872 0.14886712 0.2041742
000030 81 00 c6 3d b1 6f 1f 3e f7 11 3b bd d4 00 7e 3e
       0.09668065 0.1556995 -0.04567143 0.24805003
000040 6e 28 1f 3e 1d d0 9d bd 79 8e 2c be 9a 24 60 3e
       0.15542766 -0.0770571 -0.16851224 0.21888962
000050 fb fd 86 3e 1b dc 1d be 00 a8 73 3d 7f 69 85 3e
       0.26365647 -0.15415995 0.05948639 0.2605705
000060 f3 4f 55 3e 83 cf c8 bd 06 c0 0a 3e fb 63 34 be
       0.2083128 -0.09805205 0.13549814 -0.17616265
000070 9d 09 b5 be 84 81 50 3e e2 4e b9 3e 15 38 94 3e
       -0.35358897 0.20361906 0.36192995 0.28949037
000080 ca 51 65 3e 75 77 a5 3e b7 75 03 3e 06 3f 8f be
       0.22394481 0.323177 0.12837873 -0.2797777
000090 08 8d b0 be 6d d7 b0 bd b7 a0 07 be f2 8e b3 be
       -0.34482598 -0.08634839 -0.13244902 -0.35069996
0000a0 b9 ce 57 be 09 52 b2 be 1b 0c 69 bc 5e 89 80 3e
       -0.21074952 -0.34828213 -0.014224078 0.25104803
0000b0 b1 c2 d3 be 5f c0 ac be 6d 3e 83 3e 9f 4d d3 bd
       -0.41359475 -0.33740517 0.25633565 -0.103175394
0000c0 8c d7 06 3e 2b 26 a5 3e 02 5c f3 3c 4d 12 f4 be
       0.13168162 0.32255682 0.029706959 -0.47670212
0000d0 9f 7c 1b be 58 2c 88 bd 5b 60 b9 3e 77 fc 16 be
       -0.15184258 -0.06649083 0.36206326 -0.14744745
0000e0 ed 1e 9d be 2b 34 f6 bd 0c be 9e 3e 87 f9 fb bd
       -0.30687657 -0.12021669 0.3100437 -0.12303453
0000f0 3b e3 27 3e e2 3b e1 3d 28 0d ae bc b2 0a 9d 3e
       0.16395275 0.1099775 -0.021246508 0.30672222
000100 85 ed b4 bd 57 70 88 be 02 30 7a be ec 22 21 be
       -0.08834366 -0.26648208 -0.24432376 -0.15735978
000110 73 62 b4 be c4 01 2e 3e f5 79 9e 3e 25 12 24 bc
       -0.3523136 0.16992861 0.3095242 -0.010014092
000120 98 54 a7 be 61 55 f5 3c 64 7b 6a bf 8e 9f 8b 3e
       -0.32681727 0.029947938 -0.9159453 0.27270168
000130 b2 eb b6 bb e4 4a 0d 3e 7b b2 32 be be 30 a1 bc
       -0.0055822963 0.137981 -0.17450897 -0.019676562
000140 cb 2a b1 bd 2a 1a 87 3e 2a 7a 3e 3e d4 b9 d7 3d
       -0.0865074 0.2638715 0.1860129 0.10533491
000150 d0 19 4b 3e 1a 07 57 be 5c 02 a3 be df 30 dd 3e
       0.19834065 -0.20998803 -0.31837738 0.43201348
000160 62 c2 03 bf 07 fc 7a 3d dd 47 9b bc ee dc a0 be
       -0.5146848 0.06127551 -0.018955166 -0.31418556
000170 02 0a 95 be 68 0d d8 3d ee 6d 57 3c c4 36 0f be
       -0.29109198 0.10549432 0.013148768 -0.13985735
000180 13 58 b0 39 9c 26 91 be 2a 47 34 3d e7 67 8f be
       0.00033634956 -0.2834977 0.04401318 -0.2800896
000190 34 fa af be c7 d4 87 3d ce fb 2b 3d 33 d9 5a 3e
       -0.34370577 0.06632381 0.041988187 0.21371917
0001a0 f2 06 b9 3e 30 19 70 be d2 d5 92 be 3e 72 28 3e
       0.3613811 -0.23447108 -0.28678757 0.1644983
0001b0 a5 cb 8f 3e b0 38 76 be 71 e9 da 3c 65 66 0d 3e
       0.28085056 -0.24045062 0.026722642 0.13808592
0001c0 fd d4 b8 be ac 72 0e bd bc ef cb bd aa ef 33 bc
       -0.36099997 -0.03477733 -0.09957835 -0.010982433
0001d0 d2 8d 53 3d f4 95 88 be 55 56 64 be 0b f9 50 be
       0.051648922 -0.26676905 -0.22298558 -0.20407502
0001e0 c8 6c 44 be 23 11 2c be 9e 45 89 3e 41 55 5c 3e
       -0.19182122 -0.16803412 0.26810926 0.21516897
0001f0 96 f5 7f be 92 34 12 3e 2c 4c 01 be 7f da 09 3d
       -0.24996027 0.14277866 -0.12626714 0.03365564
000200 50 f8 91 be 31 f8 f1 3d ec f8 b4 be 51 c5 ae 3d
       -0.2850976 0.11814917 -0.35346162 0.08533729
000210 15 00 53 3e 36 26 e8 bd 21 e5 b5 be 23 e1 32 3d
       0.206055 -0.11335413 -0.35526374 0.04367174
000220 73 59 76 be ae 47 8e 3b 11 05 42 3e d8 ba 61 3e
       -0.2405756 0.004342041 0.18947245 0.22043931
000230 9d 87 0d bf 02 4b 6a 3e cb 91 03 be d5 e8 c8 3e
       -0.55285054 0.22880176 -0.12848584 0.39240137
000240 77 c8 50 3f 2a 7e 3c 3e 73 54 f1 bc aa 9d 28 3c
       0.81555885 0.18407503 -0.029459214 0.010291496
000250 4c dc 4d 3e 3e 5e d3 be 14 7a 9f 3e 07 5d fb 3d
       0.20103568 -0.4128284 0.31147826 0.12273603
000260 78 d3 c9 be 46 d6 96 3d 49 23 8f 3e 8e eb c2 bd
       -0.3941915 0.07365088 0.27956608 -0.09517585
000270 c0 d8 84 be 58 a0 58 3e 59 74 a6 bf 9d 08 ec bd
       -0.25946617 0.21154916 -1.3004256 -0.1152508
000280 3c 7d 3b 3d b8 b3 6f be 95 4e 3e 3e 72 46 51 be
       0.04577373 -0.23408401 0.18584664 -0.20437029
000290 dc f5 e0 bc 9c 38 51 3f 6c 90 10 bd e1 21 f8 be
       -0.027460985 0.81727004 -0.03529398 -0.48463348
0002a0 aa 89 fe 3d b6 56 8e be e1 4e 7d be c9 52 56 3d
       0.12428601 -0.2780053 -0.24737121 0.052325044
0002b0 f9 8e 80 3c 8c 82 99 bd 26 6f bd 3e 44 4b e2 be
       0.015693175 -0.07495603 0.36998862 -0.44198048
0002c0 fb 60 3c 3d 89 a0 41 3e 44 e8 ba bd fb 70 a6 3e
       0.045990925 0.18908896 -0.091263324 0.32508072
0002d0 30 79 a2 3b a4 ee 60 be cb 46 3c be 22 3e 90 bd
       0.0049582943 -0.21966034 -0.1838638 -0.07043101
0002e0 3e 77 c9 3e 88 88 03 3d fd 57 83 3e 57 a2 9e 3e
       0.39348787 0.03211263 0.25653067 0.3098323
0002f0 1f 2c 2c 3d 50 73 10 3e 83 5b ba be a5 62 a1 be
       0.042034265 0.14106488 -0.36397943 -0.31520572
000300 38 45 7b be 66 97 4f be 4c 3d 89 be a8 14 0f be
       -0.24538124 -0.20272598 -0.26804578 -0.13972723
000310 54 e9 c2 bd c9 75 b1 3e 50 79 55 3e 38 83 38 3e
       -0.0951716 0.34660175 0.20847058 0.18018806
000320 22 5a 89 bb de df 33 3e 7e 8f 12 be cc 4b 14 be
       -0.004191653 0.17565867 -0.1431255 -0.14482039
000330 b6 37 a6 3e 19 0f 51 be da 5d db be e7 30 12 3f
       0.3246438 -0.20415916 -0.4284504 0.5710587
000340 b6 ff 87 3d 84 01 0e be 38 41 ec 3d da 22 87 3e
       0.0664057 -0.13867766 0.11535877 0.26393777
000350 75 82 10 bf 9e c2 43 bc bf 72 1a 3f 40 ab 32 be
       -0.5644906 -0.011948256 0.6033134 -0.17448139
000360 2d 10 b0 3d bd 5a 11 be 7c 39 7e 3d 2e de e1 3e
       0.08596835 -0.1419477 0.06206654 0.44114822
000370 01 66 71 be a0 34 b4 be 1c 35 db be e5 53 90 3d
       -0.23574068 -0.351964 -0.42813957 0.070472516
000380 71 43 7f 3e 24 75 04 be 23 97 6f be 5e f6 15 3e
       0.2492807 -0.1293531 -0.23397498 0.14644763
000390 b4 e0 49 bf e2 2a d5 3e 64 01 d4 bd ba 01 95 3c
       -0.78858495 0.4163428 -0.10351828 0.0181893
0003a0 67 9a 1e 3e fc 8c 43 3e fe a9 08 bf ad 62 11 3e
       0.15488587 0.1909675 -0.5338439 0.14197798
0003b0 14 a5 11 bf 71 7e 1a 3e 4f 77 9a be ca 67 7d bd
       -0.56892514 0.15087296 -0.3016915 -0.06186656
0003c0 bb 7a 22 3e b6 cd b7 be 9a e8 43 be c9 72 6e 3e
       0.1586713 -0.35899132 -0.19131699 0.23285975
0003d0 4f fa a0 be 60 26 de bd b5 77 c6 bd 6b f9 2e be
       -0.3144097 -0.10847163 -0.09690801 -0.17087333
0003e0 ed ac 0d 3e 89 1e fc 3c 3e 96 47 3e b8 cd ad bd
       0.13835497 0.030776279 0.19490907 -0.08486503
0003f0 17 18 0c be c2 14 ff 3c 3c e3 ac bc b8 3c 67 3d
       -0.13681065 0.031137828 -0.021104448 0.05645439

linear_layer.0.bias f4 [256]
000000 4b d0 20 3e 1a 94 cf be 69 14 d2 3d d3 88 9b 3e
       0.15704457 -0.4054268 0.10257799 0.30377826
000010 20 61 e7 bc fc 17 96 bd 28 91 8c be d5 98 9a 3d
       -0.028244555 -0.073287934 -0.27454495 0.07548682
000020 35 06 13 be 3c 17 d1 3d 00 59 48 3e d1 66 93 3e
       -0.14357837 0.1020951 0.19565201 0.2878938
000030 33 b7 51 be df 05 3c be 95 99 cf 3d 62 76 40 3d
       -0.20480041 -0.18361615 0.10136715 0.0469879
000040 5c 61 91 bd 18 1c 03 bd f5 0f ba be 6c 41 a7 bc
       -0.07098648 -0.032009214 -0.363403 -0.020416938
000050 43 b8 dd bd 00 12 f1 3d 80 42 1f 3e fb 80 6a be
       -0.10826161 0.11771011 0.15552711 -0.22900765
000060 0f ac 9b be 06 dd 87 3e 38 1c a5 bc d3 1a 4c 3e
       -0.30404708 0.26535815 -0.020155057 0.19932108
000070 f2 0b e4 3d dc 87 8c be 6f 63 65 be 7b 2c fc 3e
       0.11135091 -0.27447402 -0.22401212 0.49252686
000080 1d 37 8e 3e 9d 6c 8f 3e bc e9 4c 3d 4a 8e 27 3d
       0.27776423 0.28012553 0.050027594 0.04090718
000090 d9 23 16 3e a1 c3 7c 3e 02 a5 7c 3e 9e f8 ca be
       0.14662112 0.24684002 0.2467232 -0.39642805
0000a0 7f 24 c2 be de ce 3f bd 3b 79 28 be 1e 93 9e bd
       -0.3791847 -0.046828143 -0.16452496 -0.07742904
0000b0 36 ee 21 3e 5b 6a 8b be f1 34 37 3e 8d c4 b7 bc
       0.15813527 -0.2722958 0.1789129 -0.02243259
0000c0 56 b7 dd 3e 2b 82 da be 0b 97 d6 bd 49 f7 fe bd
       0.43303937 -0.42677435 -0.10478028 -0.1244951
0000d0 40 ae 0e 3d a9 78 41 3d 1c 43 80 3e 69 df c5 bd
       0.034834146 0.04723421 0.250512 -0.09661753
0000e0 4a bb 8f be 3f f7 8f bd ad 1a 24 3d 0c b0 b9 3d
       -0.28072578 -0.0702958 0.040064503 0.090667814
0000f0 f6 ed 9d 3e 0c 93 ec 3d f0 5b f3 bc f3 4f 93 be
       0.30845612 0.115514845 -0.029706925 -0.28771934
000100 6e 68 5d be da 03 6f be 20 8b 34 3d b5 a4 3e bd
       -0.21621868 -0.23341313 0.044077992 -0.046543796
000110 36 45 ba 3e fd 97 cb be 61 e2 a5 be 4d 34 d9 bc
       0.3638093 -0.39764395 -0.32399276 -0.026514197
000120 27 9a 13 be 9f a1 9b 3e e4 79 57 be 77 11 21 bc
       -0.14414273 0.30396745 -0.21042591 -0.009830824
000130 6e 74 ae 3c 26 60 4d be 10 74 0d be 4a 2e b5 bc
       0.021295752 -0.20056209 -0.13813806 -0.022116799
000140 f2 1c 2d be 30 d0 3b 3e 05 5c e7 be 0d 12 59 bd
       -0.16905573 0.18341136 -0.45187393 -0.05299573
000150 5d dc c1 bd 5d 2a 36 be 74 2c b4 3e fd d7 77 be
       -0.09465859 -0.17789598 0.35190165 -0.24203487
000160 e8 d0 4b 3e 46 d2 89 3d a2 eb 4a bd 3d 7b 00 be
       0.1990391 0.067295596 -0.049541123 -0.12547012
000170 62 88 93 3d a0 e4 a5 be 53 a8 aa be 1e e7 76 3d
       0.07203747 -0.3240099 -0.33331546 0.060279004
000180 74 dd b9 bd ae 40 9a be 85 8d 83 be 55 3e df 3d
       -0.09075442 -0.30127472 -0.25693908 0.10900561
000190 36 7d b2 3d 4f 7c 5e 3d f3 84 cc be 87 b8 b3 be
       0.08715288 0.05431777 -0.39945182 -0.3510172
0001a0 f3 c2 ed bd 20 e0 bb be fa 20 0d 3e a0 be 8a be
       -0.11609449 -0.3669443 0.13782111 -0.2709856
0001b0 1a aa 82 bd d1 d8 bd 3e fe 08 47 be 77 2f 05 3e
       -0.063801005 0.3707948 -0.19437024 0.13006388
0001c0 f7 d0 c4 bd 37 c3 24 be 0b 23 c1 3e 66 8d 6d 3e
       -0.096101694 -0.16090094 0.37722048 0.2319847
0001d0 85 76 7f 3e 4a b0 d3 3d de 66 39 3e a4 bd cf be
       0.24947555 0.10336359 0.18105647 -0.40574372
0001e0 31 9f 81 be d7 41 44 be 12 ce 83 be 74 e6 ce 3d
       -0.25316766 -0.19165741 -0.25743157 0.10102549
0001f0 92 af bf 3e de 4f ba be 4f 31 9b 3e 09 a4 a5 be
       0.37438637 -0.3638906 0.30311057 -0.3235171
000200 91 1d c9 be 15 c4 39 3e 3c 74 b4 bd 2f ff 06 bf
       -0.3928037 0.18141206 -0.088112324 -0.5273313
000210 3c a0 66 be 5b b1 67 be 9a 9e 45 3e 03 17 bf be
       -0.22522062 -0.2262625 0.19298783 -0.37322244
000220 04 20 ce be d2 85 3c 3e a2 a4 99 be b2 47 e9 bd
       -0.402588 0.18410423 -0.30008417 -0.11390628
000230 f5 7a d7 be 5a 77 8b be 7f 9f b3 be c6 13 f3 be
       -0.42085996 -0.27239496 -0.35082623 -0.47476023
000240 17 b4 65 bd f0 b1 b8 3e cd c1 a3 3e a5 2b 98 be
       -0.05607995 0.36073256 0.31983796 -0.29720798
000250 7b 73 d0 3d a3 74 1b be 89 75 84 be 03 b4 b9 bd
       0.10178276 -0.15181212 -0.25870922 -0.09067538
000260 7c b0 85 bd 1d ff 91 be 46 49 8d be d3 f5 92 be
       -0.06527802 -0.28514948 -0.27594966 -0.28703174
000270 da 3b 01 be 2d 7b 3e be c5 8f 4c 3e c4 74 0e 3e
       -0.12620488 -0.18601675 0.19976719 0.1391173
000280 0d 0a 5b 3d 67 25 95 be fa e2 56 3e 81 a4 64 3e
       0.053476382 -0.29130098 0.20985022 0.22328378
000290 20 a9 49 3e 36 97 ae 3d 27 24 ea be d4 d4 4f be
       0.19693422 0.08524935 -0.45730707 -0.20296031
0002a0 42 d3 24 be 0a f9 75 be 3f f3 8d 3e cb ec 7b 3e
       -0.16096213 -0.24020782 0.27724645 0.24602048
0002b0 d0 96 67 3e 45 af 8a 3e 26 a6 89 bd c5 07 3e bd
       0.22616124 0.27086845 -0.067211434 -0.04639413
0002c0 3e 27 ab be e9 65 79 3d 89 2d 78 3e 5a 11 f4 bd
       -0.33428377 0.060888205 0.2423612 -0.11917372
0002d0 1f 3e bc 3e 0f 7f 78 3d 91 77 a3 bd 5d 9a b5 3e
       0.36766145 0.060668048 -0.0798179 0.35469332
0002e0 e7 db d0 be eb 90 1a be 65 28 3a be fe 66 39 3d
       -0.40792772 -0.15094344 -0.18179472 0.045264237
0002f0 ff 1b a8 3e ff 4e 42 3e 90 43 71 3e 4d 8e bf be
       0.3283386 0.18975447 0.2356093 -0.37413254
000300 0f 12 af be f8 6f 8c bd 06 fa a2 bd 24 e2 19 3e
       -0.34193465 -0.06857294 -0.079578444 0.15027672
000310 0a 72 75 be 9e 6c 28 3e 4a 33 da be d5 e6 69 3d
       -0.23969284 0.16447684 -0.42617255 0.057104904
000320 a4 c9 fe 3d bb da 93 be 89 18 98 be 2f 7f 2f bd
       0.12440804 -0.28877816 -0.2970622 -0.0428459
000330 f3 e6 eb bd 8e 4a 0a 3f fb 91 28 3d 99 a1 57 be
       -0.115186594 0.5402001 0.041154843 -0.21057738
000340 17 71 b0 be 61 61 87 be 2e e1 03 3e 81 99 84 3e
       -0.3446128 -0.26441482 0.12878868 0.25898364
000350 1a 07 85 be b0 a6 c0 3e fc 62 a8 3c e7 22 c3 3c
       -0.2598198 0.37627172 0.020555012 0.023820354
000360 d6 f1 88 3e 86 e1 3c be ea c2 00 bf e9 17 97 be
       0.26747006 -0.18445405 -0.50297415 -0.2951043
000370 29 85 26 3d af b7 26 3e 5b 64 16 be 55 f2 7b be
       0.040654335 0.16281007 -0.1468672 -0.24604161
000380 22 a8 9c be 91 c8 7f be 75 06 02 be f6 5e a6 3e
       -0.30597025 -0.24978854 -0.12697776 0.32494324
000390 d2 36 11 bd 3c da 16 bd 25 77 d0 bd 8d 61 e7 bc
       -0.03545267 -0.03682922 -0.10178975 -0.028244758
0003a0 31 d4 a9 3e b2 52 61 3d a3 c5 63 be 32 18 62 3e
       0.33169702 0.055010505 -0.22243361 0.22079542
0003b0 8e d6 60 3d 35 d7 3a be 5b 89 c0 3d eb 26 f3 be
       0.054892115 -0.18246157 0.094011985 -0.4749063
0003c0 4e 20 12 3d 5d c5 b1 3e 18 ee af be 23 f1 8d 3e
       0.03567534 0.3472089 -0.3436134 0.27723035
0003d0 b3 44 f8 bd b6 88 9b 3d 4e 09 49 be 91 30 08 bf
       -0.12122478 0.07594435 -0.19632456 -0.53199106
0003e0 52 70 1e be 47 d5 07 3e d4 07 8b 3e 36 4f c4 bd
       -0.15472534 0.13264953 0.2715441 -0.09585421
0003f0 16 d0 4e 3e 95 2a aa 3e b6 3e d4 be fb c6 cc 3e
       0.20196566 0.33235613 -0.41454095 0.3999556

linear_layer.2.weight f4 [256, 256]
000000 d8 e9 47 3d eb 06 bf 3c 7c ef 08 3e fc fc b8 3d
       0.048806995 0.023318728 0.13372606 0.09032628
000010 0c 2f 20 3e fe c9 29 bd bd d9 0e bd 40 07 b4 3c
       0.15642947 -0.0414524 -0.03487562 0.021976113
000020 67 c6 da bd 50 37 34 bd 9d 6e b2 3d 02 25 30 3d
       -0.106823735 -0.043998063 0.08712504 0.043004043
000030 6e 78 09 3e ac 00 41 3d 80 33 81 bb 26 4f 85 3a
       0.13424847 0.04711978 -0.003942907 0.0010170683
000040 c0 66 02 3c d0 ef ee 3c 8c 10 82 bd 64 50 ca 3c
       0.007959068 0.029167086 -0.06350812 0.024696536
000050 c0 4b 9e bc 93 5b 15 bd 61 de 75 be e3 a2 90 bd
       -0.01932323 -0.036464285 -0.24010612 -0.07062318
000060 4a 49 12 bd ba d0 17 3d df ce 1e 3e 46 bb 47 bd
       -0.035714425 0.03706429 0.15508603 -0.048762582
000070 59 16 30 3e 67 8e 7d bd 71 ce d8 be 5b 38 b1 3d
       0.17196025 -0.061903384 -0.42345002 0.08653327
000080 ac 9c 50 3d d6 ff 09 3e a4 06 82 3c 4c 01 bf bc
       0.050930664 0.134765 0.015872307 -0.023316048
000090 e2 66 98 3d 80 25 dd 3c 78 df 62 bc 77 89 ef 3c
       0.07441498 0.02699542 -0.013847224 0.029240353
0000a0 ab 3f af 3d c6 20 f9 3d f8 06 74 bc f8 38 c3 3d
       0.085570656 0.12164454 -0.01489424 0.0953235
0000b0 98 1e 51 bc 1d a8 90 3d 89 85 d7 bc 0a af 4d 3d
       -0.012763642 0.07063315 -0.026308792 0.05021576
0000c0 20 24 25 3d ee 92 46 be 30 3a 61 bd 54 21 a9 3d
       0.040317655 -0.19391987 -0.054987133 0.0825831
0000d0 10 9d c8 3b 61 96 03 3e 48 82 0a bd 40 5a f7 bb
       0.006122239 0.12850334 -0.033815652 -0.0075486004
0000e0 f4 e9 6d bd 7c ef a1 3c 83 a8 25 3d e8 c8 7d 3c
       -0.058084443 0.019767515 0.04044391 0.015489794
0000f0 04 42 b9 bc 8f 5b 82 bd 12 bf 83 be 20 02 6c bc
       -0.022614487 -0.0636512 -0.25731713 -0.0144048035
000100 68 ac 9f 3d cb 64 ed bb c9 b3 b1 bd f5 64 8c 3d
       0.07796556 -0.0072446815 -0.086768694 0.068551935
000110 8f e0 bd 3d a0 2b 0c 3c e0 57 0c bc 61 14 19 3d
       0.09271347 0.008555323 -0.008565873 0.03737295
000120 05 85 18 3d 5c 6b a6 3d 3b 4c a5 bd e4 69 72 bd
       0.037236232 0.08125946 -0.080711804 -0.059183016
000130 ff 89 84 3d 0f 61 f8 bc 92 f7 1b 3d 55 79 ad be
       0.06471633 -0.030319719 0.0380779 -0.33881631
000140 0f a8 05 bd cc 35 70 bd c1 cd 80 3d d5 74 8f bc
       -0.032630976 -0.058645055 0.062892444 -0.017511765
000150 3a 51 68 bb a4 de 95 be 59 bd 82 3e 0b 2d a1 be
       -0.0035448805 -0.29271424 0.25535086 -0.31479678
000160 4f fe 1e 3e 78 07 39 3c a1 9c e9 3d 8e c7 e5 bb
       0.15526699 0.011293285 0.11406828 -0.007012314
000170 64 e6 54 3d e8 ed ba bb d8 24 83 bc 91 fe 39 be
       0.05197753 -0.00570463 -0.01600878 -0.18163516
000180 3f 46 86 bd cf 89 05 bd ec 57 9c 3c 0f 2d 6e 3d
       -0.06556367 -0.032602128 0.019084893 0.05814844
000190 44 c2 b9 bc b1 fa 98 bc 0e 9c 09 3d 10 0c 06 be
       -0.02267564 -0.018674226 0.03359609 -0.13090539
0001a0 1c cc c4 bc 40 62 bc 3b b6 3f 66 bd a0 d9 56 3b
       -0.024023108 0.005749017 -0.056213103 0.0032783523
0001b0 07 7e 9f 3c c7 98 5d bd 67 9c 0c bd dc 0d a2 3c
       0.019469274 -0.054100778 -0.034328844 0.019782
0001c0 ac 7b 0c 3e f7 4c fa 3d ee 51 52 bd 51 c9 88 bf
       0.13719052 0.12221711 -0.051347665 -1.0686437
0001d0 30 6e 7e bd 0b 11 23 3e 25 fc d8 bc 84 3e c5 bc
       -0.0621168 0.1592447 -0.02648742 -0.024077661
0001e0 1a c7 bf bd 86 7e c4 3c 4b 6e 8a 3d 98 85 89 bd
       -0.093641475 0.023986112 0.06759318 -0.06714934
0001f0 0e 26 44 bd 94 78 50 be ae 6c 05 3b ac 4f 28 3d
       -0.047887854 -0.20358497 0.0020358968 0.041091606
000200 d4 c0 1c bd 90 6a 29 3e 92 d9 35 3d f0 3d 9a bd
       -0.038269833 0.16544557 0.044396944 -0.07531345
000210 94 b0 43 3d a1 c8 86 3d 56 4c 10 bd 12 c1 24 3d
       0.04777582 0.06581236 -0.03522905 0.04022319
000220 c2 7d e9 bc 2a 25 3a 3d d7 54 a0 3c d3 74 26 3d
       -0.028502349 0.0454456 0.019571705 0.040638756
000230 71 93 da bd 25 e9 86 be 5a af fa bd 9e 9f 3f bd
       -0.106726535 -0.2634975 -0.12240477 -0.046783082
000240 9e 22 68 bd d0 ef 07 bc 34 cd 22 bd 6e b3 b6 be
       -0.05667364 -0.008296922 -0.03974648 -0.3568377
000250 e8 59 26 3d 05 9a 91 bd 2d c8 6c bb 85 1d ef 3d
       0.040613085 -0.07109455 -0.0036130056 0.11675552
000260 71 a0 0a 3d 6c ea 84 3c 8a fc 62 bc 44 23 e3 3c
       0.033844415 0.016225062 -0.013854155 0.027726777
000270 83 91 9c bb b2 de 10 be 02 76 18 bd 76 51 79 3d
       -0.0047780885 -0.14147452 -0.037221916 0.060868703
000280 58 12 74 3c 00 2e c5 ba 56 34 cc 3b c8 cb 9f bd
       0.014896952 -0.0015043616 0.006231825 -0.0780254
000290 91 af 8d bd 96 20 ec 3d 97 ab a9 be f6 d5 49 3d
       -0.06918252 0.11529653 -0.33138725 0.049276315
0002a0 2d de 93 bd 9f ad 50 3d 9e c3 1b bd de 70 59 3d
       -0.07220111 0.050946828 -0.038028352 0.053086154
0002b0 aa e5 6f 3c aa 07 0d bd 57 49 9f bd a9 15 78 3d
       0.0146421585 -0.034431137 -0.0777766 0.06056753
0002c0 1d 5f 69 3d 7e 3c 82 3d 14 b5 7d 3d 00 c8 4a bd
       0.056975473 0.06359194 0.061940268 -0.04950714
0002d0 b0 7c e9 bb 24 7b 5a bd e3 1a f9 bc 77 cf dd 3d
       -0.0071254596 -0.053340092 -0.030408328 0.108305864
0002e0 20 b1 8a bd 3e bb a4 be c7 08 09 3c 0c c9 0a bc
       -0.06772065 -0.32174104 0.008363909 -0.008470785
0002f0 6d f4 d1 3d 6a df 88 3d 2c a3 3d 3d 5d 1f 1f bd
       0.10251699 0.06683238 0.04629819 -0.03884827
000300 74 27 52 3d 35 eb e4 bd 91 75 77 3d 8f 09 01 3c
       0.051307157 -0.11177675 0.060414854 0.007875814
000310 0c b0 3d bd e4 f1 c2 bc 36 c1 c6 3d c4 ba f7 bc
       -0.04631047 -0.023796983 0.09704821 -0.030240424
000320 29 05 0d 3c ae 73 8f 3c 04 3c 3f bd 57 0f e3 3d
       0.008607187 0.017511215 -0.046688095 0.1108691
000330 a6 a7 4f bd 2b 05 fb 3d ca 91 8a bd 1a 8c 60 3d
       -0.05069699 0.12256845 -0.06766088 0.05482111
000340 5b 48 9b 3d fa 0b 8d 3d a8 64 ab bd db 51 37 3d
       0.0758216 0.0688705 -0.08368808 0.044755798
000350 24 51 9e 3c f8 c7 a0 ba 11 11 46 3e 48 b5 16 bd
       0.0193258 -0.0012266627 0.19342448 -0.036793977
000360 17 a2 ad bc 93 55 bd 3d 6a e3 89 3c 38 61 91 3d
       -0.021195455 0.092448376 0.016832072 0.07098621
000370 89 a6 96 bd 35 a5 81 bd f1 54 9d bb d8 62 33 bd
       -0.07355983 -0.06330339 -0.0048013856 -0.043795437
000380 c1 8e 64 be e0 43 42 bc 37 90 b4 bd 71 16 50 bc
       -0.22320081 -0.011857003 -0.08816569 -0.012700663
000390 76 94 2b be b0 24 38 bc 19 00 77 3d 76 a4 6c 3d
       -0.16755852 -0.011239216 0.060302828 0.05777403
0003a0 90 bb 8e bc fe 20 90 3c 37 6b 56 bd ca f2 0b 3e
       -0.017423421 0.017593857 -0.05234834 0.13666835
0003b0 cc a3 0f 3d 79 d5 a1 3d 66 d4 48 bd ff e9 53 3d
       0.03506832 0.07902045 -0.049030684 0.051736828
0003c0 e6 b9 47 3e 48 e9 1e be 00 ab 61 bd 15 0b 51 bd
       0.19504508 -0.15518677 -0.05509472 -0.05103596
0003d0 3d 6d c9 bb 9e 93 00 3d a8 c1 6a bd 4d be e0 3c
       -0.0061470554 0.03139078 -0.05731359 0.027434492
0003e0 3e 37 b4 3c f2 af 9b bd cb 4e 21 bd 27 a9 4b bc
       0.021998998 -0.07601918 -0.039381783 -0.012430466
0003f0 02 0d 8f 3c 99 11 2c 3c 4b d9 9a bd c5 33 51 3d
       0.017462257 0.0105022425 -0.075609766 0.051074762

linear_layer.2.bias f4 [256]
000000 0c d0 a1 3e 6f de 40 bc e1 5e 58 3d a1 f0 27 3d
       0.3160404 -0.011771782 0.05282486 0.041000966
000010 99 1f 86 bd 9e f1 76 3c 58 62 b8 bd b3 ef f5 bc
       -0.065489955 0.015072254 -0.090031326 -0.030021524
000020 ea 4a 06 bd 89 eb 7e 3e 17 76 3f bd 8e e4 96 3c
       -0.032786287 0.24894537 -0.04674348 0.01841953
000030 87 ac aa 3d 79 f1 ac bb 73 41 a4 3d 90 b3 45 3d
       0.08333688 -0.005277809 0.08020296 0.048266947
000040 2d b8 23 3c 98 71 34 3d bd 28 ae 3d cc 6c b3 bc
       0.009992641 0.044053644 0.08503864 -0.021902464
000050 38 43 83 bd 75 a4 08 bc e2 fe 08 3d 5b 73 27 3d
       -0.06409305 -0.008339991 0.0334462 0.040881496
000060 63 81 77 bd 93 70 88 bd a2 bc 90 bb 40 79 54 3c
       -0.060426127 -0.06662097 -0.004417018 0.012968361
000070 4e 38 57 bd 0f da bf 3c b8 f3 7f 3c b5 2e 93 3e
       -0.05254393 0.023419408 0.015622072 0.28746572
000080 44 e0 4a 3d eb 55 19 3d 29 5c a4 3b c1 96 04 be
       0.049530283 0.037435453 0.005015869 -0.12948133
000090 84 98 d6 3c b4 86 80 3e 19 62 16 3c 87 88 b5 b8
       0.026195772 0.2510277 0.009178662 -8.656183e-05
0000a0 72 0c c1 bd 44 5d 96 bd 28 5e ea bc f3 49 f7 3c
       -0.09426202 -0.07342008 -0.02860935 0.030186629
0000b0 89 dd 09 3b 14 f2 e5 3c 9f 2b a7 3c f8 00 57 3c
       0.0021036586 0.028069533 0.020406542 0.01312279
0000c0 a8 d8 3c bd 61 2e 92 ba f8 c2 87 bd 9c f9 af 3d
       -0.046105057 -0.0011152738 -0.06628984 0.08592531
0000d0 a6 cf 8c 3b cc 8b 93 bd 83 e4 a8 bd c0 0f 11 bd
       0.0042972146 -0.072043985 -0.0824671 -0.03541541
0000e0 03 f8 d1 bb eb f1 3e 3d b9 fd 4d bd 04 ed a3 bc
       -0.006407739 0.04661743 -0.050290797 -0.020010479
0000f0 e4 dc 0d bd 48 dd df bc 00 a9 89 bd 12 8b 2e bd
       -0.034634486 -0.027327195 -0.06721687 -0.042613097
000100 cc ff 26 3d ff 06 46 bd 0c ab 11 3e f6 ad f5 bc
       0.04077129 -0.048346516 0.14225405 -0.029990178
000110 65 13 80 3d 89 22 85 bd 17 09 90 bc 8c 6f a9 bd
       0.06253699 -0.06500728 -0.01758246 -0.08273229
000120 c1 95 18 3d 21 a4 82 bd 33 e2 74 bd 2d f8 ca bc
       0.03725219 -0.06378961 -0.059786033 -0.024776543
000130 08 48 46 3c fe dc 68 bd c1 40 67 3b a5 ec 08 bd
       0.0121021345 -0.05685138 0.00352864 -0.033428807
000140 db bb 02 bd 44 b7 84 bd f2 a0 d1 bc 56 07 bd 3d
       -0.031917434 -0.06480268 -0.02558944 0.09229915
000150 05 b7 c4 3c d8 cd 0d bd 7b 5d a0 3c ef b8 ab 3c
       0.024013052 -0.034620136 0.019575825 0.020962207
000160 03 ee 85 be 98 f9 8b bd 9a b4 12 3d bd be 99 bd
       -0.2615815 -0.068347156 0.035816766 -0.075070836
000170 1e 8c 5a 3d 84 b5 dc 3c 6b 4e 18 bd 1c 84 0d 3d
       0.053356282 0.026942022 -0.03718416 0.034549817
000180 2f 5b da 3c 0e 6a 3c bd 1a 14 2a 3d 3c 0f 28 bd
       0.026654808 -0.04599958 0.041523077 -0.041030154
000190 68 64 4f bd df cf 35 3d 45 8e 19 3c a0 78 31 be
       -0.050632864 0.044387694 0.009372299 -0.17331171
0001a0 7b 81 61 bd c8 0d 58 3c 7b 3b 7e 3e be fb a8 bd
       -0.055055123 0.013186879 0.24827377 -0.08251141
0001b0 f6 1e b2 bc 01 26 88 3e 5f e4 5a bd 50 f5 84 bd
       -0.021743279 0.26591495 -0.053440448 -0.06492102
0001c0 f2 de 60 bd ea 6c 3d bd 5d 99 6d 3d 98 b9 94 bd
       -0.054900117 -0.046246447 0.058007587 -0.07261962
0001d0 c0 ca 13 3d 70 1a cf 3b 3a 51 81 bc df 2e 9e 3e
       0.03608203 0.0063202903 -0.015785802 0.30895135
0001e0 a0 bb 8f bd 30 ee 0e bd e0 e5 05 bc ab ff a4 bd
       -0.070182085 -0.034895122 -0.008172482 -0.08056577
0001f0 a4 ac a3 3e 50 dc 14 3d ee 8b 81 bb 20 9b a4 3e
       0.31967652 0.03634292 -0.0039534485 0.321496
000200 aa f1 d0 3c 40 d2 31 bd e7 65 f9 bc 9a 44 15 bc
       0.02550586 -0.0434134 -0.030444099 -0.009110594
000210 bc bb 9a bc 84 58 a3 bd f4 f7 4b 3e e5 dc 6a ba
       -0.018888347 -0.079758674 0.19918805 -0.00089593075
000220 c0 43 3a 3c 0b b4 91 bc 9b df 88 bd fe b2 6a 3e
       0.011368692 -0.017786046 -0.06683274 0.22919843
000230 8f a4 11 3d fd 4b f5 3d e5 47 bd 3c 21 36 9f bd
       0.035557326 0.11977384 0.023105571 -0.07773996
000240 1b 9f 70 3e 7d 98 81 3c c4 1a fb 3c 39 4d e2 bd
       0.23498194 0.015819782 0.030652411 -0.11049885
000250 6c 49 90 bc ae aa b8 3b 1b 3d 88 bc a1 c8 03 3c
       -0.017613135 0.005635581 -0.0166307 0.008043439
000260 2c 55 85 bc 08 ec 68 3d bc 2b 98 3c f8 e9 b6 3c
       -0.016275965 0.056865722 0.018575542 0.022328362
000270 35 de 54 bc a8 f2 83 3e a9 ce 70 bc 83 85 29 bc
       -0.012992431 0.2577107 -0.014697709 -0.010346773
000280 f9 38 1c 3d 2c 21 9e 3e 90 c8 42 bd ca 17 97 bd
       0.03814027 0.30884683 -0.047554553 -0.07377584
000290 9f 8d 01 bd 59 9a 69 3b b9 d5 d9 bc b9 5a cc bc
       -0.0316292 0.0035644977 -0.026591169 -0.024945604
0002a0 b1 49 a7 bd 84 e4 0a 3e dc e6 4e 3e 0d cd 4c 3e
       -0.081683524 0.13563734 0.20205253 0.20000096
0002b0 fa cd a9 bc a0 68 05 bd 50 1a 68 3c 1a 18 f7 bc
       -0.0207281 -0.03257048 0.01416643 -0.03016286
0002c0 0c 80 fa bc cd 21 55 bd 70 2b 4f bb f0 ee 5c bd
       -0.030578636 -0.052034188 -0.0031611584 -0.053938806
0002d0 fa d7 3b bd 5a 12 62 3e ee 46 ab bd 7b 7f 82 bc
       -0.04586027 0.22077313 -0.08363138 -0.015929928
0002e0 ab 02 2b bd 07 eb 46 be fd 39 39 3d f7 8e 52 bd
       -0.04175059 -0.19425593 0.045221318 -0.051405873
0002f0 51 ce 0a 3d 14 f0 59 bc 19 e1 2b bc 1a 3a f1 3c
       0.033888165 -0.013301868 -0.010490679 0.02944665
000300 72 d9 e9 3b 5a 92 4b bd 73 ff 5f bd 22 46 6f 3c
       0.007136517 -0.04970012 -0.054686975 0.014604123
000310 dc 9c 56 3e 42 0c a2 3d ff 2c 69 be cb 68 b8 bd
       0.20958275 0.07912494 -0.22771071 -0.09004363
000320 c7 72 10 bd f1 4b 44 3c 38 45 9c bd a7 9b 8c bd
       -0.03526571 0.0119809965 -0.0763039 -0.06865626
000330 38 25 c9 3e 45 81 f2 bd 01 0e 6a 3e 9d 37 61 bd
       0.39286208 -0.118410625 0.22856905 -0.054984678
000340 f8 de 01 bd b8 c5 8e bc 8e b1 84 3c e7 a5 6c 3c
       -0.03170678 -0.017428264 0.016197946 0.014443851
000350 4a 37 0d bd e0 f6 a8 3c e4 32 57 bb 68 9b 7f bb
       -0.034476556 0.020625532 -0.003283673 -0.0039002541
000360 35 79 85 bd be 00 91 bd f1 fc 41 bd aa 30 f8 bc
       -0.06517259 -0.0708022 -0.047360364 -0.030296642
000370 12 b9 ee ba 70 1b d7 bc 02 dd 77 3e 0d 23 e7 bd
       -0.0018213114 -0.0262582 0.24205402 -0.11285982
000380 d6 a8 74 bd fe 97 8c 3d 86 cf 8f bc b5 b0 65 bd
       -0.059731327 0.06864928 -0.01755501 -0.056076724
000390 aa 1c a5 bd 3d 28 2e 3e 8e 38 9e 3c ad 76 97 bd
       -0.08062108 0.17007537 0.019314077 -0.073956825
0003a0 19 34 7e bd c8 cc 9a bc 2c cf 1e 3e 7e a1 cf bc
       -0.062061403 -0.018896475 0.15508717 -0.02534556
0003b0 60 52 46 bd e7 71 27 bd 2d 92 06 bb e6 1e 0a 3c
       -0.048418403 -0.04088011 -0.0020533905 0.008430218
0003c0 b3 9a 5e 3e 40 3d 7e 3e 5a ee 26 3d a7 0b eb 3a
       0.217387 0.24828053 0.040754654 0.001793255
0003d0 c0 5f 8a bd 21 c3 d9 bc 34 57 f9 3b f3 1c 54 bd
       -0.06756544 -0.026582303 0.0076092724 -0.05178542
0003e0 74 06 20 bd 7f 53 9b 3e f5 57 8d 3d 26 04 c1 bd
       -0.039068654 0.3033714 0.06901542 -0.094246194
0003f0 2e ab 26 bd d4 96 ec 3d 36 42 4e bd d7 35 6a 3c
       -0.040690593 0.11552206 -0.050356112 0.014295063

linear_layer.4.weight f4 [1, 256]
000000 0d b7 e5 3d 6c b4 a8 bb c1 04 eb 3b a3 7e b6 3c
       0.11216555 -0.005148461 0.0071721976 0.022277182
000010 63 d8 1b 3d c1 36 39 3d f6 07 71 bc 54 a3 36 bc
       0.03804816 0.045218233 -0.014711371 -0.011147339
000020 86 23 22 bd 67 e9 df 3d dc ea 5e 3b 3c 47 0c 3d
       -0.03958466 0.1093319 0.0034014499 0.034247622
000030 a5 4a cd 3d fd 83 09 bd b5 8b 9a 3d ef 73 4a bd
       0.10024003 -0.03357314 0.07546178 -0.04942697
000040 f2 6a 46 3c f3 7f eb bc 26 4c a1 bd fc 4e f9 3c
       0.012110459 -0.028747534 -0.07875852 0.03043317
000050 d0 d3 90 3a 6e 1b 75 bd ed 8b 76 bd ba ba 1f 3d
       0.0011049453 -0.059840612 -0.060192037 0.038996436
000060 63 38 1c bd e1 36 06 3c 89 64 89 3c b0 ef 47 3d
       -0.038139712 0.008191795 0.016771572 0.04881257
000070 f9 c1 09 bf 6f 81 2a 3d b5 84 fd b9 e3 9b 18 3e
       -0.53811604 0.041627344 -0.00048354795 0.14903216
000080 bf 15 90 3b 92 d0 2d bc c7 0c a5 3b 46 60 1a be
       0.0043971236 -0.010608809 0.0050369236 -0.15075788
000090 7e 03 d0 3b 54 e5 d3 3d f4 aa ff bc 41 6a 3d 3d
       0.0063480726 0.10346475 -0.031209446 0.04624391
0000a0 9d d7 91 3c 59 98 00 bd 9f 26 13 bd 3a db e6 3b
       0.017803008 -0.03139529 -0.035925504 0.007045177
0000b0 ee c4 2f bc 40 d8 9a bb e5 3e 3d bd 89 7b 5c ba
       -0.010728104 -0.004725486 -0.04620256 -0.0008410742
0000c0 bf 89 42 3c 87 11 a4 3b 8d 2b 38 3d 4e 53 8c 3e
       0.011873662 0.0050069722 0.04496341 0.27407306
0000d0 17 e6 b0 3b 56 c8 eb bb 25 93 f1 3c 21 1f ea 3b
       0.0053985226 -0.0071955128 0.02948911 0.007144824
0000e0 15 57 2c 3d d3 2a 2a 3e b7 c6 4b bd ba 99 43 3d
       0.042075235 0.16617899 -0.049750056 0.047754027
0000f0 db 16 be 3a 58 70 1b 3d 8c 2f 52 bd 03 ee 16 bd
       0.0014502661 0.037948936 -0.051314875 -0.03684808
000100 b7 c6 42 bd a7 1b eb bc 6d 42 12 3e 44 7a 6f 37
       -0.04755279 -0.02869971 0.14283152 1.4273977e-05
000110 a7 eb c4 3d 8e 0e aa 3c 69 ce 45 be 1a f7 e7 3b
       0.096152596 0.020758893 -0.1931702 0.0070790173
000120 5d 80 e3 3b 33 07 d9 3c ce ef 51 3c c6 13 c4 3b
       0.0069427923 0.02649269 0.012813522 0.0059838025
000130 90 b7 39 bd 5c a1 8d 3a bd 12 ce 3a 54 bd 49 3d
       -0.045341074 0.0010805535 0.0015722137 0.049252823
000140 23 b1 98 bc 42 79 36 bd d4 86 97 3b a5 aa a5 3c
       -0.018639153 -0.044549234 0.004624227 0.020222971
000150 d1 92 b9 3d b8 3c 19 3c 2b 61 ca 3d 4c b3 ff bb
       0.09061206 0.009352855 0.098818146 -0.0078033563
000160 33 34 f0 bd 20 8e 47 bc 20 38 44 bd 00 92 f4 bb
       -0.11728706 -0.012179881 -0.047905087 -0.0074636936
000170 91 63 5c 3d 61 74 e0 bc 1c 95 13 3d 68 a8 95 3c
       0.05380589 -0.027399244 0.036030874 0.018268779
000180 c8 b2 11 3d 5e c6 a4 3b 40 d2 90 ba cc fe 19 3b
       0.03557089 0.00502853 -0.0011048988 0.0023497818
000190 80 42 de 3c f0 30 ba bb d9 b6 25 3d e4 8b b1 be
       0.027131319 -0.0056821033 0.04045758 -0.3467704
0001a0 3a da 1c 3c 65 54 27 bc 44 82 23 3e f3 9f a4 bc
       0.009573514 -0.010212992 0.15967661 -0.020095801
0001b0 b7 84 1f bd 37 3a aa 3e a3 05 33 3d 83 00 02 bf
       -0.038944926 0.3324754 0.043706547 -0.5078203
0001c0 90 d0 74 3d 02 41 97 3b d2 09 21 3c 11 a6 df 3b
       0.059769213 0.004615904 0.0098290015 0.0068252166
0001d0 4f 10 10 3a b4 d1 2e b9 cf 0c d8 3c 88 26 0d 3e
       0.0005495594 -0.00016672054 0.026373295 0.1378423
0001e0 0e 70 2c bd 77 a6 03 be d1 c7 93 3c 41 7f c2 bc
       -0.04209905 -0.1285647 0.018039616 -0.02374232
0001f0 d7 2c 41 3e b2 5a 99 bc 91 93 d3 3c 40 77 cc 3d
       0.18864761 -0.018720005 0.025827201 0.09983683
000200 27 73 5c bd 53 0a 84 3a dc 1b 39 3c a2 02 ec 3b
       -0.053820755 0.0010073878 0.011298146 0.0072024623
000210 30 87 56 3d 00 7b e7 3c 19 97 01 3e 0a 49 dd 3b
       0.05237502 0.028256893 0.12655295 0.0067530917
000220 a0 7d 5e 3d a3 fb 4c 3c fd 24 0b bd f6 41 03 3e
       0.054319024 0.012511167 -0.03397082 0.12818131
000230 c3 51 90 3c 78 74 49 3d b8 fc ca 3c 53 e2 82 bc
       0.017617112 0.04918334 0.024778709 -0.01597706
000240 b5 7b b9 3d 4b 25 f8 3c c4 7d f3 bb 28 9f 21 bf
       0.09056798 0.03029122 -0.007430764 -0.6313348
000250 90 c3 c0 3c 0d 52 26 3c 2e 3e 59 3d 29 90 93 3b
       0.023530751 0.010151398 0.053037815 0.004503269
000260 a8 5f 07 bd 44 95 f6 ba 48 24 2e bc 90 f1 52 ba
       -0.03305021 -0.0018812795 -0.010628767 -0.000804686
000270 39 51 7d 3a 35 35 f1 3d c1 72 bf bb 13 38 d4 bb
       0.0009663287 0.117777266 -0.005842537 -0.006476411
000280 fc 6a 8a bc fb a0 b7 3d 38 ec e0 3c 6b 80 1b 3c
       -0.016896717 0.089662515 0.027456388 0.009491066
000290 15 35 05 bd c0 af fe bc 13 3e 71 3c ee 6a 15 3d
       -0.032521326 -0.031089664 0.014724272 0.03647893
0002a0 f3 bd d1 3d 21 62 e4 3d 8c 03 ce 3d 1c 48 bf 3d
       0.10241308 0.11151529 0.1005927 0.09339926
0002b0 37 4c 2c 3b 66 14 07 be 8a c9 44 3b 4d fb 6c bd
       0.0026290545 -0.13191375 0.0030027353 -0.057856847
0002c0 d4 2c 7f bd 45 59 31 bd 65 99 5d 3c 87 37 04 bd
       -0.06229861 -0.043298025 0.013525342 -0.032279518
0002d0 9b fb 3f bc 73 e7 2f 3e 7b 87 f6 bc f1 4d 39 3c
       -0.011717702 0.17178135 -0.030093899 0.011310087
0002e0 66 21 59 bb 3e 24 26 be 8f b0 c2 b7 d2 4c 4d 3d
       -0.003313148 -0.16224763 -2.3208819e-05 0.05012209
0002f0 f2 4a 2c 3a fc 7a 23 bd 8e f0 0b bd 35 a5 7b 3b
       0.0006572447 -0.03991221 -0.034164958 0.0038398032
000300 77 5b c7 bb 54 ac 4c 3a 1a 2b ee bc ee 9b 20 3d
       -0.0060839015 0.00078076613 -0.029073287 0.039211206
000310 5f 84 dd 3d 2e 09 87 3d 94 8b b8 be e2 67 e2 3e
       0.108162634 0.06593548 -0.3604399 0.4421988
000320 70 a9 61 bd 02 9d c2 3c b0 39 a4 3c cc e6 18 bd
       -0.05509323 0.023756508 0.020047039 -0.03732948
000330 37 7c 3f 3e 10 b0 1e bf ac 29 01 3e a6 30 10 3d
       0.18699728 -0.619874 0.12613553 0.035202645
000340 bc 5a 00 bc 47 dd a4 bc 11 9b 2c be d8 71 9a bb
       -0.007834133 -0.020125045 -0.16856028 -0.0047132783
000350 ce 0f e9 bc a0 dc f7 3d 60 06 7a bc 5b ac 70 3e
       -0.02844992 0.12102628 -0.015260309 0.23503248
000360 94 df 69 3c b0 3c 2e bd 3b 45 8a be 86 73 1f bd
       0.014274497 -0.042538345 -0.27005944 -0.03892853
000370 27 75 25 bd 03 51 ab 3c 4e 6b 15 3e 8e a6 08 bc
       -0.04039493 0.020912653 0.14591715 -0.008340491
000380 d3 5b 06 bd 31 b1 17 3e d5 0b f9 3b 8c d7 d0 3c
       -0.032802414 0.14813687 0.0076002874 0.025493406
000390 bf ca 40 bf 69 93 30 3f 16 53 11 3b 15 c1 ae bc
       -0.75309366 0.6897493 0.0022174767 -0.021332303
0003a0 89 2e 59 bd b0 2f 90 bb 70 ea af 3d d9 97 68 3d
       -0.053022895 -0.004400216 0.08589637 0.05678544
0003b0 90 64 b5 3b ad 06 66 bb 89 40 d7 3a 86 03 23 bc
       0.0055356696 -0.0035099194 0.0016422431 -0.0099495705
0003c0 b7 6d 0c 3e 0d ac ec 3d 91 58 1a 3c a3 17 2f 3c
       0.13713728 0.115562536 0.00942053 0.010686788
0003d0 d0 f5 46 bd d8 89 10 3a fb 0e 6f 3c fa 04 14 bd
       -0.04857427 0.00055137044 0.014590974 -0.03613756
0003e0 5f c2 c7 be d6 af 32 3e 15 00 a6 3d a6 e1 f1 bb
       -0.3901548 0.17449889 0.081054844 -0.0073816357
0003f0 3a a6 a3 bc 6c f6 17 3f 51 5f f4 3e fb 5f da 3d
       -0.019976724 0.59360385 0.4772897 0.10662838
