data/Apr-13_05-51-52/models/critic_700.pth (torch, 274455 bytes, 5 tensors)

linear_layer.0.weight f4 [256, 7]
000000 f1 78 a2 be 9b 29 9a 3e ef f4 ab be 13 80 56 be
       -0.31732896 0.30109867 -0.33585307 -0.20947294
000010 7d f3 52 be 2f 79 ab be b7 2d 84 be 9d a3 70 be
       -0.20600696 -0.33490893 -0.25816128 -0.23499914
000020 5b e4 2e be 2b a7 7b 3d 9f 70 18 3e 0b 13 51 3e
       -0.17079298 0.06143872 0.14886712 0.2041742
000030 81 00 c6 3d b1 6f 1f 3e d9 70 5c bd 31 c6 79 3e
       0.09668065 0.1556995 -0.053818557 0.2439201
000040 e7 54 1e 3e 91 b5 80 bd 00 8c 6b be fc fa 62 3e
       0.15462075 -0.06284631 -0.23002625 0.22166055
000050 bc e1 7e 3e 7b 12 24 be d8 f4 61 3d 2d 32 84 3e
       0.24890798 -0.16022675 0.05516514 0.2581953
000060 73 6d 65 3e a8 35 15 be 30 34 10 3e 15 ab 49 be
       0.22405033 -0.1457125 0.14082408 -0.19694169
000070 0c 1b ba be 13 df 45 3e c9 c3 b5 3e 46 a2 97 3e
       -0.3634876 0.19323377 0.35500935 0.29615992
000080 86 09 2c 3e b1 92 a2 3e 74 41 c5 3d 06 3f 8f be
       0.16800508 0.31752542 0.09631625 -0.2797777
000090 08 8d b0 be 6d d7 b0 bd b7 a0 07 be f2 8e b3 be
       -0.34482598 -0.08634839 -0.13244902 -0.35069996
0000a0 b9 ce 57 be 09 52 b2 be 1b 0c 69 bc 5e 89 80 3e
       -0.21074952 -0.34828213 -0.014224078 0.25104803
0000b0 b1 c2 d3 be 5f c0 ac be 6d 3e 83 3e 9f 4d d3 bd
       -0.41359475 -0.33740517 0.25633565 -0.103175394
0000c0 8c d7 06 3e 46 b6 9e 3e 27 bf 24 3d ab ae ed be
       0.13168162 0.3099844 0.04022136 -0.46422324
0000d0 26 3f 40 be 92 1f 99 bd f7 b8 98 3e df ec e8 bd
       -0.18774089 -0.07476725 0.29828617 -0.113733046
0000e0 ed 1e 9d be 2b 34 f6 bd 0c be 9e 3e 87 f9 fb bd
       -0.30687657 -0.12021669 0.3100437 -0.12303453
0000f0 3b e3 27 3e e2 3b e1 3d 28 0d ae bc b2 0a 9d 3e
       0.16395275 0.1099775 -0.021246508 0.30672222
000100 85 ed b4 bd 57 70 88 be 02 30 7a be ec 22 21 be
       -0.08834366 -0.26648208 -0.24432376 -0.15735978
000110 73 62 b4 be c4 01 2e 3e 1e cd 8a 3e fa 4c 56 3c
       -0.3523136 0.16992861 0.27109617 0.013079876
000120 28 a6 95 be 10 5c af 3c 79 46 80 bf 97 2a 66 3e
       -0.2922833 0.021406204 -1.0021507 0.22477184
000130 82 b3 2e 3e e4 4a 0d 3e 7b b2 32 be be 30 a1 bc
       0.17060664 0.137981 -0.17450897 -0.019676562
000140 cb 2a b1 bd 2a 1a 87 3e 2a 7a 3e 3e d4 b9 d7 3d
       -0.0865074 0.2638715 0.1860129 0.10533491
000150 25 a1 11 3e 62 0e 5d be 78 74 a1 be 7f ad da 3e
       0.14221628 -0.21587518 -0.3153417 0.42710492
000160 cb 76 d7 be ae 9c e5 3c ce 9b 7d bd ee dc a0 be
       -0.4208282 0.028028812 -0.061916165 -0.31418556
000170 02 0a 95 be 68 0d d8 3d ee 6d 57 3c c4 36 0f be
       -0.29109198 0.10549432 0.013148768 -0.13985735
000180 13 58 b0 39 9c 26 91 be 2a 47 34 3d e7 67 8f be
       0.00033634956 -0.2834977 0.04401318 -0.2800896
000190 34 fa af be c7 d4 87 3d ce fb 2b 3d 33 d9 5a 3e
       -0.34370577 0.06632381 0.041988187 0.21371917
0001a0 f2 06 b9 3e 30 19 70 be d2 d5 92 be 3e 72 28 3e
       0.3613811 -0.23447108 -0.28678757 0.1644983
0001b0 a5 cb 8f 3e b0 38 76 be 71 e9 da 3c 65 66 0d 3e
       0.28085056 -0.24045062 0.026722642 0.13808592
0001c0 fd d4 b8 be ac 72 0e bd bc ef cb bd aa ef 33 bc
       -0.36099997 -0.03477733 -0.09957835 -0.010982433
0001d0 d2 8d 53 3d f4 95 88 be 55 56 64 be 0b f9 50 be
       0.051648922 -0.26676905 -0.22298558 -0.20407502
0001e0 c8 6c 44 be 23 11 2c be 9e 45 89 3e 41 55 5c 3e
       -0.19182122 -0.16803412 0.26810926 0.21516897
0001f0 96 f5 7f be 92 34 12 3e f1 e6 95 bd 3c bb 2b 3d
       -0.24996027 0.14277866 -0.07319439 0.041926607
000200 43 bd 7c be 03 8b 21 3e db 73 77 be 30 88 a2 3d
       -0.24681573 0.15775685 -0.24165289 0.07936132
000210 32 84 81 3e 36 26 e8 bd 21 e5 b5 be 23 e1 32 3d
       0.2529617 -0.11335413 -0.35526374 0.04367174
000220 73 59 76 be ae 47 8e 3b 11 05 42 3e d8 ba 61 3e
       -0.2405756 0.004342041 0.18947245 0.22043931
000230 f7 a1 05 bf 66 2e 5d 3e 41 f7 0f be 24 41 c8 3e
       -0.52200264 0.21599731 -0.14059164 0.39112198
000240 b8 4f 56 3f 83 f7 58 3e 99 5e e3 bd 3e 2d 1c bc
       0.8371539 0.21188168 -0.111020274 -0.009532271
000250 f9 56 57 3e 05 4e cc be 4e 18 a5 3e 23 a3 7d bb
       0.21029271 -0.39903274 0.32245106 -0.0038701973
000260 b0 3e c7 be b2 e6 f1 3d 39 0e 93 3e ba ac a6 bd
       -0.38915014 0.1181158 0.2872179 -0.08138414
000270 43 d4 7b be 7a 57 62 3e 5e 5a 90 bf a6 6e 17 be
       -0.2459269 0.22103682 -1.1277578 -0.14788303
000280 b9 ca 21 3e c7 a5 69 be c7 2e 49 3e d7 8a 46 be
       0.15799989 -0.22817145 0.1964675 -0.193889
000290 b9 8b b4 bc 9a 7a 4e 3f 27 b7 19 bd 91 58 f0 be
       -0.022039281 0.80655825 -0.037528183 -0.4694257
0002a0 aa 89 fe 3d b6 56 8e be e1 4e 7d be c9 52 56 3d
       0.12428601 -0.2780053 -0.24737121 0.052325044
0002b0 f9 8e 80 3c 8c 82 99 bd 26 6f bd 3e 2d 4b e2 be
       0.015693175 -0.07495603 0.36998862 -0.4419798
0002c0 8c 62 3c 3d e0 a0 41 3e 82 e7 ba bd 32 71 a6 3e
       0.04599242 0.18909025 -0.09126188 0.32508236
0002d0 da 87 a2 3b 61 ee 60 be 32 d5 45 be eb 37 93 bd
       0.0049600424 -0.21965934 -0.19319609 -0.071884
0002e0 43 33 c4 3e 65 33 58 3d 27 62 58 3e 4f b4 a1 3e
       0.3832036 0.05278339 0.21131192 0.31582877
0002f0 ec 2d 1a 3d 50 73 10 3e 83 5b ba be a5 62 a1 be
       0.03764145 0.14106488 -0.36397943 -0.31520572
000300 38 45 7b be 66 97 4f be 4c 3d 89 be a8 14 0f be
       -0.24538124 -0.20272598 -0.26804578 -0.13972723
000310 a0 55 e6 bd 58 9e a9 3e 84 f9 4c 3e 13 74 39 3e
       -0.112468004 0.3312862 0.20017058 0.18110685
000320 33 65 82 bd 8c 2f 29 3e 51 3b 25 be f7 e7 32 be
       -0.063669585 0.16522044 -0.16135909 -0.174713
000330 5f e8 8f 3e e8 21 66 be 08 e5 e5 be 52 2e 16 3f
       0.28106973 -0.22473872 -0.449013 0.5866443
000340 19 8c 1c 3d 23 19 27 be 50 2f c6 3d c6 58 7e 3e
       0.038219545 -0.16318183 0.09676993 0.24838552
000350 93 47 0c bf 0e c2 3b bd 76 1a e1 3e 20 23 63 be
       -0.54796714 -0.04583936 0.439655 -0.22181368
000360 4e dc 06 3e 8e b9 0d be 0a 9f 7e 3d 1b 43 cd 3e
       0.13169977 -0.13840315 0.06216339 0.4009026
000370 84 eb 83 be 0f 69 86 be 55 20 cb be 7a 5c 17 3b
       -0.25765622 -0.26252028 -0.39673105 0.0023095892
000380 88 d5 69 3e f5 3e df bd c0 a3 3d be 30 fe 21 3e
       0.22835362 -0.1090068 -0.18519497 0.15819621
000390 2a e8 53 bf d4 c0 b8 3e b5 4f c9 3d a4 dc 04 3d
       -0.8277613 0.36084616 0.09829656 0.03243698
0003a0 db 93 1e 3e d7 42 35 3e 2f 6f 02 bf cf 79 36 3e
       0.1548609 0.17701279 -0.509509 0.17819904
0003b0 59 3f f2 be e4 e2 e4 3d 4f 77 9a be ca 67 7d bd
       -0.47313955 0.111760885 -0.3016915 -0.06186656
0003c0 bb 7a 22 3e b6 cd b7 be 9a e8 43 be c9 72 6e 3e
       0.1586713 -0.35899132 -0.19131699 0.23285975
0003d0 4f fa a0 be 60 26 de bd b5 77 c6 bd 6b f9 2e be
       -0.3144097 -0.10847163 -0.09690801 -0.17087333
0003e0 ed ac 0d 3e 89 1e fc 3c 3e 96 47 3e b8 cd ad bd
       0.13835497 0.030776279 0.19490907 -0.08486503
0003f0 41 67 cf bd e3 1b a0 3d e0 c7 d1 3c d0 9d df 3d
       -0.10127116 0.07817819 0.025608003 0.10918772

linear_layer.0.bias f4 [256]
000000 5c 18 29 3e 1a 94 cf be 81 0e dc 3d fa 46 9c 3e
       0.16513199 -0.4054268 0.10744954 0.305229
000010 41 f8 f7 bc fc 17 96 bd 28 91 8c be c1 ad b2 3d
       -0.030269744 -0.073287934 -0.27454495 0.08724547
000020 35 06 13 be 3c 17 d1 3d ec 4e 76 3e d1 66 93 3e
       -0.14357837 0.1020951 0.24053544 0.2878938
000030 29 24 59 be df 05 3c be 95 99 cf 3d 62 76 40 3d
       -0.212052 -0.18361615 0.10136715 0.0469879
000040 5c 61 91 bd 18 1c 03 bd 5a 82 ab be 6c 41 a7 bc
       -0.07098648 -0.032009214 -0.33497888 -0.020416938
000050 a8 63 ee bd 18 06 17 3e e3 0a 23 3e bc cb 5f be
       -0.11640102 0.14748418 0.15922122 -0.21855062
000060 0f ac 9b be 2a dd 87 3e 60 6d f9 bc d3 1a 4c 3e
       -0.30404708 0.26535922 -0.030447662 0.19932108
000070 24 a2 de 3d cb 4b 96 be e3 cf 47 be 65 56 e0 3e
       0.108707696 -0.293547 -0.19512896 0.43815914
000080 79 8b a9 3e 55 72 86 3e bc e9 4c 3d 4a 8e 27 3d
       0.33114222 0.26259103 0.050027594 0.04090718
000090 ac b2 49 3e a1 c3 7c 3e 02 a5 7c 3e 85 b3 b1 be
       0.19697064 0.24684002 0.2467232 -0.34707275
0000a0 88 1e ba be 65 24 51 bd 3b 79 28 be cb fa 87 bd
       -0.36351418 -0.0510601 -0.16452496 -0.06639632
0000b0 36 ee 21 3e 7e c9 6b be cd 66 52 3e 5a be a9 3c
       0.15813527 -0.23026082 0.20547028 0.02072065
0000c0 79 ff b9 3e 41 72 d6 be 0b 97 d6 bd 49 f7 fe bd
       0.36327723 -0.41884044 -0.10478028 -0.1244951
0000d0 40 ae 0e 3d e2 63 d6 3d 1c 43 80 3e 69 df c5 bd
       0.034834146 0.1046827 0.250512 -0.09661753
0000e0 4a bb 8f be 3f f7 8f bd 9a e2 82 3c 0c b0 b9 3d
       -0.28072578 -0.0702958 0.015977193 0.090667814
0000f0 a2 66 8a 3e 42 8d 14 3e 39 58 43 bd f3 4f 93 be
       0.27031428 0.1450701 -0.047691558 -0.28771934
000100 c9 a0 54 be da 03 6f be 35 82 88 3d cd de 78 3b
       -0.2076446 -0.23341313 0.0666546 0.0037974596
000110 9b e0 c0 3e f5 58 ca be 61 e2 a5 be b7 78 de bc
       0.3767136 -0.39520994 -0.32399276 -0.02715717
000120 21 37 00 be 47 30 a7 3e 6c a5 62 be 77 11 21 bc
       -0.1252103 0.3265402 -0.22133416 -0.009830824
000130 84 24 03 3d ca fb 56 be 1a 1e 14 be 3b b4 83 bd
       0.032017246 -0.20994487 -0.14464608 -0.064308606
000140 3a 8d 2b be 30 d0 3b 3e 05 5c e7 be 40 c2 51 bd
       -0.16753092 0.18341136 -0.45187393 -0.05121064
000150 b1 45 be bd 0a 91 82 be 7b bd ac 3e 56 b9 7b be
       -0.09290636 -0.2550128 0.33738312 -0.24582419
000160 4c f1 6f 3e 46 d2 89 3d 4a c9 64 bd 4a 9f f6 bd
       0.23431891 0.067295596 -0.055856027 -0.12042101
000170 62 88 93 3d 33 00 9f be 53 a8 aa be dc d8 73 3d
       0.07203747 -0.3105484 -0.33331546 0.059532985
000180 74 dd b9 bd ae 40 9a be 85 8d 83 be 0d 7c 93 3d
       -0.09075442 -0.30127472 -0.25693908 0.07201395
000190 36 7d b2 3d c5 ad 81 3d 31 a3 ce be 0c 74 ca be
       0.08715288 0.06331972 -0.4035888 -0.39541662
0001a0 f3 c2 ed bd 20 e0 bb be be 38 28 3e a0 be 8a be
       -0.11609449 -0.3669443 0.16427895 -0.2709856
0001b0 1a aa 82 bd d1 d8 bd 3e 51 56 3b be 77 2f 05 3e
       -0.063801005 0.3707948 -0.18294646 0.13006388
0001c0 80 aa 0f be 7d 55 12 be 0b 23 c1 3e 5f 55 67 3e
       -0.14029884 -0.14290424 0.37722048 0.2259116
0001d0 85 76 7f 3e ce c1 ed 3d 3a 2a 3b 3e f3 aa c8 be
       0.24947555 0.11609231 0.18277827 -0.39192924
0001e0 ec 5f 8e be d7 41 44 be 8c 05 87 be 86 c6 d2 3d
       -0.27807558 -0.19165741 -0.2637142 0.102917716
0001f0 92 af bf 3e 73 1a ad be cf 61 92 3e 09 a4 a5 be
       0.37438637 -0.33809242 0.28590247 -0.3235171
000200 91 1d c9 be 30 91 41 3e 3c 74 b4 bd 54 32 0b bf
       -0.3928037 0.18903041 -0.088112324 -0.5437367
000210 3c a0 66 be 6f e6 5a be 9a 9e 45 3e 47 e4 b0 be
       -0.22522062 -0.21376966 0.19298783 -0.34549162
000220 04 20 ce be d2 85 3c 3e e3 50 97 be 1c 3e bd bd
       -0.402588 0.18410423 -0.295539 -0.09240362
000230 1e bb d1 be 83 44 94 be 6a 5e b0 be 55 c9 e7 be
       -0.40963072 -0.2895852 -0.34447032 -0.45270792
000240 17 b4 65 bd f0 b1 b8 3e cd c1 a3 3e bf 13 8b be
       -0.05607995 0.36073256 0.31983796 -0.27163503
000250 7b 73 d0 3d eb 61 02 be 89 75 84 be e6 b4 cb bd
       0.10178276 -0.12732665 -0.25870922 -0.09946613
000260 7c b0 85 bd 1d ff 91 be 46 49 8d be e3 25 83 be
       -0.06527802 -0.28514948 -0.27594966 -0.25614843
000270 8e 03 04 be d5 24 5d be c5 8f 4c 3e c4 74 0e 3e
       -0.12891981 -0.21596082 0.19976719 0.1391173
000280 0d 0a 5b 3d 67 25 95 be 7d 4f 57 3e cd 38 2d 3e
       0.053476382 -0.29130098 0.21026416 0.16916199
000290 e1 c4 2b 3e 30 51 c9 3d cd f2 d7 be d4 d4 4f be
       0.16774322 0.098299384 -0.4217743 -0.20296031
0002a0 b5 df 51 be 39 47 7e be 3f f3 8d 3e cb ec 7b 3e
       -0.20495494 -0.24831857 0.27724645 0.24602048
0002b0 77 e4 89 3e 45 af 8a 3e 26 a6 89 bd 45 76 98 bd
       0.26932117 0.27086845 -0.067211434 -0.07444433
0002c0 3e 27 ab be cb 7d 7c 3d 89 2d 78 3e 5a 11 f4 bd
       -0.33428377 0.061643403 0.2423612 -0.11917372
0002d0 1f 3e bc 3e 0f 7f 78 3d 7b e9 b9 bd 80 4f a5 3e
       0.36766145 0.060668048 -0.09077736 0.32287216
0002e0 67 a4 cf be 3d 08 12 be 78 d3 27 be 32 b7 52 bb
       -0.40555117 -0.14260955 -0.16389263 -0.003215265
0002f0 c8 f8 a2 3e 50 c8 7c 3e 90 43 71 3e 4d 8e bf be
       0.3183043 0.24685788 0.2356093 -0.37413254
000300 d9 ef a8 be a6 01 52 bd e4 e2 e7 bd 0d 55 5a 3e
       -0.3299549 -0.051271103 -0.11322573 0.21321507
000310 fd 01 87 be 9e 6c 28 3e 9a 4e da be d5 e6 69 3d
       -0.26368704 0.16447684 -0.42638093 0.057104904
000320 7b 27 1a 3e d9 2f 9e be 89 18 98 be 97 06 10 bd
       0.15054123 -0.3089588 -0.2970622 -0.035162535
000330 f3 e6 eb bd 1b 21 02 3f c8 1d a7 3d 99 a1 57 be
       -0.115186594 0.50831765 0.08159977 -0.21057738
000340 84 dd b5 be 61 61 87 be 2e e1 03 3e 78 9b 94 3e
       -0.35520566 -0.26441482 0.12878868 0.29024863
000350 1a 07 85 be 13 03 ab 3e bd 9b 73 3c e7 22 c3 3c
       -0.2598198 0.33400783 0.014868674 0.023820354
000360 7b 79 76 3e 1d 34 75 be ea c2 00 bf ee f0 9d be
       0.24069779 -0.23945661 -0.50297415 -0.30847877
000370 29 85 26 3d 5c 4d c6 3d 40 f0 ed bd 55 f2 7b be
       0.040654335 0.09682724 -0.1161809 -0.24604161
000380 08 cd a9 be 32 a9 7b be 10 43 f5 bd 13 bd ad 3e
       -0.3316424 -0.24576262 -0.11975682 0.33933315
000390 2d 65 56 bc 3c da 16 bd c5 34 de bd 8d 61 e7 bc
       -0.013085646 -0.03682922 -0.10849909 -0.028244758
0003a0 31 d4 a9 3e a3 ff de 3d c5 6a 64 be aa 61 68 3e
       0.33169702 0.108886026 -0.22306354 0.22693506
0003b0 8e d6 60 3d 64 7b 31 be 5b 89 c0 3d 79 f8 f6 be
       0.054892115 -0.17332226 0.094011985 -0.48236445
0003c0 7d 62 15 3d ee 4b 97 3e 18 ee af be 23 f1 8d 3e
       0.03647088 0.29550117 -0.3436134 0.27723035
0003d0 f1 af f9 bd 0d 4b 0e 3d fb 7a 41 be 80 30 08 bf
       -0.12191761 0.034739543 -0.1889457 -0.53199005
0003e0 52 70 1e be 9f 00 26 3e 4b 65 84 3e 36 4f c4 bd
       -0.15472534 0.16211174 0.2585853 -0.09585421
0003f0 16 d0 4e 3e d0 2a a4 3e b6 3e d4 be ff 9f ba 3e
       0.20196566 0.32063913 -0.41454095 0.36450192

linear_layer.2.weight f4 [256, 256]
000000 57 bd 33 3d eb 06 bf 3c 18 2c e7 3d 8b f0 aa 3d
       0.04388174 0.023318728 0.11287707 0.08346661
000010 a7 7d 0d 3e fe c9 29 bd bd d9 0e bd c8 ec 04 3d
       0.13817464 -0.0414524 -0.03487562 0.032452375
000020 67 c6 da bd 50 37 34 bd 15 3c 91 3d 02 25 30 3d
       -0.106823735 -0.043998063 0.07091538 0.043004043
000030 01 19 37 3e ac 00 41 3d 80 33 81 bb 26 4f 85 3a
       0.17880632 0.04711978 -0.003942907 0.0010170683
000040 c0 66 02 3c d0 ef ee 3c 48 9d 57 bd 64 50 ca 3c
       0.007959068 0.029167086 -0.05264023 0.024696536
000050 7f 22 b5 3c f7 7c e4 bc 7e d0 5f be 3a 10 98 bd
       0.022111176 -0.02789162 -0.21856877 -0.0742497
000060 4a 49 12 bd b5 d0 17 3d 13 3f 2a 3e 46 bb 47 bd
       -0.035714425 0.037064273 0.16625623 -0.048762582
000070 54 5e 15 3e 12 1f c3 bc e6 d8 b4 be 89 2d d2 3d
       0.14586765 -0.023818526 -0.3532173 0.102625914
000080 ba 7b 58 3d cd d3 de 3d a4 06 82 3c 4c 01 bf bc
       0.05285237 0.108802415 0.015872307 -0.023316048
000090 37 c5 c3 3d 80 25 dd 3c 78 df 62 bc 30 a7 3b 3d
       0.095591 0.02699542 -0.013847224 0.04581374
0000a0 3d 2e 72 3d 5e f0 d2 3d f8 06 74 bc 83 3e b8 3d
       0.059126128 0.10299753 -0.01489424 0.08996298
0000b0 98 1e 51 bc 66 b3 ba 3d cc 53 7e bd 01 18 08 3d
       -0.012763642 0.09116249 -0.062091634 0.033226017
0000c0 99 01 76 bc 64 96 f7 bd 30 3a 61 bd 54 21 a9 3d
       -0.015015029 -0.120892316 -0.054987133 0.0825831
0000d0 10 9d c8 3b 5a e2 d4 3d 48 82 0a bd 40 5a f7 bb
       0.006122239 0.10394736 -0.033815652 -0.0075486004
0000e0 f4 e9 6d bd 7c ef a1 3c 47 05 3b 3d e8 c8 7d 3c
       -0.058084443 0.019767515 0.04565933 0.015489794
0000f0 29 9f 9b bc fb 93 55 bd 86 2a 89 be 20 02 6c bc
       -0.018996792 -0.05214308 -0.26790255 -0.0144048035
000100 54 86 95 3d cb 64 ed bb 03 0b 8a bd fe 62 92 3d
       0.07301012 -0.0072446815 -0.067403816 0.071477875
000110 e2 74 f1 3d 74 53 ee 3b e0 57 0c bc f6 cf f6 3c
       0.11789872 0.007273132 -0.008565873 0.03012846
000120 fc 28 19 3d 5d e5 9d 3d 7a 53 1d bd e4 69 72 bd
       0.0373926 0.07709763 -0.038409688 -0.059183016
000130 fb 38 8c 3d 8b 64 f8 3b ed 81 2c 3d 19 26 91 be
       0.06846806 0.007580345 0.042116094 -0.2834938
000140 1f 48 cb bc cc 35 70 bd c1 cd 80 3d c5 2a 8c bc
       -0.024814663 -0.058645055 0.062892444 -0.017110238
000150 26 cd 59 bb e8 c6 28 be b7 6e 83 3e 5c 91 85 be
       -0.003323385 -0.16482127 0.25670406 -0.26087463
000160 9f a8 04 3e 78 07 39 3c 2d ac b0 3d 80 b6 33 3c
       0.12954949 0.011293285 0.0862659 0.010968804
000170 64 e6 54 3d 58 d1 8a bb d8 24 83 bc f7 46 2e be
       0.05197753 -0.0042363815 -0.01600878 -0.17019258
000180 3f 46 86 bd cf 89 05 bd ec 57 9c 3c 3e 44 2d 3c
       -0.06556367 -0.032602128 0.019084893 0.010575352
000190 44 c2 b9 bc a5 98 1d bd 8d 44 f5 3c 78 7f 9a bc
       -0.02267564 -0.03847565 0.029939914 -0.01885961
0001a0 1c cc c4 bc 40 62 bc 3b b6 3f 66 bd a0 d9 56 3b
       -0.024023108 0.005749017 -0.056213103 0.0032783523
0001b0 07 7e 9f 3c c7 98 5d bd 96 9b 3c bd dc 0d a2 3c
       0.019469274 -0.054100778 -0.046046816 0.019782
0001c0 3b 9d 0c 3e 20 08 d2 3d ee 51 52 bd b3 50 6e bf
       0.13731854 0.10255456 -0.051347665 -0.9309189
0001d0 30 6e 7e bd 18 38 0a 3e d9 c5 d7 bc 33 c3 e4 bc
       -0.0621168 0.1349796 -0.026339458 -0.02792511
0001e0 6d c0 a8 bd 86 7e c4 3c d2 24 99 3d 94 cc 89 bd
       -0.08239827 0.023986112 0.07477726 -0.06728473
0001f0 0e 26 44 bd 45 c2 6b be b1 ee c1 3d ac 4f 28 3d
       -0.047887854 -0.23023327 0.09469355 0.041091606
000200 d4 c0 1c bd 3f ef 14 3e 92 d9 35 3d 43 0e d1 bc
       -0.038269833 0.1454439 0.044396944 -0.025519496
000210 94 b0 43 3d 81 0b 80 3d 56 4c 10 bd ce c7 7f 3d
       0.04777582 0.06252194 -0.03522905 0.062446408
000220 c2 7d e9 bc 2a 25 3a 3d 4f ee ac 3c aa 01 1f 3d
       -0.028502349 0.0454456 0.021109728 0.038819946
000230 98 ee c4 bd 7d 69 65 be b1 01 95 bd 6c c0 da bc
       -0.09615821 -0.22403522 -0.07275713 -0.026703082
000240 9e 22 68 bd d0 ef 07 bc 34 cd 22 bd f8 e5 c1 be
       -0.05667364 -0.008296922 -0.03974648 -0.37870765
000250 e8 59 26 3d da 0d a2 bd 2d c8 6c bb db 6f 07 3e
       0.040613085 -0.07912798 -0.0036130056 0.13226263
000260 71 a0 0a 3d 6c ea 84 3c 8a fc 62 bc 77 ca 2c 3d
       0.033844415 0.016225062 -0.013854155 0.042185273
000270 ba 87 7a 3d 07 22 d8 bd 02 76 18 bd 76 51 79 3d
       0.061164595 -0.10553365 -0.037221916 0.060868703
000280 58 12 74 3c 00 2e c5 ba 39 80 8f 3b c4 43 e6 bc
       0.014896952 -0.0015043616 0.004379299 -0.028108485
000290 b8 b1 95 3c 07 52 c5 3d 3b 99 92 be f6 d5 49 3d
       0.01827322 0.09634786 -0.2863253 0.049276315
0002a0 e9 33 03 3d 24 55 81 3d 9e c3 1b bd de 70 59 3d
       0.032031927 0.063150674 -0.038028352 0.053086154
0002b0 71 97 ee bc aa 07 0d bd 57 49 9f bd 2a 28 61 3d
       -0.029124947 -0.034431137 -0.0777766 0.054969944
0002c0 1d 5f 69 3d ff 04 4f 3d 14 b5 7d 3d 00 c8 4a bd
       0.056975473 0.050541874 0.061940268 -0.04950714
0002d0 b0 7c e9 bb 24 7b 5a bd 55 11 29 3c 21 db d7 3d
       -0.0071254596 -0.053340092 0.010319074 0.105398424
0002e0 96 f0 b5 bd 60 c7 74 be 4c f8 47 3c 9e 3d 87 bc
       -0.08883779 -0.2390418 0.012205195 -0.016508874
0002f0 ba 74 87 3d 49 5c 76 3d 2c a3 3d 3d 5d 1f 1f bd
       0.06614061 0.060146604 0.04629819 -0.03884827
000300 5d 5c 58 3d 8b 78 c3 bd 22 b1 65 3d 4e e3 cc 3c
       0.05282246 -0.09544476 0.05607713 0.025010731
000310 ef fa b0 bd e4 f1 c2 bc 0e f3 c6 3d c4 ba f7 bc
       -0.08641612 -0.023796983 0.09714328 -0.030240424
000320 04 92 80 3c 8b 9c e6 3c 04 3c 3f bd fd 3e b8 3d
       0.015694626 0.028150817 -0.046688095 0.08996389
000330 a6 a7 4f bd 3d ba df 3d 38 e9 19 bd 1a 8c 60 3d
       -0.05069699 0.10924194 -0.03757593 0.05482111
000340 d1 02 a1 3d fa 0b 8d 3d a8 64 ab bd 19 35 89 3d
       0.07861865 0.0688705 -0.08368808 0.06699581
000350 24 51 9e 3c 3e 22 a6 3c 64 d0 30 3e 48 b5 16 bd
       0.0193258 0.02028 0.17266995 -0.036793977
000360 3b e4 4a 3c ce 66 02 3e 6a e3 89 3c 00 b5 50 3d
       0.012383516 0.1273453 0.016832072 0.050953865
000370 89 a6 96 bd 26 e1 1c bc c3 3c 9d bd d8 62 33 bd
       -0.07355983 -0.009575164 -0.07677605 -0.043795437
000380 bc a1 8e be ad 72 86 bb 11 da b7 bd 46 f1 ac bc
       -0.2785777 -0.004103026 -0.0897714 -0.021111142
000390 4c 2e ff bd b0 24 38 bc 5b 8d 91 3d 76 a4 6c 3d
       -0.12460002 -0.011239216 0.071070395 0.05777403
0003a0 90 bb 8e bc 67 99 b9 3c d1 d9 89 bc 39 cf e0 3d
       -0.017423421 0.022656156 -0.016827496 0.109770246
0003b0 cc a3 0f 3d c5 e3 a3 3d 66 d4 48 bd ed 6a fd 3c
       0.03506832 0.08002428 -0.049030684 0.030934775
0003c0 44 ff 28 3e 2c 52 75 bd 00 ab 61 bd 15 0b 51 bd
       0.16503626 -0.05989282 -0.05509472 -0.05103596
0003d0 36 69 48 3c 00 3d 40 3d b9 ea 64 bd 65 be e0 3c
       0.0122321155 0.046933174 -0.05588791 0.027434537
0003e0 3e 37 b4 3c 09 5e 14 be 5c 9f 3d 3c 27 a9 4b bc
       0.021998998 -0.14488997 0.011573639 -0.012430466
0003f0 02 0d 8f 3c 5b 7e 11 bc 4b d9 9a bd 2a 5b e5 3d
       0.017462257 -0.008880223 -0.075609766 0.11199029

linear_layer.2.bias f4 [256]
000000 18 cf 90 3e 8e 73 df 37 23 1c 02 3d a1 f0 27 3d
       0.28283 2.6637481e-05 0.031765115 0.041000966
000010 f6 de 63 bd 9e f1 76 3c 79 f5 ac bd b3 ef f5 bc
       -0.055632554 0.015072254 -0.08445258 -0.030021524
000020 ea 4a 06 bd 40 08 5c 3e 3b fd f1 bc 8e e4 96 3c
       -0.032786287 0.21487522 -0.029539695 0.01841953
000030 92 cc af 3d 79 f1 ac bb 29 32 a8 3d 90 b3 45 3d
       0.085839406 -0.005277809 0.08212692 0.048266947
000040 2d b8 23 3c 98 71 34 3d 48 c2 63 3d cc 6c b3 bc
       0.009992641 0.044053644 0.055605203 -0.021902464
000050 38 43 83 bd 3b 13 a7 bb e2 fe 08 3d 5b 73 27 3d
       -0.06409305 -0.005098728 0.0334462 0.040881496
000060 63 81 77 bd 93 70 88 bd 0f 18 f7 bc 40 79 54 3c
       -0.060426127 -0.06662097 -0.03016284 0.012968361
000070 66 f2 8c bd 0f da bf 3c 8c 0d eb 3c 90 e4 7f 3e
       -0.06882171 0.023419408 0.028692983 0.24989533
000080 eb 32 cb 3c eb 55 19 3d 29 5c a4 3b a3 d1 eb bd
       0.024804553 0.037435453 0.005015869 -0.115145944
000090 84 98 d6 3c 52 54 59 3e 19 62 16 3c 87 88 b5 b8
       0.026195772 0.21223572 0.009178662 -8.656183e-05
0000a0 72 0c c1 bd 44 5d 96 bd 28 5e ea bc f3 49 f7 3c
       -0.09426202 -0.07342008 -0.02860935 0.030186629
0000b0 89 dd 09 3b 14 f2 e5 3c 9f 2b a7 3c f8 00 57 3c
       0.0021036586 0.028069533 0.020406542 0.01312279
0000c0 a8 d8 3c bd 61 2e 92 ba f8 c2 87 bd 54 38 82 3d
       -0.046105057 -0.0011152738 -0.06628984 0.063584
0000d0 2c de 24 3c cc 8b 93 bd 83 e4 a8 bd c0 0f 11 bd
       0.0100627355 -0.072043985 -0.0824671 -0.03541541
0000e0 03 f8 d1 bb 14 0f e0 3c b9 fd 4d bd 04 ed a3 bc
       -0.006407739 0.02735094 -0.050290797 -0.020010479
0000f0 e4 dc 0d bd df 55 9f bc 00 a9 89 bd 44 ac 02 bd
       -0.034634486 -0.019450126 -0.06721687 -0.031902567
000100 cc ff 26 3d ff 06 46 bd 82 9b e0 3d f6 ad f5 bc
       0.04077129 -0.048346516 0.10967161 -0.029990178
000110 11 5b 04 bc 89 22 85 bd ce f6 a8 bc 8c 6f a9 bd
       -0.008078353 -0.06500728 -0.020625498 -0.08273229
000120 c1 95 18 3d 21 a4 82 bd 33 e2 74 bd 2d f8 ca bc
       0.03725219 -0.06378961 -0.059786033 -0.024776543
000130 08 48 46 3c fe dc 68 bd 69 b8 bc 3c a5 ec 08 bd
       0.0121021345 -0.05685138 0.023037152 -0.033428807
000140 db bb 02 bd 44 b7 84 bd f2 a0 d1 bc 5c 96 28 3d
       -0.031917434 -0.06480268 -0.02558944 0.04115902
000150 be 92 de 3c d8 cd 0d bd 96 7e c5 3b 49 78 b3 3c
       0.027169582 -0.034620136 0.006027053 0.021907942
000160 aa bd 71 be 98 f9 8b bd 9a b4 12 3d bd be 99 bd
       -0.23607507 -0.068347156 0.035816766 -0.075070836
000170 fc 46 31 3c 84 b5 dc 3c 6b 4e 18 bd 1c 84 0d 3d
       0.010820147 0.026942022 -0.03718416 0.034549817
000180 2f 5b da 3c 0e 6a 3c bd 1a 14 2a 3d 3c 0f 28 bd
       0.026654808 -0.04599958 0.041523077 -0.041030154
000190 68 64 4f bd df cf 35 3d 45 8e 19 3c b3 6e 3e be
       -0.050632864 0.044387694 0.009372299 -0.18596916
0001a0 7b 81 61 bd c8 0d 58 3c 14 24 57 3e be fb a8 bd
       -0.055055123 0.013186879 0.21009856 -0.08251141
0001b0 f6 1e b2 bc 60 dd 6f 3e 5f e4 5a bd 03 a2 a8 bd
       -0.021743279 0.23424292 -0.053440448 -0.08234026
0001c0 f2 de 60 bd ed 45 36 bd 5d 99 6d 3d 6c ad 91 bd
       -0.054900117 -0.04450028 0.058007587 -0.07113156
0001d0 d3 05 23 3d 70 1a cf 3b 3a 51 81 bc 02 99 8b 3e
       0.039800476 0.0063202903 -0.015785802 0.27265173
0001e0 9a df 89 bd da 9d 08 bd 34 f6 e4 b9 ab ff a4 bd
       -0.06732102 -0.033353664 -0.00043670984 -0.08056577
0001f0 72 4f 8f 3e 50 dc 14 3d ee 8b 81 bb b2 99 94 3e
       0.279903 0.03634292 -0.0039534485 0.2902351
000200 aa f1 d0 3c 40 d2 31 bd c0 3b 8c bb 2f e8 2e 3b
       0.02550586 -0.0434134 -0.0042795837 0.0026688685
000210 bc bb 9a bc 84 58 a3 bd 88 dc 27 3e 52 1a 71 3c
       -0.018888347 -0.079758674 0.1639272 0.014715748
000220 c0 43 3a 3c 0b b4 91 bc 9b df 88 bd 06 53 46 3e
       0.011368692 -0.017786046 -0.06683274 0.19367608
000230 12 de 52 3d d2 22 d7 3d e5 47 bd 3c 21 36 9f bd
       0.051481314 0.10504688 0.023105571 -0.07773996
000240 26 8d 55 3e 7d 98 81 3c c4 1a fb 3c 7a f4 db bd
       0.20854625 0.015819782 0.030652411 -0.107399896
000250 6c 49 90 bc ae aa b8 3b 1b 3d 88 bc a1 c8 03 3c
       -0.017613135 0.005635581 -0.0166307 0.008043439
000260 2c 55 85 bc 93 17 8b 3d bc 2b 98 3c f8 e9 b6 3c
       -0.016275965 0.06791606 0.018575542 0.022328362
000270 af 13 4c bb 99 11 65 3e c8 b7 6d bc 83 85 29 bc
       -0.0031139662 0.22369994 -0.014509149 -0.010346773
000280 ba 24 36 3d 7b 7d 8f 3e 90 c8 42 bd ca 17 97 bd
       0.04446862 0.28025422 -0.047554553 -0.07377584
000290 9f 8d 01 bd 59 9a 69 3b 44 fd 92 bc b9 5a cc bc
       -0.0316292 0.0035644977 -0.017943032 -0.024945604
0002a0 64 48 84 bd 20 f7 0a 3e ba c5 39 3e 2b 09 2e 3e
       -0.0645912 0.13570833 0.18141833 0.16995685
0002b0 a6 cf 72 bc dd d0 8c bd 50 1a 68 3c 1a 18 f7 bc
       -0.014820015 -0.06875775 0.01416643 -0.03016286
0002c0 0c 80 fa bc cd 21 55 bd 70 2b 4f bb f0 ee 5c bd
       -0.030578636 -0.052034188 -0.0031611584 -0.053938806
0002d0 fa d7 3b bd 77 09 3f 3e ee 46 ab bd 86 4f 2e 3c
       -0.04586027 0.18655954 -0.08363138 0.010639077
0002e0 73 74 74 bc 43 2a 2a be fd 39 39 3d fd 9c ef bc
       -0.014920342 -0.16617684 0.045221318 -0.029249663
0002f0 51 ce 0a 3d 14 f0 59 bc 19 e1 2b bc 1a 3a f1 3c
       0.033888165 -0.013301868 -0.010490679 0.02944665
000300 72 d9 e9 3b 5a 92 4b bd 73 ff 5f bd 22 46 6f 3c
       0.007136517 -0.04970012 -0.054686975 0.014604123
000310 2f 22 31 3e 8c 69 a5 3d 3a 26 51 be 89 de c3 bd
       0.17298196 0.08076772 -0.20424739 -0.095639296
000320 c7 72 10 bd f1 4b 44 3c 38 45 9c bd ec 41 66 bd
       -0.03526571 0.0119809965 -0.0763039 -0.05621521
000330 6e a5 b4 3e 42 33 cd bd ac 28 46 3e 9d 5a 5b bd
       0.35282463 -0.10019542 0.19351453 -0.053553212
000340 f8 de 01 bd b8 c5 8e bc 38 e9 a8 bc e5 ee a2 3c
       -0.03170678 -0.017428264 -0.02061902 0.019889304
000350 cd ce 81 bc 96 9b 0d bc e4 32 57 bb b7 13 91 3c
       -0.01584568 -0.008643052 -0.003283673 0.017709596
000360 35 79 85 bd be 00 91 bd 0f 50 97 bd aa 30 f8 bc
       -0.06517259 -0.0708022 -0.07388317 -0.030296642
000370 12 b9 ee ba 70 1b d7 bc 58 a4 52 3e 45 22 bd bd
       -0.0018213114 -0.0262582 0.20570505 -0.09235052
000380 d6 a8 74 bd 6d 97 ee 3b 86 cf 8f bc b5 b0 65 bd
       -0.059731327 0.007281235 -0.01755501 -0.056076724
000390 9b 08 95 bd 5c 79 25 3e a5 71 09 3d ad 76 97 bd
       -0.07277032 0.16159576 0.033555645 -0.073956825
0003a0 19 34 7e bd c8 cc 9a bc 13 fd f9 3d 7e a1 cf bc
       -0.062061403 -0.018896475 0.12206473 -0.02534556
0003b0 60 52 46 bd e7 71 27 bd 2d 92 06 bb e6 1e 0a 3c
       -0.048418403 -0.04088011 -0.0020533905 0.008430218
0003c0 52 1a 39 3e 0f ee 5b 3e 5a ee 26 3d a7 0b eb 3a
       0.18076447 0.21477531 0.040754654 0.001793255
0003d0 c0 5f 8a bd 21 c3 d9 bc 34 57 f9 3b f3 1c 54 bd
       -0.06756544 -0.026582303 0.0076092724 -0.05178542
0003e0 84 b1 32 bd 61 2a 87 3e 2d c8 68 3d 09 2c c1 bd
       -0.043626323 0.2639952 0.056831528 -0.09432227
0003f0 2e ab 26 bd 8f d3 e9 3d b6 70 f9 bc 07 3e 70 3c
       -0.040690593 0.11417305 -0.030449253 0.014663226

linear_layer.4.weight f4 [1, 256]
000000 db e6 bf 3d 2c e9 a8 bc dc 71 89 3b a3 7e b6 3c
       0.09370204 -0.020618998 0.0041944813 0.022277182
000010 51 38 36 3d c1 36 39 3d 2a 3a 78 bc 54 a3 36 bc
       0.0444873 0.045218233 -0.015150586 -0.011147339
000020 86 23 22 bd a9 17 5a 3d 4b f5 38 3b 3c 47 0c 3d
       -0.03958466 0.05324522 0.0028222378 0.034247622
000030 bf 7f cd 3d fd 83 09 bd 0c d0 9a 3d ef 73 4a bd
       0.10034131 -0.03357314 0.07559213 -0.04942697
000040 f2 6a 46 3c f3 7f eb bc 4d 57 6b bd fc 4e f9 3c
       0.012110459 -0.028747534 -0.057456303 0.03043317
000050 d0 d3 90 3a a1 53 21 bd ed 8b 76 bd ba ba 1f 3d
       0.0011049453 -0.039386395 -0.060192037 0.038996436
000060 63 38 1c bd e1 36 06 3c 7f 1d 06 3b b0 ef 47 3d
       -0.038139712 0.008191795 0.0020464358 0.04881257
000070 d4 ad c6 be 6f 81 2a 3d c4 f3 17 bb 86 a7 04 3e
       -0.38804495 0.041627344 -0.0023186067 0.1295453
000080 e1 b9 03 3b 92 d0 2d bc c7 0c a5 3b 91 06 23 be
       0.0020099806 -0.010608809 0.0050369236 -0.15920474
000090 7e 03 d0 3b e5 d2 3c 3d f4 aa ff bc 41 6a 3d 3d
       0.0063480726 0.046099562 -0.031209446 0.04624391
0000a0 9d d7 91 3c 59 98 00 bd 9f 26 13 bd 3a db e6 3b
       0.017803008 -0.03139529 -0.035925504 0.007045177
0000b0 ee c4 2f bc 40 d8 9a bb e5 3e 3d bd 89 7b 5c ba
       -0.010728104 -0.004725486 -0.04620256 -0.0008410742
0000c0 bf 89 42 3c 87 11 a4 3b 8d 2b 38 3d 61 67 58 3e
       0.011873662 0.0050069722 0.04496341 0.21133186
0000d0 fe 44 d0 3c 56 c8 eb bb 25 93 f1 3c 21 1f ea 3b
       0.025423523 -0.0071955128 0.02948911 0.007144824
0000e0 15 57 2c 3d b6 9b 59 3c b7 c6 4b bd ba 99 43 3d
       0.042075235 0.013281753 -0.049750056 0.047754027
0000f0 db 16 be 3a 85 9d 27 3d 8c 2f 52 bd 84 c4 4e bd
       0.0014502661 0.040921707 -0.051314875 -0.05048038
000100 b7 c6 42 bd a7 1b eb bc e2 c8 a9 3d 44 7a 6f 37
       -0.04755279 -0.02869971 0.082902685 1.4273977e-05
000110 d3 5c 71 3d 8e 0e aa 3c 24 97 1c be 1a f7 e7 3b
       0.058926415 0.020758893 -0.1529203 0.0070790173
000120 5d 80 e3 3b 33 07 d9 3c ce ef 51 3c c6 13 c4 3b
       0.0069427923 0.02649269 0.012813522 0.0059838025
000130 90 b7 39 bd 5c a1 8d 3a fa 58 80 3c 54 bd 49 3d
       -0.045341074 0.0010805535 0.015667427 0.049252823
000140 23 b1 98 bc 42 79 36 bd d4 86 97 3b 8d e2 13 3c
       -0.018639153 -0.044549234 0.004624227 0.009026182
000150 a5 74 b9 3d b8 3c 19 3c cc 84 37 3c f6 48 32 3a
       0.09055451 0.009352855 0.011201095 0.0006801033
000160 51 3d 8c bd 20 8e 47 bc 20 38 44 bd 00 92 f4 bb
       -0.06847633 -0.012179881 -0.047905087 -0.0074636936
000170 49 2a 92 3d 61 74 e0 bc 1c 95 13 3d 68 a8 95 3c
       0.071369715 -0.027399244 0.036030874 0.018268779
000180 c8 b2 11 3d 5e c6 a4 3b 40 d2 90 ba cc fe 19 3b
       0.03557089 0.00502853 -0.0011048988 0.0023497818
000190 80 42 de 3c f0 30 ba bb d9 b6 25 3d fa a8 96 be
       0.027131319 -0.0056821033 0.04045758 -0.29425794
0001a0 3a da 1c 3c 65 54 27 bc 51 8f 0e 3e f3 9f a4 bc
       0.009573514 -0.010212992 0.13921858 -0.020095801
0001b0 b7 84 1f bd 22 66 54 3e a3 05 33 3d b9 0f db be
       -0.038944926 0.20742086 0.043706547 -0.42785433
0001c0 90 d0 74 3d 83 c8 ec 3b d2 09 21 3c 3c ce fe 3b
       0.059769213 0.0072260513 0.0098290015 0.00777605
0001d0 cc 1f 86 3c b4 d1 2e b9 cf 0c d8 3c de e1 f7 3d
       0.016372584 -0.00016672054 0.026373295 0.121036276
0001e0 c1 f8 ca bc 6d eb 04 be 10 95 2a 3d 41 7f c2 bc
       -0.024776818 -0.12980433 0.041646063 -0.02374232
0001f0 93 52 2f 3e b2 5a 99 bc 91 93 d3 3c 26 80 ae 3d
       0.17121343 -0.018720005 0.025827201 0.08520536
000200 27 73 5c bd 53 0a 84 3a 80 44 e8 3a 95 08 b6 3c
       -0.053820755 0.0010073878 0.001772061 0.02222089
000210 30 87 56 3d 00 7b e7 3c dc 77 e4 3d 33 7a b7 3c
       0.05237502 0.028256893 0.11155674 0.022397136
000220 a0 7d 5e 3d a3 fb 4c 3c fd 24 0b bd 8e a6 e0 3d
       0.054319024 0.012511167 -0.03397082 0.10969268
000230 31 a8 34 3c 49 cd 31 3d b8 fc ca 3c 53 e2 82 bc
       0.011026428 0.043408666 0.024778709 -0.01597706
000240 c0 f2 65 3d 4b 25 f8 3c c4 7d f3 bb 49 85 08 bf
       0.056139708 0.03029122 -0.007430764 -0.53328377
000250 90 c3 c0 3c 0d 52 26 3c 2e 3e 59 3d 29 90 93 3b
       0.023530751 0.010151398 0.053037815 0.004503269
000260 a8 5f 07 bd cd a9 30 bb 48 24 2e bc 90 f1 52 ba
       -0.03305021 -0.0026956678 -0.010628767 -0.000804686
000270 47 3d e6 3a f3 c3 cd 3d 58 cb bf bb 13 38 d4 bb
       0.001756587 0.1004714 -0.005853098 -0.006476411
000280 3f 9a c3 bc 97 59 97 3d 38 ec e0 3c 6b 80 1b 3c
       -0.023877261 0.07390135 0.027456388 0.009491066
000290 15 35 05 bd c0 af fe bc 93 30 c3 3c ee 6a 15 3d
       -0.032521326 -0.031089664 0.023826873 0.03647893
0002a0 b2 8b e5 bb e5 69 e4 3d df c7 91 3d 79 39 a2 3d
       -0.0070051784 0.1115301 0.071182005 0.07921118
0002b0 80 ce 1b bb ff 14 b0 bd 8a c9 44 3b 4d fb 6c bd
       -0.0023774207 -0.08597755 0.0030027353 -0.057856847
0002c0 d4 2c 7f bd 45 59 31 bd 65 99 5d 3c 87 37 04 bd
       -0.06229861 -0.043298025 0.013525342 -0.032279518
0002d0 9b fb 3f bc 61 cc bd 3d 7b 87 f6 bc d8 f6 66 bb
       -0.011717702 0.09267498 -0.030093899 -0.0035242345
0002e0 10 df 16 bd 1a 4c 02 be 8f b0 c2 b7 c4 b3 06 3d
       -0.036833823 -0.12724343 -2.3208819e-05 0.03288628
0002f0 f2 4a 2c 3a fc 7a 23 bd 8e f0 0b bd 35 a5 7b 3b
       0.0006572447 -0.03991221 -0.034164958 0.0038398032
000300 77 5b c7 bb 54 ac 4c 3a 1a 2b ee bc ee 9b 20 3d
       -0.0060839015 0.00078076613 -0.029073287 0.039211206
000310 9d f2 8a 3d 9e 49 87 3d e2 92 aa be 68 97 16 3e
       0.06784556 0.06605838 -0.33315188 0.14706194
000320 70 a9 61 bd 02 9d c2 3c b0 39 a4 3c 98 45 20 bd
       -0.05509323 0.023756508 0.020047039 -0.03912887
000330 9b cf 2a 3e 84 29 0a bf b1 49 d6 3d bc 9d 10 3d
       0.16680758 -0.539696 0.10463274 0.035306677
000340 bc 5a 00 bc 47 dd a4 bc a9 a7 f5 bd d6 75 17 bc
       -0.007834133 -0.020125045 -0.11994869 -0.009244403
000350 60 1c 0f 3c f1 ac 99 3d 60 06 7a bc 2f 0b 5f 3d
       0.0087347925 0.07503689 -0.015260309 0.054454025
000360 94 df 69 3c b0 3c 2e bd a1 6e 5f be 86 73 1f bd
       0.014274497 -0.042538345 -0.21819545 -0.03892853
000370 27 75 25 bd 03 51 ab 3c ee 7f 03 3e 08 3d 8a 3b
       -0.04039493 0.020912653 0.1284177 0.0042187013
000380 d3 5b 06 bd 11 d3 3e 3d d5 0b f9 3b 8c d7 d0 3c
       -0.032802414 0.046588007 0.0076002874 0.025493406
000390 9c e4 19 bf 66 53 0d 3f bb 2a 09 3b 15 c1 ae bc
       -0.60114455 0.5520538 0.002093001 -0.021332303
0003a0 89 2e 59 bd b0 2f 90 bb 4b 9f 0c 3d d9 97 68 3d
       -0.053022895 -0.004400216 0.0343316 0.05678544
0003b0 90 64 b5 3b ad 06 66 bb 89 40 d7 3a 86 03 23 bc
       0.0055356696 -0.0035099194 0.0016422431 -0.0099495705
0003c0 f0 94 9f 3d 1e ab c6 3d 91 58 1a 3c a3 17 2f 3c
       0.077920794 0.09700607 0.00942053 0.010686788
0003d0 d0 f5 46 bd d8 89 10 3a fb 0e 6f 3c fa 04 14 bd
       -0.04857427 0.00055137044 0.014590974 -0.03613756
0003e0 cb 3b 8a be 1b 15 20 3e fa 25 73 3d 61 c2 f1 bb
       -0.26998743 0.15633051 0.05936239 -0.007377908
0003f0 3a a6 a3 bc 41 60 dc 3e 83 76 80 3e 63 62 da 3d
       -0.019976724 0.43042186 0.25090417 0.10663297
