data/Apr-13_05-51-52/models/critic_200.pth (torch, 274455 bytes, 5 tensors)

linear_layer.0.weight f4 [256, 7]
000000 49 fa 9f be 1e 7e 9b 3e 4a 3a a9 be 1a bd 50 be
       -0.3124564 0.30369657 -0.33052284 -0.20384637
000010 5a 46 52 be ee c5 a8 be 89 94 82 be 9d a3 70 be
       -0.2053465 -0.32963508 -0.25503948 -0.23499914
000020 5b e4 2e be 2b a7 7b 3d 9f 70 18 3e 0b 13 51 3e
       -0.17079298 0.06143872 0.14886712 0.2041742
000030 81 00 c6 3d b1 6f 1f 3e da 0f 2c bd e9 6b 81 3e
       0.09668065 0.1556995 -0.042007305 0.2527764
000040 14 29 1d 3e 86 1f 56 bd d3 f8 91 be f7 65 6d 3e
       0.15347701 -0.052276157 -0.2851015 0.23183428
000050 32 24 8d 3e 33 05 1e be 9a 99 71 3d 3b f1 81 3e
       0.27566677 -0.15431671 0.058984376 0.25379357
000060 4e 2f 74 3e 2a 1b 4e be 86 b1 18 3e a6 96 2b be
       0.2384617 -0.2012755 0.1491147 -0.16756687
000070 e5 1b b7 be f3 70 47 3e c3 28 b2 3e 78 b9 9c 3e
       -0.3576347 0.1947668 0.34796724 0.3061025
000080 e7 16 96 3d 42 3d a8 3e 58 62 f1 3d 06 3f 8f be
       0.07328587 0.32859236 0.11786336 -0.2797777
000090 08 8d b0 be 6d d7 b0 bd b7 a0 07 be f2 8e b3 be
       -0.34482598 -0.08634839 -0.13244902 -0.35069996
0000a0 b9 ce 57 be 09 52 b2 be 1b 0c 69 bc 5e 89 80 3e
       -0.21074952 -0.34828213 -0.014224078 0.25104803
0000b0 b1 c2 d3 be 5f c0 ac be 6d 3e 83 3e 9f 4d d3 bd
       -0.41359475 -0.33740517 0.25633565 -0.103175394
0000c0 8c d7 06 3e 96 5e b4 3e aa a3 ac 3d e7 6a d4 be
       0.13168162 0.35228413 0.08429654 -0.4148781
0000d0 80 52 31 be 38 6b 93 bd 98 8f a4 3e 22 e5 a3 bd
       -0.17316628 -0.07198185 0.32140803 -0.08002688
0000e0 ed 1e 9d be 2b 34 f6 bd 0c be 9e 3e 87 f9 fb bd
       -0.30687657 -0.12021669 0.3100437 -0.12303453
0000f0 3b e3 27 3e e2 3b e1 3d 28 0d ae bc b2 0a 9d 3e
       0.16395275 0.1099775 -0.021246508 0.30672222
000100 85 ed b4 bd 57 70 88 be 02 30 7a be ec 22 21 be
       -0.08834366 -0.26648208 -0.24432376 -0.15735978
000110 73 62 b4 be c4 01 2e 3e 43 05 5e 3e 26 f4 6b 3d
       -0.3523136 0.16992861 0.21681695 0.057605885
000120 66 6e 88 be a5 e5 10 bd 34 4b 4e bf 14 a8 ab 3d
       -0.26646727 -0.035375256 -0.805835 0.08381668
000130 97 a6 90 3e e4 4a 0d 3e 7b b2 32 be be 30 a1 bc
       0.28252098 0.137981 -0.17450897 -0.019676562
000140 cb 2a b1 bd 2a 1a 87 3e 2a 7a 3e 3e d4 b9 d7 3d
       -0.0865074 0.2638715 0.1860129 0.10533491
000150 a9 12 9f 3d 6b 02 96 be 47 5c be be cd b0 ad 3e
       0.07767231 -0.2929872 -0.37179777 0.3392395
000160 97 52 6b be 9c c1 96 bd 3b 6f 0a be ee dc a0 be
       -0.22980724 -0.07361147 -0.13518994 -0.31418556
000170 02 0a 95 be 68 0d d8 3d ee 6d 57 3c c4 36 0f be
       -0.29109198 0.10549432 0.013148768 -0.13985735
000180 13 58 b0 39 9c 26 91 be 2a 47 34 3d e7 67 8f be
       0.00033634956 -0.2834977 0.04401318 -0.2800896
000190 34 fa af be c7 d4 87 3d ce fb 2b 3d 33 d9 5a 3e
       -0.34370577 0.06632381 0.041988187 0.21371917
0001a0 f2 06 b9 3e 30 19 70 be d2 d5 92 be 3e 72 28 3e
       0.3613811 -0.23447108 -0.28678757 0.1644983
0001b0 a5 cb 8f 3e b0 38 76 be 71 e9 da 3c 65 66 0d 3e
       0.28085056 -0.24045062 0.026722642 0.13808592
0001c0 fd d4 b8 be ac 72 0e bd bc ef cb bd aa ef 33 bc
       -0.36099997 -0.03477733 -0.09957835 -0.010982433
0001d0 d2 8d 53 3d f4 95 88 be 55 56 64 be 0b f9 50 be
       0.051648922 -0.26676905 -0.22298558 -0.20407502
0001e0 c8 6c 44 be 23 11 2c be 9e 45 89 3e 41 55 5c 3e
       -0.19182122 -0.16803412 0.26810926 0.21516897
0001f0 96 f5 7f be 92 34 12 3e 0f e6 1f bd 52 cb c2 3d
       -0.24996027 0.14277866 -0.03903776 0.095114365
000200 44 bb 5b be b5 6f 4a 3e 36 33 64 be de 64 f3 3d
       -0.21458155 0.19769175 -0.2228516 0.11884473
000210 84 53 94 3e 36 26 e8 bd 21 e5 b5 be 23 e1 32 3d
       0.28969967 -0.11335413 -0.35526374 0.04367174
000220 73 59 76 be ae 47 8e 3b 11 05 42 3e d8 ba 61 3e
       -0.2405756 0.004342041 0.18947245 0.22043931
000230 88 1a f8 be d1 53 48 3e 91 ac 3f be da 72 a8 3e
       -0.48457742 0.19563223 -0.18718173 0.32900125
000240 c7 d5 3a 3f 90 6f 7e 3e 99 b5 56 be 6a 13 a9 3c
       0.7298245 0.24847245 -0.20967712 0.02063914
000250 e3 dd 83 3e e6 ce b9 be 48 b6 aa 3e 89 41 40 bd
       0.25755224 -0.36290663 0.33342195 -0.0469375
000260 84 e0 b7 be b4 3f 4e 3e 37 b7 8b 3e a7 ad ab bd
       -0.3591348 0.20141488 0.2728822 -0.08382731
000270 2d 1f 7e be 33 f8 4a 3e be d7 5a bf d0 19 65 be
       -0.2481658 0.19821243 -0.85485446 -0.22373128
000280 f2 81 20 3e 24 5e 3d be 19 d8 6e 3e c5 93 0c be
       0.1567457 -0.18492943 0.23324622 -0.13728245
000290 83 8f 3b 3c 1f c6 34 3f f9 ac c9 3c bf 45 db be
       0.01144779 0.7061481 0.024618613 -0.4282665
0002a0 aa 89 fe 3d b6 56 8e be e1 4e 7d be c9 52 56 3d
       0.12428601 -0.2780053 -0.24737121 0.052325044
0002b0 f9 8e 80 3c 8c 82 99 bd 26 6f bd 3e 7c 24 d9 be
       0.015693175 -0.07495603 0.36998862 -0.42410648
0002c0 10 6f 98 3d b7 f5 5d 3e 8e 98 8e bd 9b 46 ac 3e
       0.074430585 0.21675764 -0.06962691 0.33647618
0002d0 28 ef 9f 3c 6d 4b 47 be ac 56 80 be 46 ad 11 be
       0.019523218 -0.19462366 -0.25066125 -0.14226255
0002e0 7c 2c 97 3e a2 7c 25 3c 81 1a 59 3e 0d ed 8c 3e
       0.29526126 0.010100516 0.21201517 0.27524605
0002f0 e6 64 d0 bc 50 73 10 3e 83 5b ba be a5 62 a1 be
       -0.025438737 0.14106488 -0.36397943 -0.31520572
000300 38 45 7b be 66 97 4f be 4c 3d 89 be a8 14 0f be
       -0.24538124 -0.20272598 -0.26804578 -0.13972723
000310 3f 6a f4 bd 3e 98 a5 3e b1 1d 3d 3e df 4e 2f 3e
       -0.11934327 0.32342714 0.18468358 0.1711993
000320 08 dd f0 bd 1d 80 1b 3e 0b 2f 0c be 6b ac 2f be
       -0.11760908 0.1518559 -0.1368982 -0.17155616
000330 12 38 a0 3e bd 70 2e be d2 97 cc be a8 d9 d2 3e
       0.31292778 -0.17035194 -0.3995958 0.41181684
000340 7d f5 a3 3d a3 de b1 bd 82 be fc 3d 8c a1 8b 3e
       0.080058075 -0.08685043 0.12341024 0.27271688
000350 3d 4b f9 be a4 e2 0f bd 81 a4 8c 3e 45 1d 3a be
       -0.48690215 -0.03512825 0.27469257 -0.18175228
000360 ac 23 3d 3e e5 e1 0f be 01 21 88 3d d9 47 c4 3e
       0.18470639 -0.14051016 0.0664692 0.38336065
000370 bf c3 5e be f1 53 ac be 97 20 b4 be 7c bd ba bc
       -0.21754359 -0.33657792 -0.35181114 -0.022795431
000380 40 e9 12 3e 51 b4 cf bd 06 04 21 be d5 55 26 3e
       0.1434679 -0.101418145 -0.15724191 0.1624368
000390 8d 06 29 bf f0 1a 80 3e e8 d1 95 3e cf 75 37 3d
       -0.6602562 0.25020552 0.29261708 0.044790085
0003a0 0b 33 1a 3e d6 0c 1e 3e fd ba f6 be 29 48 84 3e
       0.15058534 0.15434584 -0.48189536 0.25836304
0003b0 52 ed c1 be f9 1a 8e 3d 4f 77 9a be ca 67 7d bd
       -0.37876374 0.069387384 -0.3016915 -0.06186656
0003c0 bb 7a 22 3e b6 cd b7 be 9a e8 43 be c9 72 6e 3e
       0.1586713 -0.35899132 -0.19131699 0.23285975
0003d0 4f fa a0 be 60 26 de bd b5 77 c6 bd 6b f9 2e be
       -0.3144097 -0.10847163 -0.09690801 -0.17087333
0003e0 ed ac 0d 3e 89 1e fc 3c 3e 96 47 3e b8 cd ad bd
       0.13835497 0.030776279 0.19490907 -0.08486503
0003f0 6d 90 a8 bd a6 06 f6 3d f1 69 4a 3d 4e 47 11 3e
       -0.08230672 0.12012987 0.04941744 0.14187357

linear_layer.0.bias f4 [256]
000000 f0 bd 2e 3e 1a 94 cf be 6a 10 c9 3d 4a 23 94 3e
       0.17064643 -0.4054268 0.09817584 0.28933173
000010 99 11 3b bd fc 17 96 bd 28 91 8c be a8 03 17 3e
       -0.04567108 -0.073287934 -0.27454495 0.14747488
000020 35 06 13 be 3c 17 d1 3d a4 08 8b 3e d1 66 93 3e
       -0.14357837 0.1020951 0.2715503 0.2878938
000030 0b 50 8f be df 05 3c be 95 99 cf 3d 62 76 40 3d
       -0.27990755 -0.18361615 0.10136715 0.0469879
000040 5c 61 91 bd 18 1c 03 bd e2 63 9d be 6c 41 a7 bc
       -0.07098648 -0.032009214 -0.30740267 -0.020416938
000050 d3 6d 24 be 4a ca 3f 3e fb be 1e 3e c3 bf 18 be
       -0.1605752 0.18729511 0.15502541 -0.14916901
000060 0f ac 9b be 6e 62 95 3e 07 80 fa bd d3 1a 4c 3e
       -0.30404708 0.29176658 -0.122314505 0.19932108
000070 78 66 ad 3d a1 8e 6b be 72 56 d9 bd db 41 d5 3e
       0.0846681 -0.23003627 -0.10612191 0.41651806
000080 b7 ef b3 3e e7 c7 6b 3e bc e9 4c 3d 4a 8e 27 3d
       0.35143825 0.23025475 0.050027594 0.04090718
000090 4f 1c 5d 3e a1 c3 7c 3e 02 a5 7c 3e c5 e6 a7 be
       0.2159283 0.24684002 0.2467232 -0.3279325
0000a0 98 97 c7 be a3 c9 4c bd 3b 79 28 be e7 17 8c bd
       -0.38982844 -0.049996983 -0.16452496 -0.068404965
0000b0 36 ee 21 3e 38 bd 79 be 96 8c 54 3e 96 62 a7 3d
       0.15813527 -0.24388587 0.20756754 0.08173101
0000c0 17 75 b0 3e a8 ff b5 be 4f 14 c0 bd 49 f7 fe bd
       0.34464332 -0.35546613 -0.093788736 -0.1244951
0000d0 40 ae 0e 3d 77 33 0c 3e 1c 43 80 3e 69 df c5 bd
       0.034834146 0.13691507 0.250512 -0.09661753
0000e0 4a bb 8f be 3f f7 8f bd 22 7e 64 3d 0c b0 b9 3d
       -0.28072578 -0.0702958 0.055784352 0.090667814
0000f0 be 0c 87 3e 97 4f 2b 3e 45 53 a2 bc f3 4f 93 be
       0.2637691 0.1672958 -0.019815097 -0.28771934
000100 0d 1d 47 be da 03 6f be 8e 60 79 3d 4f 73 b2 3c
       -0.19444676 -0.23341313 0.060883097 0.021783499
000110 da c7 b8 3e 67 ab c5 be 61 e2 a5 be d1 0e 5d bd
       0.36089975 -0.38607332 -0.32399276 -0.05396921
000120 46 62 93 bd db 6b 97 3e da 80 68 be 77 11 21 bc
       -0.071964785 0.29574475 -0.22705403 -0.009830824
000130 5d b7 a9 3d 04 ac 70 be 44 10 de bd 23 c3 8c bd
       0.08286927 -0.23503119 -0.10842946 -0.06873157
000140 73 d5 42 be 30 d0 3b 3e 05 5c e7 be cc 2b 9c bc
       -0.19026737 0.18341136 -0.45187393 -0.019063853
000150 28 32 a4 bd 3a 4c 81 be bd 36 69 3e 89 df 29 be
       -0.08017379 -0.2525347 0.22774787 -0.16589178
000160 f6 65 7e 3e 46 d2 89 3d c5 40 a7 bd 99 5a 09 be
       0.24843583 0.067295596 -0.08166651 -0.13413467
000170 ea c0 e1 3d 0b 62 9d be 0b 3a a8 be d3 4a 1d 3e
       0.110231236 -0.30738863 -0.32856783 0.15360574
000180 74 dd b9 bd ae 40 9a be 85 8d 83 be 52 82 99 3d
       -0.09075442 -0.30127472 -0.25693908 0.0749556
000190 36 7d b2 3d 1f 45 e3 3d 7e e9 e5 be c9 29 c7 be
       0.08715288 0.11097168 -0.44904703 -0.38899067
0001a0 f3 c2 ed bd 20 e0 bb be 5c f0 37 3e a0 be 8a be
       -0.11609449 -0.3669443 0.17962784 -0.2709856
0001b0 1a aa 82 bd d1 d8 bd 3e b2 5d 10 be 77 2f 05 3e
       -0.063801005 0.3707948 -0.14098242 0.13006388
0001c0 ba e9 24 be fb 4f 00 be 0b 23 c1 3e ef fe 57 3e
       -0.16104785 -0.1253051 0.37722048 0.21093343
0001d0 85 76 7f 3e 2d a2 ee 3d f4 6d 45 3e af d1 ac be
       0.24947555 0.11652026 0.19280225 -0.33753726
0001e0 d7 e2 85 be d7 41 44 be 95 b5 87 be 5f 90 e4 3d
       -0.26149628 -0.19165741 -0.26505724 0.11160349
0001f0 92 af bf 3e f9 51 9b be 3c ca 85 3e 0a a2 a1 be
       0.37438637 -0.30335978 0.26130855 -0.31568938
000200 48 34 c7 be 21 a5 55 3e 3c 74 b4 bd 32 aa fd be
       -0.38907075 0.20863773 -0.088112324 -0.4954391
000210 3c a0 66 be 55 69 38 be 9a 9e 45 3e a6 04 ab be
       -0.22522062 -0.18008931 0.19298783 -0.33401984
000220 00 4d c6 be d2 85 3c 3e f2 18 75 be d4 e3 91 bd
       -0.3873062 0.18410423 -0.23935297 -0.07123533
000230 4e 65 cd be f2 7b 60 be 3a ae 92 be f6 50 de be
       -0.40116352 -0.21922281 -0.2864855 -0.43421143
000240 17 b4 65 bd f0 b1 b8 3e cd c1 a3 3e 8f a6 70 be
       -0.05607995 0.36073256 0.31983796 -0.23501037
000250 7b 73 d0 3d b6 99 8c bd 89 75 84 be 3f 9a 0b be
       0.10178276 -0.068652555 -0.25870922 -0.13633059
000260 7c b0 85 bd 1d ff 91 be 18 c5 88 be 57 a7 5c be
       -0.06527802 -0.28514948 -0.2671287 -0.2154821
000270 39 81 2f be 0f 93 4c be c5 8f 4c 3e c4 74 0e 3e
       -0.17139138 -0.19977973 0.19976719 0.1391173
000280 0d 0a 5b 3d 67 25 95 be 7d 4f 57 3e f7 05 3f 3e
       0.053476382 -0.29130098 0.21026416 0.18654619
000290 10 0d 13 3e 87 31 b6 3d 62 dc b8 be d4 d4 4f be
       0.14360452 0.08896165 -0.3610564 -0.20296031
0002a0 88 ad 5e be 75 07 91 be 3f f3 8d 3e cb ec 7b 3e
       -0.21745884 -0.28326002 0.27724645 0.24602048
0002b0 40 a3 9e 3e 45 af 8a 3e 26 a6 89 bd c8 9e cb bd
       0.30983925 0.27086845 -0.067211434 -0.099423945
0002c0 65 24 a9 be f2 e6 da 3d 89 2d 78 3e 5a 11 f4 bd
       -0.3303558 0.106885806 0.2423612 -0.11917372
0002d0 1f 3e bc 3e 0f 7f 78 3d ae f9 55 bd 0a e4 9f 3e
       0.36766145 0.060668048 -0.052240066 0.31228667
0002e0 2f 21 ae be 94 e0 8e bd 6b 8d e7 bd e7 05 2a bc
       -0.34009692 -0.06976429 -0.1130627 -0.010377384
0002f0 90 96 93 3e e5 fe 8b 3e 90 43 71 3e 4d 8e bf be
       0.28825808 0.27342907 0.2356093 -0.37413254
000300 d9 ef a8 be 3d 8f ce 3c be e5 1b be 72 73 71 3e
       -0.3299549 0.025214786 -0.15224358 0.23579195
000310 a0 21 79 be 9e 6c 28 3e 3a eb c0 be d5 e6 69 3d
       -0.24329233 0.16447684 -0.37679464 0.057104904
000320 b8 64 31 3e dc 66 9b be 89 18 98 be 70 93 8a bd
       0.17323577 -0.30351913 -0.2970622 -0.06766403
000330 f3 e6 eb bd 81 b4 f2 3e 31 f1 09 3d 99 a1 57 be
       -0.115186594 0.4740334 0.033677284 -0.21057738
000340 31 00 ad be 61 61 87 be 72 78 1c 3e cf 73 97 3e
       -0.3378921 -0.26441482 0.15280321 0.29580542
000350 1a 07 85 be b7 27 b9 3e 79 a2 32 bc e7 22 c3 3c
       -0.2598198 0.36163113 -0.010902994 0.023820354
000360 23 87 67 3e 4f 23 83 be c1 9e f9 be 60 25 ae be
       0.22610144 -0.25612876 -0.48753932 -0.3401289
000370 29 85 26 3d 14 a1 07 3e d1 5e e2 bd 55 f2 7b be
       0.040654335 0.1324504 -0.11053241 -0.24604161
000380 05 1b a8 be e8 97 5c be aa 93 82 bd a6 b7 a1 3e
       -0.32833114 -0.21542323 -0.06375821 0.31585425
000390 77 29 76 3d 3c da 16 bd 4b 96 d8 bd 8d 61 e7 bc
       0.060098138 -0.03682922 -0.10575541 -0.028244758
0003a0 31 d4 a9 3e 54 17 15 3e 8f 65 78 be 99 4c 5f 3e
       0.33169702 0.1455968 -0.24257492 0.21806563
0003b0 8e d6 60 3d 7b 24 f7 bd 5b 89 c0 3d 0e 7c e5 be
       0.054892115 -0.12067505 0.094011985 -0.4482121
0003c0 32 b0 a6 3c c2 22 86 3e 18 ee af be 23 f1 8d 3e
       0.020347688 0.26198393 -0.3436134 0.27723035
0003d0 dc c9 bd bd c1 b8 c5 3b 01 50 d6 bd 1e ba f8 be
       -0.09267017 0.0060339873 -0.10464478 -0.48579496
0003e0 52 70 1e be 9e 69 24 3e 49 56 91 3e 36 4f c4 bd
       -0.15472534 0.16055915 0.28386143 -0.09585421
0003f0 5e c5 5b 3e d1 52 a0 3e b6 3e d4 be f9 a3 be 3e
       0.21462008 0.31313184 -0.41454095 0.37234476

linear_layer.2.weight f4 [256, 256]
000000 cc a4 02 3d eb 06 bf 3c b5 b5 a0 3d 88 c8 48 3d
       0.031895444 0.023318728 0.07847158 0.049019367
000010 66 26 bd 3d fe c9 29 bd bd d9 0e bd 3f 02 20 bd
       0.092358395 -0.0414524 -0.03487562 -0.039064642
000020 67 c6 da bd 50 37 34 bd a0 17 aa 3d 02 25 30 3d
       -0.106823735 -0.043998063 0.08305287 0.043004043
000030 d8 0a e3 3c ac 00 41 3d 80 33 81 bb 26 4f 85 3a
       0.027715132 0.04711978 -0.003942907 0.0010170683
000040 c0 66 02 3c d0 ef ee 3c 3d 7a b6 bc 64 50 ca 3c
       0.007959068 0.029167086 -0.022275085 0.024696536
000050 62 86 5c 3d ee 99 4b bc 7c f5 63 be 3d 3f bc bd
       0.053839095 -0.012426836 -0.22261614 -0.09191749
000060 4a 49 12 bd 6b 00 0f 3d 1c 9a 0c 3e 46 bb 47 bd
       -0.035714425 0.034912508 0.13730663 -0.048762582
000070 cb 7c d1 3d 9f d9 38 bc c3 34 94 be 04 07 b7 3d
       0.102288805 -0.011282354 -0.28946504 0.08936885
000080 7c 64 50 3d 4f 48 f9 3d a4 06 82 3c 4c 01 bf bc
       0.05087708 0.12171995 0.015872307 -0.023316048
000090 3b ab d5 3d 80 25 dd 3c 78 df 62 bc 2d 44 1b 3d
       0.1043305 0.02699542 -0.013847224 0.037906814
0000a0 22 c7 3a 3d b0 4d e5 3d f8 06 74 bc d5 55 68 3d
       0.045600064 0.11196458 -0.01489424 0.05672248
0000b0 98 1e 51 bc fb 3e 9a 3d 10 1d 07 be a3 c5 30 3d
       -0.012763642 0.07531544 -0.1319468 0.04315723
0000c0 48 85 29 bc 4d da a3 bd 2d 4e 9a bd 54 21 a9 3d
       -0.010346718 -0.08000622 -0.07534442 0.0825831
0000d0 10 9d c8 3b 61 dc 06 3e 48 82 0a bd 40 5a f7 bb
       0.006122239 0.13170005 -0.033815652 -0.0075486004
0000e0 f4 e9 6d bd 7c ef a1 3c 34 92 0d 3d e8 c8 7d 3c
       -0.058084443 0.019767515 0.03456326 0.015489794
0000f0 2c be 74 3d 3b 99 30 bd a8 0f 8f be 20 02 6c bc
       0.059751675 -0.043114882 -0.27941632 -0.0144048035
000100 60 3e 9c 3d cb 64 ed bb a8 62 8d bd 3f 80 99 3d
       0.076290846 -0.0072446815 -0.06903583 0.07495164
000110 c8 43 ec 3d 86 a2 e2 b8 e0 57 0c bc e6 62 27 bd
       0.11536366 -0.00010806792 -0.008565873 -0.0408658
000120 75 cb 56 3d 44 15 53 3d 49 cc df 3c e4 69 72 bd
       0.052440125 0.051533952 0.02731909 -0.059183016
000130 17 b9 11 3e 83 c9 47 3c 0d 28 12 3d 5c 1b ae be
       0.14230762 0.01219404 0.035682727 -0.3400525
000140 64 f6 11 be cc 35 70 bd c1 cd 80 3d c0 23 13 bd
       -0.14254147 -0.058645055 0.062892444 -0.035922766
000150 a7 50 d5 3b 3f 05 50 be 49 3d 36 3e 82 43 82 be
       0.0065098586 -0.20314501 0.17796816 -0.2544213
000160 96 83 8d 3d 78 07 39 3c 5c d3 28 3d 82 a0 cc 3c
       0.06909864 0.011293285 0.041217193 0.02497888
000170 eb 8c e7 3c 92 bd 26 bc 2b 40 8d bc 87 90 da bd
       0.028265437 -0.010177033 -0.017242512 -0.10672098
000180 3f 46 86 bd cf 89 05 bd ec 57 9c 3c 5c 34 64 bd
       -0.06556367 -0.032602128 0.019084893 -0.055713996
000190 44 c2 b9 bc 39 66 5f bd c4 14 44 bd d4 64 76 bc
       -0.02267564 -0.054540846 -0.047871366 -0.015038688
0001a0 1c cc c4 bc 40 62 bc 3b b6 3f 66 bd a0 d9 56 3b
       -0.024023108 0.005749017 -0.056213103 0.0032783523
0001b0 07 7e 9f 3c c7 98 5d bd 2b 3d 0f bd dc 0d a2 3c
       0.019469274 -0.054100778 -0.034970444 0.019782
0001c0 1a f0 36 3e d7 b7 bb 3d ee 51 52 bd b3 56 16 bf
       0.17865029 0.09165924 -0.051347665 -0.5872604
0001d0 30 6e 7e bd 0b 8f d9 3d 31 e7 c3 bc 6d 7c eb bc
       -0.0621168 0.106229864 -0.023913952 -0.028745854
0001e0 64 ea e4 3b 86 7e c4 3c b4 22 a6 3d 72 74 63 bd
       0.0069859494 0.023986112 0.08112088 -0.055530973
0001f0 0e 26 44 bd 91 d9 67 be 3b c0 ce 3d 4a 99 15 3d
       -0.047887854 -0.22641589 0.10095259 0.03652314
000200 72 40 06 bd e4 cd 23 3e 92 d9 35 3d 1d dc 8b bd
       -0.032776304 0.1599651 0.044396944 -0.06829093
000210 94 b0 43 3d 8e 77 8f 3d 56 4c 10 bd cf bd 90 3d
       0.04777582 0.07005225 -0.03522905 0.07067453
000220 a2 a7 28 bd 2a 25 3a 3d 1e 5a dd 3c 0e ca 86 3c
       -0.041175492 0.0454456 0.02702051 0.016453769
000230 f2 e7 89 bd 09 1e 67 be f5 2a 68 bd ec ef 1d bd
       -0.06733693 -0.22570051 -0.056681592 -0.038558885
000240 9e 22 68 bd d0 ef 07 bc 34 cd 22 bd d9 4f c5 be
       -0.05667364 -0.008296922 -0.03974648 -0.3853748
000250 e8 59 26 3d e4 3c 80 bc 2d c8 6c bb c3 3a ae bc
       0.040613085 -0.015654035 -0.0036130056 -0.021268254
000260 71 a0 0a 3d 6c ea 84 3c 07 ba 1d bc 46 03 86 3d
       0.033844415 0.016225062 -0.009626872 0.06543593
000270 3d a2 ce 3d d6 76 21 be 02 76 18 bd 76 51 79 3d
       0.10089538 -0.15767989 -0.037221916 0.060868703
000280 58 12 74 3c 00 2e c5 ba 39 80 8f 3b f8 c0 89 bd
       0.014896952 -0.0015043616 0.004379299 -0.06726259
000290 e7 8a 63 bc 8e cb 91 3d 7d 27 85 be f6 d5 49 3d
       -0.013888097 0.07118903 -0.2600669 0.049276315
0002a0 71 12 91 3d dc 5d b6 3d 9e c3 1b bd de 70 59 3d
       0.070835955 0.08904621 -0.038028352 0.053086154
0002b0 a0 c0 d2 bb aa 07 0d bd 57 49 9f bd 20 0c b1 3d
       -0.006431654 -0.034431137 -0.0777766 0.08644891
0002c0 7a 69 52 3d 76 62 3b 3d 14 b5 7d 3d 00 c8 4a bd
       0.05137012 0.045748197 0.061940268 -0.04950714
0002d0 b0 7c e9 bb 24 7b 5a bd 2b f7 93 ba 98 f4 e6 3d
       -0.0071254596 -0.053340092 -0.0011288872 0.11277121
0002e0 22 33 d0 bd eb 52 fb bd d4 ee f9 3b 94 f0 c2 3c
       -0.10166003 -0.12271675 0.0076273475 0.023796357
0002f0 87 1f f8 3c 2a 68 49 3d 2c a3 3d 3d 5d 1f 1f bd
       0.03028847 0.049171604 0.04629819 -0.03884827
000300 5d 5c 58 3d de f3 79 bd fe b9 09 3b 4f 74 03 3c
       0.05282246 -0.061023585 0.00210154 0.008023336
000310 39 82 17 be e4 f1 c2 bc 60 d8 dc 3d c4 ba f7 bc
       -0.1479577 -0.023796983 0.10783458 -0.030240424
000320 a7 be f1 bb d4 47 83 3d 04 3c 3f bd fd 66 b5 3d
       -0.007377464 0.064101845 -0.046688095 0.08857534
000330 a6 a7 4f bd ea 1c 61 3d d9 02 9f 3c 1a 8c 60 3d
       -0.05069699 0.054959215 0.019410538 0.05482111
000340 e7 d9 de 3d fa 0b 8d 3d 3e 61 f8 bc a5 06 98 3d
       0.10881405 0.0688705 -0.030319806 0.07423142
000350 24 51 9e 3c 5e 15 ab 3d 7b 47 06 3e 48 b5 16 bd
       0.0193258 0.08353685 0.13113205 -0.036793977
000360 ef fa 86 bb f1 24 12 3e da 2a 62 3c 89 98 7b 3d
       -0.004119269 0.14271905 0.013804162 0.061424766
000370 89 a6 96 bd d3 61 2d 3d 01 b2 29 be d8 62 33 bd
       -0.07355983 0.04232962 -0.1657181 -0.043795437
000380 28 f6 a2 be fb 00 03 bc 92 01 db bd b7 e6 86 bd
       -0.31828427 -0.007995839 -0.10693659 -0.06586974
000390 4c 5a fe bd b0 24 38 bc 0b d6 5d 3d 76 a4 6c 3d
       -0.124195665 -0.011239216 0.054159205 0.05777403
0003a0 90 bb 8e bc f4 97 25 3c 1f 9a a9 bc a8 4a 9b 3d
       -0.017423421 0.010107029 -0.020703373 0.07582599
0003b0 cc a3 0f 3d a3 f6 c8 3d 66 d4 48 bd d2 8b 58 3c
       0.03506832 0.09812667 -0.049030684 0.0132169295
0003c0 9a 99 fc 3d 37 80 0b bd 00 ab 61 bd 15 0b 51 bd
       0.12333985 -0.034057822 -0.05509472 -0.05103596
0003d0 83 56 03 3d 94 77 b4 3d 63 2f 7c bd 79 69 b6 bb
       0.032064926 0.0881187 -0.06156863 -0.0055667725
0003e0 3e 37 b4 3c c1 c3 56 be e8 57 ee 3c 27 a9 4b bc
       0.021998998 -0.20973112 0.029094651 -0.012430466
0003f0 8e 42 b0 3c fb d2 d2 bc 4b d9 9a bd e4 8e 31 3e
       0.02151611 -0.025735369 -0.075609766 0.17339665

linear_layer.2.bias f4 [256]
000000 c6 cf 56 3e 8e 73 df 37 23 1c 02 3d a1 f0 27 3d
       0.20977697 2.6637481e-05 0.031765115 0.041000966
000010 f6 de 63 bd 9e f1 76 3c cb 01 89 bd 0a c6 05 bc
       -0.055632554 0.015072254 -0.06689795 -0.008164892
000020 d8 42 a5 bc 38 97 39 3e 27 bd 48 bd 8e e4 96 3c
       -0.020173475 0.18124092 -0.049008515 0.01841953
000030 75 26 b1 3d 3c df 93 3b 8b 7c bd 3d 90 b3 45 3d
       0.08649913 0.0045126956 0.0925227 0.048266947
000040 54 ba 64 3c 98 71 34 3d 91 92 af 3d 20 19 78 bc
       0.01396044 0.044053644 0.08572877 -0.015142709
000050 38 43 83 bd f9 c1 df bb e2 fe 08 3d 5b 73 27 3d
       -0.06409305 -0.0068285433 0.0334462 0.040881496
000060 63 81 77 bd 93 70 88 bd 77 ee ce bc 40 79 54 3c
       -0.060426127 -0.06662097 -0.025260193 0.012968361
000070 52 52 cf bd 1f 27 13 3d 83 db 33 3c 54 1e 2b 3e
       -0.10123123 0.03592598 0.010977629 0.16710788
000080 eb 32 cb 3c eb 55 19 3d 29 5c a4 3b 1e 0c 5d bd
       0.024804553 0.037435453 0.005015869 -0.053966634
000090 e4 c9 de 3c 28 49 2f 3e 19 62 16 3c 87 88 b5 b8
       0.027195878 0.1711775 0.009178662 -8.656183e-05
0000a0 88 75 bc bd 44 5d 96 bd 28 5e ea bc 74 a0 15 3d
       -0.09202105 -0.07342008 -0.02860935 0.036529973
0000b0 89 dd 09 3b 14 f2 e5 3c 9f 2b a7 3c f8 00 57 3c
       0.0021036586 0.028069533 0.020406542 0.01312279
0000c0 a8 d8 3c bd 61 2e 92 ba f8 c2 87 bd af 62 98 ba
       -0.046105057 -0.0011152738 -0.06628984 -0.001162609
0000d0 6d 4d 9a bd 8d a3 6c bd 83 e4 a8 bd c0 0f 11 bd
       -0.07534299 -0.05777316 -0.0824671 -0.03541541
0000e0 03 f8 d1 bb ca 62 b9 3c b9 fd 4d bd 04 ed a3 bc
       -0.006407739 0.022630114 -0.050290797 -0.020010479
0000f0 02 73 02 bd df 55 9f bc 00 a9 89 bd 44 ac 02 bd
       -0.03184796 -0.019450126 -0.06721687 -0.031902567
000100 cc ff 26 3d ff 06 46 bd ac da 89 3d f6 ad f5 bc
       0.04077129 -0.048346516 0.067311615 -0.029990178
000110 11 5b 04 bc 89 22 85 bd 0f 7a a7 3b 8c 6f a9 bd
       -0.008078353 -0.06500728 0.005110986 -0.08273229
000120 c1 95 18 3d 21 a4 82 bd 33 e2 74 bd d9 47 25 bc
       0.03725219 -0.06378961 -0.059786033 -0.010087931
000130 08 48 46 3c 8d 71 67 bd a1 e4 22 bd a5 ec 08 bd
       0.0121021345 -0.056504775 -0.03976882 -0.033428807
000140 db bb 02 bd 44 b7 84 bd f2 a0 d1 bc 5c 96 28 3d
       -0.031917434 -0.06480268 -0.02558944 0.04115902
000150 ab a7 37 3d d8 cd 0d bd ab 2e d6 3c 49 78 b3 3c
       0.044837635 -0.034620136 0.0261453 0.021907942
000160 89 31 55 be 98 f9 8b bd 9a b4 12 3d 48 f5 7b bd
       -0.20819677 -0.068347156 0.035816766 -0.061513215
000170 5c 4c 0a 3d 84 b5 dc 3c be 4d a8 bc 1c 84 0d 3d
       0.03376423 0.026942022 -0.020544883 0.034549817
000180 85 fc 10 3d 0e 6a 3c bd 1a 14 2a 3d 8a 9e 1c bd
       0.03539707 -0.04599958 0.041523077 -0.038237132
000190 68 64 4f bd df cf 35 3d 45 8e 19 3c ac fe 15 be
       -0.050632864 0.044387694 0.009372299 -0.14647931
0001a0 7b 81 61 bd c8 0d 58 3c 2b 83 01 3e 2f 10 79 bd
       -0.055055123 0.013186879 0.12647693 -0.06080645
0001b0 f6 1e b2 bc 6f a9 22 3e d7 5e 3e bd f1 3a 8b bd
       -0.021743279 0.15884946 -0.046477165 -0.067983516
0001c0 f2 de 60 bd bd 5a 2a bd 5d 99 6d 3d 6c ad 91 bd
       -0.054900117 -0.04159044 0.058007587 -0.07113156
0001d0 37 f2 49 3d b0 1e 9a 3c 3a 51 81 bc e5 35 44 3e
       0.04930326 0.018813461 -0.015785802 0.19161184
0001e0 19 e3 71 bd 53 33 f4 bb 08 d4 59 bc ab ff a4 bd
       -0.059054468 -0.0074524074 -0.013295181 -0.08056577
0001f0 8a b9 45 3e 98 20 63 3d ee 8b 81 bb 98 0c 5f 3e
       0.19309059 0.055451006 -0.0039534485 0.21782148
000200 aa f1 d0 3c 40 d2 31 bd c0 3b 8c bb 2f e8 2e 3b
       0.02550586 -0.0434134 -0.0042795837 0.0026688685
000210 eb 7b 91 bc da 54 71 bd 08 b7 a1 3c 6e d7 3a bd
       -0.017759284 -0.05891881 0.019740596 -0.045615606
000220 c0 43 3a 3c d9 1a 36 bc 49 66 80 bd 85 65 ec 3d
       0.011368692 -0.011114799 -0.06269509 0.11542801
000230 e0 99 36 3d 6d fb 55 3d a3 df f6 3c 21 36 9f bd
       0.04458034 0.05224173 0.030135935 -0.07773996
000240 44 af 20 3e 7d 98 81 3c c4 1a fb 3c 48 34 c1 bd
       0.15691859 0.015819782 0.030652411 -0.094338
000250 92 10 23 bc de 3e 3f 3c 1b 3d 88 bc a1 c8 03 3c
       -0.009952681 0.011672704 -0.0166307 0.008043439
000260 2c 55 85 bc f8 a9 c5 3c bc 2b 98 3c f8 e9 b6 3c
       -0.016275965 0.024128899 0.018575542 0.022328362
000270 80 9e 7c 3c 82 5f 17 3e a9 3b fa bb 83 85 29 bc
       0.015418649 0.14782527 -0.0076365066 -0.010346773
000280 ba 24 36 3d 89 6c 5a 3e 90 c8 42 bd ca 17 97 bd
       0.04446862 0.21330465 -0.047554553 -0.07377584
000290 1c a7 de bc ac ff 96 3c 44 fd 92 bc b9 5a cc bc
       -0.027179293 0.01843246 -0.017943032 -0.024945604
0002a0 cd 30 7e bd 84 22 25 3e d9 8f 07 3e 47 0e cc 3d
       -0.06205826 0.16126448 0.13238467 0.09963661
0002b0 bd 2f 2b bb e8 57 73 bd ef d9 76 3c 1a 18 f7 bc
       -0.0026120984 -0.059410006 0.015066608 -0.03016286
0002c0 0c 80 fa bc cd 21 55 bd 70 2b 4f bb f0 ee 5c bd
       -0.030578636 -0.052034188 -0.0031611584 -0.053938806
0002d0 fa d7 3b bd b2 2e 0d 3e ee 46 ab bd 86 4f 2e 3c
       -0.04586027 0.13787344 -0.08363138 0.010639077
0002e0 44 45 a6 3b bd 88 05 be c4 ce 56 3d d2 62 ea bc
       0.005074175 -0.13040443 0.05244328 -0.028611574
0002f0 51 ce 0a 3d 14 f0 59 bc 67 85 75 3c 1a 3a f1 3c
       0.033888165 -0.013301868 0.014985419 0.02944665
000300 14 ef 36 3c 5a 92 4b bd 73 ff 5f bd 22 46 6f 3c
       0.011165399 -0.04970012 -0.054686975 0.014604123
000310 8f 01 fc 3d 44 b8 bf 3d d9 a7 2a be 28 4c 85 bd
       0.12304985 0.09361318 -0.16665591 -0.06508666
000320 c7 72 10 bd f1 4b 44 3c 38 45 9c bd ec 41 66 bd
       -0.03526571 0.0119809965 -0.0763039 -0.05621521
000330 18 47 88 3e 72 f3 8c bd 22 d1 ef 3d 9d 5a 5b bd
       0.2661674 -0.06882371 0.11709811 -0.053553212
000340 7b 3a 8d bc a4 1f 04 bb d4 19 ce bc 65 b4 b6 3c
       -0.0172398 -0.002016046 -0.0251588 0.022302816
000350 12 e6 42 bc f5 c1 23 bd e4 32 57 bb 63 67 01 3d
       -0.011895673 -0.039979894 -0.003283673 0.031592738
000360 35 79 85 bd f4 30 7a bd 74 f6 43 bd e3 1c 71 bc
       -0.06517259 -0.06108184 -0.047842458 -0.01471636
000370 12 b9 ee ba 70 1b d7 bc 0c f0 01 3e 08 31 8f bd
       -0.0018213114 -0.0262582 0.12689227 -0.06991774
000380 d6 a8 74 bd 6c 71 87 3c 86 cf 8f bc b5 b0 65 bd
       -0.059731327 0.016533576 -0.01755501 -0.056076724
000390 97 1b 57 bd 4f f7 0a 3e b0 d1 ea 3b 69 f8 8c bd
       -0.052516546 0.13570903 0.00716611 -0.06883318
0003a0 19 34 7e bd c8 cc 9a bc 64 9e bc 3d 7e a1 cf bc
       -0.062061403 -0.018896475 0.09209898 -0.02534556
0003b0 60 52 46 bd e7 71 27 bd 2d 92 06 bb e6 1e 0a 3c
       -0.048418403 -0.04088011 -0.0020533905 0.008430218
0003c0 72 19 0d 3e 39 15 0f 3e 5a ee 26 3d a7 0b eb 3a
       0.13779238 0.1397294 0.040754654 0.001793255
0003d0 c0 5f 8a bd 21 c3 d9 bc 34 57 f9 3b f3 1c 54 bd
       -0.06756544 -0.026582303 0.0076092724 -0.05178542
0003e0 f3 5e a8 bc 0c a6 36 3e d5 a5 ba 3c 00 21 c1 bd
       -0.020553088 0.1783678 0.022784153 -0.094301224
0003f0 13 29 07 bd f4 42 cb 3d 00 95 9b 3a 18 d9 e1 3c
       -0.032998156 0.0992488 0.0011869967 0.027569339

linear_layer.4.weight f4 [1, 256]
000000 02 9e ab 3d 2c e9 a8 bc dc 71 89 3b a3 7e b6 3c
       0.08379747 -0.020618998 0.0041944813 0.022277182
000010 51 38 36 3d c1 36 39 3d 0f 23 bd 3a 1c 89 0d 3c
       0.0444873 0.045218233 0.0014430004 0.008638646
000020 37 8c 57 bd a1 30 88 3d d3 45 3f bc 3c 47 0c 3d
       -0.052623954 0.066499 -0.011674362 0.034247622
000030 31 28 44 3d 04 ad 13 bd a7 8c a2 3d ef 73 4a bd
       0.047889892 -0.036053672 0.079369836 -0.04942697
000040 a4 39 aa 3c f3 7f eb bc 0b 20 9c bd d9 f0 1e 3d
       0.020779438 -0.028747534 -0.07623299 0.03880391
000050 d0 d3 90 3a 24 cf 14 be ed 8b 76 bd ba ba 1f 3d
       0.0011049453 -0.14532143 -0.060192037 0.038996436
000060 63 38 1c bd e1 36 06 3c 25 b9 41 3a b0 ef 47 3d
       -0.038139712 0.008191795 0.00073899544 0.04881257
000070 fd 30 4c be 30 3a 63 3d ca f5 f2 ba ea b0 e3 3d
       -0.19940563 0.055475414 -0.0018536386 0.11117728
000080 e1 b9 03 3b 92 d0 2d bc c7 0c a5 3b a6 f3 32 be
       0.0020099806 -0.010608809 0.0050369236 -0.17475757
000090 37 6d d0 3b af cd 63 3d f4 aa ff bc 41 6a 3d 3d
       0.0063606757 0.055616077 -0.031209446 0.04624391
0000a0 b1 17 9a 3c 59 98 00 bd 9f 26 13 bd 2a f8 30 3c
       0.018810125 -0.03139529 -0.035925504 0.010801354
0000b0 ee c4 2f bc 40 d8 9a bb e5 3e 3d bd 89 7b 5c ba
       -0.010728104 -0.004725486 -0.04620256 -0.0008410742
0000c0 bf 89 42 3c 87 11 a4 3b 8d 2b 38 3d d0 5f c9 3d
       0.011873662 0.0050069722 0.04496341 0.09832728
0000d0 1d f5 60 bb 66 55 95 bb 25 93 f1 3c 21 1f ea 3b
       -0.0034325786 -0.0045572994 0.02948911 0.007144824
0000e0 15 57 2c 3d 5e e2 bf 3b b7 c6 4b bd ba 99 43 3d
       0.042075235 0.0058558425 -0.049750056 0.047754027
0000f0 b8 1d 0d 3c 85 9d 27 3d 8c 2f 52 bd 84 c4 4e bd
       0.0086130425 0.040921707 -0.051314875 -0.05048038
000100 b7 c6 42 bd a7 1b eb bc d0 cf a4 3d 44 7a 6f 37
       -0.04755279 -0.02869971 0.080474496 1.4273977e-05
000110 d3 5c 71 3d 8e 0e aa 3c bc 60 16 be 1a f7 e7 3b
       0.058926415 0.020758893 -0.14685339 0.0070790173
000120 5d 80 e3 3b 33 07 d9 3c ce ef 51 3c fa 10 21 bc
       0.0069427923 0.02649269 0.012813522 -0.009830708
000130 90 b7 39 bd aa df bb 3a d1 1c 8b 3b 54 bd 49 3d
       -0.045341074 0.0014333625 0.0042453785 0.049252823
000140 23 b1 98 bc 42 79 36 bd d4 86 97 3b 8d e2 13 3c
       -0.018639153 -0.044549234 0.004624227 0.009026182
000150 e9 6f bc 3d b8 3c 19 3c 24 f3 4b 3b ff 48 32 3a
       0.09201033 0.009352855 0.0031120265 0.00068010384
000160 33 01 a2 bd 20 8e 47 bc 20 38 44 bd cd 47 bc bc
       -0.07910385 -0.012179881 -0.047905087 -0.022983456
000170 7e 4f 14 3d 61 74 e0 bc d8 78 04 3d 68 a8 95 3c
       0.036208622 -0.027399244 0.032341808 0.018268779
000180 01 e7 20 3d 5e c6 a4 3b 40 d2 90 ba 2f a6 f1 bb
       0.039282802 0.00502853 -0.0011048988 -0.007374547
000190 80 42 de 3c f0 30 ba bb d9 b6 25 3d 3a 46 64 be
       0.027131319 -0.0056821033 0.04045758 -0.22292414
0001a0 3a da 1c 3c 65 54 27 bc ec b3 fe 3d f5 09 1a bd
       0.009573514 -0.010212992 0.12436661 -0.037607152
0001b0 b7 84 1f bd 5f 9b c1 3d ee e7 3c 3d 04 2c 4f be
       -0.038944926 0.09453463 0.046119623 -0.20231634
0001c0 90 d0 74 3d 9b 8e 01 3c d2 09 21 3c 3c ce fe 3b
       0.059769213 0.007907535 0.0098290015 0.00777605
0001d0 27 a1 9a 3c 06 5b 5d 3c cf 0c d8 3c 77 d4 de 3d
       0.018875672 0.013510471 0.026373295 0.10880368
0001e0 8b 71 53 bd da 80 db bd 54 4c e9 bc 41 7f c2 bc
       -0.051621955 -0.10717936 -0.028478779 -0.02374232
0001f0 e6 2e 20 3e b3 c8 22 3b 91 93 d3 3c 34 f4 a7 3d
       0.1564289 0.0024838864 0.025827201 0.08200875
000200 27 73 5c bd 53 0a 84 3a 80 44 e8 3a 95 08 b6 3c
       -0.053820755 0.0010073878 0.001772061 0.02222089
000210 ca b5 56 3d 41 da a1 3c 68 a1 49 3d ef 24 80 ba
       0.05241946 0.019757392 0.049226195 -0.0009776632
000220 a0 7d 5e 3d 86 b7 3e bb 52 fa 34 bc 21 18 c1 3d
       0.054319024 -0.0029101088 -0.011046009 0.0942843
000230 00 f9 03 3d 17 65 36 3d 0d b2 ec 3c 53 e2 82 bc
       0.032219887 0.04453 0.028893495 -0.01597706
000240 e4 53 85 3d 4b 25 f8 3c c4 7d f3 bb 77 e6 4f be
       0.065101415 0.03029122 -0.007430764 -0.20302759
000250 b8 c7 ee 3c 48 5c 13 3c 2e 3e 59 3d 29 90 93 3b
       0.029147968 0.0089941695 0.053037815 0.004503269
000260 a8 5f 07 bd b1 6d 60 3c 48 24 2e bc 90 f1 52 ba
       -0.03305021 0.0136980275 -0.010628767 -0.000804686
000270 ff f4 55 3c 4d fe ba 3d 36 1a 3d 3d 13 38 d4 bb
       0.0130589 0.09130535 0.046167575 -0.006476411
000280 3f 9a c3 bc e5 16 93 3d 38 ec e0 3c 6b 80 1b 3c
       -0.023877261 0.07182101 0.027456388 0.009491066
000290 dd 8a 1d bd da df 3f bd 93 30 c3 3c ee 6a 15 3d
       -0.03846251 -0.04684434 0.023826873 0.03647893
0002a0 66 a5 15 3d 12 7a e6 3d 2a 8f 9b 3d dd 27 9b 3d
       0.03653469 0.11253752 0.07595666 0.07575963
0002b0 8f 48 8f 3b a4 c2 a2 bd 98 e0 a4 ba 4d fb 6c bd
       0.0043726633 -0.07947281 -0.0012579141 -0.057856847
0002c0 d4 2c 7f bd 45 59 31 bd 65 99 5d 3c 87 37 04 bd
       -0.06229861 -0.043298025 0.013525342 -0.032279518
0002d0 9b fb 3f bc 47 e9 97 3d 7b 87 f6 bc d8 f6 66 bb
       -0.011717702 0.07417541 -0.030093899 -0.0035242345
0002e0 2b e7 5a bd 9d db 0c be a8 d3 5a bc 22 39 09 3d
       -0.053443115 -0.13755651 -0.013356127 0.03350175
0002f0 f2 4a 2c 3a fc 7a 23 bd 24 96 27 bd 35 a5 7b 3b
       0.0006572447 -0.03991221 -0.04091467 0.0038398032
000300 0e 55 99 bc 54 ac 4c 3a 1a 2b ee bc ee 9b 20 3d
       -0.018717315 0.00078076613 -0.029073287 0.039211206
000310 cd 2b 8a 3d 56 a4 8c 3d ab 16 3e be 98 aa a0 3c
       0.067466356 0.06867282 -0.18563335 0.019612595
000320 70 a9 61 bd 02 9d c2 3c b0 39 a4 3c 98 45 20 bd
       -0.05509323 0.023756508 0.020047039 -0.03912887
000330 c6 85 14 3e d3 7b a3 be 2c a4 b9 3d bc 9d 10 3d
       0.14504156 -0.31930408 0.090645164 0.035306677
000340 16 23 aa 3b 9d f5 12 bd 58 f8 f2 bd 97 b7 ae 3c
       0.005192171 -0.035878766 -0.11863774 0.021327777
000350 83 74 14 3d 4f a4 78 3d 60 06 7a bc b6 8a 1b 3d
       0.036243927 0.060703572 -0.015260309 0.037974082
000360 94 df 69 3c 53 60 30 bd 0b dc 38 be 36 33 60 bd
       0.014274497 -0.043060612 -0.1805269 -0.05473634
000370 27 75 25 bd 03 51 ab 3c a9 2a fd 3d 5e 57 19 3a
       -0.04039493 0.020912653 0.123616524 0.00058495055
000380 d3 5b 06 bd 7b fd 90 3b d5 0b f9 3b 8c d7 d0 3c
       -0.032802414 0.0044247485 0.0076002874 0.025493406
000390 5b c2 bd be c3 ae c1 3e d1 d9 f7 3c b5 99 ce bc
       -0.37062344 0.37828645 0.03025523 -0.025219778
0003a0 89 2e 59 bd b0 2f 90 bb 7e 8f 71 3d d9 97 68 3d
       -0.053022895 -0.004400216 0.058974735 0.05678544
0003b0 90 64 b5 3b ad 06 66 bb 89 40 d7 3a 86 03 23 bc
       0.0055356696 -0.0035099194 0.0016422431 -0.0099495705
0003c0 f1 c4 a1 3d 81 af b7 3d 91 58 1a 3c a3 17 2f 3c
       0.07898892 0.089690216 0.00942053 0.010686788
0003d0 d0 f5 46 bd d8 89 10 3a fb 0e 6f 3c fa 04 14 bd
       -0.04857427 0.00055137044 0.014590974 -0.03613756
0003e0 5e 8a 2b bd ad 13 0d 3e ab 60 10 3c 19 29 f4 bb
       -0.041880004 0.13777037 0.00881211 -0.0074511883
0003f0 66 a2 08 bd ec f5 7d 3e f4 1d a1 3c 02 4b db 3d
       -0.033358 0.24800843 0.019667603 0.10707666
