data/Apr-13_05-51-52/models/critic_300.pth (torch, 274455 bytes, 5 tensors)

linear_layer.0.weight f4 [256, 7]
0	0xbea16220	-0.31520176
1	0x3e99c354	0.30031836
2	0xbeaaf94d	-0.33393326
3	0xbe533ac6	-0.20627889
4	0xbe5254b1	-0.2054012
5	0xbea8ea43	-0.32991228
6	0xbe842b8e	-0.2581448
7	0xbe70a39d	-0.23499914
8	0xbe2ee45b	-0.17079298
9	0x3d7ba72b	0.06143872
10	0x3e18709f	0.14886712
11	0x3e51130b	0.2041742
12	0x3dc60081	0.09668065
13	0x3e1f6fb1	0.1556995
14	0xbd22d431	-0.039753143
15	0x3e814664	0.25249016
16	0x3e1e8f51	0.15484358
17	0xbd55e710	-0.05222231
18	0xbe81f294	-0.25380385
19	0x3e70ab40	0.23502827
20	0x3e896f17	0.26842567
21	0xbe1a612b	-0.15076129
22	0x3d7bc5b2	0.061467834
23	0x3e83cbb5	0.25741354
24	0x3e7185c4	0.23586184
25	0xbe34d89b	-0.17660753
26	0x3e19af52	0.15008286
27	0xbe320b4c	-0.17387122
28	0xbeb526de	-0.35381216
29	0x3e4a6d90	0.19768357
30	0x3eb3cc85	0.35116974
31	0x3e9c793c	0.30561244
32	0x3de1c94b	0.11024722
33	0x3eaa7dc0	0.33299065
34	0x3de3e5f3	0.11127844
35	0xbe8f3f06	-0.2797777
36	0xbeb08d08	-0.34482598
37	0xbdb0d76d	-0.08634839
38	0xbe07a0b7	-0.13244902
39	0xbeb38ef2	-0.35069996
40	0xbe57ceb9	-0.21074952
41	0xbeb25209	-0.34828213
42	0xbc690c1b	-0.014224078
43	0x3e80895e	0.25104803
44	0xbed3c2b1	-0.41359475
45	0xbeacc05f	-0.33740517
46	0x3e833e6d	0.25633565
47	0xbdd34d9f	-0.103175394
48	0x3e06d78c	0.13168162
49	0x3eaece17	0.3414161
50	0x3d879f72	0.06622209
51	0xbedeac2a	-0.43490726
52	0xbe3600d4	-0.17773753
53	0xbd8faa24	-0.070148736
54	0x3e9b2088	0.30298257
55	0xbdb72fea	-0.08944686
56	0xbe9d1eed	-0.30687657
57	0xbdf6342b	-0.12021669
58	0x3e9ebe0c	0.3100437
59	0xbdfbf987	-0.12303453
60	0x3e27e33b	0.16395275
61	0x3de13be2	0.1099775
62	0xbcae0d28	-0.021246508
63	0x3e9d0ab2	0.30672222
64	0xbdb4ed85	-0.08834366
65	0xbe887057	-0.26648208
66	0xbe7a3002	-0.24432376
67	0xbe2122ec	-0.15735978
68	0xbeb46273	-0.3523136
69	0x3e2e01c4	0.16992861
70	0x3e5d200c	0.21594256
71	0x3d000f3b	0.031264525
72	0xbe9162f6	-0.28395814
73	0xbcb5444e	-0.022127297
74	0xbf54d535	-0.8313783
75	0x3dd6255b	0.10456344
76	0x3e853a1d	0.260209
77	0x3e0d4ae4	0.137981
78	0xbe32b27b	-0.17450897
79	0xbca130be	-0.019676562
80	0xbdb12acb	-0.0865074
81	0x3e871a2a	0.2638715
82	0x3e3e7a2a	0.1860129
83	0x3dd7b9d4	0.10533491
84	0x3d9f12a9	0.07767231
85	0xbe96026b	-0.2929872
86	0xbebe5c47	-0.37179777
87	0x3eadb0cd	0.3392395
88	0xbe6b5297	-0.22980724
89	0xbd96c19c	-0.07361147
90	0xbe0a6f3b	-0.13518994
91	0xbea0dcee	-0.31418556
92	0xbe950a02	-0.29109198
93	0x3dd80d68	0.10549432
94	0x3c576dee	0.013148768
95	0xbe0f36c4	-0.13985735
96	0x39b05813	0.00033634956
97	0xbe91269c	-0.2834977
98	0x3d34472a	0.04401318
99	0xbe8f67e7	-0.2800896
100	0xbeaffa34	-0.34370577
101	0x3d87d4c7	0.06632381
102	0x3d2bfbce	0.041988187
103	0x3e5ad933	0.21371917
104	0x3eb906f2	0.3613811
105	0xbe701930	-0.23447108
106	0xbe92d5d2	-0.28678757
107	0x3e28723e	0.1644983
108	0x3e8fcba5	0.28085056
109	0xbe7638b0	-0.24045062
110	0x3cdae971	0.026722642
111	0x3e0d6665	0.13808592
112	0xbeb8d4fd	-0.36099997
113	0xbd0e72ac	-0.03477733
114	0xbdcbefbc	-0.09957835
115	0xbc33efaa	-0.010982433
116	0x3d538dd2	0.051648922
117	0xbe8895f4	-0.26676905
118	0xbe645655	-0.22298558
119	0xbe50f90b	-0.20407502
120	0xbe446cc8	-0.19182122
121	0xbe2c1123	-0.16803412
122	0x3e89459e	0.26810926
123	0x3e5c5541	0.21516897
124	0xbe7ff596	-0.24996027
125	0x3e123492	0.14277866
126	0xbd1861b9	-0.03720257
127	0x3db3a574	0.08771792
128	0xbe5a0e3a	-0.2129449
129	0x3e4bf7ba	0.19918719
130	0xbe577b49	-0.21043123
131	0x3df1ed3a	0.118128255
132	0x3e9389b2	0.2881599
133	0xbde82636	-0.11335413
134	0xbeb5e521	-0.35526374
135	0x3d32e123	0.04367174
136	0xbe765973	-0.2405756
137	0x3b8e47ae	0.004342041
138	0x3e420511	0.18947245
139	0x3e61bad8	0.22043931
140	0xbef23afb	-0.47310624
141	0x3e55292a	0.20816484
142	0xbe32ca7b	-0.17460053
143	0x3ebce852	0.36895996
144	0x3f425c71	0.75922304
145	0x3e91ec61	0.28500655
146	0xbe45f3ec	-0.1933133
147	0x3c792395	0.015206237
148	0x3e7bd7ed	0.24594088
149	0xbebd058f	-0.36918303
150	0x3eac8351	0.33693936
151	0xbcde3838	-0.027126417
152	0xbebbf668	-0.3671143
153	0x3e441bf9	0.19151296
154	0x3e8d7b42	0.276331
155	0xbda30135	-0.079592146
156	0xbe76d919	-0.24106254
157	0x3e56586e	0.20932171
158	0xbf6f2c59	-0.93427044
159	0xbe4f51a1	-0.20245983
160	0x3e32fff2	0.17480448
161	0xbe540d0d	-0.20708103
162	0x3e63d7aa	0.22250238
163	0xbe202fe2	-0.15643266
164	0x3b5d801a	0.0033798278
165	0x3f35ea55	0.7106069
166	0x3b9430a4	0.0045224
167	0xbedd23b8	-0.43191314
168	0x3dfe89aa	0.12428601
169	0xbe8e56b6	-0.2780053
170	0xbe7d4ee1	-0.24737121
171	0x3d5652c9	0.052325044
172	0x3c808ef9	0.015693175
173	0xbd99828c	-0.07495603
174	0x3ebd6f26	0.36998862
175	0xbedffeb4	-0.4374901
176	0x3d5bfe60	0.053709388
177	0x3e496a80	0.19669533
178	0xbdab0203	-0.08349993
179	0x3eabba47	0.33540556
180	0x3c64c35f	0.013962596
181	0xbe5ae2e3	-0.21375613
182	0xbe46d3b8	-0.19416702
183	0xbdbeca99	-0.09315986
184	0x3eb8e37b	0.36111054
185	0x3d6f00a1	0.05835021
186	0x3e78234b	0.24232213
187	0x3e9e00ac	0.30859888
188	0x3d00dcf1	0.031460706
189	0x3e107350	0.14106488
190	0xbeba5b83	-0.36397943
191	0xbea162a5	-0.31520572
192	0xbe7b4538	-0.24538124
193	0xbe4f9766	-0.20272598
194	0xbe893d4c	-0.26804578
195	0xbe0f14a8	-0.13972723
196	0xbde90fa9	-0.1137994
197	0x3ea6e787	0.32598516
198	0x3e41ba89	0.18918814
199	0x3e33053f	0.1748247
200	0xbdb695a5	-0.08915261
201	0x3e1fab61	0.1559272
202	0xbe115ba4	-0.14195114
203	0xbe2f62d4	-0.17127544
204	0x3e9f175a	0.31072503
205	0xbe31e701	-0.17373277
206	0xbed03b32	-0.40670162
207	0x3edf628a	0.43629867
208	0x3d86aaad	0.065755226
209	0xbdb878e9	-0.09007437
210	0x3dc8cbd0	0.09804499
211	0x3e82eb25	0.25570026
212	0xbf02c099	-0.5107513
213	0xbd3f576d	-0.046714235
214	0x3e990ab5	0.2989098
215	0xbe53632c	-0.206433
216	0x3e320436	0.17384419
217	0xbe0c04a8	-0.13673651
218	0x3d8518f0	0.06498897
219	0x3ec63cbe	0.38718218
220	0xbe6a67cc	-0.22891158
221	0xbe9fb94f	-0.31196067
222	0xbeb5bb0d	-0.3549427
223	0xbcdb2392	-0.02675036
224	0x3e33e0cf	0.17566226
225	0xbdc84c3d	-0.09780166
226	0xbe173edd	-0.14770074
227	0x3e31b6ea	0.17354932
228	0xbf316a93	-0.69303244
229	0x3e870965	0.26374355
230	0x3e91c059	0.28467062
231	0x3d836c68	0.06417161
232	0x3e2b84a1	0.16749813
233	0x3e355021	0.17706348
234	0xbeee8ccc	-0.46591794
235	0x3e97cf1c	0.296502
236	0xbebc27a6	-0.36749
237	0x3db1e62e	0.086864814
238	0xbe9a774f	-0.3016915
239	0xbd7d67ca	-0.06186656
240	0x3e227abb	0.1586713
241	0xbeb7cdb6	-0.35899132
242	0xbe43e89a	-0.19131699
243	0x3e6e72c9	0.23285975
244	0xbea0fa4f	-0.3144097
245	0xbdde2660	-0.10847163
246	0xbdc677b5	-0.09690801
247	0xbe2ef96b	-0.17087333
248	0x3e0daced	0.13835497
249	0x3cfc1e89	0.030776279
250	0x3e47963e	0.19490907
251	0xbdadcdb8	-0.08486503
252	0xbda61abc	-0.08110568
253	0x3de77a40	0.11302614
254	0x3d41fe2e	0.047361545
255	0x3e0ef351	0.13960005

linear_layer.0.bias f4 [256]
0	0x3e2b6a62	0.167398
1	0xbecf941a	-0.4054268
2	0x3dce5b24	0.100759774
3	0x3e9779ac	0.29585016
4	0xbd27fcda	-0.041012622
5	0xbd9617fc	-0.073287934
6	0xbe8c9128	-0.27454495
7	0x3df76435	0.1207966
8	0xbe130635	-0.14357837
9	0x3dd1173c	0.1020951
10	0x3e804d6a	0.25059062
11	0x3e9366d1	0.2878938
12	0xbe8f500b	-0.27990755
13	0xbe3c05df	-0.18361615
14	0x3dcf9995	0.10136715
15	0x3d407662	0.0469879
16	0xbd91615c	-0.07098648
17	0xbd031c18	-0.032009214
18	0xbe9bc6af	-0.3042502
19	0xbca7416c	-0.020416938
20	0xbe1616ff	-0.1465721
21	0x3e36cebd	0.17852302
22	0x3e279a9c	0.16367573
23	0xbe306546	-0.17226133
24	0xbe9bac0f	-0.30404708
25	0x3e8b4c2c	0.27206552
26	0xbd78362a	-0.06059853
27	0x3e4c1ad3	0.19932108
28	0x3db9046c	0.090340465
29	0xbe71a02c	-0.23596257
30	0xbe0dc92e	-0.13846275
31	0x3ed8a338	0.42312026
32	0x3eb90080	0.36133194
33	0x3e820806	0.25396746
34	0x3d4ce9bc	0.050027594
35	0x3d278e4a	0.04090718
36	0x3e5b4668	0.21413577
37	0x3e7cc3a1	0.24684002
38	0x3e7ca502	0.2467232
39	0xbeaabb69	-0.33346108
40	0xbec773c8	-0.38955522
41	0xbd383716	-0.04497441
42	0xbe28793b	-0.16452496
43	0xbd42928a	-0.04750303
44	0x3e21ee36	0.15813527
45	0xbe5d5baf	-0.21617006
46	0x3e549915	0.20761521
47	0x3d94c6cf	0.07264482
48	0x3eb07517	0.34464332
49	0xbebbdac0	-0.3669033
50	0xbdbdcbee	-0.09267412
51	0xbdfef749	-0.1244951
52	0x3d0eae40	0.034834146
53	0x3e0c5c94	0.13707191
54	0x3e80431c	0.250512
55	0xbdc5df69	-0.09661753
56	0xbe8fbb4a	-0.28072578
57	0xbd8ff73f	-0.0702958
58	0x3d1617f9	0.036643956
59	0x3db9b00c	0.090667814
60	0x3e870f36	0.26378793
61	0x3e4603ce	0.19337389
62	0xbd093d1a	-0.033505537
63	0xbe934ff3	-0.28771934
64	0xbe4987a2	-0.19680646
65	0xbe6f03da	-0.23341313
66	0x3d412dfe	0.047163002
67	0x3cb0eef9	0.021598326
68	0x3ec08e7b	0.37608704
69	0xbec74b63	-0.38924703
70	0xbea5e261	-0.32399276
71	0xbd925e89	-0.071469374
72	0xbda3d77f	-0.08000087
73	0x3e9a7cf4	0.30173457
74	0xbe45360c	-0.19258898
75	0xbc211177	-0.009830824
76	0x3d93c006	0.0721436
77	0xbe65ba13	-0.22434263
78	0xbdf6a33c	-0.12042853
79	0xbdbf3fbf	-0.093383305
80	0xbe2848ec	-0.16434067
81	0x3e3bd030	0.18341136
82	0xbee75c05	-0.45187393
83	0xbc23ea4c	-0.010004591
84	0xbd9e100e	-0.07717906
85	0xbe8511ba	-0.25990087
86	0x3e690690	0.2275641
87	0xbe3bd347	-0.18342315
88	0x3e6f412b	0.23364703
89	0x3d89d246	0.067295596
90	0xbd962f0d	-0.07333193
91	0xbe03d305	-0.12873466
92	0x3de1c0ea	0.110231236
93	0xbe9db602	-0.30802923
94	0xbea83a0b	-0.32856783
95	0x3df2716c	0.1183804
96	0xbdb9dd74	-0.09075442
97	0xbe9a40ae	-0.30127472
98	0xbe838d85	-0.25693908
99	0x3d853894	0.06504932
100	0x3db27d36	0.08715288
101	0x3daaf31e	0.08347152
102	0xbee006a8	-0.43755078
103	0xbec87655	-0.3915278
104	0xbdedc2f3	-0.11609449
105	0xbebbe020	-0.3669443
106	0x3e37f05c	0.17962784
107	0xbe8abea0	-0.2709856
108	0xbd82aa1a	-0.063801005
109	0x3ebdd8d1	0.3707948
110	0xbe15e258	-0.14637125
111	0x3e052f77	0.13006388
112	0xbe124fb1	-0.14288212
113	0xbe00c364	-0.12574536
114	0x3ec1230b	0.37722048
115	0x3e5d0ae7	0.2158619
116	0x3e7f7685	0.24947555
117	0x3de99b7f	0.11406612
118	0x3e3ed299	0.18635024
119	0xbeb11d7a	-0.345928
120	0xbe925bf0	-0.28585768
121	0xbe4441d7	-0.19165741
122	0xbe83c5af	-0.25736758
123	0x3de193ef	0.11014544
124	0x3ebfaf92	0.37438637
125	0xbe9f1594	-0.3107115
126	0x3e8c6802	0.27423102
127	0xbea1644b	-0.3152183
128	0xbec73448	-0.38907075
129	0x3e4c9df6	0.19982132
130	0xbdb4743c	-0.088112324
131	0xbf04c44f	-0.51862043
132	0xbe66a03c	-0.22522062
133	0xbe4bcf76	-0.19903359
134	0x3e459e9a	0.19298783
135	0xbe9eed24	-0.310403
136	0xbec6ad24	-0.3880397
137	0x3e3c85d2	0.18410423
138	0xbe76f8cb	-0.24118344
139	0xbdacae21	-0.0843165
140	0xbec7cde8	-0.39024282
141	0xbe77a973	-0.24185733
142	0xbe996424	-0.29959214
143	0xbee48eb0	-0.44640112
144	0xbd65b417	-0.05607995
145	0x3eb8b1f0	0.36073256
146	0x3ea3c1cd	0.31983796
147	0xbe7405b4	-0.238303
148	0x3dd0737b	0.10178276
149	0xbda89244	-0.08231023
150	0xbe847589	-0.25870922
151	0xbe0b9a3f	-0.13633059
152	0xbd85b07c	-0.06527802
153	0xbe91ff1d	-0.28514948
154	0xbe8d4946	-0.27594966
155	0xbe61363b	-0.21993344
156	0xbe1b350f	-0.15156959
157	0xbe6dab39	-0.23209848
158	0x3e4c8fc5	0.19976719
159	0x3e0e74c4	0.1391173
160	0x3d5b0a0d	0.053476382
161	0xbe952567	-0.29130098
162	0x3e574f7d	0.21026416
163	0x3e2406c4	0.16018206
164	0x3e0ff4b3	0.14058189
165	0x3dbf3260	0.0933578
166	0xbec0b088	-0.37634683
167	0xbe4fd4d4	-0.20296031
168	0xbe5e57be	-0.21713158
169	0xbe94a379	-0.2903097
170	0x3e8df33f	0.27724645
171	0x3e7beccb	0.24602048
172	0x3e968667	0.29399416
173	0x3e8aaf45	0.27086845
174	0xbd89a626	-0.067211434
175	0xbda83b35	-0.08214418
176	0xbeab273e	-0.33428377
177	0x3dbcb055	0.0921332
178	0x3e782d89	0.2423612
179	0xbdf4115a	-0.11917372
180	0x3ebc3e1f	0.36766145
181	0x3d787f0f	0.060668048
182	0xbd8c8aee	-0.06862436
183	0x3ea43189	0.32069042
184	0xbec776b7	-0.3895776
185	0xbda18779	-0.078871675
186	0xbe160d16	-0.1465343
187	0x3c130380	0.008973002
188	0x3e96c5ea	0.2944787
189	0x3e8fb48f	0.28067443
190	0x3e714390	0.2356093
191	0xbebf8e4d	-0.37413254
192	0xbea8efd9	-0.3299549
193	0xbbfc44ab	-0.0076986155
194	0xbe0d0012	-0.13769558
195	0x3e7f5f92	0.24938801
196	0xbe8648fb	-0.26227555
197	0x3e286c9e	0.16447684
198	0xbecad34c	-0.39614332
199	0x3d69e6d5	0.057104904
200	0x3e22946e	0.15876934
201	0xbe9686a3	-0.29399595
202	0xbe981889	-0.2970622
203	0xbd3fc87b	-0.046822052
204	0xbdebe6f3	-0.115186594
205	0x3ef5f839	0.4804094
206	0x3d7741fb	0.06036566
207	0xbe57a199	-0.21057738
208	0xbea96ca4	-0.330907
209	0xbe876161	-0.26441482
210	0x3e1e4668	0.15456545
211	0x3e9ceb97	0.3064849
212	0xbe85071a	-0.2598198
213	0x3ec72aae	0.3889975
214	0xbb735be6	-0.0037133633
215	0x3cc322e7	0.023820354
216	0x3e55b082	0.20868114
217	0xbe77a768	-0.24184954
218	0xbefd3af2	-0.49459034
219	0xbea42786	-0.32061404
220	0x3d268529	0.040654335
221	0x3e29f0e9	0.16595806
222	0xbe03334e	-0.1281254
223	0xbe7bf255	-0.24604161
224	0xbeb40161	-0.35157302
225	0xbe4ab336	-0.19794926
226	0xbda2baba	-0.079457715
227	0x3ea1b7a6	0.31585425
228	0x3d186b62	0.037211783
229	0xbd16da3c	-0.03682922
230	0xbdcc97ab	-0.09989866
231	0xbce7618d	-0.028244758
232	0x3ea9d431	0.33169702
233	0x3df753a2	0.120764986
234	0xbe842151	-0.25806668
235	0x3e63405a	0.22192517
236	0x3d60d68e	0.054892115
237	0xbe11bac2	-0.14231399
238	0x3dc0895b	0.094011985
239	0xbee7fbec	-0.4530939
240	0x3ccf43e0	0.02530092
241	0x3e941927	0.2892544
242	0xbeafee18	-0.3436134
243	0x3e8df123	0.27723035
244	0xbdb95f63	-0.09051397
245	0x3ce1d7c1	0.0275687
246	0xbe0f42ea	-0.1399037
247	0xbf040c1c	-0.5158098
248	0xbe1e7052	-0.15472534
249	0x3e2b3f27	0.1672331
250	0x3e854f65	0.26037136
251	0xbdc44f36	-0.09585421
252	0x3e5e1414	0.21687347
253	0x3e9f9cf9	0.31174448
254	0xbed43eb6	-0.41454095
255	0x3ec8ab2b	0.3919309

linear_layer.2.weight f4 [256, 256]
0	0x3d05f04f	0.03269988
1	0x3cbf06eb	0.023318728
2	0x3db08f91	0.08621133
3	0x3d6ad747	0.05733421
4	0x3dd1e962	0.10249592
5	0xbd29c9fe	-0.0414524
6	0xbd0ed9bd	-0.03487562
7	0x3c72c9ef	0.0148186525
8	0xbddac667	-0.106823735
9	0xbd343750	-0.043998063
10	0x3d8a736d	0.06760297
11	0x3d302502	0.043004043
12	0x3ce30ad8	0.027715132
13	0x3d4100ac	0.04711978
14	0xbb813380	-0.003942907
15	0x3a854f26	0.0010170683
16	0x3c0266c0	0.007959068
17	0x3ceeefd0	0.029167086
18	0xbd1267a0	-0.035743356
19	0x3cca5064	0.024696536
20	0x3d61189c	0.05495511
21	0xbc3fde07	-0.01171065
22	0xbe631dda	-0.22179356
23	0xbdc867e2	-0.09785439
24	0xbd12494a	-0.035714425
25	0x3d172206	0.03689768
26	0x3e1f722c	0.15570897
27	0xbd47bb46	-0.048762582
28	0x3de5d755	0.11222712
29	0xbcc5d97b	-0.024151554
30	0xbe94babd	-0.2904872
31	0x3da99616	0.0828058
32	0x3d370e52	0.04469139
33	0x3df26d6b	0.11837276
34	0x3c8206a4	0.015872307
35	0xbcbf014c	-0.023316048
36	0x3dd4a488	0.10382944
37	0x3cdd2580	0.02699542
38	0xbc62df78	-0.013847224
39	0x3d2bb265	0.041918177
40	0x3d5f37d4	0.0544966
41	0x3dde4b74	0.10854235
42	0xbc7406f8	-0.01489424
43	0x3dfdf013	0.12399306
44	0xbc511e98	-0.012763642
45	0x3dba3f59	0.09094114
46	0xbddf09b1	-0.1089052
47	0x3d65403a	0.055969454
48	0xbc298548	-0.010346718
49	0xbdb75569	-0.089518376
50	0xbd9aa14b	-0.075502954
51	0x3da92154	0.0825831
52	0x3bc89d10	0.006122239
53	0x3e07e982	0.1327267
54	0xbd0a8248	-0.033815652
55	0xbbf75a40	-0.0075486004
56	0xbd6de9f4	-0.058084443
57	0x3ca1ef7c	0.019767515
58	0x3d15e36e	0.036593847
59	0x3c7dc8e8	0.015489794
60	0x3d8ca74f	0.06867849
61	0xbd25b031	-0.040451232
62	0xbe94c910	-0.2905965
63	0xbc6c0220	-0.0144048035
64	0x3d8ff3b4	0.070289046
65	0xbbed64cb	-0.0072446815
66	0xbd8ef060	-0.06979442
67	0x3d9d0085	0.07666115
68	0x3df2084f	0.11817991
69	0x3a820d9b	0.0009922268
70	0xbc0c57e0	-0.008565873
71	0xbc559edd	-0.013038364
72	0x3d5891b6	0.052873336
73	0x3d15b314	0.036547735
74	0x3d2aad50	0.04166919
75	0xbd7269e4	-0.059183016
76	0x3e10ee17	0.14153324
77	0x3c357c45	0.011076991
78	0x3d14625a	0.036226608
79	0xbe9f1a6a	-0.3107484
80	0xbe08cc48	-0.13359177
81	0xbd7035cc	-0.058645055
82	0x3d80cdc1	0.062892444
83	0xbd42790d	-0.047478724
84	0x3bcc6b65	0.0062383884
85	0xbe49337a	-0.19648543
86	0x3e363b37	0.17796026
87	0xbe8959eb	-0.26826414
88	0x3d94604d	0.072449304
89	0x3c390778	0.011293285
90	0x3d5317ee	0.051536493
91	0x3cb57198	0.022148892
92	0x3ce78ceb	0.028265437
93	0xbc1d594d	-0.0096038105
94	0xbc8d402b	-0.017242512
95	0xbe0019b8	-0.12509811
96	0xbd86463f	-0.06556367
97	0xbd0589cf	-0.032602128
98	0x3c9c57ec	0.019084893
99	0xbd3b6a88	-0.045755893
100	0xbcb9c244	-0.02267564
101	0xbd4c7165	-0.04991283
102	0xbcd9f6ca	-0.026606936
103	0xbc70d576	-0.014699331
104	0xbcc4cc1c	-0.024023108
105	0x3bbc6240	0.005749017
106	0xbd663fb6	-0.056213103
107	0x3b56d9a0	0.0032783523
108	0x3c9f7e07	0.019469274
109	0xbd5d98c7	-0.054100778
110	0xbd19ccf2	-0.037548967
111	0x3ca20ddc	0.019782
112	0x3e2f613c	0.17126936
113	0x3dc8e9ff	0.09810256
114	0xbd5251ee	-0.051347665
115	0xbf2b3355	-0.668752
116	0xbd7e6e30	-0.0621168
117	0x3ded5fb4	0.115905195
118	0xbcd2e8ec	-0.025745831
119	0xbceb09ee	-0.028691258
120	0x3b033a24	0.0020023668
121	0x3cc47e86	0.023986112
122	0x3daa2209	0.08307273
123	0xbd63f41a	-0.055652715
124	0xbd44260e	-0.047887854
125	0xbe6a41a2	-0.228766
126	0x3dc764b1	0.09736002
127	0x3d1613f4	0.036640123
128	0xbd064072	-0.032776304
129	0x3e2a4b8b	0.1663038
130	0x3d35d992	0.044396944
131	0xbd39efc1	-0.045394663
132	0x3d43b094	0.04777582
133	0x3d824216	0.06360261
134	0xbd104c56	-0.03522905
135	0x3d9c44bb	0.07630297
136	0xbd28941c	-0.041156873
137	0x3d3a252a	0.0454456
138	0x3c99afb1	0.018760534
139	0x3d3f386d	0.04668467
140	0xbd714841	-0.058906797
141	0xbe695ec0	-0.2279005
142	0xbd9b9446	-0.0759664
143	0xbd2f5502	-0.04280568
144	0xbd68229e	-0.05667364
145	0xbc07efd0	-0.008296922
146	0xbd22cd34	-0.03974648
147	0xbec693ac	-0.3878454
148	0x3d2659e8	0.040613085
149	0xbcae4fd8	-0.021278307
150	0xbb6cc82d	-0.0036130056
151	0xbcae3ac3	-0.021268254
152	0x3d0aa071	0.033844415
153	0x3c84ea6c	0.016225062
154	0xbc62fc8a	-0.013854155
155	0x3d842f39	0.064543195
156	0x3df6abe0	0.12044501
157	0xbe0c2e38	-0.13689506
158	0xbd187602	-0.037221916
159	0x3d795176	0.060868703
160	0x3c741258	0.014896952
161	0xbac52e00	-0.0015043616
162	0x3b8f8039	0.004379299
163	0xbd394763	-0.045234095
164	0xbc5cb0e0	-0.013469905
165	0x3da2a50c	0.079416364
166	0xbe6f2567	-0.23354112
167	0x3d49d5f6	0.049276315
168	0x3dc3e4e5	0.095651425
169	0x3db62db5	0.08895437
170	0xbd1bc39e	-0.038028352
171	0x3d5970de	0.053086154
172	0x3c23a099	0.00998702
173	0xbd0d07aa	-0.034431137
174	0xbd9f4957	-0.0777766
175	0x3daf28d9	0.08552713
176	0x3d695f1d	0.056975473
177	0x3d3d94a6	0.04628434
178	0x3d7db514	0.061940268
179	0xbd4ac800	-0.04950714
180	0xbbe97cb0	-0.0071254596
181	0xbd5a7b24	-0.053340092
182	0x3c44de28	0.012015857
183	0x3dd5e504	0.10444072
184	0xbdc4765c	-0.09592888
185	0xbe0777f5	-0.13229354
186	0x3c8e15a5	0.017344305
187	0x3c852d28	0.016256884
188	0x3d11f4d3	0.035633873
189	0x3d56e43c	0.052463755
190	0x3d3da32c	0.04629819
191	0xbd1f1f5d	-0.03884827
192	0x3d585c5d	0.05282246
193	0xbd6900de	-0.056885593
194	0x3d152865	0.036415476
195	0x3c9a5c5d	0.01884287
196	0xbe07bca7	-0.13255559
197	0xbcc2f1e4	-0.023796983
198	0x3dfaee16	0.122524425
199	0xbcf7bac4	-0.030240424
200	0xbc9010ff	-0.01758623
201	0x3d5dc5d2	0.054143734
202	0xbd3f3c04	-0.046688095
203	0x3dba5c39	0.09099621
204	0xbd4fa7a6	-0.05069699
205	0x3d751a4a	0.059839524
206	0x3c7e01c4	0.015503351
207	0x3d608c1a	0.05482111
208	0x3dc11fb5	0.09429876
209	0x3d8d0bfa	0.0688705
210	0xbd67c402	-0.056583412
211	0x3dacfeed	0.08447061
212	0x3c9e5124	0.0193258
213	0x3db9e75c	0.090773314
214	0x3e127523	0.14302497
215	0xbd16b548	-0.036793977
216	0xbc491309	-0.012272605
217	0x3e0f2296	0.13978037
218	0x3c22a054	0.0099259205
219	0x3d654241	0.055971388
220	0xbd96a689	-0.07355983
221	0x3d1a243e	0.03763222
222	0xbdf82734	-0.121168524
223	0xbd3362d8	-0.043795437
224	0xbea692ad	-0.3253378
225	0xbc9a16c9	-0.018809693
226	0xbde9185b	-0.113815986
227	0xbd86e6b7	-0.06586974
228	0xbdfcee30	-0.12350118
229	0xbc3824b0	-0.011239216
230	0x3d8e273f	0.06941079
231	0x3d6ca476	0.05777403
232	0xbc8ebb90	-0.017423421
233	0x3b2f32e0	0.0026733205
234	0xbcd5b6e1	-0.02608818
235	0x3db0e6d2	0.086377755
236	0x3d0fa3cc	0.03506832
237	0x3dd22f81	0.10262967
238	0xbd48d466	-0.049030684
239	0x3c74ff85	0.014953499
240	0x3e096bb2	0.13419989
241	0xbd738360	-0.05945146
242	0xbd61ab00	-0.05509472
243	0xbd510b15	-0.05103596
244	0x3cf3803f	0.029724238
245	0x3da24aec	0.079244465
246	0xbd413eff	-0.04717922
247	0x3c8f9295	0.01752595
248	0x3cb4373e	0.021998998
249	0xbe3953f7	-0.18098436
250	0x3cf4ea4a	0.029896874
251	0xbc4ba927	-0.012430466
252	0x3cae526a	0.021279532
253	0xbbc08a2e	-0.0058758473
254	0xbd9ad94b	-0.075609766
255	0x3e327f0d	0.17431279

linear_layer.2.bias f4 [256]
0	0x3e685c94	0.22691566
1	0x37df738e	2.6637481e-05
2	0x3d021c23	0.031765115
3	0x3d27f0a1	0.041000966
4	0xbd63def6	-0.055632554
5	0x3c76f19e	0.015072254
6	0xbd98839c	-0.074469775
7	0xbcd1c5ad	-0.025606954
8	0xbca542d8	-0.020173475
9	0x3e434118	0.190678
10	0xbd556923	-0.05210222
11	0x3c96e48e	0.01841953
12	0x3dbd01cc	0.09228858
13	0x3b93df3c	0.0045126956
14	0x3dbe128e	0.09280883
15	0x3d45b390	0.048266947
16	0x3c64ba54	0.01396044
17	0x3d347198	0.044053644
18	0x3d81e2d3	0.063420914
19	0xbc781920	-0.015142709
20	0xbd834338	-0.06409305
21	0xbcb88e22	-0.022528712
22	0x3d08fee2	0.0334462
23	0x3d27735b	0.040881496
24	0xbd778163	-0.060426127
25	0xbd887093	-0.06662097
26	0xbcd7447c	-0.026277773
27	0x3c547940	0.012968361
28	0xbd98c819	-0.074600406
29	0x3cbfda0f	0.023419408
30	0x3c33db83	0.010977629
31	0x3e3e81af	0.18604158
32	0x3ccb32eb	0.024804553
33	0x3d1955eb	0.037435453
34	0x3ba45c29	0.005015869
35	0xbd8e571b	-0.06950208
36	0x3cdec9e4	0.027195878
37	0x3e3b0155	0.18262227
38	0x3c166219	0.009178662
39	0xb8b58887	-8.656183e-05
40	0xbdc10c72	-0.09426202
41	0xbd965d44	-0.07342008
42	0xbcea5e28	-0.02860935
43	0x3cfe3bed	0.031034434
44	0x3b09dd89	0.0021036586
45	0x3ce5f214	0.028069533
46	0x3ca72b9f	0.020406542
47	0x3c5700f8	0.01312279
48	0xbd3cd8a8	-0.046105057
49	0xba922e61	-0.0011152738
50	0xbd87c2f8	-0.06628984
51	0x3c040e59	0.008060061
52	0xbd9b895a	-0.07594557
53	0xbd938bcc	-0.072043985
54	0xbda8e483	-0.0824671
55	0xbd110fc0	-0.03541541
56	0xbbd1f803	-0.006407739
57	0x3c9fe8d7	0.019520206
58	0xbd4dfdb9	-0.050290797
59	0xbca3ed04	-0.020010479
60	0xbd027302	-0.03184796
61	0xbc9f55df	-0.019450126
62	0xbd89a900	-0.06721687
63	0xbd02ac44	-0.031902567
64	0x3d26ffcc	0.04077129
65	0xbd4606ff	-0.048346516
66	0x3d97878b	0.073989
67	0xbcf5adf6	-0.029990178
68	0xbc045b11	-0.008078353
69	0xbd852289	-0.06500728
70	0xbb789151	-0.0037928412
71	0xbda96f8c	-0.08273229
72	0x3d1895c1	0.03725219
73	0xbd82a421	-0.06378961
74	0xbd74e233	-0.059786033
75	0xbc2547d9	-0.010087931
76	0x3c464808	0.0121021345
77	0xbd67718d	-0.056504775
78	0xbd22e4a1	-0.03976882
79	0xbd08eca5	-0.033428807
80	0xbd02bbdb	-0.031917434
81	0xbd84b744	-0.06480268
82	0xbcd1a0f2	-0.02558944
83	0x3d28965c	0.04115902
84	0x3d181672	0.03713078
85	0xbd0dcdd8	-0.034620136
86	0x3cd62eab	0.0261453
87	0x3cb37849	0.021907942
88	0xbe60be70	-0.21947646
89	0xbd8bf998	-0.068347156
90	0x3d12b49a	0.035816766
91	0xbd7bf548	-0.061513215
92	0x3d0a4c5c	0.03376423
93	0x3cdcb584	0.026942022
94	0xbcd8ce67	-0.026465608
95	0x3d0d841c	0.034549817
96	0x3d10fc85	0.03539707
97	0xbd3c6a0e	-0.04599958
98	0x3d2a141a	0.041523077
99	0xbd1c9e8a	-0.038237132
100	0xbd4f6468	-0.050632864
101	0x3d35cfdf	0.044387694
102	0x3c198e45	0.009372299
103	0xbe24ebfe	-0.16105649
104	0xbd61817b	-0.055055123
105	0x3c580dc8	0.013186879
106	0x3e154149	0.14575686
107	0xbd79102f	-0.06080645
108	0xbcb21ef6	-0.021743279
109	0x3e32b80c	0.17453021
110	0xbd3e5ed7	-0.046477165
111	0xbdc0fdad	-0.09423385
112	0xbd60def2	-0.054900117
113	0xbd3645ed	-0.04450028
114	0x3d6d995d	0.058007587
115	0xbd91ad6c	-0.07113156
116	0x3d2305d3	0.039800476
117	0x3c9a1eb0	0.018813461
118	0xbc81513a	-0.015785802
119	0x3e574af3	0.21024685
120	0xbd71e319	-0.059054468
121	0x3af90137	0.0018997554
122	0xbce42b0d	-0.02785256
123	0xbda4ffab	-0.08056577
124	0x3e5a44b4	0.2131527
125	0x3d6d0303	0.0578642
126	0xbb818bee	-0.0039534485
127	0x3e703d0b	0.23460786
128	0x3cd0f1aa	0.02550586
129	0xbd31d240	-0.0434134
130	0xbb8c3bc0	-0.0042795837
131	0x3b2ee82f	0.0026688685
132	0xbc917beb	-0.017759284
133	0xbd8c380a	-0.06846626
134	0x3dd16785	0.10224823
135	0xbd3ad76e	-0.045615606
136	0x3c3a43c0	0.011368692
137	0xbc361ad9	-0.011114799
138	0xbd806649	-0.06269509
139	0x3e08d318	0.13361776
140	0x3d3699e0	0.04458034
141	0x3d8558c4	0.06511071
142	0x3cf6dfa3	0.030135935
143	0xbd9f3621	-0.07773996
144	0x3e2bb030	0.16766429
145	0x3c81987d	0.015819782
146	0x3cfb1ac4	0.030652411
147	0xbde04a16	-0.10951631
148	0xbc90496c	-0.017613135
149	0x3c3f3ede	0.011672704
150	0xbc883d1b	-0.0166307
151	0x3c03c8a1	0.008043439
152	0xbc85552c	-0.016275965
153	0x3d9a53e7	0.07535534
154	0x3c982bbc	0.018575542
155	0x3cb6e9f8	0.022328362
156	0x3c9640df	0.01834148
157	0x3e29683e	0.16543671
158	0xbbfa3ba9	-0.0076365066
159	0xbc298583	-0.010346773
160	0x3d3624ba	0.04446862
161	0x3e6a9f4f	0.22912334
162	0xbd42c890	-0.047554553
163	0xbd9717ca	-0.07377584
164	0xbcdea71c	-0.027179293
165	0x3c96ffac	0.01843246
166	0xbc92fd44	-0.017943032
167	0xbccc5ab9	-0.024945604
168	0xbd7e30cd	-0.06205826
169	0x3e0e5e3c	0.13903135
170	0x3e13f669	0.14449467
171	0x3ded832c	0.11597285
172	0xbabce992	-0.0014412871
173	0xbd4ac8ec	-0.04950802
174	0x3c76d9ef	0.015066608
175	0xbcf7181a	-0.03016286
176	0xbcfa800c	-0.030578636
177	0xbd5521cd	-0.052034188
178	0xbb4f2b70	-0.0031611584
179	0xbd5ceef0	-0.053938806
180	0xbd3bd7fa	-0.04586027
181	0x3e2014e6	0.15632972
182	0xbdab46ee	-0.08363138
183	0x3c2e4f86	0.010639077
184	0xbc9600ee	-0.01831099
185	0xbdfe9dbc	-0.12432429
186	0x3d3939fd	0.045221318
187	0xbcef9cfd	-0.029249663
188	0x3d0ace51	0.033888165
189	0xbc59f014	-0.013301868
190	0x3b8b7bc7	0.004256699
191	0x3cf13a1a	0.02944665
192	0x3c36ef14	0.011165399
193	0xbd4b925a	-0.04970012
194	0xbd5fff73	-0.054686975
195	0x3c6f4622	0.014604123
196	0x3e08d3b6	0.13362011
197	0x3db8c415	0.09021775
198	0xbe3dded3	-0.18542032
199	0xbd854c28	-0.06508666
200	0xbd1072c7	-0.03526571
201	0x3c444bf1	0.0119809965
202	0xbd9c4538	-0.0763039
203	0xbd6641ec	-0.05621521
204	0x3e9276fa	0.28606397
205	0xbdb9bbd6	-0.0906903
206	0x3e0a1561	0.13484718
207	0xbd5b5a9d	-0.053553212
208	0xbc8d3a7b	-0.0172398
209	0xbb041fa4	-0.002016046
210	0xbc1c275f	-0.009530871
211	0x3cb6b465	0.022302816
212	0xbc42e612	-0.011895673
213	0xbc96a39c	-0.018388562
214	0xbb5732e4	-0.003283673
215	0x3d016763	0.031592738
216	0xbd857935	-0.06517259
217	0xbd9100be	-0.0708022
218	0xbd716cb5	-0.05894156
219	0xbc711ce3	-0.01471636
220	0xbaeeb912	-0.0018213114
221	0xbcd71b70	-0.0262582
222	0x3e1404ea	0.14455
223	0xbd901bb7	-0.07036536
224	0xbd74a8d6	-0.059731327
225	0x3c87716c	0.016533576
226	0xbc8fcf86	-0.01755501
227	0xbd65b0b5	-0.056076724
228	0xbd8eb3d9	-0.06967897
229	0x3e1309cc	0.14359206
230	0x3bead1b0	0.00716611
231	0xbd9776ad	-0.073956825
232	0xbd7e3419	-0.062061403
233	0xbc9accc8	-0.018896475
234	0x3dce91d8	0.10086411
235	0xbccfa17e	-0.02534556
236	0xbd465260	-0.048418403
237	0xbd2771e7	-0.04088011
238	0xbb06922d	-0.0020533905
239	0x3c0a1ee6	0.008430218
240	0x3e16a82c	0.1471259
241	0x3e20e41b	0.15712015
242	0x3d26ee5a	0.040754654
243	0x3aeb0ba7	0.001793255
244	0xbd8a5fc0	-0.06756544
245	0xbcd9c321	-0.026582303
246	0x3bf95734	0.0076092724
247	0xbd541cf3	-0.05178542
248	0xbd12917a	-0.03578327
249	0x3e4acb5e	0.19804141
250	0x3d2d646d	0.0423321
251	0xbdbf7795	-0.0934898
252	0xbd072913	-0.032998156
253	0x3dd19ec5	0.10235361
254	0x3a9b9500	0.0011869967
255	0x3cbe8f4e	0.023261692

linear_layer.4.weight f4 [1, 256]
0	0x3db2a589	0.087229796
1	0xbca8e92c	-0.020618998
2	0x3b8971dc	0.0041944813
3	0x3cb67ea3	0.022277182
4	0x3d363851	0.0444873
5	0x3d3936c1	0.045218233
6	0x3b74fbc2	0.0037381505
7	0xbc51a8b1	-0.012796567
8	0xbd578c37	-0.052623954
9	0x3d909f9d	0.07061694
10	0x3b560b47	0.003266053
11	0x3d0c473c	0.034247622
12	0x3d97ca47	0.07411628
13	0xbd13ad04	-0.036053672
14	0x3da269bd	0.07930324
15	0xbd4a73ef	-0.04942697
16	0x3caa39a4	0.020779438
17	0xbceb7ff3	-0.028747534
18	0xbd508af8	-0.05091378
19	0x3d1ef0d9	0.03880391
20	0x3a90d3d0	0.0011049453
21	0xbe07276e	-0.13198635
22	0xbd768bed	-0.060192037
23	0x3d1fbaba	0.038996436
24	0xbd1c3863	-0.038139712
25	0x3c0636e1	0.008191795
26	0x3ac21f56	0.0014810364
27	0x3d47efb0	0.04881257
28	0xbe74c893	-0.23904638
29	0x3d2a816f	0.041627344
30	0xbaf2f5ca	-0.0018536386
31	0x3deee5a1	0.11664892
32	0x3b03b9e1	0.0020099806
33	0xbc2dd092	-0.010608809
34	0x3ba50cc7	0.0050369236
35	0xbe34db4a	-0.17661777
36	0x3bd06d37	0.0063606757
37	0x3d726013	0.059173655
38	0xbcffaaf4	-0.031209446
39	0x3d3d6a41	0.04624391
40	0x3c91d79d	0.017803008
41	0xbd009859	-0.03139529
42	0xbd13269f	-0.035925504
43	0x3bed9816	0.007250796
44	0xbc2fc4ee	-0.010728104
45	0xbb9ad840	-0.004725486
46	0xbd3d3ee5	-0.04620256
47	0xba5c7b89	-0.0008410742
48	0x3c4289bf	0.011873662
49	0x3ba41187	0.0050069722
50	0x3d382b8d	0.04496341
51	0x3e043a46	0.12912855
52	0x3aa8b0e6	0.0012870103
53	0xbbebc856	-0.0071955128
54	0x3cf19325	0.02948911
55	0x3bea1f21	0.007144824
56	0x3d2c5715	0.042075235
57	0x3c70fcd2	0.014708715
58	0xbd4bc6b7	-0.049750056
59	0x3d4399ba	0.047754027
60	0x3c0d1db8	0.0086130425
61	0x3d279d85	0.040921707
62	0xbd522f8c	-0.051314875
63	0xbd4ec484	-0.05048038
64	0xbd42c6b7	-0.04755279
65	0xbceb1ba7	-0.02869971
66	0x3db6bbbe	0.08922528
67	0x376f7a44	1.4273977e-05
68	0x3d715cd3	0.058926415
69	0x3caa0e8e	0.020758893
70	0xbe1ca346	-0.15296659
71	0x3be7f71a	0.0070790173
72	0x3be3805d	0.0069427923
73	0x3cd90733	0.02649269
74	0x3c51efce	0.012813522
75	0xbc2110fa	-0.009830708
76	0xbd39b790	-0.045341074
77	0x3abbdfaa	0.0014333625
78	0x3b8b1cd1	0.0042453785
79	0x3d49bd54	0.049252823
80	0xbc98b123	-0.018639153
81	0xbd367942	-0.044549234
82	0x3b9786d4	0.004624227
83	0x3c13e28d	0.009026182
84	0x3dba30f2	0.09091367
85	0x3c193cb8	0.009352855
86	0x3b4bf324	0.0031120265
87	0x3a3248f6	0.0006801033
88	0xbdde58ad	-0.10856757
89	0xbc478e20	-0.012179881
90	0xbd443820	-0.047905087
91	0xbcbc47cd	-0.022983456
92	0x3d144f7e	0.036208622
93	0xbce07461	-0.027399244
94	0x3d3ba952	0.045815773
95	0x3c95a868	0.018268779
96	0x3d20e701	0.039282802
97	0x3ba4c65e	0.00502853
98	0xba90d240	-0.0011048988
99	0xbbf1a62f	-0.007374547
100	0x3cde4280	0.027131319
101	0xbbba30f0	-0.0056821033
102	0x3d25b6d9	0.04045758
103	0xbe73aeb2	-0.2379711
104	0x3c1cda3a	0.009573514
105	0xbc275465	-0.010212992
106	0x3e05960d	0.13045521
107	0xbd1a09f5	-0.037607152
108	0xbd1f84b7	-0.038944926
109	0x3e0ad0fc	0.13556284
110	0x3d3ce7ee	0.046119623
111	0xbe748444	-0.2387858
112	0x3d74d090	0.059769213
113	0x3becc883	0.0072260513
114	0x3c2109d2	0.0098290015
115	0x3bfece3c	0.00777605
116	0x3c861fcc	0.016372584
117	0x3c5d5b06	0.013510471
118	0x3cd80ccf	0.026373295
119	0x3de8901e	0.11355613
120	0xbd53718b	-0.051621955
121	0xbe15bd84	-0.14623076
122	0xbc4d26b8	-0.012521438
123	0xbcc27f41	-0.02374232
124	0x3e274869	0.16336216
125	0x3bcee658	0.00631408
126	0x3cd39391	0.025827201
127	0x3dab5c31	0.083671935
128	0xbd5c7327	-0.053820755
129	0x3a840a53	0.0010073878
130	0x3ae84480	0.001772061
131	0x3cb60895	0.02222089
132	0x3d56b5ca	0.05241946
133	0x3d07ab19	0.033122156
134	0x3dded130	0.10879743
135	0xba8024ef	-0.0009776632
136	0x3d5e7da0	0.054319024
137	0xbb3eb786	-0.0029101088
138	0xbc34fa52	-0.011046009
139	0x3dcc8c8a	0.09987743
140	0x3d03f900	0.032219887
141	0x3d3ddf37	0.046355452
142	0x3cecb20d	0.028893495
143	0xbc82e253	-0.01597706
144	0x3d8273ee	0.06369768
145	0x3cf8254b	0.03029122
146	0xbbf37dc4	-0.007430764
147	0xbe953c9d	-0.29147807
148	0x3cc0c390	0.023530751
149	0x3c135c48	0.0089941695
150	0x3d593e2e	0.053037815
151	0x3b939029	0.004503269
152	0xbd075fa8	-0.03305021
153	0x3d3331f7	0.043748822
154	0xbc2e2448	-0.010628767
155	0xba52f190	-0.000804686
156	0x3c599dec	0.01328228
157	0x3dc24f12	0.09487738
158	0x3d3d1a36	0.046167575
159	0xbbd43813	-0.006476411
160	0xbcc39a3f	-0.023877261
161	0x3d982322	0.07428576
162	0x3ce0ec38	0.027456388
163	0x3c1b806b	0.009491066
164	0xbd1d8add	-0.03846251
165	0xbd3fdfda	-0.04684434
166	0x3cc33093	0.023826873
167	0x3d156aee	0.03647893
168	0x3d15a566	0.03653469
169	0x3de61d29	0.112360306
170	0x3d9857ae	0.074385986
171	0x3da0a551	0.078440316
172	0x3b526455	0.003210326
173	0xbda33df4	-0.07970801
174	0xbaa4e098	-0.0012579141
175	0xbd6cfb4d	-0.057856847
176	0xbd7f2cd4	-0.06229861
177	0xbd315945	-0.043298025
178	0x3c5d9965	0.013525342
179	0xbd043787	-0.032279518
180	0xbc3ffb9b	-0.011717702
181	0x3dbd544d	0.09244595
182	0xbcf6877b	-0.030093899
183	0xbb66f6d8	-0.0035242345
184	0xbcf5dcc7	-0.030012501
185	0xbe1a6f15	-0.15081437
186	0xb7c2b08f	-2.3208819e-05
187	0x3d06b3c4	0.03288628
188	0x3a2c4af2	0.0006572447
189	0xbd237afc	-0.03991221
190	0xbd1d5b7b	-0.03841732
191	0x3b7ba535	0.0038398032
192	0xbc99550e	-0.018717315
193	0x3a4cac54	0.00078076613
194	0xbcee2b1a	-0.029073287
195	0x3d209bee	0.039211206
196	0x3d9f9e28	0.07793838
197	0x3d88a5dc	0.0667226
198	0xbe6ce573	-0.23134403
199	0x3ca0aa98	0.019612595
200	0xbd61a970	-0.05509323
201	0x3cc29d02	0.023756508
202	0x3ca439b0	0.020047039
203	0xbd204598	-0.03912887
204	0x3e1c694a	0.1527454
205	0xbeb65835	-0.35614172
206	0x3dc19f18	0.09454173
207	0x3d109dbc	0.035306677
208	0x3baa2316	0.005192171
209	0xbd12f59d	-0.035878766
210	0xbdfcc242	-0.12341739
211	0x3caeb797	0.021327777
212	0x3d147483	0.036243927
213	0x3d88f08b	0.06686505
214	0xbc7a0660	-0.015260309
215	0x3d1b8ab6	0.037974082
216	0x3c69df94	0.014274497
217	0xbd2e3cb0	-0.042538345
218	0xbe4c0de1	-0.1992717
219	0xbd603336	-0.05473634
220	0xbd257527	-0.04039493
221	0x3cab5103	0.020912653
222	0x3e02b367	0.12763749
223	0x3b348a47	0.002754824
224	0xbd065bd3	-0.032802414
225	0x3b90fd7b	0.0044247485
226	0x3bf90bd5	0.0076002874
227	0x3cd0d78c	0.025493406
228	0xbed0fb9b	-0.4081696
229	0x3edac28a	0.42726547
230	0x3cf7d9d1	0.03025523
231	0xbcaec115	-0.021332303
232	0xbd592e89	-0.053022895
233	0xbb902fb0	-0.004400216
234	0x3d763092	0.060104914
235	0x3d6897d9	0.05678544
236	0x3bb56490	0.0055356696
237	0xbb6606ad	-0.0035099194
238	0x3ad74089	0.0016422431
239	0xbc230386	-0.0099495705
240	0x3db03e66	0.086056516
241	0x3dbe2059	0.092835136
242	0x3c1a5891	0.00942053
243	0x3c2f17a3	0.010686788
244	0xbd46f5d0	-0.04857427
245	0x3a1089d8	0.00055137044
246	0x3c6f0efb	0.014590974
247	0xbd1404fa	-0.03613756
248	0xbda5e495	-0.08100239
249	0x3e120193	0.14258413
250	0x3cd99d8c	0.026564382
251	0xbbf48764	-0.007462429
252	0xbd08a266	-0.033358
253	0x3e96c6fe	0.29448694
254	0x3ca11df4	0.019667603
255	0x3ddad323	0.106848024
