data/Apr-13_05-51-52/models/critic_2250.pth (torch, 274455 bytes, 5 tensors)

linear_layer.0.weight f4 [256, 7]
0	0xbe9e9b72	-0.3097797
1	0x3eb7b8fa	0.35883313
2	0xbe94e782	-0.29082876
3	0xbe28c296	-0.16480479
4	0xbe83f405	-0.2577211
5	0xbee8bc2d	-0.45456067
6	0xbeda9d32	-0.42698056
7	0xbe70a39d	-0.23499914
8	0xbe2ee45b	-0.17079298
9	0x3d7ba72b	0.06143872
10	0x3e18709f	0.14886712
11	0x3e51130b	0.2041742
12	0x3dc60081	0.09668065
13	0x3e1f6fb1	0.1556995
14	0xbd87a60e	-0.06623469
15	0x3e630771	0.22170807
16	0x3e1bea86	0.15226182
17	0xbdd5a2ab	-0.10431417
18	0xbe2ed066	-0.17071685
19	0x3e31bf3b	0.17358105
20	0x3ea71506	0.32633227
21	0xbe4b404c	-0.19848746
22	0x3c0e0435	0.008667995
23	0x3e70492e	0.23465416
24	0x3e20568a	0.15658012
25	0xbd99fd39	-0.075190015
26	0x3d9d467f	0.07679462
27	0xbe120822	-0.14260915
28	0xbeb3395e	-0.35004705
29	0x3e530909	0.20608915
30	0x3ec816a3	0.3907977
31	0x3e96d63e	0.2946033
32	0x3e7a8825	0.24465998
33	0x3e9daed4	0.30797446
34	0x3e4b4b88	0.19853032
35	0xbe8f3f06	-0.2797777
36	0xbeb08d08	-0.34482598
37	0xbdb0d76d	-0.08634839
38	0xbe07a0b7	-0.13244902
39	0xbeb38ef2	-0.35069996
40	0xbe57ceb9	-0.21074952
41	0xbeb25209	-0.34828213
42	0xbc690c1b	-0.014224078
43	0x3e80895e	0.25104803
44	0xbed3c2b1	-0.41359475
45	0xbeacc05f	-0.33740517
46	0x3e833e6d	0.25633565
47	0xbdd34d9f	-0.103175394
48	0x3e06d78c	0.13168162
49	0x3ebaf7e6	0.36517256
50	0x3d3919c2	0.04519058
51	0xbefaae06	-0.48960894
52	0xbb138daa	-0.0022514858
53	0xbdb31b1e	-0.087454066
54	0x3f057c8a	0.52143157
55	0xbe857720	-0.26067448
56	0xbe9d1eed	-0.30687657
57	0xbdf6342b	-0.12021669
58	0x3e9ebe0c	0.3100437
59	0xbdfbf987	-0.12303453
60	0x3e27e33b	0.16395275
61	0x3de13be2	0.1099775
62	0xbcae0d28	-0.021246508
63	0x3e9d0ab2	0.30672222
64	0xbdb4ed85	-0.08834366
65	0xbe887057	-0.26648208
66	0xbe7a3002	-0.24432376
67	0xbe2122ec	-0.15735978
68	0xbeb46273	-0.3523136
69	0x3e2e01c4	0.16992861
70	0x3ec76298	0.3894241
71	0xbd956c66	-0.07296066
72	0xbeba11ac	-0.36341608
73	0x3d8285de	0.063731894
74	0xbf8d0937	-1.1018437
75	0x3eabe5e0	0.33573818
76	0x3d3134c7	0.043263223
77	0x3e0d4ae4	0.137981
78	0xbe32b27b	-0.17450897
79	0xbca130be	-0.019676562
80	0xbdb12acb	-0.0865074
81	0x3e871a2a	0.2638715
82	0x3e3e7a2a	0.1860129
83	0x3dd7b9d4	0.10533491
84	0x3ea0802f	0.31347796
85	0xbe80debc	-0.25169933
86	0xbeb0e645	-0.34550682
87	0x3ed49c30	0.41525412
88	0xbf84ad68	-1.0365419
89	0x3e467115	0.19379075
90	0x3db19a34	0.0867199
91	0xbea0dcee	-0.31418556
92	0xbe950a02	-0.29109198
93	0x3dd80d68	0.10549432
94	0x3c576dee	0.013148768
95	0xbe0f36c4	-0.13985735
96	0x39b05813	0.00033634956
97	0xbe91269c	-0.2834977
98	0x3d34472a	0.04401318
99	0xbe8f67e7	-0.2800896
100	0xbeaffa34	-0.34370577
101	0x3d87d4c7	0.06632381
102	0x3d2bfbce	0.041988187
103	0x3e5ad933	0.21371917
104	0x3eb906f2	0.3613811
105	0xbe701930	-0.23447108
106	0xbe92d5d2	-0.28678757
107	0x3e28723e	0.1644983
108	0x3e8fcba5	0.28085056
109	0xbe7638b0	-0.24045062
110	0x3cdae971	0.026722642
111	0x3e0d6665	0.13808592
112	0xbeb8d4fd	-0.36099997
113	0xbd0e72ac	-0.03477733
114	0xbdcbefbc	-0.09957835
115	0xbc33efaa	-0.010982433
116	0x3d538dd2	0.051648922
117	0xbe8895f4	-0.26676905
118	0xbe645655	-0.22298558
119	0xbe50f90b	-0.20407502
120	0xbe446cc8	-0.19182122
121	0xbe2c1123	-0.16803412
122	0x3e89459e	0.26810926
123	0x3e5c5541	0.21516897
124	0xbe7ff596	-0.24996027
125	0x3e123492	0.14277866
126	0xbe1fc86c	-0.15603799
127	0x3d1abb60	0.03777635
128	0xbe9f010b	-0.31055483
129	0x3ddfb2e8	0.109227955
130	0xbf045cc7	-0.51704067
131	0x3da10271	0.07861794
132	0x3e720c3c	0.2363748
133	0xbde82636	-0.11335413
134	0xbeb5e521	-0.35526374
135	0x3d32e123	0.04367174
136	0xbe765973	-0.2405756
137	0x3b8e47ae	0.004342041
138	0x3e420511	0.18947245
139	0x3e61bad8	0.22043931
140	0xbf1eddf2	-0.6205741
141	0x3e6ad2e1	0.22932006
142	0xbe17316a	-0.14764944
143	0x3eed4665	0.4634277
144	0x3f78d0d4	0.97193646
145	0x3e4d0063	0.20019679
146	0xbe8fcafe	-0.28084558
147	0x399e30f6	0.00030172587
148	0x3e509322	0.20368627
149	0xbeec609a	-0.4616745
150	0x3eac52b5	0.3365685
151	0x3e1dda8a	0.15415397
152	0xbef272e4	-0.4735328
153	0x3e1003db	0.1406397
154	0x3eb9e7c0	0.36309624
155	0xbdbe0047	-0.09277397
156	0xbe92c94f	-0.2866921
157	0x3e2f6eac	0.17132062
158	0xbfd02d34	-1.6263795
159	0xbd0b0414	-0.033939436
160	0x3e6f6cb9	0.23381318
161	0xbe924871	-0.28570893
162	0x3e040f32	0.12896422
163	0xbe86b90f	-0.26313064
164	0xbdad821c	-0.08472082
165	0x3f40a396	0.7524961
166	0xbcda791a	-0.026669074
167	0xbef35f4d	-0.47533646
168	0x3dfe89aa	0.12428601
169	0xbe8e56b6	-0.2780053
170	0xbe7d4ee1	-0.24737121
171	0x3d5652c9	0.052325044
172	0x3c808ef9	0.015693175
173	0xbd99828c	-0.07495603
174	0x3ebd6f26	0.36998862
175	0xbee29dee	-0.44261116
176	0x3d374806	0.04474642
177	0x3e409863	0.18808131
178	0xbdbc85dd	-0.0920522
179	0x3ea5e00c	0.32397497
180	0x3b859d70	0.004077606
181	0xbe61b2dd	-0.22040887
182	0xbe583dde	-0.2111735
183	0xbe14fa96	-0.14548716
184	0x3eb84b7a	0.35995084
185	0xbc98444f	-0.01858726
186	0x3ef79e2e	0.4836287
187	0x3e94b30f	0.2904286
188	0xbc8ffbf4	-0.017576195
189	0x3e107350	0.14106488
190	0xbeba5b83	-0.36397943
191	0xbea162a5	-0.31520572
192	0xbe7b4538	-0.24538124
193	0xbe4f9766	-0.20272598
194	0xbe893d4c	-0.26804578
195	0xbe0f14a8	-0.13972723
196	0xbda43931	-0.08018721
197	0x3eb8b597	0.36076042
198	0x3e78ca0e	0.24295828
199	0x3e468656	0.19387183
200	0xbcfa2445	-0.030534873
201	0x3e2dbf9e	0.16967627
202	0xbd05c718	-0.032660574
203	0xbe128e67	-0.14312135
204	0x3ec4ab62	0.38412005
205	0xbe8e2c09	-0.2776797
206	0xbee5e320	-0.44899845
207	0x3ef5e0ae	0.4802298
208	0x3ddf91fb	0.109165154
209	0xbe3375fe	-0.17525479
210	0x3d98b74d	0.07456837
211	0x3ea3f788	0.3202479
212	0xbf208496	-0.6270231
213	0x3c489eaa	0.01224486
214	0x3f0ca76c	0.54942966
215	0xbe05f981	-0.1308346
216	0x3c797679	0.015226
217	0xbe623102	-0.22089007
218	0x3ca92214	0.020646133
219	0x3eefa60b	0.46806368
220	0xbe60d929	-0.2195784
221	0xbf719ceb	-0.9438006
222	0xbf0d6d29	-0.5524469
223	0x3ea637eb	0.32464537
224	0x3ead2d08	0.3382342
225	0xbe30d2cb	-0.17267911
226	0xbe90d1ae	-0.28284973
227	0x3e20c7b5	0.15701182
228	0xbf7f4170	-0.99709225
229	0x3f03dcec	0.51508975
230	0x3cac549e	0.021036442
231	0xbca4a943	-0.020100242
232	0x3e34ec02	0.17668155
233	0x3e823482	0.25430685
234	0xbf0a652f	-0.54060644
235	0xbd8d389d	-0.06895564
236	0xbf411340	-0.7542
237	0x3e8bd505	0.27310959
238	0xbe9a774f	-0.3016915
239	0xbd7d67ca	-0.06186656
240	0x3e227abb	0.1586713
241	0xbeb7cdb6	-0.35899132
242	0xbe43e89a	-0.19131699
243	0x3e6e72c9	0.23285975
244	0xbea0fa4f	-0.3144097
245	0xbdde2660	-0.10847163
246	0xbdc677b5	-0.09690801
247	0xbe2ef96b	-0.17087333
248	0x3e0daced	0.13835497
249	0x3cfc1e89	0.030776279
250	0x3e47963e	0.19490907
251	0xbdadcdb8	-0.08486503
252	0xbe1d2937	-0.15347753
253	0x3ce3519f	0.02774888
254	0xbd1f5ff5	-0.03890987
255	0x3d7654e7	0.060139563

linear_layer.0.bias f4 [256]
0	0x3e4a1a17	0.19736515
1	0xbecf941a	-0.4054268
2	0x3dc417b0	0.095748305
3	0x3e8c902d	0.27453747
4	0xbb8a3ee7	-0.0042189243
5	0xbd9617fc	-0.073287934
6	0xbe8c9128	-0.27454495
7	0x3d85cfee	0.065338
8	0xbe130635	-0.14357837
9	0x3dd1173c	0.1020951
10	0x3e32e5c9	0.17470469
11	0x3e9366d1	0.2878938
12	0xbe495e33	-0.1966484
13	0xbe3c05df	-0.18361615
14	0x3dcf9995	0.10136715
15	0x3d407662	0.0469879
16	0xbd91615c	-0.07098648
17	0xbd031c18	-0.032009214
18	0xbebc5396	-0.3678252
19	0xbca7416c	-0.020416938
20	0xbe1ac461	-0.15113975
21	0x3d15c841	0.03656793
22	0x3e18aaf5	0.14908965
23	0xbe9291f1	-0.2862697
24	0xbe9bac0f	-0.30404708
25	0x3e876065	0.2644073
26	0xbd7ca0f4	-0.061676934
27	0x3e4c1ad3	0.19932108
28	0x3e1239b6	0.14279827
29	0xbeb3a5aa	-0.3508733
30	0xbe947fbc	-0.29003704
31	0x3f0f5c2f	0.56000036
32	0x3e8151cd	0.25257722
33	0x3eb21de0	0.34788418
34	0x3d4ce9bc	0.050027594
35	0x3d278e4a	0.04090718
36	0x3e0cce2c	0.13750523
37	0x3e7cc3a1	0.24684002
38	0x3e7ca502	0.2467232
39	0xbeda8d9a	-0.42686158
40	0xbed77101	-0.42078403
41	0x3ccefcc3	0.02526701
42	0xbe28793b	-0.16452496
43	0xbd75a8dc	-0.05997549
44	0x3e21ee36	0.15813527
45	0xbe9da637	-0.30790874
46	0x3d9e8aa9	0.07741291
47	0xbd8599c1	-0.06523467
48	0x3edc35d7	0.43009827
49	0xbefc1a76	-0.49238938
50	0xbdd6970b	-0.10478028
51	0xbdfef749	-0.1244951
52	0x3d0eae40	0.034834146
53	0x3ca11b11	0.019666227
54	0x3e80431c	0.250512
55	0xbdc5df69	-0.09661753
56	0xbe8fbb4a	-0.28072578
57	0xbd8ff73f	-0.0702958
58	0x3ce96bf7	0.028493864
59	0x3db9b00c	0.090667814
60	0x3e88ee9f	0.26744553
61	0x3dc79f13	0.09747138
62	0xbaf053f3	-0.0018335566
63	0xbe934ff3	-0.28771934
64	0xbe3a749a	-0.18208542
65	0xbe6f03da	-0.23341313
66	0x3c4a46fb	0.012346025
67	0xbdae964f	-0.08524763
68	0x3ea65093	0.32483348
69	0xbec87fb8	-0.39159942
70	0xbea5e261	-0.32399276
71	0xbcd4e548	-0.025988236
72	0xbe3b83e4	-0.18312031
73	0x3e9b0a39	0.30281237
74	0xbe4cc6c9	-0.19997706
75	0xbc211177	-0.009830824
76	0x3ca248bc	0.019810073
77	0xbe431191	-0.1904967
78	0xbe069a6d	-0.13144846
79	0x3d319190	0.04335171
80	0xbe474368	-0.19459307
81	0x3e3bd030	0.18341136
82	0xbee75c05	-0.45187393
83	0xbd7d7232	-0.061876483
84	0xbdd2f108	-0.10299879
85	0xbe07ade0	-0.13249922
86	0x3eccef61	0.40026382
87	0xbeafe760	-0.34356213
88	0x3e269506	0.16267785
89	0x3d89d246	0.067295596
90	0xbc738122	-0.014862331
91	0xbe179a3b	-0.14804928
92	0x3d938862	0.07203747
93	0xbea5e4a0	-0.3240099
94	0xbeb16fbb	-0.34655556
95	0xbc9e200f	-0.019302396
96	0xbdb9dd74	-0.09075442
97	0xbe9a40ae	-0.30127472
98	0xbe838d85	-0.25693908
99	0x3e0853a2	0.13313153
100	0x3db27d36	0.08715288
101	0x3cd322c0	0.025773406
102	0xbec86f1f	-0.3914728
103	0xbee8ba90	-0.45454836
104	0xbdedc2f3	-0.11609449
105	0xbebbe020	-0.3669443
106	0x3e0d20c8	0.13782036
107	0xbe8abea0	-0.2709856
108	0xbd82aa1a	-0.063801005
109	0x3ec7b5da	0.3900593
110	0xbe896e3a	-0.2684191
111	0x3e052f77	0.13006388
112	0xbd2d4685	-0.04230358
113	0xbe7d205c	-0.24719375
114	0x3ec1230b	0.37722048
115	0x3e7e42c6	0.2483016
116	0x3e7f7685	0.24947555
117	0x3d934096	0.07190053
118	0x3e375067	0.17901765
119	0xbed184a4	-0.4092151
120	0xbe5f8df2	-0.21831492
121	0xbe4441d7	-0.19165741
122	0xbe627aa5	-0.22117098
123	0x3dcee674	0.10102549
124	0x3ebfaf92	0.37438637
125	0xbecb3bbe	-0.39694017
126	0x3eb279ee	0.3485865
127	0xbea5a409	-0.3235171
128	0xbec91d91	-0.3928037
129	0x3e348f9f	0.17632912
130	0xbdb4743c	-0.088112324
131	0xbf1693dc	-0.58819366
132	0xbe66a03c	-0.22522062
133	0xbe81a102	-0.25318152
134	0x3e459e9a	0.19298783
135	0xbec24071	-0.3793979
136	0xbece2004	-0.402588
137	0x3e3c85d2	0.18410423
138	0xbeb3d3d7	-0.35122558
139	0xbe289191	-0.16461779
140	0xbee22fa2	-0.44176966
141	0xbead73c1	-0.33877376
142	0xbeda4b6f	-0.42635676
143	0xbf0148db	-0.50501794
144	0xbd65b417	-0.05607995
145	0x3eb8b1f0	0.36073256
146	0x3ea3c1cd	0.31983796
147	0xbea54f5c	-0.3228711
148	0x3dd0737b	0.10178276
149	0xbe1db65a	-0.15401593
150	0xbe84c788	-0.2593348
151	0xbe05ca97	-0.13065563
152	0xbd85b07c	-0.06527802
153	0xbe91ff1d	-0.28514948
154	0xbe8d4946	-0.27594966
155	0xbea17618	-0.3153541
156	0xbe341292	-0.17585209
157	0xbe285fd8	-0.16442811
158	0x3e4c8fc5	0.19976719
159	0x3e0e74c4	0.1391173
160	0x3d5b0a0d	0.053476382
161	0xbe952567	-0.29130098
162	0x3e32aa98	0.17447889
163	0x3e7a0586	0.2441617
164	0x3e3106a1	0.17287685
165	0x3d952c54	0.072838455
166	0xbf074e04	-0.5285342
167	0xbe4fd4d4	-0.20296031
168	0xbe4d0cc9	-0.20024408
169	0xbe79dbeb	-0.24400298
170	0x3e8df33f	0.27724645
171	0x3e7beccb	0.24602048
172	0x3e497f4f	0.1967747
173	0x3e8aaf45	0.27086845
174	0xbd89a626	-0.067211434
175	0xbd4770be	-0.048691504
176	0xbe900138	-0.2812593
177	0x3d23c6f9	0.039984677
178	0x3e782d89	0.2423612
179	0xbdf4115a	-0.11917372
180	0x3ebc3e1f	0.36766145
181	0x3d787f0f	0.060668048
182	0xbd76be8a	-0.060240306
183	0x3ed1b752	0.40960175
184	0xbee6f86e	-0.45111412
185	0xbe5e917e	-0.21735188
186	0xbe395675	-0.18099387
187	0x3df91b1b	0.12163373
188	0x3eae6ca3	0.34067258
189	0x3e2a424c	0.16626853
190	0x3e714390	0.2356093
191	0xbebf8e4d	-0.37413254
192	0xbeaf120f	-0.34193465
193	0xbe0f4439	-0.13990869
194	0xbd29d5a9	-0.041463528
195	0x3df0c2cf	0.11755907
196	0xbe5e4792	-0.2170699
197	0x3e286c9e	0.16447684
198	0xbedaee9f	-0.42760178
199	0x3d69e6d5	0.057104904
200	0x3d9c9fa9	0.0764764
201	0xbe433b15	-0.19065507
202	0xbe981889	-0.2970622
203	0xbdb1418e	-0.08655082
204	0xbdebe6f3	-0.115186594
205	0x3f0dfd13	0.55464286
206	0xbc8fa549	-0.017534869
207	0xbe57a199	-0.21057738
208	0xbebb23e9	-0.36550835
209	0xbe917e6e	-0.2841677
210	0x3e03e12e	0.12878868
211	0x3e5645c1	0.20925047
212	0xbe85071a	-0.2598198
213	0x3ec22089	0.37915447
214	0x3d5401bc	0.051759467
215	0x3cc322e7	0.023820354
216	0x3ea38043	0.31933793
217	0xbdeffd5e	-0.11718248
218	0xbf00c2ea	-0.50297415
219	0xbe6800c2	-0.22656539
220	0x3d268529	0.040654335
221	0x3e39e0ca	0.18152156
222	0xbe146991	-0.14493395
223	0xbe7bf255	-0.24604161
224	0xbe96d48a	-0.2945903
225	0xbe88ad80	-0.2669487
226	0xbe119a87	-0.14219104
227	0x3ea47cc7	0.32126448
228	0xbdc17721	-0.0944655
229	0xbd16da3c	-0.03682922
230	0xbdd5e231	-0.10443533
231	0xbce7618d	-0.028244758
232	0x3ea9d431	0.33169702
233	0xbc7d467a	-0.015458697
234	0xbe38e8c7	-0.18057548
235	0x3e6a4852	0.2287915
236	0x3d60d68e	0.054892115
237	0xbe297757	-0.16549431
238	0x3dc0895b	0.094011985
239	0xbf074844	-0.52844644
240	0x3d6e7e72	0.058226056
241	0x3ecfbda0	0.4057436
242	0xbeafee18	-0.3436134
243	0x3e8df123	0.27723035
244	0xbdebcd91	-0.11513818
245	0x3e276969	0.16348805
246	0xbea18d06	-0.31552905
247	0xbf083091	-0.53199106
248	0xbe1e7052	-0.15472534
249	0x3dca6755	0.0988299
250	0x3e60b122	0.21942571
251	0xbdc44f36	-0.09585421
252	0x3e8cb865	0.27484432
253	0x3eb8abd2	0.36068588
254	0xbed43eb6	-0.41454095
255	0x3eceeed8	0.40416598

linear_layer.2.weight f4 [256, 256]
0	0x3b9c0f87	0.004762593
1	0x3cbf06eb	0.023318728
2	0x3e2a77da	0.16647282
3	0x3dbe0c63	0.09279706
4	0x3e564b16	0.2092708
5	0xbd29c9fe	-0.0414524
6	0xbd0ed9bd	-0.03487562
7	0x3d9a84d5	0.07544867
8	0xbddac667	-0.106823735
9	0xbd343750	-0.043998063
10	0x3de771e9	0.113010235
11	0x3d302502	0.043004043
12	0x3e7a9f84	0.24474913
13	0x3d4100ac	0.04711978
14	0xbb813380	-0.003942907
15	0x3a854f26	0.0010170683
16	0x3c0266c0	0.007959068
17	0x3ceeefd0	0.029167086
18	0xbd9bc171	-0.076052554
19	0x3cca5064	0.024696536
20	0xbd19b6e5	-0.037527937
21	0xbd193b8b	-0.0374103
22	0xbd9bddba	-0.0761065
23	0xbccd97d3	-0.02509681
24	0xbd12494a	-0.035714425
25	0x3d17d32d	0.037066627
26	0x3e1b2789	0.151518
27	0xbd47bb46	-0.048762582
28	0x3e6d5933	0.23178558
29	0xbe4e4697	-0.20144115
30	0xbf1da684	-0.6158221
31	0x3d9c152b	0.07621225
32	0x3dc0a0c4	0.094056636
33	0x3de9da37	0.11418574
34	0x3c8206a4	0.015872307
35	0xbcbf014c	-0.023316048
36	0x3d084b08	0.03327468
37	0x3cdd2580	0.02699542
38	0xbc62df78	-0.013847224
39	0x3ca1f50a	0.019770164
40	0x3da04510	0.078256726
41	0x3df3f4d3	0.11911931
42	0xbc7406f8	-0.01489424
43	0xbd6a1f70	-0.057158887
44	0xbc511e98	-0.012763642
45	0x3d4d14f4	0.05006881
46	0x3d685ece	0.056731038
47	0x3d80d1dc	0.062900275
48	0x3d6f2039	0.05838034
49	0xbeb485f2	-0.35258442
50	0xbd613a30	-0.054987133
51	0x3da92154	0.0825831
52	0x3bc89d10	0.006122239
53	0x3e232165	0.15930708
54	0xbd0a8248	-0.033815652
55	0xbbf75a40	-0.0075486004
56	0xbd6de9f4	-0.058084443
57	0x3ca1ef7c	0.019767515
58	0x3da2339d	0.07920001
59	0x3c7dc8e8	0.015489794
60	0x3c9797aa	0.018504936
61	0xbaec3b86	-0.001802311
62	0xbe348f1e	-0.1763272
63	0xbc6c0220	-0.0144048035
64	0x3d5ba074	0.053619817
65	0xbbed64cb	-0.0072446815
66	0xbb68e6ad	-0.0035537884
67	0x3c934188	0.017975584
68	0x3dd4eaf0	0.10396373
69	0xbcf111d4	-0.029427446
70	0xbc0c57e0	-0.008565873
71	0x3d645a44	0.055750147
72	0x3c91e8b6	0.01781116
73	0x3da689c7	0.08131748
74	0xbe02d976	-0.12778267
75	0xbd7269e4	-0.059183016
76	0x3d742b7f	0.059611794
77	0xbd99ea7b	-0.07515427
78	0x3d30d5d3	0.04317267
79	0xbecea4c6	-0.40360087
80	0x3c886d12	0.016653571
81	0xbd7035cc	-0.058645055
82	0x3d80cdc1	0.062892444
83	0xbc8b3f0c	-0.016997837
84	0xbdaa9a77	-0.08330243
85	0xbe8c4992	-0.2739988
86	0x3e8cb107	0.2747881
87	0xbf0006a8	-0.50010157
88	0x3ec4ecae	0.38461822
89	0x3c390778	0.011293285
90	0x3e396d7b	0.1810817
91	0xbcafbdcb	-0.021452805
92	0x3d54e664	0.05197753
93	0xbbbaede8	-0.00570463
94	0xbdb94b65	-0.090475835
95	0xbe4de606	-0.20107278
96	0xbd86463f	-0.06556367
97	0xbd0589cf	-0.032602128
98	0x3c9c57ec	0.019084893
99	0x3e2774e4	0.16353184
100	0xbcb9c244	-0.02267564
101	0xbbcae115	-0.0061913827
102	0x3de6d8e1	0.11271835
103	0xbe3a5680	-0.1819706
104	0xbcc4cc1c	-0.024023108
105	0x3bbc6240	0.005749017
106	0xbd663fb6	-0.056213103
107	0x3b56d9a0	0.0032783523
108	0x3c9f7e07	0.019469274
109	0xbe160c70	-0.14653182
110	0xbde24bc5	-0.11049608
111	0x3ca20ddc	0.019782
112	0x3dfa4755	0.12220637
113	0x3d83ac9d	0.06429408
114	0xbd5251ee	-0.051347665
115	0xbf9cf4ae	-1.226217
116	0xbd7e6e30	-0.0621168
117	0x3e21dfaa	0.15807977
118	0xbcd929ff	-0.026509283
119	0xbd683274	-0.05668874
120	0xbca86824	-0.02055747
121	0x3cc47e86	0.023986112
122	0x3d4d7964	0.050164595
123	0xbd898598	-0.06714934
124	0xbd44260e	-0.047887854
125	0xbe3095ef	-0.17244695
126	0xbcc72114	-0.024307765
127	0x3d284fac	0.041091606
128	0xbd1cc0d4	-0.038269833
129	0x3e29257b	0.16518204
130	0x3d35d992	0.044396944
131	0xbd38ffbd	-0.045165766
132	0x3d43b094	0.04777582
133	0x3d20ca27	0.039255287
134	0xbd104c56	-0.03522905
135	0x3d9100ae	0.07080208
136	0xbce97dc2	-0.028502349
137	0x3d3a252a	0.0454456
138	0x3d718da1	0.05897296
139	0xbc373cf6	-0.011183968
140	0xbddb2750	-0.10700858
141	0xbed9452e	-0.42435592
142	0xbe128767	-0.14309464
143	0xbc83f862	-0.01610965
144	0xbd68229e	-0.05667364
145	0xbc07efd0	-0.008296922
146	0xbd22cd34	-0.03974648
147	0xbe51d2c6	-0.2049056
148	0x3d2659e8	0.040613085
149	0xbcd6affb	-0.02620696
150	0xbb73e91b	-0.00372178
151	0x3e23ba66	0.15989074
152	0x3d0aa071	0.033844415
153	0x3c84ea6c	0.016225062
154	0xbc62fc8a	-0.013854155
155	0x3cabe26e	0.020981994
156	0xbd8e2e6f	-0.0694245
157	0xbde9ee5a	-0.11422415
158	0xbd187602	-0.037221916
159	0x3d795176	0.060868703
160	0x3c741258	0.014896952
161	0xbac52e00	-0.0015043616
162	0xbcbf193e	-0.023327466
163	0xbcfce9b6	-0.03087316
164	0x3d5fbbe8	0.05462256
165	0x3e18ec86	0.14933977
166	0xbed8906c	-0.42297685
167	0x3d49d5f6	0.049276315
168	0xbd768fe6	-0.060195826
169	0x3dc5d1cc	0.09659156
170	0xbd1bc39e	-0.038028352
171	0x3d5970de	0.053086154
172	0x3b01c31e	0.0019800137
173	0xbd0d07aa	-0.034431137
174	0xbd9f4957	-0.0777766
175	0x3ae3e266	0.0017386198
176	0x3da4e535	0.0805153
177	0x3ca5657a	0.02018999
178	0x3d7db514	0.061940268
179	0xbd4ac800	-0.04950714
180	0xbbe97cb0	-0.0071254596
181	0xbd5a7b24	-0.053340092
182	0xbd70678e	-0.058692507
183	0x3db7dc79	0.08977599
184	0xbc293841	-0.010328353
185	0xbee6806a	-0.45019847
186	0x3c1bed64	0.009517048
187	0xbd41b8e9	-0.047295485
188	0x3e057f1d	0.13036771
189	0x3d9d3522	0.0767615
190	0x3d3da32c	0.04629819
191	0xbd1f1f5d	-0.03884827
192	0x3d522774	0.051307157
193	0xbdd880ea	-0.105714634
194	0x3d9da11c	0.07696745
195	0x3cb8b847	0.022548808
196	0x3d4e8dd1	0.050428215
197	0xbcc2f1e4	-0.023796983
198	0x3dc6b8ff	0.09703254
199	0xbcf7bac4	-0.030240424
200	0x3d0fd36b	0.035113733
201	0xbcacd657	-0.021098299
202	0xbd3f3c04	-0.046688095
203	0x3db2a9ac	0.087237686
204	0xbd4fa7a6	-0.05069699
205	0x3e1ffe1b	0.15624277
206	0xbdf62b18	-0.12019938
207	0x3d608c1a	0.05482111
208	0x3db64502	0.08899881
209	0x3d90fcdf	0.07079481
210	0xbdab64a8	-0.08368808
211	0x3d654d28	0.055981785
212	0x3c9e5124	0.0193258
213	0xbc43ca13	-0.011950034
214	0x3e80cdd0	0.25157022
215	0xbd16b548	-0.036793977
216	0xbda295f5	-0.07938758
217	0x3d61f59f	0.055165883
218	0x3c89e36a	0.016832072
219	0x3d66aefc	0.05631922
220	0xbd96a689	-0.07355983
221	0xbde8911b	-0.11355802
222	0x3cd3ad92	0.0258396
223	0xbd3362d8	-0.043795437
224	0xbd47e542	-0.04880262
225	0xbd1ba160	-0.037995696
226	0xbe100331	-0.14063717
227	0xbc6c2d25	-0.01441506
228	0xbe14876f	-0.14504789
229	0xbc3824b0	-0.011239216
230	0x3d896336	0.06708376
231	0x3d6ca476	0.05777403
232	0xbc8ebb90	-0.017423421
233	0x3d11cbf0	0.03559488
234	0xbde1667e	-0.11005877
235	0x3e358070	0.17724776
236	0x3d0fa3cc	0.03506832
237	0x3dd32d6a	0.103113964
238	0xbd48d466	-0.049030684
239	0x3cb839e7	0.022488547
240	0x3e809c80	0.251194
241	0xbe5619c9	-0.20908274
242	0xbd61ab00	-0.05509472
243	0xbd510b15	-0.05103596
244	0xbd360cd7	-0.04444584
245	0x3bfc2f34	0.0076960567
246	0xbe58b258	-0.21161783
247	0x3ce0be4d	0.027434492
248	0x3cb4373e	0.021998998
249	0x3ab34576	0.0013677317
250	0x3b8f8393	0.0043796985
251	0xbc4ba927	-0.012430466
252	0xbd082203	-0.03323556
253	0x3d541293	0.051775526
254	0xbd9ad94b	-0.075609766
255	0x3d7e61ac	0.062104866

linear_layer.2.bias f4 [256]
0	0x3edc1a60	0.42988873
1	0xbc40de6f	-0.011771782
2	0x3d390ca5	0.045178074
3	0x3d27f0a1	0.041000966
4	0xbd861f99	-0.065489955
5	0x3c76f19e	0.015072254
6	0xbdb86258	-0.090031326
7	0xbcf5efb3	-0.030021524
8	0xbd064aea	-0.032786287
9	0x3ea07215	0.31337038
10	0xbd5cf2cf	-0.053942498
11	0x3c740331	0.014893339
12	0x3d9ac522	0.07557131
13	0xbbacf179	-0.005277809
14	0x3d9a5d17	0.07537287
15	0x3d45b390	0.048266947
16	0x3c23b82d	0.009992641
17	0x3d33a516	0.04385861
18	0x3cf40986	0.029789697
19	0xbcb36ccc	-0.021902464
20	0xbd834338	-0.06409305
21	0xbd7e7096	-0.06211909
22	0x3d08fee2	0.0334462
23	0x3d27735b	0.040881496
24	0xbd778163	-0.060426127
25	0xbd887093	-0.06662097
26	0x3c2f9232	0.010716008
27	0x3c547940	0.012968361
28	0xbda36239	-0.07977719
29	0x3cbfda0f	0.023419408
30	0x3c0c06ec	0.008546572
31	0x3ed3f4ff	0.41397855
32	0x3d1b3d06	0.037899993
33	0x3d1424fa	0.036168076
34	0x3ba45c29	0.005015869
35	0xbe58d706	-0.21175775
36	0x3db0ef0c	0.086393446
37	0x3ea58d01	0.3233414
38	0x3c166219	0.009178662
39	0xbab0c31c	-0.0013485881
40	0xbdc10c72	-0.09426202
41	0xbd965d44	-0.07342008
42	0xbd0bf623	-0.03417028
43	0x3cf130d5	0.02944223
44	0x3b09dd89	0.0021036586
45	0x3ce5f214	0.028069533
46	0x3ca72b9f	0.020406542
47	0x3c5700f8	0.01312279
48	0xbd3cd8a8	-0.046105057
49	0xba922e61	-0.0011152738
50	0xbd87c2f8	-0.06628984
51	0x3e3b151a	0.18269768
52	0xbd9e10dc	-0.077180594
53	0xbd938bcc	-0.072043985
54	0xbdb2f063	-0.087372564
55	0xbd110fc0	-0.03541541
56	0x3c90bb01	0.017667295
57	0x3e31403a	0.17309657
58	0xbd4dfdb9	-0.050290797
59	0xbca3ed04	-0.020010479
60	0xbd0ddce4	-0.034634486
61	0xbcdfdd48	-0.027327195
62	0xbd89a900	-0.06721687
63	0xbd2e8b12	-0.042613097
64	0x3d26ffcc	0.04077129
65	0xbd4606ff	-0.048346516
66	0x3e597d5c	0.21239227
67	0xbd049928	-0.032372624
68	0x3e0f8323	0.14014868
69	0xbd852289	-0.06500728
70	0xbb0dae54	-0.00216188
71	0xbdb147a6	-0.08656244
72	0x3d1895c1	0.03725219
73	0xbd8a67c6	-0.067580745
74	0xbd74e233	-0.059786033
75	0xbccaf82d	-0.024776543
76	0x3c131608	0.008977421
77	0xbd68dcfe	-0.05685138
78	0xbd16acc0	-0.03678584
79	0xbd08eca5	-0.033428807
80	0xbd2c97ab	-0.04213683
81	0xbd84b744	-0.06480268
82	0xbcd1a0f2	-0.02558944
83	0x3d8c629c	0.06854746
84	0x3ca2cccc	0.019873045
85	0xbd0dcdd8	-0.034620136
86	0xbce8f1cd	-0.028435612
87	0x3cabb8ef	0.020962207
88	0xbea99281	-0.33119586
89	0xbd8bf998	-0.068347156
90	0x3d12b49a	0.035816766
91	0xbd99bebd	-0.075070836
92	0x3ce3d85c	0.02781313
93	0x3cdcb584	0.026942022
94	0xbd184e6b	-0.03718416
95	0x3c485546	0.012227362
96	0x3cda5b2f	0.026654808
97	0xbd3c6a0e	-0.04599958
98	0x3d2a141a	0.041523077
99	0xbd280f3c	-0.041030154
100	0xbd4f6468	-0.050632864
101	0x3d35cfdf	0.044387694
102	0x3c198e45	0.009372299
103	0xbe49c33d	-0.19703384
104	0xbd61817b	-0.055055123
105	0x3c1fb394	0.009747405
106	0x3ec05815	0.375672
107	0xbda8fbbe	-0.08251141
108	0xbcb21ef6	-0.021743279
109	0x3eb65548	0.3561194
110	0xbd5ae45f	-0.053440448
111	0xbdc2847f	-0.09497928
112	0xbd60def2	-0.054900117
113	0xbd3d6cea	-0.046246447
114	0x3d6d995d	0.058007587
115	0xbd94b998	-0.07261962
116	0x3c93e7c5	0.018054852
117	0x3bcf1a70	0.0063202903
118	0xbc81513a	-0.015785802
119	0x3edd1dba	0.43186742
120	0xbe0857a2	-0.1331468
121	0xbd5edd06	-0.054410003
122	0xbd8d69aa	-0.069049194
123	0xbda4ffab	-0.08056577
124	0x3ee78ab4	0.4522301
125	0x3d14dc50	0.03634292
126	0xbb818bee	-0.0039534485
127	0x3edbc170	0.4292102
128	0x3cd0f1aa	0.02550586
129	0xbd31d240	-0.0434134
130	0xbda873da	-0.08225222
131	0xbc15449a	-0.009110594
132	0xbc9abbbc	-0.018888347
133	0xbda35884	-0.079758674
134	0x3ea1d845	0.31610313
135	0x3ce03078	0.027366862
136	0x3a98f9a1	0.0011671075
137	0xbc91b40b	-0.017786046
138	0xbd9a2585	-0.075266875
139	0x3eb335f2	0.35002095
140	0x3c1a6051	0.009422378
141	0x3de547d1	0.111953385
142	0x3cbd47e5	0.023105571
143	0xbd9f3621	-0.07773996
144	0x3ead3060	0.3382597
145	0x3c81987d	0.015819782
146	0x3cfb1ac4	0.030652411
147	0xbdfd980c	-0.12382516
148	0xbc90496c	-0.017613135
149	0x3bb8aaae	0.005635581
150	0xbc883d1b	-0.0166307
151	0x3c03c8a1	0.008043439
152	0xbc85552c	-0.016275965
153	0x3d1fee1b	0.039045434
154	0x3c982bbc	0.018575542
155	0x3cb6e9f8	0.022328362
156	0xbc863c69	-0.016386228
157	0x3ebf9dac	0.37424982
158	0xbc70cea9	-0.014697709
159	0xbc4b6982	-0.012415292
160	0x3d1c38f9	0.03814027
161	0x3ed02376	0.40652055
162	0xbd42c890	-0.047554553
163	0xbd9717ca	-0.07377584
164	0xbd018d9f	-0.0316292
165	0x3b699a59	0.0035644977
166	0xbcd9d5b9	-0.026591169
167	0xbd1fb679	-0.03899238
168	0xbe22dd39	-0.15904702
169	0x3e0ae484	0.13563734
170	0x3e9c4704	0.3052293
171	0x3e9b61dd	0.303481
172	0xbcc4bde4	-0.024016328
173	0xbda489f7	-0.08034127
174	0x3c681a50	0.01416643
175	0xbcf7181a	-0.03016286
176	0xbcfa800c	-0.030578636
177	0xbd5521cd	-0.052034188
178	0xbb4f2b70	-0.0031611584
179	0xbd7ea68d	-0.062170554
180	0xbd3bd7fa	-0.04586027
181	0x3e9f4246	0.3110525
182	0xbde66770	-0.11250198
183	0xbc827f7b	-0.015929928
184	0xbd7fa2ff	-0.062411305
185	0xbe832548	-0.2561438
186	0x3d3939fd	0.045221318
187	0xbd528ef7	-0.051405873
188	0x3d0ace51	0.033888165
189	0xbc59f014	-0.013301868
190	0xbc2be119	-0.010490679
191	0x3cf13a1a	0.02944665
192	0x3be9d972	0.007136517
193	0xbd4ced03	-0.05003072
194	0xbd5fff73	-0.054686975
195	0x3c6f4622	0.014604123
196	0x3e9d3461	0.30704024
197	0x3d882cf6	0.066492006
198	0xbe94373f	-0.289484
199	0xbe486bd2	-0.1957238
200	0xbd1072c7	-0.03526571
201	0x3c444bf1	0.0119809965
202	0xbd9c4538	-0.0763039
203	0xbdc69602	-0.096965805
204	0x3f06ad74	0.5260842
205	0xbe420450	-0.18946958
206	0x3eb264d9	0.34842566
207	0xbd61379d	-0.054984678
208	0xbd12ae5c	-0.035810813
209	0xbc8ec5b8	-0.017428264
210	0x3bd15e5b	0.006389422
211	0x3c2051fd	0.0097851725
212	0xbd550157	-0.05200323
213	0x3e0316c8	0.12801659
214	0xbb5732e4	-0.003283673
215	0xbd5aca80	-0.053415775
216	0xbd857935	-0.06517259
217	0xbd9100be	-0.0708022
218	0xbcdbd303	-0.026834017
219	0xbcf830aa	-0.030296642
220	0xbaeeb912	-0.0018213114
221	0xbcd71b70	-0.0262582
222	0x3ebaca59	0.36482504
223	0xbdec4270	-0.115361094
224	0xbd74a8d6	-0.059731327
225	0x3e2e03c4	0.16993624
226	0xbc8fcf86	-0.01755501
227	0xbd68cf8d	-0.05683856
228	0xbdb9a515	-0.0906469
229	0x3e8bf02d	0.27331677
230	0x3b2b2b4e	0.002611834
231	0xbd9776ad	-0.073956825
232	0xbd7e3419	-0.062061403
233	0xbc9accc8	-0.018896475
234	0x3e61efb0	0.2206409
235	0xbccfa17e	-0.02534556
236	0xbd465260	-0.048418403
237	0xbd2771e7	-0.04088011
238	0xbb06922d	-0.0020533905
239	0x3c0a1ee6	0.008430218
240	0x3e9a8810	0.30181932
241	0x3eba2649	0.36357334
242	0x3d1dd22e	0.03853052
243	0x3aeb0ba7	0.001793255
244	0xbda38e38	-0.079861104
245	0xbcdaf987	-0.026730312
246	0x3bf95734	0.0076092724
247	0xbd5ad611	-0.053426806
248	0xbd8b6ba3	-0.068076394
249	0x3ede185e	0.43377966
250	0x3e07fccc	0.13280028
251	0xbdc64174	-0.09680453
252	0xbd26ab2e	-0.040690593
253	0x3dfcdb07	0.12346464
254	0xbd11f69a	-0.03563557
255	0x3c1c3499	0.009534025

linear_layer.4.weight f4 [1, 256]
0	0x3e122a02	0.14273837
1	0xbba8b46c	-0.005148461
2	0x3adc208b	0.0016794367
3	0x3cb67ea3	0.022277182
4	0x3d1bd863	0.03804816
5	0x3d3936c1	0.045218233
6	0xbc7107f6	-0.014711371
7	0xbc36a354	-0.011147339
8	0xbd222386	-0.03958466
9	0x3e09ec36	0.13469014
10	0x3bc73ecf	0.0060804854
11	0x3d080086	0.033203624
12	0x3dc880a9	0.09790165
13	0xbd0983fd	-0.03357314
14	0x3d9a57a6	0.07536249
15	0xbd4a73ef	-0.04942697
16	0x3c466af2	0.012110459
17	0xbce88f0c	-0.028388523
18	0xbd781b3d	-0.06057285
19	0x3cf94efc	0.03043317
20	0x3a90d3d0	0.0011049453
21	0xbbb88034	-0.0056305174
22	0xbd768bed	-0.060192037
23	0x3d1fbaba	0.038996436
24	0xbd1c3863	-0.038139712
25	0x3c0636e1	0.008191795
26	0x3c80afc3	0.01570881
27	0x3d47efb0	0.04881257
28	0xbf71db2d	-0.9447506
29	0x3d2a816f	0.041627344
30	0x3b2b1129	0.0026102758
31	0x3e44f802	0.19235232
32	0x39e712cc	0.00044073758
33	0xbc282118	-0.010261796
34	0x3ba50cc7	0.0050369236
35	0xbe853064	-0.26013482
36	0x3ceb351b	0.028711846
37	0x3e1bb67d	0.15206333
38	0xbcffaaf4	-0.031209446
39	0x3d3a685a	0.045509674
40	0x3c91d79d	0.017803008
41	0xbd009859	-0.03139529
42	0xbcf5282b	-0.02992638
43	0x3be5edd7	0.007016878
44	0xbc2fc4ee	-0.010728104
45	0xbb9ad840	-0.004725486
46	0xbd3d3ee5	-0.04620256
47	0xba5c7b89	-0.0008410742
48	0x3c4289bf	0.011873662
49	0x3ba41187	0.0050069722
50	0x3d382b8d	0.04496341
51	0x3ead045f	0.33792397
52	0x3e8766bf	0.26445577
53	0xbbebc856	-0.0071955128
54	0x3c987b2b	0.018613419
55	0x3bea1f21	0.007144824
56	0x3d80882f	0.06275975
57	0x3df09806	0.11747746
58	0xbd4bc6b7	-0.049750056
59	0x3d4399ba	0.047754027
60	0x3abe16db	0.0014502661
61	0x3d1b7058	0.037948936
62	0xbd522f8c	-0.051314875
63	0xbd16ee03	-0.03684808
64	0xbd42c6b7	-0.04755279
65	0xbceb1ba7	-0.02869971
66	0x3e2aa03d	0.16662689
67	0xbb202d3a	-0.002444102
68	0x3d7c3671	0.061575357
69	0x3caa0e8e	0.020758893
70	0xbe31dc03	-0.17369084
71	0xbb97a15c	-0.00462739
72	0x3be3805d	0.0069427923
73	0x3cc90aad	0.024541223
74	0x3c51efce	0.012813522
75	0x3bc413c6	0.0059838025
76	0xbd33acce	-0.04386597
77	0x3a8da15c	0.0010805535
78	0x3c345c21	0.011008293
79	0x3d49bd54	0.049252823
80	0xbb824d7b	-0.0039765215
81	0xbd367942	-0.044549234
82	0x3b9786d4	0.004624227
83	0xba1ea0af	-0.00060511654
84	0x3db987e9	0.09059126
85	0x3c193cb8	0.009352855
86	0x3c921715	0.017833272
87	0xbbffb34c	-0.0078033563
88	0xbeb2cb93	-0.3492094
89	0xbc478e20	-0.012179881
90	0xbd443820	-0.047905087
91	0xbbf49200	-0.0074636936
92	0x3ba48004	0.0050201435
93	0xbce07461	-0.027399244
94	0x3d13951c	0.036030874
95	0x3b7b65d4	0.0038360255
96	0x3d11b2c8	0.03557089
97	0x3ba4c65e	0.00502853
98	0xba90d240	-0.0011048988
99	0x3b19fecc	0.0023497818
100	0x3cde4280	0.027131319
101	0xbbba30f0	-0.0056821033
102	0x3d25b6d9	0.04045758
103	0xbed2dc27	-0.41183588
104	0x3c1cda3a	0.009573514
105	0x3ae44f3c	0.0017418633
106	0x3e4728a9	0.19449104
107	0xbca49ff3	-0.020095801
108	0xbd1f84b7	-0.038944926
109	0x3ec0d06c	0.37659013
110	0x3d3305a3	0.043706547
111	0xbf1207bb	-0.57043046
112	0x3d74d090	0.059769213
113	0x3b974102	0.004615904
114	0x3c2109d2	0.0098290015
115	0x3bdfa611	0.0068252166
116	0x3bf358dd	0.007426365
117	0xb92ed1b4	-0.00016672054
118	0x3cd80ccf	0.026373295
119	0x3e32825f	0.17432545
120	0xbdc7f862	-0.09764172
121	0xbe03b13f	-0.12860583
122	0x3ebfda5a	0.37471277
123	0xbcc27f41	-0.02374232
124	0x3e65e9da	0.22452489
125	0xbc995ab2	-0.018720005
126	0x3cd39391	0.025827201
127	0x3dfcebae	0.1234964
128	0xbd5c7327	-0.053820755
129	0x3a840a53	0.0010073878
130	0xbc58cebd	-0.013232884
131	0x3bec02a2	0.0072024623
132	0x3d568730	0.05237502
133	0x3ce77b00	0.028256893
134	0x3e19e75a	0.1502966
135	0x3e85a7ed	0.2610468
136	0x3d59dfad	0.05319183
137	0x3c4cfba3	0.012511167
138	0xbd5b6e99	-0.05357227
139	0x3e2a26b7	0.16616331
140	0x3e281d09	0.16417326
141	0x38d65fdc	0.000102221704
142	0x3ccafcb8	0.024778709
143	0xbc82e253	-0.01597706
144	0x3de74301	0.11292077
145	0x3cf8254b	0.03029122
146	0xbbf37dc4	-0.007430764
147	0xbf90db1e	-1.1316869
148	0x3cc0c390	0.023530751
149	0x3c26520d	0.010151398
150	0x3d593e2e	0.053037815
151	0x3b939029	0.004503269
152	0xbd075fa8	-0.03305021
153	0x3e04d9fb	0.12973778
154	0xbc2e2448	-0.010628767
155	0xba52f190	-0.000804686
156	0x3a139565	0.00056298665
157	0x3e1a439e	0.15064856
158	0xbbbf72c1	-0.005842537
159	0x3bcead0a	0.006307249
160	0xbc8a6afc	-0.016896717
161	0x3dd5f402	0.104469314
162	0x3ce0ec38	0.027456388
163	0x3c1b806b	0.009491066
164	0xbd053515	-0.032521326
165	0xbcfeafc0	-0.031089664
166	0x3c713e13	0.014724272
167	0x3cd1e886	0.025623571
168	0x3f666286	0.89994085
169	0x3de46221	0.11151529
170	0x3df753ea	0.12076552
171	0x3deb146f	0.11478507
172	0x3b1cf9e1	0.002395265
173	0xbe28f434	-0.16499406
174	0x3b44c98a	0.0030027353
175	0xbd6cfb4d	-0.057856847
176	0xbd7f2cd4	-0.06229861
177	0xbd315945	-0.043298025
178	0x3c5d9965	0.013525342
179	0xbc9e91b6	-0.01935659
180	0xbc3ffb9b	-0.011717702
181	0x3e4aafe3	0.19793658
182	0xbc37fa21	-0.011229069
183	0x3c394df1	0.011310087
184	0x3c071664	0.008245084
185	0xbe863b80	-0.2621727
186	0xb7c2b08f	-2.3208819e-05
187	0x3d4d4cd2	0.05012209
188	0x3a2c4af2	0.0006572447
189	0xbd237afc	-0.03991221
190	0xbd0bf08e	-0.034164958
191	0x3b7ba535	0.0038398032
192	0xbbc75b77	-0.0060839015
193	0xbc183b8c	-0.009291541
194	0xbcee2b1a	-0.029073287
195	0x3d209bee	0.039211206
196	0x3df94267	0.12170868
197	0x3d842472	0.06452264
198	0xbf1df152	-0.6169635
199	0x3fa0edb0	1.2572536
200	0xbd61a970	-0.05509323
201	0x3cc29d02	0.023756508
202	0x3ca439b0	0.020047039
203	0xbb205397	-0.0024463886
204	0x3e6d517a	0.23175612
205	0xbf674b1d	-0.9034899
206	0x3e275b4e	0.16343424
207	0x3d1030a6	0.035202645
208	0xbb249bc1	-0.002511725
209	0xbca4dd47	-0.020125045
210	0xbe1683f6	-0.14698777
211	0x3b512f7b	0.003191917
212	0xbcbb4a93	-0.022862708
213	0x3e0fb4d0	0.14033818
214	0xbc7a0660	-0.015260309
215	0x3f50b72a	0.81529486
216	0x3c69df94	0.014274497
217	0xbd2e3cb0	-0.042538345
218	0xbe881c02	-0.26583868
219	0xbd1f7386	-0.03892853
220	0xbd257527	-0.04039493
221	0x3cab5103	0.020912653
222	0x3e307af5	0.17234404
223	0xbc02cb9f	-0.007983117
224	0xbd065bd3	-0.032802414
225	0x3df7e837	0.12104838
226	0x3bf90bd5	0.0076002874
227	0x3cc828af	0.024433462
228	0xbfb6e4db	-1.4288591
229	0x3f615cee	0.88032424
230	0x3ab0aacf	0.0013478639
231	0xbcaec115	-0.021332303
232	0xbd592e89	-0.053022895
233	0xbb902fb0	-0.004400216
234	0x3dccf21e	0.10007118
235	0x3d6897d9	0.05678544
236	0x3bb56490	0.0055356696
237	0xbb6606ad	-0.0035099194
238	0x3ad74089	0.0016422431
239	0xbc230386	-0.0099495705
240	0x3e3edec3	0.18639664
241	0x3e14f23b	0.14545529
242	0x3bbc340c	0.005743509
243	0x3c2f17a3	0.010686788
244	0xbd0af506	-0.03392508
245	0xbaf3ad87	-0.0018591144
246	0x3c6f0efb	0.014590974
247	0xbd0fbf3e	-0.035094492
248	0xbf7a24d7	-0.97712463
249	0x3e5c8851	0.21536376
250	0x3e54499c	0.20731205
251	0xbbc783ce	-0.0060887104
252	0xbca3a63a	-0.019976724
253	0x3f506484	0.81403375
254	0x3f5637f1	0.8367911
255	0x3dda2d64	0.10653189
