data/Apr-13_05-51-52/models/critic_2300.pth (torch, 274455 bytes, 5 tensors)

linear_layer.0.weight f4 [256, 7]
000000 66 d3 9b be 4b 68 bd 3e 01 81 90 be 2b 3c 1e be
       -0.30434722 0.36993632 -0.28223422 -0.1545264
000010 2e 92 8f be 81 06 e3 be 2b d9 d4 be 9d a3 70 be
       -0.28041214 -0.443409 -0.41571936 -0.23499914
000020 5b e4 2e be 2b a7 7b 3d 9f 70 18 3e 0b 13 51 3e
       -0.17079298 0.06143872 0.14886712 0.2041742
000030 81 00 c6 3d b1 6f 1f 3e 2f d2 9e bd 56 af 63 3e
       0.09668065 0.1556995 -0.07754933 0.22234854
000040 51 50 18 3e 8f 57 e1 bd 85 ad 4b be ce bc 33 3e
       0.14874388 -0.110030286 -0.19890411 0.17552492
000050 f4 c4 a9 3e 51 28 51 be d2 33 3a 3c 04 6d 70 3e
       0.33158076 -0.20425536 0.011364894 0.23479086
000060 a5 b2 1f 3e e3 0e c3 bd 9f 1c ab 3d d3 8b 0b be
       0.15595491 -0.09524324 0.083550684 -0.13627557
000070 e8 eb b7 be 19 23 56 3e 84 6b c7 3e af a0 95 3e
       -0.3592217 0.20911826 0.38949215 0.29224154
000080 23 9c 5d 3e c7 fb a0 3e fe e0 52 3e 06 3f 8f be
       0.21641593 0.3144209 0.2059364 -0.2797777
000090 08 8d b0 be 6d d7 b0 bd b7 a0 07 be f2 8e b3 be
       -0.34482598 -0.08634839 -0.13244902 -0.35069996
0000a0 b9 ce 57 be 09 52 b2 be 1b 0c 69 bc 5e 89 80 3e
       -0.21074952 -0.34828213 -0.014224078 0.25104803
0000b0 b1 c2 d3 be 5f c0 ac be 6d 3e 83 3e 9f 4d d3 bd
       -0.41359475 -0.33740517 0.25633565 -0.103175394
0000c0 8c d7 06 3e c9 37 af 3e c1 dd 97 3c 62 2c 03 bf
       0.13168162 0.34222248 0.018538358 -0.512396
0000d0 2b 52 ba bc 40 e4 d0 bd eb cb 00 3f fe b0 8d be
       -0.022744259 -0.10199785 0.50311154 -0.27674097
0000e0 ed 1e 9d be 2b 34 f6 bd 0c be 9e 3e 87 f9 fb bd
       -0.30687657 -0.12021669 0.3100437 -0.12303453
0000f0 3b e3 27 3e e2 3b e1 3d 28 0d ae bc b2 0a 9d 3e
       0.16395275 0.1099775 -0.021246508 0.30672222
000100 85 ed b4 bd 57 70 88 be 02 30 7a be ec 22 21 be
       -0.08834366 -0.26648208 -0.24432376 -0.15735978
000110 73 62 b4 be c4 01 2e 3e a0 ab c2 3e eb 48 9d bd
       -0.3523136 0.16992861 0.38021564 -0.076799236
000120 c4 c4 bc be e9 3d 76 3d 90 b5 92 bf db e7 ab 3e
       -0.3686887 0.060117636 -1.1461658 0.3357533
000130 3a 5b 3b 3d e4 4a 0d 3e 7b b2 32 be be 30 a1 bc
       0.045741297 0.137981 -0.17450897 -0.019676562
000140 cb 2a b1 bd 2a 1a 87 3e 2a 7a 3e 3e d4 b9 d7 3d
       -0.0865074 0.2638715 0.1860129 0.10533491
000150 a8 a0 9f 3e 88 97 86 be fd 88 b4 be 23 a3 cf 3e
       0.31177258 -0.26287484 -0.35260764 0.4055415
000160 69 4c 84 bf 42 61 46 3e 30 34 be 3d ee dc a0 be
       -1.0335819 0.19373038 0.09287298 -0.31418556
000170 02 0a 95 be 68 0d d8 3d ee 6d 57 3c c4 36 0f be
       -0.29109198 0.10549432 0.013148768 -0.13985735
000180 13 58 b0 39 9c 26 91 be 2a 47 34 3d e7 67 8f be
       0.00033634956 -0.2834977 0.04401318 -0.2800896
000190 34 fa af be c7 d4 87 3d ce fb 2b 3d 33 d9 5a 3e
       -0.34370577 0.06632381 0.041988187 0.21371917
0001a0 f2 06 b9 3e 30 19 70 be d2 d5 92 be 3e 72 28 3e
       0.3613811 -0.23447108 -0.28678757 0.1644983
0001b0 a5 cb 8f 3e b0 38 76 be 71 e9 da 3c 65 66 0d 3e
       0.28085056 -0.24045062 0.026722642 0.13808592
0001c0 fd d4 b8 be ac 72 0e bd bc ef cb bd aa ef 33 bc
       -0.36099997 -0.03477733 -0.09957835 -0.010982433
0001d0 d2 8d 53 3d f4 95 88 be 55 56 64 be 0b f9 50 be
       0.051648922 -0.26676905 -0.22298558 -0.20407502
0001e0 c8 6c 44 be 23 11 2c be 9e 45 89 3e 41 55 5c 3e
       -0.19182122 -0.16803412 0.26810926 0.21516897
0001f0 96 f5 7f be 92 34 12 3e 8b 5b 22 be 4e 96 13 3d
       -0.24996027 0.14277866 -0.15855233 0.036032014
000200 39 9c 9f be 71 84 da 3d bb 3a 01 bf 4d 88 a0 3d
       -0.31173876 0.106697924 -0.5048024 0.07838497
000210 74 08 6e 3e 36 26 e8 bd 21 e5 b5 be 23 e1 32 3d
       0.23245412 -0.11335413 -0.35526374 0.04367174
000220 73 59 76 be ae 47 8e 3b 11 05 42 3e d8 ba 61 3e
       -0.2405756 0.004342041 0.18947245 0.22043931
000230 b4 7e 20 bf 7d bb 59 3e 0c 38 22 be 26 74 eb 3e
       -0.62693334 0.21262927 -0.15841693 0.45987052
000240 73 09 82 3f f9 fb 44 3e 31 c8 99 be df 63 0a bc
       1.0159134 0.19236745 -0.30035546 -0.008446663
000250 68 fb 45 3e 14 59 f2 be 2e 78 a8 3e c6 77 23 3e
       0.19334185 -0.47333586 0.3290419 0.15963659
000260 1a 5b f6 be b1 14 08 3e 70 66 b8 3e 6c e4 bf bd
       -0.4811638 0.13289143 0.36015654 -0.0936974
000270 0e e1 94 be ff cc 2b 3e 91 45 d4 bf e0 2b e8 bc
       -0.29077953 0.16777419 -1.658373 -0.028341234
000280 2a 2c 73 3e 71 48 92 be 32 0f 04 3e 0f b9 86 be
       0.23747316 -0.28570893 0.12896422 -0.26313064
000290 1c 82 ad bd 96 a3 40 3f 1a 79 da bc 4d 5f f3 be
       -0.08472082 0.7524961 -0.026669074 -0.47533646
0002a0 aa 89 fe 3d b6 56 8e be e1 4e 7d be c9 52 56 3d
       0.12428601 -0.2780053 -0.24737121 0.052325044
0002b0 f9 8e 80 3c 8c 82 99 bd 26 6f bd 3e ee 9d e2 be
       0.015693175 -0.07495603 0.36998862 -0.44261116
0002c0 06 48 37 3d 63 98 40 3e dd 85 bc bd 0c e0 a5 3e
       0.04474642 0.18808131 -0.0920522 0.32397497
0002d0 70 9d 85 3b dd b2 61 be f8 ec 60 be 59 5f 1d be
       0.004077606 -0.22040887 -0.21965396 -0.15368403
0002e0 07 1d b4 3e 8f fc b2 bc 8e 53 fc 3e fe 3e 92 3e
       0.35178396 -0.021848945 0.49282497 0.28563684
0002f0 1e 77 00 bd 50 73 10 3e 83 5b ba be a5 62 a1 be
       -0.0313636 0.14106488 -0.36397943 -0.31520572
000300 38 45 7b be 66 97 4f be 4c 3d 89 be a8 14 0f be
       -0.24538124 -0.20272598 -0.26804578 -0.13972723
000310 9d 29 bc bd 14 b4 b9 3e fc 66 75 3e ce 39 42 3e
       -0.091876246 0.362702 0.23965067 0.18967363
000320 b2 f4 82 bd de a5 32 3e d6 eb d4 bc ef 3b 20 be
       -0.06394328 0.17446086 -0.025991362 -0.15647863
000330 e0 0a bd 3e 3b 8d 97 be 9c 14 ef be 42 3b fd 3e
       0.3692236 -0.29599938 -0.4669541 0.49459273
000340 f3 9a b6 3d 8c ad 45 be 62 a7 b8 3d e2 9a a5 3e
       0.08916273 -0.19304484 0.09016301 0.3234473
000350 d7 22 1f bf 2b a7 83 3c a9 8d 18 3f 11 d0 03 be
       -0.62162536 0.016070923 0.59591156 -0.1287234
000360 fb 5d 5e 3c fd 07 6d be cf ad a5 3c 7f 35 ed 3e
       0.013572211 -0.23147579 0.02022448 0.46329877
000370 e5 5d 62 be 09 51 7b bf 36 19 10 bf 0f a9 a5 3e
       -0.2210613 -0.98170525 -0.5628847 0.32355544
000380 40 85 aa 3e 1d f5 32 be ba 80 92 be ef 0b 1e 3e
       0.33304787 -0.17476316 -0.28613836 0.1543424
000390 d2 cb 84 bf af 10 04 3f 83 85 da 3c 4a 26 0c bd
       -1.0374701 0.5158796 0.026674991 -0.034216203
0003a0 d5 1f 38 3e 84 b8 80 3e 20 e0 0b bf bc f0 cf bd
       0.17980893 0.25140774 -0.5463886 -0.10153338
0003b0 80 98 45 bf 8c af 8c 3e 4f 77 9a be ca 67 7d bd
       -0.7718582 0.27477682 -0.3016915 -0.06186656
0003c0 bb 7a 22 3e b6 cd b7 be 9a e8 43 be c9 72 6e 3e
       0.1586713 -0.35899132 -0.19131699 0.23285975
0003d0 4f fa a0 be 60 26 de bd b5 77 c6 bd 6b f9 2e be
       -0.3144097 -0.10847163 -0.09690801 -0.17087333
0003e0 ed ac 0d 3e 89 1e fc 3c 3e 96 47 3e b8 cd ad bd
       0.13835497 0.030776279 0.19490907 -0.08486503
0003f0 29 26 1a be 55 b7 f7 3c 09 e9 13 bd ea 94 83 3d
       -0.1505362 0.030238787 -0.03611091 0.064248875

linear_layer.0.bias f4 [256]
000000 14 96 53 3e 1a 94 cf be 4f 44 c1 3d 96 76 8d 3e
       0.20662719 -0.4054268 0.09436857 0.27629536
000010 ff 28 54 bb fc 17 96 bd 28 91 8c be 88 86 2e 3d
       -0.0032373068 -0.073287934 -0.27454495 0.042608768
000020 35 06 13 be 3c 17 d1 3d 77 fa 30 3e d1 66 93 3e
       -0.14357837 0.1020951 0.17283045 0.2878938
000030 a5 2f 51 be df 05 3c be 95 99 cf 3d 62 76 40 3d
       -0.20428331 -0.18361615 0.10136715 0.0469879
000040 5c 61 91 bd 18 1c 03 bd 67 62 bd be 6c 41 a7 bc
       -0.07098648 -0.032009214 -0.36989138 -0.020416938
000050 72 f5 27 be 3d c6 cc 3c b6 3d 17 3e f1 91 92 be
       -0.16402224 0.024996871 0.14769635 -0.2862697
000060 0f ac 9b be 65 60 87 3e 6e e0 91 bd d3 1a 4c 3e
       -0.30404708 0.2644073 -0.07122885 0.19932108
000070 75 94 11 3e 8d 07 bd be de 46 93 be a0 dd 0e 3f
       0.14216788 -0.36919823 -0.28765005 0.5580692
000080 2b 57 81 3e 22 e3 b0 3e bc e9 4c 3d 4a 8e 27 3d
       0.25261816 0.3454829 0.050027594 0.04090718
000090 70 0e 10 3e a1 c3 7c 3e 02 a5 7c 3e 9a 8d da be
       0.14068007 0.24684002 0.2467232 -0.42686158
0000a0 c6 10 da be d9 08 35 3d 3b 79 28 be e9 d6 54 bd
       -0.42590922 0.04419789 -0.16452496 -0.051962767
0000b0 36 ee 21 3e 72 8c 9e be 3d c8 98 3d 02 1f 93 bd
       0.15813527 -0.30966526 0.074600674 -0.07183649
0000c0 4e 3d e1 3e 21 e2 00 bf 0b 97 d6 bd 49 f7 fe bd
       0.43992084 -0.50345045 -0.10478028 -0.1244951
0000d0 40 ae 0e 3d 06 a9 95 3c 1c 43 80 3e 69 df c5 bd
       0.034834146 0.018269073 0.250512 -0.09661753
0000e0 4a bb 8f be 3f f7 8f bd e5 eb d7 3c 0c b0 b9 3d
       -0.28072578 -0.0702958 0.0263576 0.090667814
0000f0 7d 37 8c 3e 40 5c ba 3d 40 15 b7 b8 f3 4f 93 be
       0.27386084 0.090996265 -8.730078e-05 -0.28771934
000100 98 0a 34 be da 03 6f be 27 3e 6d 3b 5c f8 84 bd
       -0.17582166 -0.23341313 0.0036200376 -0.06492683
000110 62 09 a9 3e b0 bc cc be 61 e2 a5 be 6c d6 f7 bc
       0.3301497 -0.39987707 -0.32399276 -0.030253612
000120 24 3a 48 be 39 0a 9b 3e c0 f6 2a be 77 11 21 bc
       -0.19553429 0.30281237 -0.1669569 -0.009830824
000130 f5 bd a2 3c ea b5 41 be 9e 64 f2 bd 3c 47 12 3d
       0.01986597 -0.18917051 -0.118355975 0.035712466
000140 89 c3 57 be 30 d0 3b 3e 05 5c e7 be 32 72 7d bd
       -0.21070684 0.18341136 -0.45187393 -0.061876483
000150 10 b0 b7 bd e4 a5 00 be 5a c4 cc 3e a1 4b af be
       -0.08969128 -0.12563282 0.39993554 -0.34237388
000160 ee 9c 53 3e 46 d2 89 3d f2 28 6e bc a3 8f 08 be
       0.20665333 0.067295596 -0.014536129 -0.13336043
000170 62 88 93 3d a0 e4 a5 be bb 6f b1 be e3 b1 a4 bc
       0.07203747 -0.3240099 -0.34655556 -0.020104354
000180 74 dd b9 bd ae 40 9a be 85 8d 83 be 75 0c 07 3e
       -0.09075442 -0.30127472 -0.25693908 0.13188346
000190 36 7d b2 3d 59 6a 48 3c 6d 68 ca be cb 3e e6 be
       0.08715288 0.0122323865 -0.39532796 -0.44969782
0001a0 f3 c2 ed bd 20 e0 bb be c8 20 0d 3e a0 be 8a be
       -0.11609449 -0.3669443 0.13782036 -0.2709856
0001b0 1a aa 82 bd 8b 25 c8 3e d1 ad 86 be 77 2f 05 3e
       -0.063801005 0.39091143 -0.26304486 0.13006388
0001c0 89 3a 07 bd 92 95 7f be 0b 23 c1 3e 37 a9 80 3e
       -0.033014808 -0.249594 0.37722048 0.251291
0001d0 85 76 7f 3e 18 01 90 3d 67 50 37 3e a4 84 d1 be
       0.24947555 0.070314586 0.17901765 -0.4092151
0001e0 19 d0 5e be d7 41 44 be b9 cd 49 be 74 e6 ce 3d
       -0.2175907 -0.19165741 -0.19707383 0.10102549
0001f0 92 af bf 3e 1a 30 ca be c6 6f b6 3e 09 a4 a5 be
       0.37438637 -0.39489824 0.3563215 -0.3235171
000200 91 1d c9 be 9f 8f 34 3e 3c 74 b4 bd cc 31 17 bf
       -0.3928037 0.17632912 -0.088112324 -0.5906036
000210 3c a0 66 be 02 a1 81 be 9a 9e 45 3e e1 ce c1 be
       -0.22522062 -0.25318152 0.19298783 -0.3785315
000220 04 20 ce be d2 85 3c 3e fe e5 b8 be 91 91 28 be
       -0.402588 0.18410423 -0.3611297 -0.16461779
000230 a2 2f e2 be 72 cc b5 be a2 16 e4 be 37 56 01 bf
       -0.44176966 -0.35507542 -0.44548517 -0.5052218
000240 17 b4 65 bd f0 b1 b8 3e cd c1 a3 3e bc 7c a6 be
       -0.05607995 0.36073256 0.31983796 -0.3251704
000250 7b 73 d0 3d 3e 62 15 be 88 c7 84 be 02 b8 0d be
       0.10178276 -0.14588258 -0.2593348 -0.13839725
000260 7c b0 85 bd 1d ff 91 be 46 49 8d be 96 f5 a1 be
       -0.06527802 -0.28514948 -0.27594966 -0.3163268
000270 6b a8 49 be 5e 0d 22 be c5 8f 4c 3e c4 74 0e 3e
       -0.19693153 -0.15825412 0.19976719 0.1391173
000280 0d 0a 5b 3d 67 25 95 be 98 aa 32 3e 5a c8 78 3e
       0.053476382 -0.29130098 0.17447889 0.24295178
000290 4a 65 27 3e ce 14 93 3d f1 e7 05 bf d4 d4 4f be
       0.16347232 0.071817026 -0.5230704 -0.20296031
0002a0 b1 19 62 be 26 6b 7c be 3f f3 8d 3e cb ec 7b 3e
       -0.22080113 -0.24650249 0.27724645 0.24602048
0002b0 70 d9 45 3e 45 af 8a 3e 26 a6 89 bd bb 8c 3c bd
       0.19321227 0.27086845 -0.067211434 -0.04603265
0002c0 77 8c 82 be dd a2 1b 3d 89 2d 78 3e 5a 11 f4 bd
       -0.2549779 0.037997115 0.2423612 -0.11917372
0002d0 1f 3e bc 3e 0f 7f 78 3d f8 96 2c bd d0 8b d5 3e
       0.36766145 0.060668048 -0.042136163 0.4170823
0002e0 24 95 ec be 94 99 5c be 75 56 39 be b9 90 da 3d
       -0.46207535 -0.2154296 -0.18099387 0.10672135
0002f0 60 ad ab 3e 1b e6 28 3e 90 43 71 3e 4d 8e bf be
       0.33530712 0.16494028 0.2356093 -0.37413254
000300 0f 12 af be 9f f9 11 be ac ed 20 bd e9 40 e8 3d
       -0.34193465 -0.14255379 -0.03928916 0.11340506
000310 b1 ce 68 be 9e 6c 28 3e 9f ee da be d5 e6 69 3d
       -0.22735097 0.16447684 -0.42760178 0.057104904
000320 dc 08 b0 3d ab 4a 3b be 89 18 98 be a2 21 b5 bd
       0.0859544 -0.18290202 -0.2970622 -0.088443056
000330 f3 e6 eb bd e9 39 0d 3f da f1 dc bc 99 a1 57 be
       -0.115186594 0.5516649 -0.026970793 -0.21057738
000340 e9 23 bb be 6e 7e 91 be 2e e1 03 3e 98 ca 51 3e
       -0.36550835 -0.2841677 0.12878868 0.2048744
000350 1a 07 85 be 48 54 cd 3e 23 3f 58 3d e7 22 c3 3c
       -0.2598198 0.40103364 0.052794587 0.023820354
000360 f7 a0 aa 3e 73 ed ef bd ea c2 00 bf 9c 5c 69 be
       0.3332593 -0.11715212 -0.50297415 -0.22789234
000370 29 85 26 3d 4b f6 37 3e f3 b6 15 be 55 f2 7b be
       0.040654335 0.17965047 -0.14620571 -0.24604161
000380 90 f1 99 be 3d 98 8b be b7 c9 fc bd c7 7c a4 3e
       -0.3006711 -0.27264586 -0.123431616 0.32126448
000390 06 e5 bc bd 3c da 16 bd 80 2c bd bd 8d 61 e7 bc
       -0.0922337 -0.03682922 -0.09237003 -0.028244758
0003a0 31 d4 a9 3e 5f 5b a6 bc ff 22 2d be ff bc 69 3e
       0.33169702 -0.020307241 -0.16907881 0.22826003
0003b0 8e d6 60 3d 57 77 29 be 5b 89 c0 3d 99 93 0d bf
       0.054892115 -0.16549431 0.094011985 -0.5530334
0003c0 8a ee 6a 3d 65 09 d0 3e 18 ee af be 23 f1 8d 3e
       0.057356395 0.40632167 -0.3436134 0.27723035
0003d0 91 cd eb bd 64 59 42 3e be ce a6 be 91 30 08 bf
       -0.11513818 0.18979412 -0.32579607 -0.53199106
0003e0 52 70 1e be b2 7c b1 3d 4d 6d 60 3e 36 4f c4 bd
       -0.15472534 0.08666362 0.21916695 -0.09585421
0003f0 46 0a 69 3e fa f0 b6 3e b6 3e d4 be 9d 1f db 3e
       0.22757825 0.35730726 -0.41454095 0.42797557

linear_layer.2.weight f4 [256, 256]
000000 72 f4 ae 3b eb 06 bf 3c 30 ce 2d 3e dc 52 c0 3d
       0.0053391987 0.023318728 0.16973186 0.09390804
000010 db bd 5a 3e fe c9 29 bd bd d9 0e bd 34 71 98 3d
       0.21361487 -0.0414524 -0.03487562 0.07443467
000020 67 c6 da bd 50 37 34 bd 35 5c ef 3d 02 25 30 3d
       -0.106823735 -0.043998063 0.11687509 0.043004043
000030 b8 0b 74 3e ac 00 41 3d 80 33 81 bb 26 4f 85 3a
       0.23832595 0.04711978 -0.003942907 0.0010170683
000040 c0 66 02 3c d0 ef ee 3c 6e 69 aa bd 64 50 ca 3c
       0.007959068 0.029167086 -0.0832089 0.024696536
000050 0f 48 a4 bc a7 a9 fa bc 16 fb 98 bd d3 97 cd bc
       -0.020053891 -0.030598475 -0.07469766 -0.02509681
000060 4a 49 12 bd 2d d3 17 3d 04 af 1f 3e 46 bb 47 bd
       -0.035714425 0.037066627 0.15594107 -0.048762582
000070 31 dd 6f 3e 4e 2e 40 be 76 dc 1d bf f1 3a b2 3d
       0.23424222 -0.18767664 -0.6166452 0.087026484
000080 74 fc ca 3d 32 c4 f8 3d a4 06 82 3c 4c 01 bf bc
       0.09911433 0.12146796 0.015872307 -0.023316048
000090 fa 86 05 3d 80 25 dd 3c 78 df 62 bc 0a f5 a1 3c
       0.032599427 0.02699542 -0.013847224 0.019770164
0000a0 e8 f9 9a 3d 8d 00 00 3e f8 06 74 bc 1a cc 84 bd
       0.07567197 0.1250021 -0.01489424 -0.06484242
0000b0 98 1e 51 bc 36 65 13 3d a7 62 20 3d e4 a8 4e 3d
       -0.012763642 0.035985194 0.039156582 0.050454035
0000c0 41 68 2a 3d 3b 7e b5 be 30 3a 61 bd 54 21 a9 3d
       0.04160333 -0.3544787 -0.054987133 0.0825831
0000d0 10 9d c8 3b 50 49 1b 3e 48 82 0a bd 40 5a f7 bb
       0.006122239 0.15164685 -0.033815652 -0.0075486004
0000e0 f4 e9 6d bd 7c ef a1 3c 38 ab ad 3d e8 c8 7d 3c
       -0.058084443 0.019767515 0.08479923 0.015489794
0000f0 a6 33 61 3c 69 5d 8e bc 8d cc 23 be 20 02 6c bc
       0.013745224 -0.017378526 -0.15995999 -0.0144048035
000100 72 ae 83 3d cb 64 ed bb 6d 90 d1 3b 10 1d 46 3b
       0.06429757 -0.0072446815 0.0063953907 0.0030229725
000110 12 5a c7 3d 65 0f 25 3b e0 57 0c bc 5c a8 86 3d
       0.097339764 0.0025186178 -0.008565873 0.06575081
000120 d8 ba df 3c c7 89 a6 3d 42 f3 29 be e4 69 72 bd
       0.027310774 0.08131748 -0.16596702 -0.059183016
000130 4d a7 70 3d 78 1d 9a bd 52 77 62 3d 65 7c d7 be
       0.0587533 -0.07525152 0.055289574 -0.42087093
000140 c7 75 99 bb cc 35 70 bd c1 cd 80 3d 0c 3f 8b bc
       -0.0046832296 -0.058645055 0.062892444 -0.016997837
000150 df 67 bc bd 9d 57 92 be c7 03 8f 3e 71 15 02 bf
       -0.09199499 -0.2858247 0.2793257 -0.50813967
000160 56 fb be 3e 78 07 39 3c 57 f8 3b 3e 6d 57 1c bd
       0.3730113 0.011293285 0.18356453 -0.038169313
000170 64 e6 54 3d e8 ed ba bb 65 4b b9 bd 37 92 43 be
       0.05197753 -0.00570463 -0.090475835 -0.19098745
000180 3f 46 86 bd cf 89 05 bd ec 57 9c 3c 29 79 33 3e
       -0.06556367 -0.032602128 0.019084893 0.17526688
000190 44 c2 b9 bc 9e 44 b3 bc 63 dd 08 3e b5 68 3d be
       -0.02267564 -0.021883305 0.13365702 -0.18496974
0001a0 1c cc c4 bc 40 62 bc 3b b6 3f 66 bd a0 d9 56 3b
       -0.024023108 0.005749017 -0.056213103 0.0032783523
0001b0 07 7e 9f 3c 65 ad 16 be 5b cd f0 bd dc 0d a2 3c
       0.019469274 -0.14714582 -0.117579184 0.019782
0001c0 84 44 f1 3d ad 37 7e 3d ee 51 52 bd 0d da 9a bf
       0.117806464 0.062064815 -0.051347665 -1.2097794
0001d0 30 6e 7e bd 25 f7 1a 3e ff 29 d9 bc 74 32 68 bd
       -0.0621168 0.1513334 -0.026509283 -0.05668874
0001e0 a2 0a 11 bd 86 7e c4 3c 2a 42 0b 3d 98 85 89 bd
       -0.03541053 0.023986112 0.033998646 -0.06714934
0001f0 0e 26 44 bd 89 5b 30 be c0 57 0b bd ac 4f 28 3d
       -0.047887854 -0.17222418 -0.03401923 0.041091606
000200 d4 c0 1c bd 7b 25 29 3e 92 d9 35 3d 7f 1c 3d bd
       -0.038269833 0.16518204 0.044396944 -0.046169754
000210 94 b0 43 3d 27 ca 20 3d 56 4c 10 bd 9a f5 82 3d
       0.04777582 0.039255287 -0.03522905 0.06394501
000220 c2 7d e9 bc 2a 25 3a 3d 1d 2e 60 3d f6 3c 37 bc
       -0.028502349 0.0454456 0.054731477 -0.011183968
000230 50 27 db bd 78 f6 d2 be 84 98 08 be 20 f9 1f bb
       -0.10700858 -0.41203666 -0.1333943 -0.0024409965
000240 9e 22 68 bd d0 ef 07 bc 34 cd 22 bd e5 11 4b be
       -0.05667364 -0.008296922 -0.03974648 -0.19831045
000250 e8 59 26 3d b2 c8 1a bd 1b e9 73 bb 3b ac 1c 3e
       0.040613085 -0.037789054 -0.00372178 0.15300076
000260 71 a0 0a 3d 6c ea 84 3c 8a fc 62 bc ae 41 a4 3c
       0.033844415 0.016225062 -0.013854155 0.02005085
000270 fc 11 54 bd ba 96 08 be 02 76 18 bd 76 51 79 3d
       -0.051774964 -0.13338748 -0.037221916 0.060868703
000280 58 12 74 3c 00 2e c5 ba 3e 19 bf bc 73 92 41 bd
       0.014896952 -0.0015043616 -0.023327466 -0.047258805
000290 0f 36 5f 3d b5 da 12 3e 2d 3d d8 be f6 d5 49 3d
       0.054494914 0.14341243 -0.42234173 0.049276315
0002a0 2a 50 1d bd 52 a1 e8 3d 9e c3 1b bd de 70 59 3d
       -0.03840653 0.113588944 -0.038028352 0.053086154
0002b0 6b f1 e9 3a aa 07 0d bd 57 49 9f bd 25 bd e7 bc
       0.0017848437 -0.034431137 -0.0777766 -0.028288433
0002c0 69 60 14 3d 35 9e 08 3c 14 b5 7d 3d 00 c8 4a bd
       0.036224756 0.008338501 0.061940268 -0.04950714
0002d0 b0 7c e9 bb 24 7b 5a bd 50 10 8f bd 02 d1 c9 3d
       -0.0071254596 -0.053340092 -0.06985533 0.09854318
0002e0 41 16 d2 bc df 81 e3 be 64 ed 1b 3c 02 dc 22 bd
       -0.025645377 -0.4443502 0.009517048 -0.039760597
0002f0 4f f2 0a 3e a2 7a 9a 3d 2c a3 3d 3d 5d 1f 1f bd
       0.13568996 0.075429216 0.04629819 -0.03884827
000300 74 27 52 3d 48 78 db bd 0b 3b 67 3d 49 be 22 3c
       0.051307157 -0.10716301 0.056452792 0.009933063
000310 f7 79 4c 3d e4 f1 c2 bc ff b8 c6 3d c4 ba f7 bc
       0.049921002 -0.023796983 0.09703254 -0.030240424
000320 06 b1 9d 3c b8 18 a9 bc 04 3c 3f bd 47 8b ac 3d
       0.01924945 -0.02064167 -0.046688095 0.084250025
000330 a6 a7 4f bd 26 42 21 3e c1 41 f5 bd 1a 8c 60 3d
       -0.05069699 0.1574789 -0.11975432 0.05482111
000340 02 45 b6 3d df fc 90 3d a8 64 ab bd 2a 80 23 3d
       0.08899881 0.07079481 -0.08368808 0.03991715
000350 24 51 9e 3c 1a d3 26 bd 87 8e 7e 3e 48 b5 16 bd
       0.0193258 -0.040728666 0.24859057 -0.036793977
000360 d2 2a c6 bd 27 c4 79 3d 6a e3 89 3c 9c 34 80 3d
       -0.09676136 0.06097808 0.016832072 0.062600344
000370 89 a6 96 bd c1 ad 14 be e6 47 97 3c d8 62 33 bd
       -0.07355983 -0.14519407 0.018466901 -0.043795437
000380 00 ae 3c bd 86 36 1a bd ff f3 1c be 25 2d 6c bc
       -0.046064377 -0.037649654 -0.15327452 -0.01441506
000390 f3 cd 15 be b0 24 38 bc 51 61 59 3d 76 a4 6c 3d
       -0.14629345 -0.011239216 0.053071324 0.05777403
0003a0 90 bb 8e bc d1 59 08 3d 1e 87 05 be 75 fb 32 3e
       -0.017423421 0.03328878 -0.13039824 0.17478736
0003b0 cc a3 0f 3d 6a 2d d3 3d 66 d4 48 bd c9 64 5c bc
       0.03506832 0.103113964 -0.049030684 -0.013451763
0003c0 ab c7 80 3e 9f 55 65 be 00 ab 61 bd 15 0b 51 bd
       0.25152335 -0.22395943 -0.05509472 -0.05103596
0003d0 d7 0c 36 bd a5 78 19 3c f7 05 58 be 4d be e0 3c
       -0.04444584 0.009367143 -0.21096025 0.027434492
0003e0 3e 37 b4 3c 6b 36 ae 3a 9d ca 8f 3b 27 a9 4b bc
       0.021998998 0.0013291364 0.004388167 -0.012430466
0003f0 62 fe c2 bb 13 42 6a 3d 4b d9 9a bd de aa b4 3c
       -0.005950735 0.05719192 -0.075609766 0.022054132

linear_layer.2.bias f4 [256]
000000 62 52 dd 3e 6f de 40 bc a5 0c 39 3d a1 f0 27 3d
       0.43226916 -0.011771782 0.045178074 0.041000966
000010 99 1f 86 bd 9e f1 76 3c 58 62 b8 bd b3 ef f5 bc
       -0.065489955 0.015072254 -0.090031326 -0.030021524
000020 ea 4a 06 bd 30 b2 a5 3e 35 73 81 bd 31 03 74 3c
       -0.032786287 0.3236251 -0.06320802 0.014893339
000030 22 c5 9a 3d 79 f1 ac bb 17 5d 9a 3d 90 b3 45 3d
       0.07557131 -0.005277809 0.07537287 0.048266947
000040 2d b8 23 3c 16 a5 33 3d 86 09 f4 3c cc 6c b3 bc
       0.009992641 0.04385861 0.029789697 -0.021902464
000050 38 43 83 bd e4 41 76 bd e2 fe 08 3d 5b 73 27 3d
       -0.06409305 -0.060121432 0.0334462 0.040881496
000060 63 81 77 bd 93 70 88 bd 2c 0e f0 3a 40 79 54 3c
       -0.060426127 -0.06662097 0.001831477 0.012968361
000070 63 3f 8e bd 0f da bf 3c f3 94 ec 3b e0 83 d5 3e
       -0.06945684 0.023419408 0.0072199046 0.41702175
000080 72 4f 16 3d fa 24 14 3d 29 5c a4 3b e7 60 6b be
       0.03669686 0.036168076 0.005015869 -0.22986184
000090 23 50 9c 3d ea 46 aa 3e 19 62 16 3c 1c c3 b0 ba
       0.07632472 0.33257228 0.009178662 -0.0013485881
0000a0 72 0c c1 bd 44 5d 96 bd 23 f6 0b bd d5 30 f1 3c
       -0.09426202 -0.07342008 -0.03417028 0.02944223
0000b0 89 dd 09 3b 14 f2 e5 3c 9f 2b a7 3c f8 00 57 3c
       0.0021036586 0.028069533 0.020406542 0.01312279
0000c0 a8 d8 3c bd 61 2e 92 ba f8 c2 87 bd 30 29 39 3e
       -0.046105057 -0.0011152738 -0.06628984 0.18082118
0000d0 45 eb 9a bd cc 8b 93 bd 63 f0 b2 bd c0 0f 11 bd
       -0.07564405 -0.072043985 -0.087372564 -0.03541541
0000e0 87 45 84 3c ca 4a 2c 3e b9 fd 4d bd 04 ed a3 bc
       0.016146434 0.16825405 -0.050290797 -0.020010479
0000f0 e4 dc 0d bd 48 dd df bc 00 a9 89 bd 12 8b 2e bd
       -0.034634486 -0.027327195 -0.06721687 -0.042613097
000100 cc ff 26 3d ff 06 46 bd a9 b4 64 3e 28 99 04 bd
       0.04077129 -0.048346516 0.22334541 -0.032372624
000110 35 c7 0e 3e 89 22 85 bd ba c9 33 bc a6 47 b1 bd
       0.13943179 -0.06500728 -0.010973388 -0.08656244
000120 c1 95 18 3d c6 67 8a bd 33 e2 74 bd 2d f8 ca bc
       0.03725219 -0.067580745 -0.059786033 -0.024776543
000130 08 16 13 3c fe dc 68 bd c0 ac 16 bd a5 ec 08 bd
       0.008977421 -0.05685138 -0.03678584 -0.033428807
000140 ab 97 2c bd 44 b7 84 bd f2 a0 d1 bc 9c 62 8c 3d
       -0.04213683 -0.06480268 -0.02558944 0.06854746
000150 cc cc a2 3c d8 cd 0d bd c3 0a 14 bd ef b8 ab 3c
       0.019873045 -0.034620136 -0.036143076 0.020962207
000160 60 39 a5 be 98 f9 8b bd 9a b4 12 3d bd be 99 bd
       -0.32270336 -0.068347156 0.035816766 -0.075070836
000170 0f 94 03 3d 84 b5 dc 3c 6b 4e 18 bd 46 55 48 3c
       0.03212362 0.026942022 -0.03718416 0.012227362
000180 2f 5b da 3c 0e 6a 3c bd 1a 14 2a 3d 3c 0f 28 bd
       0.026654808 -0.04599958 0.041523077 -0.041030154
000190 68 64 4f bd df cf 35 3d 45 8e 19 3c 52 9e 55 be
       -0.050632864 0.044387694 0.009372299 -0.20861176
0001a0 7b 81 61 bd 94 b3 1f 3c 5d e3 c1 3e be fb a8 bd
       -0.055055123 0.009747405 0.37868777 -0.08251141
0001b0 f6 1e b2 bc ce 0f bb 3e 5f e4 5a bd 5e 90 be bd
       -0.021743279 0.36535496 -0.053440448 -0.093048796
0001c0 f2 de 60 bd ea 6c 3d bd 5d 99 6d 3d 98 b9 94 bd
       -0.054900117 -0.046246447 0.058007587 -0.07261962
0001d0 c5 e7 93 3c 70 1a cf 3b 3a 51 81 bc ea 8f de 3e
       0.018054852 0.0063202903 -0.015785802 0.43469173
0001e0 ea 2e 01 be 06 dd 5e bd 9d 7d ac bd ab ff a4 bd
       -0.12615553 -0.054410003 -0.08422396 -0.08056577
0001f0 35 39 e9 3e 50 dc 14 3d ee 8b 81 bb 13 c9 dc 3e
       0.45551458 0.03634292 -0.0039534485 0.43122157
000200 aa f1 d0 3c 40 d2 31 bd d4 7f a5 bd 9a 44 15 bc
       0.02550586 -0.0434134 -0.08081022 -0.009110594
000210 bc bb 9a bc 84 58 a3 bd 71 27 a3 3e 15 a5 0b 3d
       -0.018888347 -0.079758674 0.3186603 0.03409298
000220 a1 f9 98 3a 0b b4 91 bc 85 25 9a bd 93 9f b4 3e
       0.0011671075 -0.017786046 -0.075266875 0.35277995
000230 8b 78 86 bb ee 2b ca 3d e5 47 bd 3c 21 36 9f bd
       -0.0041037253 0.0987166 0.023105571 -0.07773996
000240 ba 5a ad 3e 7d 98 81 3c c4 1a fb 3c 50 88 ea bd
       0.3385828 0.015819782 0.030652411 -0.11451781
000250 6c 49 90 bc ae aa b8 3b 1b 3d 88 bc a1 c8 03 3c
       -0.017613135 0.005635581 -0.0166307 0.008043439
000260 2c 55 85 bc 33 6a b6 3c bc 2b 98 3c f8 e9 b6 3c
       -0.016275965 0.022267437 0.018575542 0.022328362
000270 69 3c 86 bc 1f ea c0 3e a9 ce 70 bc 82 69 4b bc
       -0.016386228 0.3767862 -0.014697709 -0.012415292
000280 f9 38 1c 3d 91 f6 d0 3e 90 c8 42 bd ca 17 97 bd
       0.03814027 0.40813115 -0.047554553 -0.07377584
000290 9f 8d 01 bd 59 9a 69 3b b9 d5 d9 bc 79 b6 1f bd
       -0.0316292 0.0035644977 -0.026591169 -0.03899238
0002a0 99 96 2d be 84 e4 0a 3e 63 ba 9c 3e ac 4e 9c 3e
       -0.1695198 0.13563734 0.30610952 0.30528772
0002b0 e4 bd c4 bc 4e ab a6 bd 50 1a 68 3c 1a 18 f7 bc
       -0.024016328 -0.081381425 0.01416643 -0.03016286
0002c0 0c 80 fa bc cd 21 55 bd 70 2b 4f bb 8d a6 7e bd
       -0.030578636 -0.052034188 -0.0031611584 -0.062170554
0002d0 fa d7 3b bd be 81 a6 3e 70 67 e6 bd 7b 7f 82 bc
       -0.04586027 0.3252086 -0.11250198 -0.015929928
0002e0 ff a2 7f bd 19 03 84 be fd 39 39 3d f7 8e 52 bd
       -0.062411305 -0.25783613 0.045221318 -0.051405873
0002f0 51 ce 0a 3d 14 f0 59 bc 19 e1 2b bc 1a 3a f1 3c
       0.033888165 -0.013301868 -0.010490679 0.02944665
000300 72 d9 e9 3b 03 ed 4c bd 73 ff 5f bd 22 46 6f 3c
       0.007136517 -0.05003072 -0.054686975 0.014604123
000310 39 5e 9e 3e f6 2c 88 3d b9 81 95 be eb 21 59 be
       0.3093126 0.066492006 -0.29200533 -0.21204345
000320 c7 72 10 bd f1 4b 44 3c 38 45 9c bd 02 96 c6 bd
       -0.03526571 0.0119809965 -0.0763039 -0.096965805
000330 c2 88 07 3f c5 b4 36 be 9b c9 b3 3e 9d 37 61 bd
       0.5294305 -0.17842396 0.3511475 -0.054984678
000340 5c ae 12 bd b8 c5 8e bc 12 17 92 3c fd 51 20 3c
       -0.035810813 -0.017428264 0.017833266 0.0097851725
000350 ec 85 55 bd 3e f5 f9 3d e4 32 57 bb e8 c1 62 bd
       -0.05212967 0.12204979 -0.003283673 -0.055360705
000360 35 79 85 bd be 00 91 bd d1 82 f0 bc aa 30 f8 bc
       -0.06517259 -0.0708022 -0.029359253 -0.030296642
000370 12 b9 ee ba 70 1b d7 bc 4f 38 bc 3e 70 42 ec bd
       -0.0018213114 -0.0262582 0.3676171 -0.115361094
000380 d6 a8 74 bd 92 09 2d 3e 86 cf 8f bc 8d cf 68 bd
       -0.059731327 0.16898182 -0.01755501 -0.05683856
000390 2b 5d ba bd 19 fa 8a 3e 72 40 28 3b ad 76 97 bd
       -0.09099802 0.27143934 0.0025673178 -0.073956825
0003a0 19 34 7e bd c8 cc 9a bc 50 5e 6d 3e 7e a1 cf bc
       -0.062061403 -0.018896475 0.23180509 -0.02534556
0003b0 60 52 46 bd e7 71 27 bd 2d 92 06 bb e6 1e 0a 3c
       -0.048418403 -0.04088011 -0.0020533905 0.008430218
0003c0 79 4a 9e 3e 96 65 bb 3e 2e d2 1d 3d a7 0b eb 3a
       0.30916193 0.3660094 0.03853052 0.001793255
0003d0 38 8e a3 bd 87 f9 da bc 34 57 f9 3b 11 d6 5a bd
       -0.079861104 -0.026730312 0.0076092724 -0.053426806
0003e0 e8 55 8f bd f2 be df 3e 60 fc 05 3e 74 41 c6 bd
       -0.06998807 0.43700367 0.13084555 -0.09680453
0003f0 2e ab 26 bd 5c 41 01 3e 10 ab 81 bd 99 34 1c 3c
       -0.040690593 0.12622589 -0.06331456 0.009534025

linear_layer.4.weight f4 [1, 256]
000000 36 e5 12 3e 6c b4 a8 bb 8b 20 dc 3a a3 7e b6 3c
       0.1434525 -0.005148461 0.0016794367 0.022277182
000010 63 d8 1b 3d c1 36 39 3d f6 07 71 bc 54 a3 36 bc
       0.03804816 0.045218233 -0.014711371 -0.011147339
000020 86 23 22 bd 74 c1 0a 3e 12 fb f2 3b 86 00 08 3d
       -0.03958466 0.13550359 0.007415184 0.033203624
000030 a9 80 c8 3d fd 83 09 bd a6 57 9a 3d ef 73 4a bd
       0.09790165 -0.03357314 0.07536249 -0.04942697
000040 f2 6a 46 3c 0c 8f e8 bc 3d 1b 78 bd fc 4e f9 3c
       0.012110459 -0.028388523 -0.06057285 0.03043317
000050 d0 d3 90 3a 17 f1 2d bc ed 8b 76 bd ba ba 1f 3d
       0.0011049453 -0.010616562 -0.060192037 0.038996436
000060 63 38 1c bd e1 36 06 3c 67 5c 38 3c b0 ef 47 3d
       -0.038139712 0.008191795 0.011252499 0.04881257
000070 f2 d2 7a bf 6f 81 2a 3d 2a 69 d6 ba 1d e9 45 3e
       -0.97978127 0.041627344 -0.0016358246 0.19327207
000080 ed eb a9 b9 18 21 28 bc c7 0c a5 3b 7b ce 73 be
       -0.0003240997 -0.010261796 0.0050369236 -0.23809235
000090 09 68 8c 3c d5 eb 1d 3e f4 aa ff bc 5a 68 3a 3d
       0.017139452 0.15421994 -0.031209446 0.045509674
0000a0 9d d7 91 3c 59 98 00 bd 2b 28 f5 bc d7 ed e5 3b
       0.017803008 -0.03139529 -0.02992638 0.007016878
0000b0 ee c4 2f bc 40 d8 9a bb e5 3e 3d bd 89 7b 5c ba
       -0.010728104 -0.004725486 -0.04620256 -0.0008410742
0000c0 bf 89 42 3c 87 11 a4 3b 8d 2b 38 3d 1a c6 ab 3e
       0.011873662 0.0050069722 0.04496341 0.33549577
0000d0 c1 7e 99 3e 56 c8 eb bb 2b 7b 98 3c 21 1f ea 3b
       0.29979518 -0.0071955128 0.018613419 0.007144824
0000e0 0c 89 3a 3d 61 03 db 3d b7 c6 4b bd ba 99 43 3d
       0.045540854 0.10694004 -0.049750056 0.047754027
0000f0 db 16 be 3a 58 70 1b 3d 8c 2f 52 bd 03 ee 16 bd
       0.0014502661 0.037948936 -0.051314875 -0.03684808
000100 b7 c6 42 bd a7 1b eb bc ab b6 2a 3e 3a 2d 20 bb
       -0.04755279 -0.02869971 0.16671245 -0.002444102
000110 e8 ae 72 3d 8e 0e aa 3c 7e 1c 47 be 5c a1 97 bb
       0.059248835 0.020758893 -0.19444463 -0.00462739
000120 5d 80 e3 3b ad 0a c9 3c ce ef 51 3c c6 13 c4 3b
       0.0069427923 0.024541223 0.012813522 0.0059838025
000130 ce ac 33 bd 5c a1 8d 3a 21 5c 34 3c 54 bd 49 3d
       -0.04386597 0.0010805535 0.011008293 0.049252823
000140 7b 4d 82 bb 42 79 36 bd d4 86 97 3b af a0 1e ba
       -0.0039765215 -0.044549234 0.004624227 -0.00060511654
000150 e9 87 b9 3d b8 3c 19 3c 6c 54 be 3c 4c b3 ff bb
       0.09059126 0.009352855 0.023233615 -0.0078033563
000160 a4 3a bb be 20 8e 47 bc 20 38 44 bd 00 92 f4 bb
       -0.36568177 -0.012179881 -0.047905087 -0.0074636936
000170 9b ec 53 ba 61 74 e0 bc 1c 95 13 3d d4 65 7b 3b
       -0.0008084268 -0.027399244 0.036030874 0.0038360255
000180 c8 b2 11 3d 5e c6 a4 3b 40 d2 90 ba cc fe 19 3b
       0.03557089 0.00502853 -0.0011048988 0.0023497818
000190 80 42 de 3c f0 30 ba bb d9 b6 25 3d 67 f2 d2 be
       0.027131319 -0.0056821033 0.04045758 -0.41200563
0001a0 3a da 1c 3c 3c 4f e4 3a 5a 59 46 3e f3 9f a4 bc
       0.009573514 0.0017418633 0.19370022 -0.020095801
0001b0 b7 84 1f bd 16 be bd 3e a3 05 33 3d a8 a7 17 bf
       -0.038944926 0.37059087 0.043706547 -0.592402
0001c0 90 d0 74 3d 02 41 97 3b d2 09 21 3c 11 a6 df 3b
       0.059769213 0.004615904 0.0098290015 0.0068252166
0001d0 dd 58 f3 3b b4 d1 2e b9 cf 0c d8 3c c2 6d 33 3e
       0.007426365 -0.00016672054 0.026373295 0.17522338
0001e0 7c 81 e7 bd 3f b1 03 be d7 40 c7 3e 41 7f c2 bc
       -0.11303994 -0.12860583 0.38916656 -0.02374232
0001f0 d4 22 64 3e b2 5a 99 bc 91 93 d3 3c bc 7a fd 3d
       0.22278911 -0.018720005 0.025827201 0.12376925
000200 27 73 5c bd 53 0a 84 3a 12 ca b3 bc a2 02 ec 3b
       -0.053820755 0.0010073878 -0.02194694 0.0072024623
000210 30 87 56 3d 00 7b e7 3c 22 e1 1a 3e 2d db 85 3e
       0.05237502 0.028256893 0.15124944 0.2614378
000220 ad df 59 3d a3 fb 4c 3c 99 6e 5b bd 66 58 2b 3e
       0.05319183 0.012511167 -0.05357227 0.1673294
000230 26 26 29 3e b0 ec de 39 b8 fc ca 3c 53 e2 82 bc
       0.16518459 0.00042519486 0.024778709 -0.01597706
000240 5f de ed 3d 4b 25 f8 3c c4 7d f3 bb e4 65 95 bf
       0.116146795 0.03029122 -0.007430764 -1.167172
000250 90 c3 c0 3c 0d 52 26 3c 2e 3e 59 3d 29 90 93 3b
       0.023530751 0.010151398 0.053037815 0.004503269
000260 a8 5f 07 bd d4 3c 36 3e 48 24 2e bc 90 f1 52 ba
       -0.03305021 0.17796642 -0.010628767 -0.000804686
000270 65 95 13 3a 5d c6 1a 3e c1 72 bf bb 0a ad ce 3b
       0.00056298665 0.15114732 -0.005842537 0.006307249
000280 fc 6a 8a bc 1c 46 d8 3d 38 ec e0 3c 6b 80 1b 3c
       -0.016896717 0.10560247 0.027456388 0.009491066
000290 15 35 05 bd c0 af fe bc 13 3e 71 3c 86 e8 d1 3c
       -0.032521326 -0.031089664 0.014724272 0.025623571
0002a0 67 72 6b 3f 21 62 e4 3d 37 c2 fe 3d 58 e0 eb 3d
       0.9197144 0.11151529 0.12439387 0.115173995
0002b0 e1 f9 1c 3b d3 e2 28 be 8a c9 44 3b 4d fb 6c bd
       0.002395265 -0.16492777 0.0030027353 -0.057856847
0002c0 d4 2c 7f bd 45 59 31 bd 65 99 5d 3c b6 91 9e bc
       -0.06229861 -0.043298025 0.013525342 -0.01935659
0002d0 9b fb 3f bc cd b3 46 3e 21 fa 37 bc f1 4d 39 3c
       -0.011717702 0.19404526 -0.011229069 0.011310087
0002e0 64 16 07 3c b0 5a 89 be 8f b0 c2 b7 d2 4c 4d 3d
       0.008245084 -0.26827002 -2.3208819e-05 0.05012209
0002f0 f2 4a 2c 3a fc 7a 23 bd 8e f0 0b bd 35 a5 7b 3b
       0.0006572447 -0.03991221 -0.034164958 0.0038398032
000300 77 5b c7 bb 8c 3b 18 bc 1a 2b ee bc ee 9b 20 3d
       -0.0060839015 -0.009291541 -0.029073287 0.039211206
000310 23 e9 f9 3d 72 24 84 3d b9 f2 18 bf 25 95 a5 3f
       0.122026704 0.06452264 -0.59745365 1.293614
000320 70 a9 61 bd 02 9d c2 3c b0 39 a4 3c 97 53 20 bb
       -0.05509323 0.023756508 0.020047039 -0.0024463886
000330 9c e0 6c 3e be 22 68 bf 39 29 29 3e a6 30 10 3d
       0.23132557 -0.9067801 0.16519631 0.035202645
000340 c1 9b 24 bb 47 dd a4 bc ab 6d 2c be 7b 2f 51 3b
       -0.002511725 -0.020125045 -0.1683871 0.003191917
000350 25 87 ba bc 06 7c 04 3e 60 06 7a bc c1 81 56 3f
       -0.02276952 0.12937936 -0.015260309 0.8379174
000360 94 df 69 3c b0 3c 2e bd 7f 58 90 be 86 73 1f bd
       0.014274497 -0.042538345 -0.28192517 -0.03892853
000370 27 75 25 bd 03 51 ab 3c 7b c5 2f 3e 9f cb 02 bc
       -0.04039493 0.020912653 0.17165177 -0.007983117
000380 d3 5b 06 bd 7c b8 e2 3d d5 0b f9 3b af 28 c8 3c
       -0.032802414 0.11070344 0.0076002874 0.024433462
000390 82 b2 b8 bf 78 a3 62 3f ca ac c5 3a 15 c1 ae bc
       -1.4429476 0.88530684 0.0015081402 -0.021332303
0003a0 89 2e 59 bd b0 2f 90 bb 8e 32 cf 3d d9 97 68 3d
       -0.053022895 -0.004400216 0.101170644 0.05678544
0003b0 90 64 b5 3b ad 06 66 bb 89 40 d7 3a 86 03 23 bc
       0.0055356696 -0.0035099194 0.0016422431 -0.0099495705
0003c0 35 3f 3f 3e 98 a6 15 3e 0c 34 bc 3b a3 17 2f 3c
       0.18676455 0.14614332 0.005743509 0.010686788
0003d0 06 f5 0a bd 87 ad f3 ba fb 0e 6f 3c 3e bf 0f bd
       -0.03392508 -0.0018591144 0.014590974 -0.035094492
0003e0 ad ac 80 bf a5 34 5d 3e 2d ba 58 3e ce 83 c7 bb
       -1.0052696 0.21602114 0.2116477 -0.0060887104
0003f0 3a a6 a3 bc 18 25 4e 3f 25 f8 54 3f 64 2d da 3d
       -0.019976724 0.8052535 0.8319114 0.10653189
