data/Apr-13_05-51-52/models/critic_1550.pth (torch, 274455 bytes, 5 tensors)

linear_layer.0.weight f4 [256, 7]
000000 69 06 b1 be 49 70 8e 3e 56 e6 af be 05 92 70 be
       -0.34575203 0.27820042 -0.3435542 -0.23493202
000010 69 ef 07 be b0 9b bd be 18 fc a8 be 9d a3 70 be
       -0.13274921 -0.37032843 -0.33004832 -0.23499914
000020 5b e4 2e be 2b a7 7b 3d 9f 70 18 3e 0b 13 51 3e
       -0.17079298 0.06143872 0.14886712 0.2041742
000030 81 00 c6 3d b1 6f 1f 3e cd 39 45 bd 90 a6 7d 3e
       0.09668065 0.1556995 -0.048150826 0.2477057
000040 55 39 28 3e e7 db 9f bd 29 06 2a be 76 6e 52 3e
       0.1642812 -0.07805615 -0.16603912 0.2054995
000050 dd ef 9b 3e ea ca 23 be c4 94 54 3d 27 23 87 3e
       0.3045644 -0.15995374 0.051899686 0.26394007
000060 3b 50 4d 3e b1 52 b2 bd ff ed f0 3d 52 b0 14 be
       0.20050137 -0.087071784 0.11764144 -0.14520386
000070 20 d1 b2 be 22 ba 57 3e 07 08 c2 3e 4e 3c 98 3e
       -0.34925175 0.21067098 0.3789675 0.2973351
000080 ed 69 74 3e c5 1f a3 3e 8e 91 26 3e 06 3f 8f be
       0.23868532 0.31860176 0.16266462 -0.2797777
000090 08 8d b0 be 6d d7 b0 bd b7 a0 07 be f2 8e b3 be
       -0.34482598 -0.08634839 -0.13244902 -0.35069996
0000a0 b9 ce 57 be 09 52 b2 be 1b 0c 69 bc 5e 89 80 3e
       -0.21074952 -0.34828213 -0.014224078 0.25104803
0000b0 b1 c2 d3 be 5f c0 ac be 6d 3e 83 3e 9f 4d d3 bd
       -0.41359475 -0.33740517 0.25633565 -0.103175394
0000c0 8c d7 06 3e 1a a2 b9 3e 04 b3 86 3d af 2e ef be
       0.13168162 0.36256486 0.06577113 -0.46715304
0000d0 23 75 60 bd 24 6d 88 bd 0c d7 f5 3e 77 49 3b be
       -0.05479921 -0.06661442 0.4801563 -0.18289743
0000e0 ed 1e 9d be 2b 34 f6 bd 0c be 9e 3e 87 f9 fb bd
       -0.30687657 -0.12021669 0.3100437 -0.12303453
0000f0 3b e3 27 3e e2 3b e1 3d 28 0d ae bc b2 0a 9d 3e
       0.16395275 0.1099775 -0.021246508 0.30672222
000100 85 ed b4 bd 57 70 88 be 02 30 7a be ec 22 21 be
       -0.08834366 -0.26648208 -0.24432376 -0.15735978
000110 73 62 b4 be c4 01 2e 3e 38 60 b1 3e de 7a 06 bd
       -0.3523136 0.16992861 0.34643722 -0.03283202
000120 65 62 b0 be 50 05 46 3d 8a 84 86 bf d9 b4 9c 3e
       -0.3445007 0.04834491 -1.0509198 0.30606726
000130 36 d5 4e 3d e4 4a 0d 3e 7b b2 32 be be 30 a1 bc
       0.050496303 0.137981 -0.17450897 -0.019676562
000140 cb 2a b1 bd 2a 1a 87 3e 2a 7a 3e 3e d4 b9 d7 3d
       -0.0865074 0.2638715 0.1860129 0.10533491
000150 da a9 7c 3e c2 a8 7b be 24 00 b8 be e3 13 d0 3e
       0.24674168 -0.24576095 -0.35937607 0.40640172
000160 34 a0 52 bf 1f 7e ff 3d 9d bb 82 bd ee dc a0 be
       -0.822757 0.124752276 -0.06383441 -0.31418556
000170 02 0a 95 be 68 0d d8 3d ee 6d 57 3c c4 36 0f be
       -0.29109198 0.10549432 0.013148768 -0.13985735
000180 13 58 b0 39 9c 26 91 be 2a 47 34 3d e7 67 8f be
       0.00033634956 -0.2834977 0.04401318 -0.2800896
000190 34 fa af be c7 d4 87 3d ce fb 2b 3d 33 d9 5a 3e
       -0.34370577 0.06632381 0.041988187 0.21371917
0001a0 f2 06 b9 3e 30 19 70 be d2 d5 92 be 3e 72 28 3e
       0.3613811 -0.23447108 -0.28678757 0.1644983
0001b0 a5 cb 8f 3e b0 38 76 be 71 e9 da 3c 65 66 0d 3e
       0.28085056 -0.24045062 0.026722642 0.13808592
0001c0 fd d4 b8 be ac 72 0e bd bc ef cb bd aa ef 33 bc
       -0.36099997 -0.03477733 -0.09957835 -0.010982433
0001d0 d2 8d 53 3d f4 95 88 be 55 56 64 be 0b f9 50 be
       0.051648922 -0.26676905 -0.22298558 -0.20407502
0001e0 c8 6c 44 be 23 11 2c be 9e 45 89 3e 41 55 5c 3e
       -0.19182122 -0.16803412 0.26810926 0.21516897
0001f0 96 f5 7f be 92 34 12 3e 12 ec fd bd 3a 63 0b 3d
       -0.24996027 0.14277866 -0.123985425 0.034030177
000200 18 33 92 be 2d 00 f3 3d 10 24 b8 be c3 46 b1 3d
       -0.28554606 0.11865268 -0.35965014 0.08656075
000210 04 07 53 3e 36 26 e8 bd 21 e5 b5 be 23 e1 32 3d
       0.20608145 -0.11335413 -0.35526374 0.04367174
000220 73 59 76 be ae 47 8e 3b 11 05 42 3e d8 ba 61 3e
       -0.2405756 0.004342041 0.18947245 0.22043931
000230 b6 f4 17 bf fd 93 51 3e 22 83 2c be 3d 04 d9 3e
       -0.59357774 0.2046661 -0.16846898 0.42386046
000240 30 df 6e 3f cf a6 6b 3e 56 49 34 be b4 7a 42 bc
       0.9330931 0.23012851 -0.176061 -0.011870075
000250 b7 ca 51 3e 7a 72 e3 be 4a 7d 9d 3e ca 79 08 3e
       0.20487486 -0.44423276 0.3075965 0.13327709
000260 bd 9b df be e7 83 d2 3d 47 fa 8f 3e f3 90 f3 bd
       -0.43673506 0.102790646 0.28120634 -0.11892881
000270 9f 7b 95 be d3 b4 34 3e d8 b5 bc bf 3f f7 fd bd
       -0.29195878 0.17647104 -1.4742994 -0.12400674
000280 d2 fa 0c 3e 53 4c 79 be 61 71 31 3e 71 60 5f be
       0.13767555 -0.24345522 0.17328407 -0.21814133
000290 6d 1f 17 bd 96 05 4f 3f 22 c9 32 bd ab d4 00 bf
       -0.036895204 0.808679 -0.043648846 -0.50324506
0002a0 aa 89 fe 3d b6 56 8e be e1 4e 7d be c9 52 56 3d
       0.12428601 -0.2780053 -0.24737121 0.052325044
0002b0 f9 8e 80 3c 8c 82 99 bd 26 6f bd 3e ee 9d e2 be
       0.015693175 -0.07495603 0.36998862 -0.44261116
0002c0 06 48 37 3d 63 98 40 3e dd 85 bc bd 0c e0 a5 3e
       0.04474642 0.18808131 -0.0920522 0.32397497
0002d0 70 9d 85 3b dd b2 61 be 0a 56 4b be 43 c2 be bd
       0.004077606 -0.22040887 -0.1985704 -0.09314396
0002e0 68 a5 c7 3e 79 67 66 3a ca 34 9c 3e 13 f9 8f 3e
       0.38993382 0.00087892223 0.30509025 0.28119716
0002f0 33 06 3d 3d 50 73 10 3e 83 5b ba be a5 62 a1 be
       0.04614849 0.14106488 -0.36397943 -0.31520572
000300 38 45 7b be 66 97 4f be 4c 3d 89 be a8 14 0f be
       -0.24538124 -0.20272598 -0.26804578 -0.13972723
000310 c8 18 af bd 12 dd b8 3e 19 a9 6a 3e 56 f8 45 3e
       -0.085496485 0.36106163 0.22916068 0.19333014
000320 2c 40 79 bc 2b 40 33 3e 40 3c ae bd 76 28 19 be
       -0.015213054 0.17504947 -0.085075855 -0.14956841
000330 42 3b b5 3e 52 8f 7a be 60 79 e4 be 6b be 06 3f
       0.35396773 -0.24468735 -0.44623852 0.52634305
000340 8f 5b a0 3d c0 96 1f be 04 51 b9 3d 65 ef 93 3e
       0.078299634 -0.1558485 0.09048656 0.2889358
000350 dd 4b 19 bf 0e 3d a2 b8 16 95 14 3f c0 99 15 be
       -0.59881383 -7.736134e-05 0.5803999 -0.14609432
000360 b8 f3 37 3d 0f f5 4b be 98 ac c3 3b f8 52 df 3e
       0.044910163 -0.19917701 0.0059715025 0.43617988
000370 aa 34 71 be 0c 16 08 bf 61 2b 08 bf 41 2a e0 3d
       -0.23555246 -0.5315864 -0.5319119 0.10945559
000380 af b9 99 3e 8b f9 09 be a8 8a 80 be eb 04 1e 3e
       0.30024478 -0.134741 -0.25105786 0.15431564
000390 35 5c 6f bf c0 69 e8 3e 15 b3 8d 3b 54 53 91 3a
       -0.9350007 0.4539318 0.0043243268 0.0011087456
0003a0 3e f9 37 3e b4 ae 70 3e 92 c4 04 bf c4 06 2e 3d
       0.17966172 0.23504144 -0.5186244 0.04248692
0003b0 4b c4 22 bf 9f 77 65 3e 4f 77 9a be ca 67 7d bd
       -0.6358077 0.22408913 -0.3016915 -0.06186656
0003c0 bb 7a 22 3e b6 cd b7 be 9a e8 43 be c9 72 6e 3e
       0.1586713 -0.35899132 -0.19131699 0.23285975
0003d0 4f fa a0 be 60 26 de bd b5 77 c6 bd 6b f9 2e be
       -0.3144097 -0.10847163 -0.09690801 -0.17087333
0003e0 ed ac 0d 3e 89 1e fc 3c 3e 96 47 3e b8 cd ad bd
       0.13835497 0.030776279 0.19490907 -0.08486503
0003f0 2d 80 12 be c7 2b cc 3c 44 29 d9 bc 61 ec 35 3d
       -0.14306708 0.024923218 -0.026508935 0.04441488

linear_layer.0.bias f4 [256]
000000 b8 1c 12 3e 1a 94 cf be 5c 26 df 3d 47 74 9c 3e
       0.14268768 -0.4054268 0.10895988 0.30557463
000010 8e 62 62 bc fc 17 96 bd 28 91 8c be 2d 58 b1 3d
       -0.013817443 -0.073287934 -0.27454495 0.08659396
000020 35 06 13 be 3c 17 d1 3d 34 b8 3f 3e d1 66 93 3e
       -0.14357837 0.1020951 0.18722612 0.2878938
000030 25 fd 58 be df 05 3c be 95 99 cf 3d 62 76 40 3d
       -0.21190317 -0.18361615 0.10136715 0.0469879
000040 5c 61 91 bd 18 1c 03 bd 29 cb b9 be 6c 41 a7 bc
       -0.07098648 -0.032009214 -0.3628781 -0.020416938
000050 ae 91 1f be d0 7c 8c 3d cd 9e 08 3e 51 9f 77 be
       -0.15582916 0.068597436 0.13341828 -0.24181868
000060 0f ac 9b be 65 60 87 3e 82 e4 9f bc d3 1a 4c 3e
       -0.30404708 0.2644073 -0.01951814 0.19932108
000070 83 4e 05 3e b8 b4 a3 be 78 10 86 be 0f 03 02 3f
       0.13018231 -0.31973815 -0.2618444 0.5078592
000080 b9 0d 8c 3e b3 37 a7 3e bc e9 4c 3d 4a 8e 27 3d
       0.2735422 0.32659683 0.050027594 0.04090718
000090 ad 40 0d 3e a1 c3 7c 3e 02 a5 7c 3e b5 98 b6 be
       0.13794203 0.24684002 0.2467232 -0.3566338
0000a0 1b fc b5 be 7c f0 be 3b 3b 79 28 be f7 87 0c bd
       -0.35543904 0.005827008 -0.16452496 -0.034309354
0000b0 36 ee 21 3e 2e e8 8e be 56 85 11 3e 5b 54 38 bd
       0.15813527 -0.27911514 0.1421102 -0.045002323
0000c0 c2 81 d6 3e 7e 72 ed be 0b 97 d6 bd 49 f7 fe bd
       0.41895872 -0.46376413 -0.10478028 -0.1244951
0000d0 40 ae 0e 3d 79 30 17 3d 1c 43 80 3e 69 df c5 bd
       0.034834146 0.03691146 0.250512 -0.09661753
0000e0 4a bb 8f be 3f f7 8f bd 26 8f f7 3c 0c b0 b9 3d
       -0.28072578 -0.0702958 0.030219626 0.090667814
0000f0 5c fc 94 3e 96 26 e6 3d 6e f1 ce bc f3 4f 93 be
       0.29098785 0.112378284 -0.025261607 -0.28771934
000100 68 29 51 be da 03 6f be c5 5e 02 3d ca 0e 87 bd
       -0.20425951 -0.23341313 0.03182866 -0.06594618
000110 4c ae b6 3e 78 72 c9 be 61 e2 a5 be de ef f2 bc
       0.35679853 -0.39345145 -0.32399276 -0.029655393
000120 a8 73 37 be 39 0a 9b 3e b1 52 37 be 77 11 21 bc
       -0.17915213 0.30281237 -0.17902638 -0.009830824
000130 7a fa 97 3d 0d f8 3e be d3 59 1c be 11 b9 9c bb
       0.074208215 -0.18649311 -0.1526864 -0.004782804
000140 03 f2 34 be 30 d0 3b 3e 05 5c e7 be cc 52 59 bd
       -0.17670445 0.18341136 -0.45187393 -0.053057477
000150 53 e2 c9 bd 82 d6 25 be c2 38 c2 3e a5 b1 96 be
       -0.09857621 -0.1619511 0.37933928 -0.29432407
000160 b8 c6 3b 3e 46 d2 89 3d 8b d5 fa bc 34 f5 16 be
       0.18337524 0.067295596 -0.030619403 -0.14741975
000170 62 88 93 3d a0 e4 a5 be e7 18 a6 be e0 49 88 3c
       0.07203747 -0.3240099 -0.32440874 0.016636789
000180 74 dd b9 bd ae 40 9a be 85 8d 83 be 9f 26 d7 3d
       -0.09075442 -0.30127472 -0.25693908 0.10505413
000190 36 7d b2 3d 5c d6 bc 3d 05 1c d2 be 85 c1 c0 be
       0.08715288 0.09220573 -0.41037002 -0.37647644
0001a0 f3 c2 ed bd 20 e0 bb be c8 20 0d 3e a0 be 8a be
       -0.11609449 -0.3669443 0.13782036 -0.2709856
0001b0 1a aa 82 bd e5 f3 bf 3e fc 01 47 be 77 2f 05 3e
       -0.063801005 0.37490764 -0.1943435 0.13006388
0001c0 76 8f 80 bd 1e e6 43 be 0b 23 c1 3e 97 27 80 3e
       -0.06277363 -0.19130751 0.37722048 0.25030205
0001d0 85 76 7f 3e 26 9f d9 3d de 66 39 3e 23 13 d0 be
       0.24947555 0.10626058 0.18105647 -0.406396
0001e0 9d 8a 77 be d7 41 44 be 0d ad 6c be 74 e6 ce 3d
       -0.2417397 -0.19165741 -0.23112889 0.10102549
0001f0 92 af bf 3e e3 e4 c1 be 89 57 a6 3e 09 a4 a5 be
       0.37438637 -0.3786994 0.3248866 -0.3235171
000200 91 1d c9 be 09 28 35 3e 3c 74 b4 bd c6 de 0b bf
       -0.3928037 0.17691053 -0.088112324 -0.546368
000210 3c a0 66 be a2 8c 5e be 9a 9e 45 3e ef 7d b8 be
       -0.22522062 -0.21733335 0.19298783 -0.3603358
000220 04 20 ce be d2 85 3c 3e 89 0d a3 be 0b af 03 be
       -0.402588 0.18410423 -0.31846264 -0.12859742
000230 25 e7 e1 be 99 99 9d be 6b 85 c0 be d2 58 fa be
       -0.44121662 -0.30781248 -0.3760179 -0.4889589
000240 17 b4 65 bd f0 b1 b8 3e cd c1 a3 3e 45 61 a2 be
       -0.05607995 0.36073256 0.31983796 -0.31714836
000250 7b 73 d0 3d b4 f0 21 be 89 75 84 be 8f e1 ee bd
       0.10178276 -0.15814477 -0.25870922 -0.11664116
000260 7c b0 85 bd 1d ff 91 be 46 49 8d be 17 e4 97 be
       -0.06527802 -0.28514948 -0.27594966 -0.29666206
000270 2b d4 32 be 78 3f 31 be c5 8f 4c 3e c4 74 0e 3e
       -0.17463748 -0.17309368 0.19976719 0.1391173
000280 0d 0a 5b 3d 67 25 95 be 98 aa 32 3e 0a 3a 68 3e
       0.053476382 -0.29130098 0.17447889 0.2267839
000290 69 48 29 3e d7 3c ba 3d 8f 67 f5 be d4 d4 4f be
       0.16531529 0.090936355 -0.4793057 -0.20296031
0002a0 40 b3 85 be b6 bb 80 be 3f f3 8d 3e cb ec 7b 3e
       -0.2611332 -0.25143212 0.27724645 0.24602048
0002b0 21 fc 50 3e 45 af 8a 3e 26 a6 89 bd 05 9f 1f bd
       0.2040868 0.27086845 -0.067211434 -0.038970012
0002c0 70 f6 76 be cb 41 ad 3d 89 2d 78 3e 5a 11 f4 bd
       -0.24117446 0.08459815 0.2423612 -0.11917372
0002d0 1f 3e bc 3e 0f 7f 78 3d 6c c4 31 bd 16 60 c8 3e
       0.36766145 0.060668048 -0.043400213 0.39135808
0002e0 93 a6 d4 be d2 5d 50 be 75 56 39 be 91 d8 ab 3d
       -0.41533336 -0.2034829 -0.18099387 0.08390916
0002f0 65 b7 a7 3e 73 9b 3c 3e 90 43 71 3e 4d 8e bf be
       0.32757106 0.18418674 0.2356093 -0.37413254
000300 0f 12 af be 1e 13 d6 bd 1d f2 a6 bd 59 4a 0a 3e
       -0.34193465 -0.10452865 -0.08151648 0.13504924
000310 3d 25 67 be 9e 6c 28 3e 9f ee da be d5 e6 69 3d
       -0.22572799 0.16447684 -0.42760178 0.057104904
000320 42 ba c4 3d 1a 2c 74 be 89 18 98 be 8d 23 fb bc
       0.09605838 -0.23844948 -0.2970622 -0.0306566
000330 f3 e6 eb bd 57 41 0c 3f 12 2b c7 3c 99 a1 57 be
       -0.115186594 0.547872 0.02431253 -0.21057738
000340 e2 82 b4 be 6e 7e 91 be 2e e1 03 3e 98 e5 6d 3e
       -0.35256106 -0.2841677 0.12878868 0.23232114
000350 1a 07 85 be 62 50 c1 3e 3e e2 2b 3d e7 22 c3 3c
       -0.2598198 0.3775664 0.04196381 0.023820354
000360 74 c9 96 3e b2 e4 11 be ea c2 00 bf 81 4e 7d be
       0.29450572 -0.14247397 -0.50297415 -0.24736978
000370 29 85 26 3d 7e c2 4a 3e 56 9b 23 be 55 f2 7b be
       0.040654335 0.19800755 -0.15977225 -0.24604161
000380 d2 ea 9e be 46 7d 5f be 53 18 14 be c7 7c a4 3e
       -0.3103853 -0.21825132 -0.14462404 0.32126448
000390 90 91 78 bd 3c da 16 bd cb ef c5 bd 8d 61 e7 bc
       -0.060685694 -0.03682922 -0.096648775 -0.028244758
0003a0 31 d4 a9 3e 12 f4 c5 3c 75 2f 4c be 02 92 6c 3e
       0.33169702 0.024164233 -0.19939978 0.23102573
0003b0 8e d6 60 3d ac c4 28 be 5b 89 c0 3d 96 6c 03 bf
       0.054892115 -0.16481274 0.094011985 -0.51337564
0003c0 9d 7f 49 3d fd 56 b8 3e 18 ee af be 23 f1 8d 3e
       0.049193967 0.36003867 -0.3436134 0.27723035
0003d0 91 cd eb bd 7b 86 03 3e de 13 80 be 91 30 08 bf
       -0.11513818 0.12844269 -0.25015157 -0.53199106
0003e0 52 70 1e be 4e 40 bb 3d b1 41 61 3e 36 4f c4 bd
       -0.15472534 0.091431245 0.21997716 -0.09585421
0003f0 16 d0 4e 3e f4 3a b1 3e b6 3e d4 be f8 06 d3 3e
       0.20196566 0.3461529 -0.41454095 0.41216254

linear_layer.2.weight f4 [256, 256]
000000 4a 86 53 3d eb 06 bf 3c 2e b2 24 3e aa 9b e1 3d
       0.05164174 0.023318728 0.16083595 0.11016019
000010 23 57 43 3e fe c9 29 bd bd d9 0e bd 35 1d 82 3d
       0.19076209 -0.0414524 -0.03487562 0.06353227
000020 67 c6 da bd 50 37 34 bd 30 83 e3 3d 02 25 30 3d
       -0.106823735 -0.043998063 0.111090064 0.043004043
000030 63 e5 43 3e ac 00 41 3d 80 33 81 bb 26 4f 85 3a
       0.19130473 0.04711978 -0.003942907 0.0010170683
000040 c0 66 02 3c d0 ef ee 3c bd 90 59 bd 64 50 ca 3c
       0.007959068 0.029167086 -0.05311655 0.024696536
000050 67 ca ad 3c 9f bd 11 bd 24 df 30 be 5f 14 86 bd
       0.021214677 -0.035581227 -0.17272621 -0.06546854
000060 4a 49 12 bd 2d d3 17 3d 77 d6 21 3e 46 bb 47 bd
       -0.035714425 0.037066627 0.15804468 -0.048762582
000070 d7 ed 54 3e cd 7e 0b be f1 c0 04 bf 2a 06 01 3e
       0.20793854 -0.1362259 -0.51856905 0.12600008
000080 c5 84 a4 3d 2c e4 0f 3e a4 06 82 3c 4c 01 bf bc
       0.08033136 0.14051884 0.015872307 -0.023316048
000090 d2 bf 94 3d 80 25 dd 3c 78 df 62 bc a3 f3 9f 3d
       0.07263149 0.02699542 -0.013847224 0.07810142
0000a0 62 c8 c6 3d 41 49 01 3e f8 06 74 bc ca ba a3 bd
       0.09706189 0.126256 -0.01489424 -0.079946116
0000b0 98 1e 51 bc cf cd 92 3d 16 23 55 3d 92 09 98 3d
       -0.012763642 0.07168161 0.052035414 0.074237004
0000c0 f1 dc 26 3d 70 0f 89 be 30 3a 61 bd 54 21 a9 3d
       0.04073805 -0.2676959 -0.054987133 0.0825831
0000d0 10 9d c8 3b 1b 52 1d 3e 48 82 0a bd 40 5a f7 bb
       0.006122239 0.15363352 -0.033815652 -0.0075486004
0000e0 f4 e9 6d bd 7c ef a1 3c 92 2b f4 3c e8 c8 7d 3c
       -0.058084443 0.019767515 0.029805932 0.015489794
0000f0 05 1e 8f 3d 21 07 35 bc 4f 30 56 be 20 02 6c bc
       0.06988148 -0.011049063 -0.20916866 -0.0144048035
000100 6e c0 b7 3d cb 64 ed bb 1a 85 40 bd cf 7c 71 3d
       0.0897225 -0.0072446815 -0.047001936 0.058956917
000110 27 28 d7 3d 3c aa bf 3c e0 57 0c bc af 96 6c 3d
       0.10505705 0.023396604 -0.008565873 0.05776089
000120 24 20 c7 3c c7 89 a6 3d 9e 1f 83 bd e4 69 72 bd
       0.024307318 0.08131748 -0.06402515 -0.059183016
000130 7e 94 c5 3d 5c 34 99 bd 7d 4c 27 3d 66 27 be be
       0.09647463 -0.0748069 0.04084443 -0.37139434
000140 7c 4e 8c 3b cc 35 70 bd c1 cd 80 3d b7 6f 8f bc
       0.004281817 -0.058645055 0.062892444 -0.017509324
000150 1e 60 80 bd f7 48 9e be 92 cd 8b 3e fc 21 e6 be
       -0.06268333 -0.30915043 0.27305275 -0.44947803
000160 04 a1 a4 3e 78 07 39 3c 18 b0 1c 3e 65 fa 8d bc
       0.32154095 0.011293285 0.1530155 -0.017331311
000170 64 e6 54 3d e8 ed ba bb 13 1c ca bd 02 40 3c be
       0.05197753 -0.00570463 -0.09868636 -0.18383792
000180 3f 46 86 bd cf 89 05 bd ec 57 9c 3c df e8 e9 3d
       -0.06556367 -0.032602128 0.019084893 0.1142137
000190 44 c2 b9 bc ae 0f 64 3c 90 c0 cf 3d c8 0d c5 bd
       -0.02267564 0.013919754 0.1014415 -0.09621769
0001a0 1c cc c4 bc 40 62 bc 3b b6 3f 66 bd a0 d9 56 3b
       -0.024023108 0.005749017 -0.056213103 0.0032783523
0001b0 07 7e 9f 3c c3 ce c9 bd 36 04 cd bc dc 0d a2 3c
       0.019469274 -0.0985389 -0.025026422 0.019782
0001c0 58 a7 21 3e 1f 49 e2 3d ee 51 52 bd 21 f7 9f bf
       0.15786493 0.11049103 -0.051347665 -1.2497293
0001d0 30 6e 7e bd 98 da 32 3e 25 fc d8 bc 0d 68 c5 bc
       -0.0621168 0.174662 -0.02648742 -0.024097467
0001e0 06 5d 3d bd 86 7e c4 3c 6b 57 8f 3d 98 85 89 bd
       -0.046231292 0.023986112 0.069990955 -0.06714934
0001f0 0e 26 44 bd e7 e6 35 be 54 b9 a3 bc ac 4f 28 3d
       -0.047887854 -0.17763864 -0.019985832 0.041091606
000200 d4 c0 1c bd 8d 32 29 3e 92 d9 35 3d 93 71 3d bd
       -0.038269833 0.1652319 0.044396944 -0.04625089
000210 94 b0 43 3d 22 42 91 3d 56 4c 10 bd a3 1f 88 3d
       0.04777582 0.07092692 -0.03522905 0.06646659
000220 c2 7d e9 bc 2a 25 3a 3d ed 21 ab 3c c4 b0 f1 3c
       -0.028502349 0.0454456 0.0208902 0.029503234
000230 b6 25 db bd 7c f6 c6 be 3d 2d 12 be 34 67 8d bc
       -0.10700552 -0.38859928 -0.1427507 -0.017261125
000240 9e 22 68 bd d0 ef 07 bc 34 cd 22 bd 9b 48 8f be
       -0.05667364 -0.008296922 -0.03974648 -0.2798508
000250 e8 59 26 3d ff f6 78 bd 2d c8 6c bb 81 f6 1b 3e
       0.040613085 -0.06078243 -0.0036130056 0.15230753
000260 71 a0 0a 3d 6c ea 84 3c 8a fc 62 bc 12 86 12 3d
       0.033844415 0.016225062 -0.013854155 0.03577239
000270 89 d6 60 3d 85 7b e5 bd 02 76 18 bd 76 51 79 3d
       0.054892097 -0.112052 -0.037221916 0.060868703
000280 58 12 74 3c 00 2e c5 ba 3e 19 bf bc 17 27 72 bd
       0.014896952 -0.0015043616 -0.023327466 -0.05911931
000290 0a 4f ec 3c 83 2e 12 3e ac 78 c0 be f6 d5 49 3d
       0.028846283 0.14275555 -0.37592065 0.049276315
0002a0 7f 76 cc bb 4c f1 ae 3d 9e c3 1b bd de 70 59 3d
       -0.006239712 0.085421175 -0.038028352 0.053086154
0002b0 7d b6 07 3d aa 07 0d bd 57 49 9f bd fd f9 55 3d
       0.03313302 -0.034431137 -0.0777766 0.05224036
0002c0 93 37 c8 3d b4 0d 56 3d 14 b5 7d 3d 00 c8 4a bd
       0.09776225 0.052259162 0.061940268 -0.04950714
0002d0 b0 7c e9 bb 24 7b 5a bd a4 b9 53 bc 47 03 f0 3d
       -0.0071254596 -0.053340092 -0.012922678 0.11719375
0002e0 73 f9 9d 3c 51 7a c9 be 64 ed 1b 3c 4d 75 92 bc
       0.019283986 -0.39351133 0.009517048 -0.017878199
0002f0 09 54 07 3e b2 6e 9b 3d 2c a3 3d 3d 5d 1f 1f bd
       0.1321565 0.07589473 0.04629819 -0.03884827
000300 74 27 52 3d cf b8 a8 bd 67 06 e0 3d ba 56 7c 3c
       0.051307157 -0.082383744 0.10938721 0.015401537
000310 5c dd 3f 3d e4 f1 c2 bc ff b8 c6 3d c4 ba f7 bc
       0.046841964 -0.023796983 0.09703254 -0.030240424
000320 9a e5 99 3c f0 0d 2a 3c 04 3c 3f bd f5 09 ee 3d
       0.01878624 0.0103792995 -0.046688095 0.11622993
000330 a6 a7 4f bd 11 fc 27 3e 8f 72 7f 3c 1a 8c 60 3d
       -0.05069699 0.1640475 0.015591278 0.05482111
000340 30 ab b7 3d df fc 90 3d a8 64 ab bd 49 ed 2e 3d
       0.08968198 0.07079481 -0.08368808 0.04270676
000350 24 51 9e 3c 67 81 84 bb 61 4e 68 3e 48 b5 16 bd
       0.0193258 -0.0040437463 0.22686149 -0.036793977
000360 75 3c 4f bd df cd f0 3d 6a e3 89 3c 62 9e a1 3d
       -0.050594766 0.11758017 0.016832072 0.07891537
000370 89 a6 96 bd 4c d0 99 bd 4e 26 9b 3c d8 62 33 bd
       -0.07355983 -0.075104326 0.018939164 -0.043795437
000380 e4 b8 d9 bd 10 26 78 bc ec f1 0f be 25 2d 6c bc
       -0.10630968 -0.015145794 -0.1405713 -0.01441506
000390 81 dd 2e be b0 24 38 bc fa e9 86 3d 76 a4 6c 3d
       -0.17076685 -0.011239216 0.06587596 0.05777403
0003a0 90 bb 8e bc 02 db 07 3d 90 49 92 bd 2e 7b 28 3e
       -0.017423421 0.033167847 -0.07142937 0.1645324
0003b0 cc a3 0f 3d 5f 48 d3 3d 66 d4 48 bd 40 0a 62 3d
       0.03506832 0.10316538 -0.049030684 0.055185556
0003c0 25 a5 6a 3e fc 1e 62 be 00 ab 61 bd 15 0b 51 bd
       0.2291456 -0.22082132 -0.05509472 -0.05103596
0003d0 d7 0c 36 bd 79 a2 15 3d 0f 7d f2 bd 4d be e0 3c
       -0.04444584 0.0365319 -0.11840259 0.027434492
0003e0 3e 37 b4 3c 2d d9 81 bd cc 5d e5 bc 27 a9 4b bc
       0.021998998 -0.06340251 -0.027998827 -0.012430466
0003f0 02 0d 8f 3c 8a 16 6e 3d 4b d9 9a bd f0 10 a5 3d
       0.017462257 0.058126964 -0.075609766 0.08059871

linear_layer.2.bias f4 [256]
000000 e7 b6 be 3e 6f de 40 bc b4 f0 32 3d a1 f0 27 3d
       0.37248918 -0.011771782 0.043686584 0.041000966
000010 99 1f 86 bd 9e f1 76 3c 58 62 b8 bd b3 ef f5 bc
       -0.065489955 0.015072254 -0.090031326 -0.030021524
000020 ea 4a 06 bd 0f c1 8b 3e 78 74 3e bd 8e e4 96 3c
       -0.032786287 0.2729573 -0.046497792 0.01841953
000030 22 c5 9a 3d 79 f1 ac bb 17 5d 9a 3d 90 b3 45 3d
       0.07557131 -0.005277809 0.07537287 0.048266947
000040 2d b8 23 3c 16 a5 33 3d 4e 58 3f 3d cc 6c b3 bc
       0.009992641 0.04385861 0.046715073 -0.021902464
000050 38 43 83 bd 2b 96 2a bd e2 fe 08 3d 5b 73 27 3d
       -0.06409305 -0.041647118 0.0334462 0.040881496
000060 63 81 77 bd 93 70 88 bd 66 18 35 bd 40 79 54 3c
       -0.060426127 -0.06662097 -0.04421272 0.012968361
000070 e0 15 20 bd 0f da bf 3c dd 40 3c 3c 18 78 b2 3e
       -0.03908336 0.023419408 0.011490074 0.3485725
000080 77 ac 1d 3d fa 24 14 3d 29 5c a4 3b f3 85 30 be
       0.038494553 0.036168076 0.005015869 -0.17238598
000090 84 98 d6 3c b2 4d 91 3e 19 62 16 3c 87 88 b5 b8
       0.026195772 0.2837959 0.009178662 -8.656183e-05
0000a0 72 0c c1 bd 44 5d 96 bd 28 5e ea bc d5 30 f1 3c
       -0.09426202 -0.07342008 -0.02860935 0.02944223
0000b0 89 dd 09 3b 14 f2 e5 3c 9f 2b a7 3c f8 00 57 3c
       0.0021036586 0.028069533 0.020406542 0.01312279
0000c0 a8 d8 3c bd 61 2e 92 ba f8 c2 87 bd 90 9b ff 3d
       -0.046105057 -0.0011152738 -0.06628984 0.12480843
0000d0 7d 07 f2 bc cc 8b 93 bd 83 e4 a8 bd c0 0f 11 bd
       -0.029544586 -0.072043985 -0.0824671 -0.03541541
0000e0 03 f8 d1 bb 7c ca ea 3d b9 fd 4d bd 04 ed a3 bc
       -0.006407739 0.11464402 -0.050290797 -0.020010479
0000f0 e4 dc 0d bd 48 dd df bc 00 a9 89 bd 12 8b 2e bd
       -0.034634486 -0.027327195 -0.06721687 -0.042613097
000100 cc ff 26 3d ff 06 46 bd c8 75 2d 3e f6 ad f5 bc
       0.04077129 -0.048346516 0.16939461 -0.029990178
000110 c8 08 e1 3d 89 22 85 bd 49 c4 a5 bc 8c 6f a9 bd
       0.10988003 -0.06500728 -0.020235198 -0.08273229
000120 c1 95 18 3d c6 67 8a bd 33 e2 74 bd 2d f8 ca bc
       0.03725219 -0.067580745 -0.059786033 -0.024776543
000130 08 48 46 3c fe dc 68 bd e7 63 62 bc a5 ec 08 bd
       0.0121021345 -0.05685138 -0.013817764 -0.033428807
000140 db bb 02 bd 44 b7 84 bd f2 a0 d1 bc f1 92 b0 3d
       -0.031917434 -0.06480268 -0.02558944 0.08621777
000150 cc cc a2 3c d8 cd 0d bd 84 03 0b 3d ef b8 ab 3c
       0.019873045 -0.034620136 0.0339389 0.020962207
000160 01 0f a4 be 98 f9 8b bd 9a b4 12 3d bd be 99 bd
       -0.32042697 -0.068347156 0.035816766 -0.075070836
000170 e0 90 96 3d 84 b5 dc 3c 6b 4e 18 bd 1c 84 0d 3d
       0.073518515 0.026942022 -0.03718416 0.034549817
000180 2f 5b da 3c 0e 6a 3c bd 1a 14 2a 3d 3c 0f 28 bd
       0.026654808 -0.04599958 0.041523077 -0.041030154
000190 68 64 4f bd df cf 35 3d 45 8e 19 3c 0b 83 3d be
       -0.050632864 0.044387694 0.009372299 -0.1850702
0001a0 7b 81 61 bd c8 0d 58 3c dc bb 9e 3e be fb a8 bd
       -0.055055123 0.013186879 0.310027 -0.08251141
0001b0 f6 1e b2 bc 3f d4 9d 3e 5f e4 5a bd 35 59 ba bd
       -0.021743279 0.30825993 -0.053440448 -0.09099046
0001c0 f2 de 60 bd ea 6c 3d bd 5d 99 6d 3d 98 b9 94 bd
       -0.054900117 -0.046246447 0.058007587 -0.07261962
0001d0 da de 0a 3d 70 1a cf 3b 3a 51 81 bc ad d2 bc 3e
       0.033903934 0.0063202903 -0.015785802 0.36879483
0001e0 94 aa c6 bd 30 ee 0e bd 07 ba 4e bd ab ff a4 bd
       -0.09700504 -0.034895122 -0.05047038 -0.08056577
0001f0 2c 35 c4 3e 50 dc 14 3d ee 8b 81 bb 23 66 c0 3e
       0.38321817 0.03634292 -0.0039534485 0.37577924
000200 aa f1 d0 3c 40 d2 31 bd de 56 ea bc 9a 44 15 bc
       0.02550586 -0.0434134 -0.028605875 -0.009110594
000210 bc bb 9a bc 84 58 a3 bd df 5a 83 3e 2b de 1c bd
       -0.018888347 -0.079758674 0.25655267 -0.038297813
000220 a1 f9 98 3a 0b b4 91 bc 85 25 9a bd e4 85 93 3e
       0.0011671075 -0.017786046 -0.075266875 0.28813088
000230 65 06 81 3d 3b 6e 16 3e e5 47 bd 3c 21 36 9f bd
       0.06300048 0.14690487 0.023105571 -0.07773996
000240 9a 41 96 3e 7d 98 81 3c c4 1a fb 3c 63 85 ed bd
       0.29346925 0.015819782 0.030652411 -0.11597707
000250 6c 49 90 bc ae aa b8 3b 1b 3d 88 bc a1 c8 03 3c
       -0.017613135 0.005635581 -0.0166307 0.008043439
000260 2c 55 85 bc 18 24 53 3d bc 2b 98 3c f8 e9 b6 3c
       -0.016275965 0.051548094 0.018575542 0.022328362
000270 69 3c 86 bc 04 4b a1 3e a9 ce 70 bc 82 69 4b bc
       -0.016386228 0.31502545 -0.014697709 -0.012415292
000280 f9 38 1c 3d 9e d9 b7 3e 90 c8 42 bd ca 17 97 bd
       0.03814027 0.35908216 -0.047554553 -0.07377584
000290 9f 8d 01 bd 59 9a 69 3b b9 d5 d9 bc 79 b6 1f bd
       -0.0316292 0.0035644977 -0.026591169 -0.03899238
0002a0 89 73 28 be 84 e4 0a 3e 9c 3a 84 3e 08 6c 81 3e
       -0.16450323 0.13563734 0.25825965 0.25277734
0002b0 e4 bd c4 bc ce c7 76 bd 50 1a 68 3c 1a 18 f7 bc
       -0.024016328 -0.060249142 0.01416643 -0.03016286
0002c0 0c 80 fa bc cd 21 55 bd 70 2b 4f bb 8d a6 7e bd
       -0.030578636 -0.052034188 -0.0031611584 -0.062170554
0002d0 fa d7 3b bd b2 34 81 3e ee 46 ab bd 7b 7f 82 bc
       -0.04586027 0.25235516 -0.08363138 -0.015929928
0002e0 a2 3f 77 bd 7e 97 89 be fd 39 39 3d f7 8e 52 bd
       -0.06036342 -0.26873392 0.045221318 -0.051405873
0002f0 51 ce 0a 3d 14 f0 59 bc 19 e1 2b bc 1a 3a f1 3c
       0.033888165 -0.013301868 -0.010490679 0.02944665
000300 72 d9 e9 3b 03 ed 4c bd 73 ff 5f bd 22 46 6f 3c
       0.007136517 -0.05003072 -0.054686975 0.014604123
000310 6d 1e 85 3e bf 46 a5 3d e0 2b 81 be 56 36 09 be
       0.25999776 0.08070134 -0.25228786 -0.13399634
000320 c7 72 10 bd f1 4b 44 3c 38 45 9c bd 02 96 c6 bd
       -0.03526571 0.0119809965 -0.0763039 -0.096965805
000330 b7 cb e9 3e 27 11 17 be 19 13 93 3e 9d 37 61 bd
       0.45663235 -0.14752637 0.28725508 -0.054984678
000340 f8 de 01 bd b8 c5 8e bc c5 7a 13 3d e7 a5 6c 3c
       -0.03170678 -0.017428264 0.036005754 0.014443851
000350 2d 3e 1d bd 41 2d 8d 3d e4 32 57 bb 02 74 59 bd
       -0.038389374 0.06893397 -0.003283673 -0.05308915
000360 35 79 85 bd be 00 91 bd 41 92 02 bd aa 30 f8 bc
       -0.06517259 -0.0708022 -0.03187776 -0.030296642
000370 12 b9 ee ba 70 1b d7 bc e8 a0 9a 3e 70 42 ec bd
       -0.0018213114 -0.0262582 0.30200887 -0.115361094
000380 d6 a8 74 bd 32 00 d6 3d 86 cf 8f bc b5 b0 65 bd
       -0.059731327 0.10449256 -0.01755501 -0.056076724
000390 d4 21 9e bd 44 66 59 3e 98 e0 bd 3c ad 76 97 bd
       -0.07721296 0.21230417 0.023178384 -0.073956825
0003a0 19 34 7e bd c8 cc 9a bc bd a4 3e 3e 7e a1 cf bc
       -0.062061403 -0.018896475 0.1861753 -0.02534556
0003b0 60 52 46 bd e7 71 27 bd 2d 92 06 bb e6 1e 0a 3c
       -0.048418403 -0.04088011 -0.0020533905 0.008430218
0003c0 00 d2 76 3e 0c 52 9c 3e 5a ee 26 3d a7 0b eb 3a
       0.24103546 0.30531347 0.040754654 0.001793255
0003d0 c0 5f 8a bd 21 c3 d9 bc 34 57 f9 3b 11 d6 5a bd
       -0.06756544 -0.026582303 0.0076092724 -0.053426806
0003e0 54 91 72 bd 3e 73 bb 3e 3d 69 c5 3d 26 04 c1 bd
       -0.059220627 0.3661136 0.09639213 -0.094246194
0003f0 2e ab 26 bd bb c2 00 3e 2c df ab bd 99 34 1c 3c
       -0.040690593 0.12574284 -0.08392176 0.009534025

linear_layer.4.weight f4 [1, 256]
000000 c0 8a 0d 3e 6c b4 a8 bb de 2d 91 ba a3 7e b6 3c
       0.1382246 -0.005148461 -0.0011076292 0.022277182
000010 63 d8 1b 3d c1 36 39 3d f6 07 71 bc 54 a3 36 bc
       0.03804816 0.045218233 -0.014711371 -0.011147339
000020 86 23 22 bd 7b 49 19 3e 84 57 23 3b 3c 47 0c 3d
       -0.03958466 0.14969437 0.002492399 0.034247622
000030 a9 80 c8 3d fd 83 09 bd a6 57 9a 3d ef 73 4a bd
       0.09790165 -0.03357314 0.07536249 -0.04942697
000040 f2 6a 46 3c 0c 8f e8 bc 77 4e 8e bd fc 4e f9 3c
       0.012110459 -0.028388523 -0.0694856 0.03043317
000050 d0 d3 90 3a b6 28 51 bd ed 8b 76 bd ba ba 1f 3d
       0.0011049453 -0.051064216 -0.060192037 0.038996436
000060 63 38 1c bd e1 36 06 3c 2f 6f bb b9 b0 ef 47 3d
       -0.038139712 0.008191795 -0.00035750258 0.04881257
000070 e6 34 35 bf 6f 81 2a 3d 4d 9f e5 3a d5 f0 37 3e
       -0.7078384 0.041627344 0.0017518789 0.17962964
000080 fe 90 5d 3a 18 21 28 bc c7 0c a5 3b 3b 50 70 be
       0.00084520865 -0.010261796 0.0050369236 -0.23468105
000090 7e 03 d0 3b 9b 20 1b 3e f4 aa ff bc 41 6a 3d 3d
       0.0063480726 0.15149157 -0.031209446 0.04624391
0000a0 9d d7 91 3c 59 98 00 bd 9f 26 13 bd d7 ed e5 3b
       0.017803008 -0.03139529 -0.035925504 0.007016878
0000b0 ee c4 2f bc 40 d8 9a bb e5 3e 3d bd 89 7b 5c ba
       -0.010728104 -0.004725486 -0.04620256 -0.0008410742
0000c0 bf 89 42 3c 87 11 a4 3b 8d 2b 38 3d 27 30 a6 3e
       0.011873662 0.0050069722 0.04496341 0.32458612
0000d0 1b 3b a8 3b 56 c8 eb bb 25 93 f1 3c 21 1f ea 3b
       0.005133999 -0.0071955128 0.02948911 0.007144824
0000e0 15 57 2c 3d 13 4a 08 3e b7 c6 4b bd ba 99 43 3d
       0.042075235 0.13309507 -0.049750056 0.047754027
0000f0 db 16 be 3a 58 70 1b 3d 8c 2f 52 bd 03 ee 16 bd
       0.0014502661 0.037948936 -0.051314875 -0.03684808
000100 b7 c6 42 bd a7 1b eb bc 80 ae 39 3e 44 7a 6f 37
       -0.04755279 -0.02869971 0.18132973 1.4273977e-05
000110 c2 ef bd 3d 8e 0e aa 3c 20 98 2a be 1a f7 e7 3b
       0.09274246 0.020758893 -0.16659594 0.0070790173
000120 5d 80 e3 3b ad 0a c9 3c ce ef 51 3c c6 13 c4 3b
       0.0069427923 0.024541223 0.012813522 0.0059838025
000130 90 b7 39 bd 5c a1 8d 3a 1d bf 03 bc 54 bd 49 3d
       -0.045341074 0.0010805535 -0.00804117 0.049252823
000140 23 b1 98 bc 42 79 36 bd d4 86 97 3b a9 ee d6 3b
       -0.018639153 -0.044549234 0.004624227 0.006559212
000150 e9 87 b9 3d b8 3c 19 3c 4b 77 b0 3c 4c b3 ff bb
       0.09059126 0.009352855 0.021541258 -0.0078033563
000160 91 cd 8a be 20 8e 47 bc 20 38 44 bd 00 92 f4 bb
       -0.2710996 -0.012179881 -0.047905087 -0.0074636936
000170 7a b0 b6 3c 61 74 e0 bc 1c 95 13 3d 68 a8 95 3c
       0.022300947 -0.027399244 0.036030874 0.018268779
000180 c8 b2 11 3d 5e c6 a4 3b 40 d2 90 ba cc fe 19 3b
       0.03557089 0.00502853 -0.0011048988 0.0023497818
000190 80 42 de 3c f0 30 ba bb d9 b6 25 3d 79 ce b3 be
       0.027131319 -0.0056821033 0.04045758 -0.35118464
0001a0 3a da 1c 3c 65 54 27 bc 94 69 3e 3e f3 9f a4 bc
       0.009573514 -0.010212992 0.18594962 -0.020095801
0001b0 b7 84 1f bd b4 7d bf 3e a3 05 33 3d 39 c9 07 bf
       -0.038944926 0.3740059 0.043706547 -0.53041416
0001c0 90 d0 74 3d 02 41 97 3b d2 09 21 3c 11 a6 df 3b
       0.059769213 0.004615904 0.0098290015 0.0068252166
0001d0 8f 79 a7 3a b4 d1 2e b9 cf 0c d8 3c fa 0a 2b 3e
       0.0012777316 -0.00016672054 0.026373295 0.16703406
0001e0 1d 45 a5 bd 77 a6 03 be c0 1d b3 3d 41 7f c2 bc
       -0.08069823 -0.1285647 0.08745909 -0.02374232
0001f0 59 9b 5b 3e b2 5a 99 bc 91 93 d3 3c 90 68 fc 3d
       0.21445979 -0.018720005 0.025827201 0.12324631
000200 27 73 5c bd 53 0a 84 3a 3f 83 3d b9 a2 02 ec 3b
       -0.053820755 0.0010073878 -0.00018073338 0.0072024623
000210 30 87 56 3d 00 7b e7 3c 53 68 18 3e 14 ac 1b 3d
       0.05237502 0.028256893 0.14883547 0.038005903
000220 ad df 59 3d a3 fb 4c 3c 99 6e 5b bd 53 ac 20 3e
       0.05319183 0.012511167 -0.05357227 0.15690736
000230 7b 57 07 3e f2 35 47 3d b8 fc ca 3c 53 e2 82 bc
       0.13216965 0.04863543 0.024778709 -0.01597706
000240 08 88 f9 3d 4b 25 f8 3c c4 7d f3 bb c4 49 62 bf
       0.12184149 0.03029122 -0.007430764 -0.8839381
000250 90 c3 c0 3c 0d 52 26 3c 2e 3e 59 3d 29 90 93 3b
       0.023530751 0.010151398 0.053037815 0.004503269
000260 a8 5f 07 bd df c1 5e 3b 48 24 2e bc 90 f1 52 ba
       -0.03305021 0.0033990068 -0.010628767 -0.000804686
000270 65 95 13 3a 40 4a 13 3e c1 72 bf bb 0a ad ce 3b
       0.00056298665 0.14383793 -0.005842537 0.006307249
000280 fc 6a 8a bc 9a fd e2 3d 38 ec e0 3c 6b 80 1b 3c
       -0.016896717 0.11083527 0.027456388 0.009491066
000290 15 35 05 bd c0 af fe bc 13 3e 71 3c 86 e8 d1 3c
       -0.032521326 -0.031089664 0.014724272 0.025623571
0002a0 f7 45 f1 3e 21 62 e4 3d ca 41 05 3e 6d c1 ed 3d
       0.4712369 0.11151529 0.13013378 0.11609159
0002b0 e1 f9 1c 3b 32 cd 67 be 8a c9 44 3b 4d fb 6c bd
       0.002395265 -0.2263687 0.0030027353 -0.057856847
0002c0 d4 2c 7f bd 45 59 31 bd 65 99 5d 3c b6 91 9e bc
       -0.06229861 -0.043298025 0.013525342 -0.01935659
0002d0 9b fb 3f bc 6e ff 59 3e 7b 87 f6 bc f1 4d 39 3c
       -0.011717702 0.21288845 -0.030093899 0.011310087
0002e0 63 47 f6 ba 4b 72 6d be 8f b0 c2 b7 d2 4c 4d 3d
       -0.0018789585 -0.2318813 -2.3208819e-05 0.05012209
0002f0 f2 4a 2c 3a fc 7a 23 bd 8e f0 0b bd 35 a5 7b 3b
       0.0006572447 -0.03991221 -0.034164958 0.0038398032
000300 77 5b c7 bb 8c 3b 18 bc 1a 2b ee bc ee 9b 20 3d
       -0.0060839015 -0.009291541 -0.029073287 0.039211206
000310 9d 45 0d 3e 5d 3f 87 3d 0e 5e fe be 0b e9 2f 3f
       0.13796087 0.066038825 -0.49681133 0.6871497
000320 70 a9 61 bd 02 9d c2 3c b0 39 a4 3c 97 53 20 bb
       -0.05509323 0.023756508 0.020047039 -0.0024463886
000330 5d 83 5e 3e b1 0c 3c bf cf d5 1e 3e a6 30 10 3d
       0.21729799 -0.73456866 0.15511249 0.035202645
000340 bc 5a 00 bc 47 dd a4 bc ae a7 44 be d8 71 9a bb
       -0.007834133 -0.020125045 -0.1920459 -0.0047132783
000350 a9 ff e3 bc ff bc 1c 3e 60 06 7a bc ff 42 06 3f
       -0.02783187 0.15306471 -0.015260309 0.5244598
000360 94 df 69 3c b0 3c 2e bd 20 d9 92 be 86 73 1f bd
       0.014274497 -0.042538345 -0.28681278 -0.03892853
000370 27 75 25 bd 03 51 ab 3c d3 c7 2b 3e 9f cb 02 bc
       -0.04039493 0.020912653 0.16775446 -0.007983117
000380 d3 5b 06 bd 85 8d 0e 3e d5 0b f9 3b 8c d7 d0 3c
       -0.032802414 0.13921173 0.0076002874 0.025493406
000390 36 78 83 bf 6e 9d 57 3f 27 a4 9e 3c 15 c1 ae bc
       -1.027106 0.84224594 0.019365383 -0.021332303
0003a0 89 2e 59 bd b0 2f 90 bb 1f cb 00 3e d9 97 68 3d
       -0.053022895 -0.004400216 0.12577485 0.05678544
0003b0 90 64 b5 3b ad 06 66 bb 89 40 d7 3a 86 03 23 bc
       0.0055356696 -0.0035099194 0.0016422431 -0.0099495705
0003c0 c7 cc 3b 3e 15 44 11 3e 91 58 1a 3c a3 17 2f 3c
       0.18339835 0.14186127 0.00942053 0.010686788
0003d0 d0 f5 46 bd d8 89 10 3a fb 0e 6f 3c 3e bf 0f bd
       -0.04857427 0.00055137044 0.014590974 -0.035094492
0003e0 4d 2c 32 bf 54 d0 50 3e 04 d0 2f 3e a6 e1 f1 bb
       -0.6959885 0.20391971 0.17169195 -0.0073816357
0003f0 3a a6 a3 bc 11 a8 51 3f 9c 15 3f 3f 64 2d da 3d
       -0.019976724 0.81897074 0.7464235 0.10653189
