data/Apr-13_05-51-52/models/critic_1750.pth (torch, 274455 bytes, 5 tensors)

linear_layer.0.weight f4 [256, 7]
0	0xbeb10669	-0.34575203
1	0x3e8e7049	0.27820042
2	0xbeafe656	-0.3435542
3	0xbe709205	-0.23493202
4	0xbe07ef69	-0.13274921
5	0xbebd9bb0	-0.37032843
6	0xbea8fc18	-0.33004832
7	0xbe70a39d	-0.23499914
8	0xbe2ee45b	-0.17079298
9	0x3d7ba72b	0.06143872
10	0x3e18709f	0.14886712
11	0x3e51130b	0.2041742
12	0x3dc60081	0.09668065
13	0x3e1f6fb1	0.1556995
14	0xbd727111	-0.05918986
15	0x3e7078c8	0.23483574
16	0x3e1d7575	0.15376838
17	0xbdbc14d3	-0.091836594
18	0xbe2df0eb	-0.16986434
19	0x3e48be77	0.19603907
20	0x3eaa75b0	0.33292913
21	0xbe34cb59	-0.17655696
22	0x3d07a030	0.03311175
23	0x3e7d972e	0.24764702
24	0x3e384862	0.17996362
25	0xbda8dba7	-0.0824502
26	0x3dd22e78	0.102627695
27	0xbdfea637	-0.12434047
28	0xbeb58151	-0.35450223
29	0x3e50f865	0.20407255
30	0x3ec01819	0.37518385
31	0x3e945c9b	0.28976902
32	0x3e76a9e4	0.24088246
33	0x3ea08d73	0.31357917
34	0x3e47ed45	0.19524105
35	0xbe8f3f06	-0.2797777
36	0xbeb08d08	-0.34482598
37	0xbdb0d76d	-0.08634839
38	0xbe07a0b7	-0.13244902
39	0xbeb38ef2	-0.35069996
40	0xbe57ceb9	-0.21074952
41	0xbeb25209	-0.34828213
42	0xbc690c1b	-0.014224078
43	0x3e80895e	0.25104803
44	0xbed3c2b1	-0.41359475
45	0xbeacc05f	-0.33740517
46	0x3e833e6d	0.25633565
47	0xbdd34d9f	-0.103175394
48	0x3e06d78c	0.13168162
49	0x3eb63cc7	0.35593244
50	0x3d5f735d	0.05455338
51	0xbef2fd93	-0.47459087
52	0xbd4f22fd	-0.050570477
53	0xbdf15792	-0.11784281
54	0x3ef70433	0.4824539
55	0xbe3f759a	-0.18697205
56	0xbe9d1eed	-0.30687657
57	0xbdf6342b	-0.12021669
58	0x3e9ebe0c	0.3100437
59	0xbdfbf987	-0.12303453
60	0x3e27e33b	0.16395275
61	0x3de13be2	0.1099775
62	0xbcae0d28	-0.021246508
63	0x3e9d0ab2	0.30672222
64	0xbdb4ed85	-0.08834366
65	0xbe887057	-0.26648208
66	0xbe7a3002	-0.24432376
67	0xbe2122ec	-0.15735978
68	0xbeb46273	-0.3523136
69	0x3e2e01c4	0.16992861
70	0x3eb2a709	0.34893063
71	0xbd4346bb	-0.047674876
72	0xbeb799b9	-0.3585947
73	0x3d422362	0.047397025
74	0xbf8c5fc6	-1.0966728
75	0x3ea24ac8	0.3169768
76	0x3d75bdb1	0.059995357
77	0x3e0d4ae4	0.137981
78	0xbe32b27b	-0.17450897
79	0xbca130be	-0.019676562
80	0xbdb12acb	-0.0865074
81	0x3e871a2a	0.2638715
82	0x3e3e7a2a	0.1860129
83	0x3dd7b9d4	0.10533491
84	0x3e91e806	0.28497332
85	0xbe802aaf	-0.25032565
86	0xbeb28009	-0.34863308
87	0x3ed50164	0.41602623
88	0xbf727ff7	-0.9472651
89	0x3e0e6762	0.13906625
90	0x3be73e23	0.007056968
91	0xbea0dcee	-0.31418556
92	0xbe950a02	-0.29109198
93	0x3dd80d68	0.10549432
94	0x3c576dee	0.013148768
95	0xbe0f36c4	-0.13985735
96	0x39b05813	0.00033634956
97	0xbe91269c	-0.2834977
98	0x3d34472a	0.04401318
99	0xbe8f67e7	-0.2800896
100	0xbeaffa34	-0.34370577
101	0x3d87d4c7	0.06632381
102	0x3d2bfbce	0.041988187
103	0x3e5ad933	0.21371917
104	0x3eb906f2	0.3613811
105	0xbe701930	-0.23447108
106	0xbe92d5d2	-0.28678757
107	0x3e28723e	0.1644983
108	0x3e8fcba5	0.28085056
109	0xbe7638b0	-0.24045062
110	0x3cdae971	0.026722642
111	0x3e0d6665	0.13808592
112	0xbeb8d4fd	-0.36099997
113	0xbd0e72ac	-0.03477733
114	0xbdcbefbc	-0.09957835
115	0xbc33efaa	-0.010982433
116	0x3d538dd2	0.051648922
117	0xbe8895f4	-0.26676905
118	0xbe645655	-0.22298558
119	0xbe50f90b	-0.20407502
120	0xbe446cc8	-0.19182122
121	0xbe2c1123	-0.16803412
122	0x3e89459e	0.26810926
123	0x3e5c5541	0.21516897
124	0xbe7ff596	-0.24996027
125	0x3e123492	0.14277866
126	0xbe03ee45	-0.12883861
127	0x3d2e7400	0.042591095
128	0xbe98899c	-0.29792488
129	0x3df1eb9f	0.11812519
130	0xbee7695d	-0.45197573
131	0x3d96c8d4	0.07362524
132	0x3e7b10b6	0.24518093
133	0xbde82636	-0.11335413
134	0xbeb5e521	-0.35526374
135	0x3d32e123	0.04367174
136	0xbe765973	-0.2405756
137	0x3b8e47ae	0.004342041
138	0x3e420511	0.18947245
139	0x3e61bad8	0.22043931
140	0xbf196904	-0.59925866
141	0x3e52862a	0.20558992
142	0xbe2d20e9	-0.16907085
143	0x3ed63dff	0.41844174
144	0x3f81e28c	1.0147262
145	0x3e5361ae	0.2064273
146	0xbe733a7b	-0.23752777
147	0xbc85abac	-0.016317211
148	0x3e4bb942	0.19894889
149	0xbee93913	-0.45551357
150	0x3e9d7b7a	0.30758268
151	0x3e1d2dbf	0.15349482
152	0xbeee450e	-0.4653706
153	0x3e0e137c	0.1387462
154	0x3ea6fe10	0.3261571
155	0xbdb9b9b7	-0.090686254
156	0xbe901184	-0.28138363
157	0x3e3cdf17	0.18444477
158	0xbfbdc4fb	-1.4825739
159	0xbd9f8b75	-0.07790271
160	0x3e4aa650	0.19790006
161	0xbe770af1	-0.24125268
162	0x3e320348	0.17384064
163	0xbe609f06	-0.21935663
164	0xbd18709f	-0.03721678
165	0x3f4d78d6	0.80262506
166	0xbd72f318	-0.059313864
167	0xbf035aee	-0.5131062
168	0x3dfe89aa	0.12428601
169	0xbe8e56b6	-0.2780053
170	0xbe7d4ee1	-0.24737121
171	0x3d5652c9	0.052325044
172	0x3c808ef9	0.015693175
173	0xbd99828c	-0.07495603
174	0x3ebd6f26	0.36998862
175	0xbee29dee	-0.44261116
176	0x3d374806	0.04474642
177	0x3e409863	0.18808131
178	0xbdbc85dd	-0.0920522
179	0x3ea5e00c	0.32397497
180	0x3b859d70	0.004077606
181	0xbe61b2dd	-0.22040887
182	0xbe61c4a5	-0.2204767
183	0xbdfe4d5a	-0.124170974
184	0x3eb8d07f	0.3609657
185	0xbcd97819	-0.026546525
186	0x3eaed13d	0.3414401
187	0x3e8764c0	0.26444054
188	0x3ace3050	0.0015730951
189	0x3e107350	0.14106488
190	0xbeba5b83	-0.36397943
191	0xbea162a5	-0.31520572
192	0xbe7b4538	-0.24538124
193	0xbe4f9766	-0.20272598
194	0xbe893d4c	-0.26804578
195	0xbe0f14a8	-0.13972723
196	0xbdbdd811	-0.09269727
197	0x3eb51aa9	0.35371903
198	0x3e650095	0.22363503
199	0x3e3d9ea8	0.18517554
200	0xbcc651dc	-0.024208955
201	0x3e2e6f73	0.17034702
202	0xbd3cec4b	-0.046123784
203	0xbe26d7d5	-0.16293271
204	0x3eb8a5f7	0.3606412
205	0xbe84503f	-0.25842473
206	0xbee7db28	-0.4528439
207	0x3ef5c2dc	0.48000228
208	0x3d920433	0.07129707
209	0xbe253539	-0.16133584
210	0x3d9455f3	0.07242956
211	0x3e9946a2	0.299367
212	0xbf1bd8d3	-0.6087772
213	0x3a4a94e5	0.00077278755
214	0x3f07038c	0.5273979
215	0xbe18dbdf	-0.14927624
216	0x3d2559a4	0.04036869
217	0xbe33b4b5	-0.17549403
218	0x3c78d242	0.015186848
219	0x3eecd95d	0.46259585
220	0xbe52fb48	-0.20603669
221	0xbf162cae	-0.58661926
222	0xbf076ef2	-0.52903664
223	0x3e2750ee	0.16339466
224	0x3e9c652a	0.30545932
225	0xbe1a7389	-0.15083136
226	0xbe89f3d6	-0.26943845
227	0x3e18319c	0.14862674
228	0xbf75a42e	-0.95953643
229	0x3ef43c49	0.47702244
230	0x3ced436d	0.028962815
231	0xbc85cfbb	-0.016334405
232	0x3e29a50a	0.16566864
233	0x3e671ba5	0.2256914
234	0xbf0952a8	-0.5364175
235	0x3bc899d0	0.0061218515
236	0xbf2c7862	-0.6737119
237	0x3e68742b	0.22700565
238	0xbe9a774f	-0.3016915
239	0xbd7d67ca	-0.06186656
240	0x3e227abb	0.1586713
241	0xbeb7cdb6	-0.35899132
242	0xbe43e89a	-0.19131699
243	0x3e6e72c9	0.23285975
244	0xbea0fa4f	-0.3144097
245	0xbdde2660	-0.10847163
246	0xbdc677b5	-0.09690801
247	0xbe2ef96b	-0.17087333
248	0x3e0daced	0.13835497
249	0x3cfc1e89	0.030776279
250	0x3e47963e	0.19490907
251	0xbdadcdb8	-0.08486503
252	0xbe12f0d7	-0.14349686
253	0x3cc65054	0.024208225
254	0xbcdd646d	-0.027025426
255	0x3d30e1d7	0.043184128

linear_layer.0.bias f4 [256]
0	0x3e121cb8	0.14268768
1	0xbecf941a	-0.4054268
2	0x3dc6ed0b	0.09713181
3	0x3e93530a	0.2877429
4	0xbc9efc14	-0.01940731
5	0xbd9617fc	-0.073287934
6	0xbe8c9128	-0.27454495
7	0x3da9b8a0	0.082871675
8	0xbe130635	-0.14357837
9	0x3dd1173c	0.1020951
10	0x3e35c57e	0.17751119
11	0x3e9366d1	0.2878938
12	0xbe4eb47f	-0.20186041
13	0xbe3c05df	-0.18361615
14	0x3dcf9995	0.10136715
15	0x3d407662	0.0469879
16	0xbd91615c	-0.07098648
17	0xbd031c18	-0.032009214
18	0xbeb81b46	-0.35958308
19	0xbca7416c	-0.020416938
20	0xbe2a3454	-0.16621524
21	0x3d53dfb2	0.051727004
22	0x3e13db51	0.14439131
23	0xbe76fc2f	-0.24119638
24	0xbe9bac0f	-0.30404708
25	0x3e876065	0.2644073
26	0xbd4857bc	-0.048911795
27	0x3e4c1ad3	0.19932108
28	0x3dfcd95c	0.123461455
29	0xbea9d6ca	-0.33171684
30	0xbe89a515	-0.2688376
31	0x3f08f696	0.5350126
32	0x3e84a860	0.2590971
33	0x3ea2c926	0.3179409
34	0x3d4ce9bc	0.050027594
35	0x3d278e4a	0.04090718
36	0x3e0c5937	0.13705908
37	0x3e7cc3a1	0.24684002
38	0x3e7ca502	0.2467232
39	0xbececae0	-0.40389156
40	0xbece59a1	-0.40302756
41	0xbbbccf27	-0.005761999
42	0xbe28793b	-0.16452496
43	0xbd05fec8	-0.03271368
44	0x3e21ee36	0.15813527
45	0xbe9550d2	-0.29163224
46	0x3dbe53b9	0.092933126
47	0xbd62c2f8	-0.055361718
48	0x3ed8dc0a	0.42355376
49	0xbef028ba	-0.46906072
50	0xbdd6970b	-0.10478028
51	0xbdfef749	-0.1244951
52	0x3d0eae40	0.034834146
53	0x3cce1b93	0.025159633
54	0x3e80431c	0.250512
55	0xbdc5df69	-0.09661753
56	0xbe8fbb4a	-0.28072578
57	0xbd8ff73f	-0.0702958
58	0x3d8626c8	0.06550366
59	0x3db9b00c	0.090667814
60	0x3e991460	0.29898357
61	0x3dca19f0	0.098682284
62	0xbc95e375	-0.018296937
63	0xbe934ff3	-0.28771934
64	0xbe384785	-0.17996033
65	0xbe6f03da	-0.23341313
66	0x3c861983	0.016369587
67	0xbd9fe841	-0.07807971
68	0x3eadad3d	0.33921233
69	0xbec5d966	-0.38642424
70	0xbea5e261	-0.32399276
71	0xbce3f9b6	-0.027829032
72	0xbe2f0f39	-0.1709565
73	0x3e9b0a39	0.30281237
74	0xbe2f1a40	-0.17099857
75	0xbc211177	-0.009830824
76	0x3cece307	0.028916849
77	0xbe1e3c30	-0.15452647
78	0xbe0d498f	-0.13797592
79	0x3cd617d1	0.026134403
80	0xbe408e15	-0.188042
81	0x3e3bd030	0.18341136
82	0xbee75c05	-0.45187393
83	0xbd531402	-0.051532753
84	0xbd61276c	-0.054969236
85	0xbdef6467	-0.11689072
86	0x3ec00d76	0.3751027
87	0xbe9c03fc	-0.3047179
88	0x3e36f62e	0.17867348
89	0x3d89d246	0.067295596
90	0xbd0cc0da	-0.034363605
91	0xbe128d99	-0.14311828
92	0x3d938862	0.07203747
93	0xbea5e4a0	-0.3240099
94	0xbeab97ee	-0.3351435
95	0xbbd203f4	-0.0064091627
96	0xbdb9dd74	-0.09075442
97	0xbe9a40ae	-0.30127472
98	0xbe838d85	-0.25693908
99	0x3e0158af	0.12631486
100	0x3db27d36	0.08715288
101	0x3d8fc140	0.070192814
102	0xbec95278	-0.3932073
103	0xbecfa107	-0.40552542
104	0xbdedc2f3	-0.11609449
105	0xbebbe020	-0.3669443
106	0x3e0d20c8	0.13782036
107	0xbe8abea0	-0.2709856
108	0xbd82aa1a	-0.063801005
109	0x3ec26a53	0.37971744
110	0xbe60e4ba	-0.21962252
111	0x3e052f77	0.13006388
112	0xbd85d123	-0.0653403
113	0xbe5ae447	-0.21376143
114	0x3ec1230b	0.37722048
115	0x3e7e1866	0.24813995
116	0x3e7f7685	0.24947555
117	0x3dbadf54	0.09124628
118	0x3e375067	0.17901765
119	0xbed01323	-0.406396
120	0xbe6887f7	-0.22708116
121	0xbe4441d7	-0.19165741
122	0xbe66ba2a	-0.22531953
123	0x3dcee674	0.10102549
124	0x3ebfaf92	0.37438637
125	0xbecdb3a1	-0.40176108
126	0x3eaa5607	0.3326876
127	0xbea5a409	-0.3235171
128	0xbec91d91	-0.3928037
129	0x3e348f9f	0.17632912
130	0xbdb4743c	-0.088112324
131	0xbf0c93cd	-0.54913026
132	0xbe66a03c	-0.22522062
133	0xbe5e8ca2	-0.21733335
134	0x3e459e9a	0.19298783
135	0xbebee877	-0.37286732
136	0xbece2004	-0.402588
137	0x3e3c85d2	0.18410423
138	0xbea5c605	-0.3237764
139	0xbe0660ac	-0.13122815
140	0xbee1e725	-0.44121662
141	0xbe9be4f9	-0.3044813
142	0xbec892b3	-0.39174423
143	0xbeff7100	-0.498909
144	0xbd65b417	-0.05607995
145	0x3eb8b1f0	0.36073256
146	0x3ea3c1cd	0.31983796
147	0xbe9bda6b	-0.30440077
148	0x3dd0737b	0.10178276
149	0xbe1eb844	-0.1549998
150	0xbe847589	-0.25870922
151	0xbdff1038	-0.12454265
152	0xbd85b07c	-0.06527802
153	0xbe91ff1d	-0.28514948
154	0xbe8d4946	-0.27594966
155	0xbe9af58a	-0.30265456
156	0xbe3f4bd6	-0.18681273
157	0xbe2c02a4	-0.16797882
158	0x3e4c8fc5	0.19976719
159	0x3e0e74c4	0.1391173
160	0x3d5b0a0d	0.053476382
161	0xbe952567	-0.29130098
162	0x3e32aa98	0.17447889
163	0x3e79fb53	0.24412279
164	0x3e294d3f	0.16533373
165	0x3d9c2008	0.07623297
166	0xbf03bdca	-0.5146147
167	0xbe4fd4d4	-0.20296031
168	0xbe8390eb	-0.256965
169	0xbe763ebd	-0.2404737
170	0x3e8df33f	0.27724645
171	0x3e7beccb	0.24602048
172	0x3e4cccf9	0.20000066
173	0x3e8aaf45	0.27086845
174	0xbd89a626	-0.067211434
175	0xbcdab6f4	-0.026698567
176	0xbe827379	-0.25478724
177	0x3d835bff	0.06414031
178	0x3e782d89	0.2423612
179	0xbdf4115a	-0.11917372
180	0x3ebc3e1f	0.36766145
181	0x3d787f0f	0.060668048
182	0xbd7ec0f9	-0.06219575
183	0x3ec64289	0.38722637
184	0xbed5cbc0	-0.4175701
185	0xbe4cb933	-0.19992523
186	0xbe395675	-0.18099387
187	0x3dad0237	0.08447688
188	0x3ea80a20	0.32820225
189	0x3e312f3c	0.17303175
190	0x3e714390	0.2356093
191	0xbebf8e4d	-0.37413254
192	0xbeaf120f	-0.34193465
193	0xbdf28beb	-0.118430935
194	0xbd566c6f	-0.052349504
195	0x3e07ad69	0.13249744
196	0xbe6aebc5	-0.22941501
197	0x3e286c9e	0.16447684
198	0xbedaee9f	-0.42760178
199	0x3d69e6d5	0.057104904
200	0x3daca16a	0.08429225
201	0xbe62f3fe	-0.22163388
202	0xbe981889	-0.2970622
203	0xbd96e474	-0.07367793
204	0xbdebe6f3	-0.115186594
205	0x3f0d763d	0.5525854
206	0xbb057fb3	-0.0020370304
207	0xbe57a199	-0.21057738
208	0xbeb88b74	-0.36043894
209	0xbe917e6e	-0.2841677
210	0x3e03e12e	0.12878868
211	0x3e6445db	0.22292273
212	0xbe85071a	-0.2598198
213	0x3ec9812c	0.39356363
214	0x3d0f87b3	0.035041522
215	0x3cc322e7	0.023820354
216	0x3e992dcc	0.29917753
217	0xbe0e6005	-0.13903816
218	0xbf00c2ea	-0.50297415
219	0xbe819c00	-0.2531433
220	0x3d268529	0.040654335
221	0x3e410bd2	0.18852165
222	0xbe21370f	-0.1574366
223	0xbe7bf255	-0.24604161
224	0xbe9dcdba	-0.3082102
225	0xbe72fc72	-0.23729113
226	0xbe12b0a4	-0.14325196
227	0x3ea47cc7	0.32126448
228	0xbd7374cc	-0.059437558
229	0xbd16da3c	-0.03682922
230	0xbde4fa4c	-0.11180553
231	0xbce7618d	-0.028244758
232	0x3ea9d431	0.33169702
233	0x3cc54d20	0.024084628
234	0xbe4a4efa	-0.1975669
235	0x3e642a13	0.22281675
236	0x3d60d68e	0.054892115
237	0xbe297757	-0.16549431
238	0x3dc0895b	0.094011985
239	0xbefcf53a	-0.49405843
240	0x3d2efc24	0.04272093
241	0x3ec001e5	0.37501445
242	0xbeafee18	-0.3436134
243	0x3e8df123	0.27723035
244	0xbdebcd91	-0.11513818
245	0x3e01e06c	0.12683266
246	0xbe84a6e1	-0.25908569
247	0xbf083091	-0.53199106
248	0xbe1e7052	-0.15472534
249	0x3dd32efa	0.103116944
250	0x3e6064c9	0.21913446
251	0xbdc44f36	-0.09585421
252	0x3e4ed016	0.20196566
253	0x3eb17dfc	0.3466643
254	0xbed43eb6	-0.41454095
255	0x3ed7c21b	0.42140278

linear_layer.2.weight f4 [256, 256]
0	0x3d53864a	0.05164174
1	0x3cbf06eb	0.023318728
2	0x3e1f0cfe	0.155323
3	0x3dc99686	0.09843163
4	0x3e3f998a	0.18710914
5	0xbd29c9fe	-0.0414524
6	0xbd0ed9bd	-0.03487562
7	0x3d488a0f	0.048959788
8	0xbddac667	-0.106823735
9	0xbd343750	-0.043998063
10	0x3debb21c	0.11508581
11	0x3d302502	0.043004043
12	0x3e513a1d	0.20432325
13	0x3d4100ac	0.04711978
14	0xbb813380	-0.003942907
15	0x3a854f26	0.0010170683
16	0x3c0266c0	0.007959068
17	0x3ceeefd0	0.029167086
18	0xbda1bb8f	-0.07897102
19	0x3cca5064	0.024696536
20	0xbc1b99b4	-0.009497095
21	0xbd53a62f	-0.051672157
22	0xbdfe0bca	-0.12404592
23	0xbd81fabf	-0.06346654
24	0xbd12494a	-0.035714425
25	0x3d17d32d	0.037066627
26	0x3e0f0427	0.13966428
27	0xbd47bb46	-0.048762582
28	0x3e51ff74	0.20507604
29	0xbe3d020e	-0.18457815
30	0xbf0922ca	-0.5356871
31	0x3dd7163f	0.1050229
32	0x3db42849	0.08796746
33	0x3def761e	0.11692451
34	0x3c8206a4	0.015872307
35	0xbcbf014c	-0.023316048
36	0x3d943c01	0.07238007
37	0x3cdd2580	0.02699542
38	0xbc62df78	-0.013847224
39	0x3cd10355	0.025514284
40	0x3da0eed6	0.07858054
41	0x3de9bf22	0.11413409
42	0xbc7406f8	-0.01489424
43	0xbde540b4	-0.11193982
44	0xbc511e98	-0.012763642
45	0x3d3089cf	0.043100175
46	0x3d0bb845	0.03411128
47	0x3d6a7a35	0.057245452
48	0x3d39be4e	0.045347504
49	0xbea554d4	-0.3229128
50	0xbd613a30	-0.054987133
51	0x3da92154	0.0825831
52	0x3bc89d10	0.006122239
53	0x3e1eb2da	0.15497914
54	0xbd0a8248	-0.033815652
55	0xbbf75a40	-0.0075486004
56	0xbd6de9f4	-0.058084443
57	0x3ca1ef7c	0.019767515
58	0x3d614108	0.05499366
59	0x3c7dc8e8	0.015489794
60	0x3d044100	0.03228855
61	0xbcd381c7	-0.025818719
62	0xbe63cf49	-0.22247042
63	0xbc6c0220	-0.0144048035
64	0x3d8f419a	0.069949344
65	0xbbed64cb	-0.0072446815
66	0xbd46af25	-0.048506875
67	0x3d3852d9	0.045000885
68	0x3dc6f21a	0.09714146
69	0x3c7a86fe	0.015290974
70	0xbc0c57e0	-0.008565873
71	0x3d3370f3	0.04380889
72	0x3b3f7ca0	0.002921857
73	0x3da689c7	0.08131748
74	0xbdb3d952	-0.08781685
75	0xbd7269e4	-0.059183016
76	0x3d7a9bf5	0.06118389
77	0xbda72719	-0.08161754
78	0x3db343c7	0.08753162
79	0xbec5f69a	-0.38664705
80	0xbc8436c8	-0.016139403
81	0xbd7035cc	-0.058645055
82	0x3d80cdc1	0.062892444
83	0xbc864edd	-0.016395027
84	0xbd9d3ad4	-0.07677236
85	0xbe9ce64e	-0.3064446
86	0x3e872d8e	0.26401943
87	0xbefdedb1	-0.49595407
88	0x3eb4d302	0.35317236
89	0x3c390778	0.011293285
90	0x3e1c1b83	0.1524487
91	0xbce2ace4	-0.027670331
92	0x3d54e664	0.05197753
93	0xbbbaede8	-0.00570463
94	0xbdcb8ab7	-0.09938567
95	0xbe53d418	-0.20686376
96	0xbd86463f	-0.06556367
97	0xbd0589cf	-0.032602128
98	0x3c9c57ec	0.019084893
99	0x3df2e779	0.11860556
100	0xbcb9c244	-0.02267564
101	0x3c429d1b	0.011878277
102	0x3db2e415	0.087349094
103	0xbe05420c	-0.13013476
104	0xbcc4cc1c	-0.024023108
105	0x3bbc6240	0.005749017
106	0xbd663fb6	-0.056213103
107	0x3b56d9a0	0.0032783523
108	0x3c9f7e07	0.019469274
109	0xbde10149	-0.10986573
110	0xbd4ae979	-0.049539063
111	0x3ca20ddc	0.019782
112	0x3e0b5cb6	0.13609585
113	0x3dac4a52	0.08412613
114	0xbd5251ee	-0.051347665
115	0xbfa1decf	-1.2646121
116	0xbd7e6e30	-0.0621168
117	0x3e281b91	0.16416766
118	0xbcd929ff	-0.026509283
119	0xbcc5680d	-0.024097467
120	0xbd94a1f6	-0.07257454
121	0x3cc47e86	0.023986112
122	0x3d68e765	0.0568613
123	0xbd898598	-0.06714934
124	0xbd44260e	-0.047887854
125	0xbe310b1b	-0.17289393
126	0xbc05a1a5	-0.008156215
127	0x3d284fac	0.041091606
128	0xbd1cc0d4	-0.038269833
129	0x3e29257b	0.16518204
130	0x3d35d992	0.044396944
131	0xbd763dd5	-0.06011756
132	0x3d43b094	0.04777582
133	0x3d914222	0.07092692
134	0xbd104c56	-0.03522905
135	0x3d900979	0.07033057
136	0xbce97dc2	-0.028502349
137	0x3d3a252a	0.0454456
138	0x3ceb3009	0.028709428
139	0x3ce96d15	0.028494397
140	0xbddb25b6	-0.10700552
141	0xbecc5e0a	-0.39915496
142	0xbe2b7797	-0.16744839
143	0xbcc5c44f	-0.024141459
144	0xbd68229e	-0.05667364
145	0xbc07efd0	-0.008296922
146	0xbd22cd34	-0.03974648
147	0xbe865010	-0.26232958
148	0x3d2659e8	0.040613085
149	0xbd75005f	-0.059814807
150	0xbb6cc82d	-0.0036130056
151	0x3e1f0ee2	0.15533021
152	0x3d0aa071	0.033844415
153	0x3c84ea6c	0.016225062
154	0xbc62fc8a	-0.013854155
155	0x3d80f980	0.06297588
156	0x3c9ed514	0.019388713
157	0xbdff44a9	-0.12464268
158	0xbd187602	-0.037221916
159	0x3d795176	0.060868703
160	0x3c741258	0.014896952
161	0xbac52e00	-0.0015043616
162	0xbcbf193e	-0.023327466
163	0xbd6cf19d	-0.057847608
164	0x3ce677a9	0.02813323
165	0x3e0b9d65	0.1363426
166	0xbecb6b47	-0.39730284
167	0x3d49d5f6	0.049276315
168	0xbc6e67aa	-0.014551083
169	0x3da22660	0.07917476
170	0xbd1bc39e	-0.038028352
171	0x3d5970de	0.053086154
172	0x3cc4371c	0.02395206
173	0xbd0d07aa	-0.034431137
174	0xbd9f4957	-0.0777766
175	0x3cfa6049	0.03056349
176	0x3d949993	0.072558545
177	0x3d092c2a	0.033489384
178	0x3d7db514	0.061940268
179	0xbd4ac800	-0.04950714
180	0xbbe97cb0	-0.0071254596
181	0xbd5a7b24	-0.053340092
182	0xbd31af9e	-0.043380372
183	0x3dda9b2f	0.1067413
184	0x3c9369f0	0.01799485
185	0xbed0075a	-0.4063061
186	0x3c1bed64	0.009517048
187	0xbd1b052c	-0.03784673
188	0x3df65117	0.120271854
189	0x3d94e734	0.07270661
190	0x3d3da32c	0.04629819
191	0xbd1f1f5d	-0.03884827
192	0x3d522774	0.051307157
193	0xbdb284b7	-0.087167196
194	0x3dabb7ea	0.08384688
195	0x3ba87609	0.005141024
196	0x3cec4d04	0.028845318
197	0xbcc2f1e4	-0.023796983
198	0x3dc6b8ff	0.09703254
199	0xbcf7bac4	-0.030240424
200	0x3aed4a00	0.0018103719
201	0x3ae39e09	0.0017365824
202	0xbd3f3c04	-0.046688095
203	0x3dc0b833	0.09410133
204	0xbd4fa7a6	-0.05069699
205	0x3e1f33bb	0.15547077
206	0xbd179299	-0.03700504
207	0x3d608c1a	0.05482111
208	0x3db65bf6	0.08904259
209	0x3d90fcdf	0.07079481
210	0xbdab64a8	-0.08368808
211	0x3d0cfe71	0.03442234
212	0x3c9e5124	0.0193258
213	0xbc27055c	-0.010194149
214	0x3e65cfe8	0.22442591
215	0xbd16b548	-0.036793977
216	0xbdab054d	-0.083506204
217	0x3dc71128	0.09720069
218	0x3c89e36a	0.016832072
219	0x3d720685	0.05908825
220	0xbd96a689	-0.07355983
221	0xbddc41ee	-0.107547626
222	0x3ccf5fa3	0.025314158
223	0xbd3362d8	-0.043795437
224	0xbdd5a0c1	-0.10431052
225	0xbd0038a2	-0.03130401
226	0xbe1012fd	-0.14069743
227	0xbc6c2d25	-0.01441506
228	0xbe2ba161	-0.1676078
229	0xbc3824b0	-0.011239216
230	0x3d57e4c1	0.05270839
231	0x3d6ca476	0.05777403
232	0xbc8ebb90	-0.017423421
233	0x3c9276f5	0.017878989
234	0xbdca24b0	-0.09870279
235	0x3e24256c	0.160299
236	0x3d0fa3cc	0.03506832
237	0x3dd32d6a	0.103113964
238	0xbd48d466	-0.049030684
239	0x3d99aef9	0.075040765
240	0x3e67ec3d	0.22648712
241	0xbe83f642	-0.25773817
242	0xbd61ab00	-0.05509472
243	0xbd510b15	-0.05103596
244	0xbd360cd7	-0.04444584
245	0x3cb4767c	0.022029154
246	0xbe04e195	-0.12976678
247	0x3ce0be4d	0.027434492
248	0x3cb4373e	0.021998998
249	0xbd5a9f10	-0.05337435
250	0xbce530fc	-0.02797746
251	0xbc4ba927	-0.012430466
252	0x3c8f0d02	0.017462257
253	0x3d1081a9	0.035279904
254	0xbd9ad94b	-0.075609766
255	0x3d8b11b7	0.06790488

linear_layer.2.bias f4 [256]
0	0x3ec131a2	0.3773318
1	0xbc40de6f	-0.011771782
2	0x3d2efbd2	0.042720623
3	0x3d27f0a1	0.041000966
4	0xbd861f99	-0.065489955
5	0x3c76f19e	0.015072254
6	0xbdb86258	-0.090031326
7	0xbcf5efb3	-0.030021524
8	0xbd064aea	-0.032786287
9	0x3e957802	0.2919312
10	0xbd657a41	-0.056024794
11	0x3c96e48e	0.01841953
12	0x3d9ac522	0.07557131
13	0xbbacf179	-0.005277809
14	0x3d9a5d17	0.07537287
15	0x3d45b390	0.048266947
16	0x3c23b82d	0.009992641
17	0x3d33a516	0.04385861
18	0x3d29bffc	0.041442856
19	0xbcb36ccc	-0.021902464
20	0xbd834338	-0.06409305
21	0xbcd3d961	-0.02586049
22	0x3d08fee2	0.0334462
23	0x3d27735b	0.040881496
24	0xbd778163	-0.060426127
25	0xbd887093	-0.06662097
26	0xbd07b82c	-0.033134624
27	0x3c547940	0.012968361
28	0xbd32d621	-0.04366124
29	0x3cbfda0f	0.023419408
30	0x3c186ba9	0.009303012
31	0x3eb6085b	0.3555325
32	0x3d1f3195	0.038865644
33	0x3d1424fa	0.036168076
34	0x3ba45c29	0.005015869
35	0xbe33d651	-0.17562224
36	0x3cd69884	0.026195772
37	0x3e9df525	0.30851093
38	0x3c166219	0.009178662
39	0xbab0c31c	-0.0013485881
40	0xbdc10c72	-0.09426202
41	0xbd965d44	-0.07342008
42	0xbcea5e28	-0.02860935
43	0x3cf130d5	0.02944223
44	0x3b09dd89	0.0021036586
45	0x3ce5f214	0.028069533
46	0x3ca72b9f	0.020406542
47	0x3c5700f8	0.01312279
48	0xbd3cd8a8	-0.046105057
49	0xba922e61	-0.0011152738
50	0xbd87c2f8	-0.06628984
51	0x3e0209a3	0.12698989
52	0xbd13217f	-0.035920616
53	0xbd938bcc	-0.072043985
54	0xbda8e483	-0.0824671
55	0xbd110fc0	-0.03541541
56	0xbbd1f803	-0.006407739
57	0x3df5e5a7	0.12006693
58	0xbd4dfdb9	-0.050290797
59	0xbca3ed04	-0.020010479
60	0xbd0ddce4	-0.034634486
61	0xbcdfdd48	-0.027327195
62	0xbd89a900	-0.06721687
63	0xbd2e8b12	-0.042613097
64	0x3d26ffcc	0.04077129
65	0xbd4606ff	-0.048346516
66	0x3e46948f	0.19392608
67	0xbcf5adf6	-0.029990178
68	0x3de0e83b	0.109817944
69	0xbd852289	-0.06500728
70	0xbc693e55	-0.0142360525
71	0xbda96f8c	-0.08273229
72	0x3d1895c1	0.03725219
73	0xbd8a67c6	-0.067580745
74	0xbd74e233	-0.059786033
75	0xbccaf82d	-0.024776543
76	0x3c131608	0.008977421
77	0xbd68dcfe	-0.05685138
78	0xbc9ca921	-0.019123616
79	0xbd08eca5	-0.033428807
80	0xbd02bbdb	-0.031917434
81	0xbd84b744	-0.06480268
82	0xbcd1a0f2	-0.02558944
83	0x3daab691	0.08335603
84	0x3ca2cccc	0.019873045
85	0xbd0dcdd8	-0.034620136
86	0x3ca9afba	0.020713676
87	0x3cabb8ef	0.020962207
88	0xbe9c07e4	-0.3047477
89	0xbd8bf998	-0.068347156
90	0x3d12b49a	0.035816766
91	0xbd99bebd	-0.075070836
92	0x3d77901c	0.060440168
93	0x3cdcb584	0.026942022
94	0xbd184e6b	-0.03718416
95	0x3d0d841c	0.034549817
96	0x3cda5b2f	0.026654808
97	0xbd3c6a0e	-0.04599958
98	0x3d2a141a	0.041523077
99	0xbd280f3c	-0.041030154
100	0xbd4f6468	-0.050632864
101	0x3d35cfdf	0.044387694
102	0x3c198e45	0.009372299
103	0xbe429677	-0.1900271
104	0xbd61817b	-0.055055123
105	0x3c580dc8	0.013186879
106	0x3ea26700	0.31719208
107	0xbda8fbbe	-0.08251141
108	0xbcb21ef6	-0.021743279
109	0x3ea46a60	0.32112408
110	0xbd5ae45f	-0.053440448
111	0xbd94b949	-0.07261903
112	0xbd60def2	-0.054900117
113	0xbd3d6cea	-0.046246447
114	0x3d6d995d	0.058007587
115	0xbd94b998	-0.07261962
116	0x3d0cb244	0.034349695
117	0x3bcf1a70	0.0063202903
118	0xbc81513a	-0.015785802
119	0x3ec01ad1	0.3752046
120	0xbda32b2d	-0.079672195
121	0xbd53595e	-0.0515989
122	0xbd767908	-0.06017402
123	0xbda4ffab	-0.08056577
124	0x3ec861df	0.3913717
125	0x3d14dc50	0.03634292
126	0xbb818bee	-0.0039534485
127	0x3ec25859	0.3795803
128	0x3cd0f1aa	0.02550586
129	0xbd31d240	-0.0434134
130	0xbcd661ec	-0.02616974
131	0xbc15449a	-0.009110594
132	0xbc9abbbc	-0.018888347
133	0xbda35884	-0.079758674
134	0x3e86238f	0.26199004
135	0xbd9479e5	-0.07249812
136	0x3a98f9a1	0.0011671075
137	0xbc91b40b	-0.017786046
138	0xbd9a2585	-0.075266875
139	0x3e96939a	0.29409486
140	0x3d314f26	0.043288372
141	0x3e0a7939	0.13522805
142	0x3cbd47e5	0.023105571
143	0xbd9f3621	-0.07773996
144	0x3e98d573	0.2985035
145	0x3c81987d	0.015819782
146	0x3cfb1ac4	0.030652411
147	0xbde0941c	-0.109657496
148	0xbc90496c	-0.017613135
149	0x3bb8aaae	0.005635581
150	0xbc883d1b	-0.0166307
151	0x3c03c8a1	0.008043439
152	0xbc85552c	-0.016275965
153	0x3d493b11	0.049128596
154	0x3c982bbc	0.018575542
155	0x3cb6e9f8	0.022328362
156	0xbc863c69	-0.016386228
157	0x3ea3ff15	0.3203055
158	0xbc70cea9	-0.014697709
159	0xbc4b6982	-0.012415292
160	0x3d1c38f9	0.03814027
161	0x3eb90a00	0.36140442
162	0xbd42c890	-0.047554553
163	0xbd9717ca	-0.07377584
164	0xbd018d9f	-0.0316292
165	0x3b699a59	0.0035644977
166	0xbcd9d5b9	-0.026591169
167	0xbd1fb679	-0.03899238
168	0xbe24a32c	-0.1607787
169	0x3e0ae484	0.13563734
170	0x3e86e6fe	0.26348108
171	0x3e830249	0.2558768
172	0xbcc4bde4	-0.024016328
173	0xbcf6e202	-0.030137066
174	0x3c681a50	0.01416643
175	0xbcf7181a	-0.03016286
176	0xbcfa800c	-0.030578636
177	0xbd5521cd	-0.052034188
178	0xbb4f2b70	-0.0031611584
179	0xbd7ea68d	-0.062170554
180	0xbd3bd7fa	-0.04586027
181	0x3e913686	0.2836191
182	0xbdab46ee	-0.08363138
183	0xbc827f7b	-0.015929928
184	0xbd78ee82	-0.060774334
185	0xbe7f2047	-0.24914657
186	0x3d3939fd	0.045221318
187	0xbd528ef7	-0.051405873
188	0x3d0ace51	0.033888165
189	0xbc59f014	-0.013301868
190	0xbc2be119	-0.010490679
191	0x3cf13a1a	0.02944665
192	0x3be9d972	0.007136517
193	0xbd4ced03	-0.05003072
194	0xbd5fff73	-0.054686975
195	0x3c6f4622	0.014604123
196	0x3e8827a2	0.26592737
197	0x3d882cf6	0.066492006
198	0xbe86de44	-0.2634145
199	0xbe1e0567	-0.15431748
200	0xbd1072c7	-0.03526571
201	0x3c444bf1	0.0119809965
202	0xbd9c4538	-0.0763039
203	0xbdc69602	-0.096965805
204	0x3eee0038	0.46484542
205	0xbe1b3956	-0.1515859
206	0x3e960d2c	0.29306924
207	0xbd61379d	-0.054984678
208	0xbd01def8	-0.03170678
209	0xbc8ec5b8	-0.017428264
210	0x3cccd7f6	0.025005322
211	0x3c6d8d52	0.014499025
212	0xbd1b3c6f	-0.03789943
213	0x3d9ac54a	0.07557161
214	0xbb5732e4	-0.003283673
215	0xbd01cefa	-0.03169153
216	0xbd857935	-0.06517259
217	0xbd9100be	-0.0708022
218	0xbd109522	-0.035298474
219	0xbcf830aa	-0.030296642
220	0xbaeeb912	-0.0018213114
221	0xbcd71b70	-0.0262582
222	0x3e9de699	0.30839995
223	0xbdec4270	-0.115361094
224	0xbd74a8d6	-0.059731327
225	0x3deed19d	0.11661074
226	0xbc8fcf86	-0.01755501
227	0xbd68cf8d	-0.05683856
228	0xbda2e9f0	-0.07954776
229	0x3e62115e	0.22076938
230	0x3c48cf1c	0.01225641
231	0xbd9776ad	-0.073956825
232	0xbd7e3419	-0.062061403
233	0xbc9accc8	-0.018896475
234	0x3e4ff65e	0.20308825
235	0xbccfa17e	-0.02534556
236	0xbd465260	-0.048418403
237	0xbd2771e7	-0.04088011
238	0xbb06922d	-0.0020533905
239	0x3c0a1ee6	0.008430218
240	0x3e8ac622	0.27104288
241	0x3e9eeb55	0.3103892
242	0x3d26ee5a	0.040754654
243	0x3aeb0ba7	0.001793255
244	0xbda38e38	-0.079861104
245	0xbcd9c321	-0.026582303
246	0x3bf95734	0.0076092724
247	0xbd5ad611	-0.053426806
248	0xbd5e2c25	-0.05424132
249	0x3ebf6559	0.3738201
250	0x3dc18608	0.094493926
251	0xbdc10426	-0.094246194
252	0xbd26ab2e	-0.040690593
253	0x3e087d65	0.13329084
254	0xbd5fdb0e	-0.054652266
255	0x3c1c3499	0.009534025

linear_layer.4.weight f4 [1, 256]
0	0x3e068d35	0.13139804
1	0xbba8b46c	-0.005148461
2	0xbb4c7e28	-0.0031203125
3	0x3cb67ea3	0.022277182
4	0x3d1bd863	0.03804816
5	0x3d3936c1	0.045218233
6	0xbc7107f6	-0.014711371
7	0xbc36a354	-0.011147339
8	0xbd222386	-0.03958466
9	0x3e1755b7	0.14778791
10	0xbb0b1298	-0.00212208
11	0x3d0c473c	0.034247622
12	0x3dc880a9	0.09790165
13	0xbd0983fd	-0.03357314
14	0x3d9a57a6	0.07536249
15	0xbd4a73ef	-0.04942697
16	0x3c466af2	0.012110459
17	0xbce88f0c	-0.028388523
18	0xbd8b9877	-0.0681619
19	0x3cf94efc	0.03043317
20	0x3a90d3d0	0.0011049453
21	0xbd4a3fdf	-0.04937732
22	0xbd768bed	-0.060192037
23	0x3d1fbaba	0.038996436
24	0xbd1c3863	-0.038139712
25	0x3c0636e1	0.008191795
26	0xbb2f8858	-0.0026784148
27	0x3d47efb0	0.04881257
28	0xbf43c08b	-0.7646567
29	0x3d2a816f	0.041627344
30	0x3b647aa9	0.003486315
31	0x3e3207ea	0.17385831
32	0x3a8269ad	0.0009949707
33	0xbc282118	-0.010261796
34	0x3ba50cc7	0.0050369236
35	0xbe6cc91e	-0.23123595
36	0x3bd0037e	0.0063480726
37	0x3e22a17c	0.15881914
38	0xbcffaaf4	-0.031209446
39	0x3d3a685a	0.045509674
40	0x3c91d79d	0.017803008
41	0xbd009859	-0.03139529
42	0xbd13269f	-0.035925504
43	0x3be5edd7	0.007016878
44	0xbc2fc4ee	-0.010728104
45	0xbb9ad840	-0.004725486
46	0xbd3d3ee5	-0.04620256
47	0xba5c7b89	-0.0008410742
48	0x3c4289bf	0.011873662
49	0x3ba41187	0.0050069722
50	0x3d382b8d	0.04496341
51	0x3ea5e2fa	0.32399732
52	0x3ce9d267	0.02854271
53	0xbbebc856	-0.0071955128
54	0x3cf19325	0.02948911
55	0x3bea1f21	0.007144824
56	0x3d2c5715	0.042075235
57	0x3df69cfe	0.12041663
58	0xbd4bc6b7	-0.049750056
59	0x3d4399ba	0.047754027
60	0x3abe16db	0.0014502661
61	0x3d1b7058	0.037948936
62	0xbd522f8c	-0.051314875
63	0xbd16ee03	-0.03684808
64	0xbd42c6b7	-0.04755279
65	0xbceb1ba7	-0.02869971
66	0x3e3b3fa3	0.18285994
67	0x376f7a44	1.4273977e-05
68	0x3d9afbfb	0.07567593
69	0x3caa0e8e	0.020758893
70	0xbe414e63	-0.18877558
71	0x3be7f71a	0.0070790173
72	0x3be3805d	0.0069427923
73	0x3cc90aad	0.024541223
74	0x3c51efce	0.012813522
75	0x3bc413c6	0.0059838025
76	0xbd33acce	-0.04386597
77	0x3a8da15c	0.0010805535
78	0xbbfd9596	-0.0077387793
79	0x3d49bd54	0.049252823
80	0xbc98b123	-0.018639153
81	0xbd367942	-0.044549234
82	0x3b9786d4	0.004624227
83	0xba78b3e4	-0.0009487255
84	0x3db987e9	0.09059126
85	0x3c193cb8	0.009352855
86	0x3b3f49e8	0.0029188339
87	0xbbffb34c	-0.0078033563
88	0xbea159ee	-0.31513923
89	0xbc478e20	-0.012179881
90	0xbd443820	-0.047905087
91	0xbbf49200	-0.0074636936
92	0x3bbc19d2	0.0057403827
93	0xbce07461	-0.027399244
94	0x3d13951c	0.036030874
95	0x3c95a868	0.018268779
96	0x3d11b2c8	0.03557089
97	0x3ba4c65e	0.00502853
98	0xba90d240	-0.0011048988
99	0x3b19fecc	0.0023497818
100	0x3cde4280	0.027131319
101	0xbbba30f0	-0.0056821033
102	0x3d25b6d9	0.04045758
103	0xbec7efcb	-0.39050135
104	0x3c1cda3a	0.009573514
105	0xbc275465	-0.010212992
106	0x3e37bb70	0.17942595
107	0xbca49ff3	-0.020095801
108	0xbd1f84b7	-0.038944926
109	0x3eca0342	0.3945561
110	0x3d3305a3	0.043706547
111	0xbf0ed716	-0.55796945
112	0x3d74d090	0.059769213
113	0x3b974102	0.004615904
114	0x3c2109d2	0.0098290015
115	0x3bdfa611	0.0068252166
116	0x3aac89b5	0.0013163598
117	0xb92ed1b4	-0.00016672054
118	0x3cd80ccf	0.026373295
119	0x3e2418a1	0.1602502
120	0xbddfbe18	-0.109249294
121	0xbe04072d	-0.12893362
122	0x3e684dd7	0.22685944
123	0xbcc27f41	-0.02374232
124	0x3e551818	0.20809972
125	0xbc995ab2	-0.018720005
126	0x3cd39391	0.025827201
127	0x3decc92e	0.115618095
128	0xbd5c7327	-0.053820755
129	0x3a840a53	0.0010073878
130	0x3c0691c4	0.008213464
131	0x3bec02a2	0.0072024623
132	0x3d568730	0.05237502
133	0x3ce77b00	0.028256893
134	0x3e0eb994	0.1393798
135	0x3e5750e8	0.21026957
136	0x3d59dfad	0.05319183
137	0x3c4cfba3	0.012511167
138	0xbd5b6e99	-0.05357227
139	0x3e1a5161	0.15070106
140	0x3de9d36d	0.114172794
141	0x3d0d99ae	0.03457039
142	0x3ccafcb8	0.024778709
143	0xbc82e253	-0.01597706
144	0x3df57e17	0.1198694
145	0x3cf8254b	0.03029122
146	0xbbf37dc4	-0.007430764
147	0xbf7a6fbf	-0.9782676
148	0x3cc0c390	0.023530751
149	0x3c26520d	0.010151398
150	0x3d593e2e	0.053037815
151	0x3b939029	0.004503269
152	0xbd075fa8	-0.03305021
153	0x3b792903	0.003801883
154	0xbc2e2448	-0.010628767
155	0xba52f190	-0.000804686
156	0x3a139565	0.00056298665
157	0x3e0ca12f	0.13733362
158	0xbbbf72c1	-0.005842537
159	0x3bcead0a	0.006307249
160	0xbc8a6afc	-0.016896717
161	0x3dd0b29f	0.10190319
162	0x3ce0ec38	0.027456388
163	0x3c1b806b	0.009491066
164	0xbd053515	-0.032521326
165	0xbcfeafc0	-0.031089664
166	0x3c713e13	0.014724272
167	0x3cd1e886	0.025623571
168	0x3f28fd1e	0.66011226
169	0x3de46221	0.11151529
170	0x3e036555	0.12831624
171	0x3ddce1cc	0.10785255
172	0x3b1cf9e1	0.002395265
173	0xbe7597a3	-0.23983626
174	0x3b44c98a	0.0030027353
175	0xbd6cfb4d	-0.057856847
176	0xbd7f2cd4	-0.06229861
177	0xbd315945	-0.043298025
178	0x3c5d9965	0.013525342
179	0xbc9e91b6	-0.01935659
180	0xbc3ffb9b	-0.011717702
181	0x3e68c524	0.22731453
182	0xbcf6877b	-0.030093899
183	0x3c394df1	0.011310087
184	0xb8873eb1	-6.448979e-05
185	0xbe850992	-0.25983864
186	0xb7c2b08f	-2.3208819e-05
187	0x3d4d4cd2	0.05012209
188	0x3a2c4af2	0.0006572447
189	0xbd237afc	-0.03991221
190	0xbd0bf08e	-0.034164958
191	0x3b7ba535	0.0038398032
192	0xbbc75b77	-0.0060839015
193	0xbc183b8c	-0.009291541
194	0xbcee2b1a	-0.029073287
195	0x3d209bee	0.039211206
196	0x3e0bbbdb	0.1364588
197	0x3d842472	0.06452264
198	0xbefb63b6	-0.4909951
199	0x3f5ae021	0.85498244
200	0xbd61a970	-0.05509323
201	0x3cc29d02	0.023756508
202	0x3ca439b0	0.020047039
203	0xbb205397	-0.0024463886
204	0x3e59c912	0.21268108
205	0xbf42eccb	-0.7614257
206	0x3e18d3fb	0.14924614
207	0x3d1030a6	0.035202645
208	0xbc005abc	-0.007834133
209	0xbca4dd47	-0.020125045
210	0xbe53d1cc	-0.206855
211	0xbb9a36c8	-0.0047062375
212	0xbce40fd5	-0.02783958
213	0x3e14d27a	0.14533415
214	0xbc7a0660	-0.015260309
215	0x3f2bc161	0.6709195
216	0x3c69df94	0.014274497
217	0xbd2e3cb0	-0.042538345
218	0xbe9808ad	-0.2969412
219	0xbd1f7386	-0.03892853
220	0xbd257527	-0.04039493
221	0x3cab5103	0.020912653
222	0x3e257a86	0.1616002
223	0xbc02cb9f	-0.007983117
224	0xbd065bd3	-0.032802414
225	0x3e08316b	0.13300101
226	0x3bf90bd5	0.0076002874
227	0x3cc828af	0.024433462
228	0xbf90006b	-1.1250128
229	0x3f5a4db9	0.85274845
230	0x3af583f6	0.0018731344
231	0xbcaec115	-0.021332303
232	0xbd592e89	-0.053022895
233	0xbb902fb0	-0.004400216
234	0x3df1d1f8	0.118076265
235	0x3d6897d9	0.05678544
236	0x3bb56490	0.0055356696
237	0xbb6606ad	-0.0035099194
238	0x3ad74089	0.0016422431
239	0xbc230386	-0.0099495705
240	0x3e46279b	0.19351046
241	0x3e09ba1d	0.13449903
242	0x3c1a5891	0.00942053
243	0x3c2f17a3	0.010686788
244	0xbd0af506	-0.03392508
245	0x3a1089d8	0.00055137044
246	0x3c6f0efb	0.014590974
247	0xbd0fbf3e	-0.035094492
248	0xbf4efafc	-0.8085172
249	0x3e4a6d64	0.19768292
250	0x3e321c95	0.17393716
251	0xbbf1e1a6	-0.0073816357
252	0xbca3a63a	-0.019976724
253	0x3f551df5	0.83248836
254	0x3f3d15db	0.73861474
255	0x3dda2d64	0.10653189
