data/Apr-13_05-51-52/models/critic_2450.pth (torch, 274455 bytes, 5 tensors)

linear_layer.0.weight f4 [256, 7]
00000000: efdf a6be 265d b43e 348a 9bbe 6d0d 32be
00000010: 8e83 90be f3b0 ebbe 3f65 debe 9da3 70be
00000020: 5be4 2ebe 2ba7 7b3d 9f70 183e 0b13 513e
00000030: 8100 c63d b16f 1f3e 8b4a 9abd d0a1 5f3e
00000040: 950c 183e af0e e2bd cba4 3ebe db18 363e
00000050: 6e39 ac3e 61fb 52be 7392 ca3b c4b3 6e3e
00000060: ffa5 1e3e 69bf bfbd a209 b93d b358 0ebe
00000070: 6b34 b4be 145d 593e da95 ca3e b435 983e
00000080: a238 693e d537 a43e 36c5 5f3e 063f 8fbe
00000090: 088d b0be 6dd7 b0bd b7a0 07be f28e b3be
000000a0: b9ce 57be 0952 b2be 1b0c 69bc 5e89 803e
000000b0: b1c2 d3be 5fc0 acbe 6d3e 833e 9f4d d3bd
000000c0: 8cd7 063e 5a73 b13e 9498 363c fbe4 00bf
000000d0: b744 e43b c0b5 ecbd 807d 073f 2b43 8dbe
000000e0: ed1e 9dbe 2b34 f6bd 0cbe 9e3e 87f9 fbbd
000000f0: 3be3 273e e23b e13d 280d aebc b20a 9d3e
00000100: 85ed b4bd 5770 88be 0230 7abe ec22 21be
00000110: 7362 b4be c401 2e3e d6be cd3e f2eb 9fbd
00000120: 29f0 b8be 2481 8f3d 0d4e 91bf 6eb9 b53e
00000130: 9e0d 3a3d e44a 0d3e 7bb2 32be be30 a1bc
00000140: cb2a b1bd 2a1a 873e 2a7a 3e3e d4b9 d73d
00000150: d95e a23e 1d1c 84be 486b b0be f55f dd3e
00000160: c9c0 8dbf 8fe2 4e3e c070 203e eedc a0be
00000170: 020a 95be 680d d83d ee6d 573c c436 0fbe
00000180: 1358 b039 9c26 91be 2a47 343d e767 8fbe
00000190: 34fa afbe c7d4 873d cefb 2b3d 33d9 5a3e
000001a0: f206 b93e 3019 70be d2d5 92be 3e72 283e
000001b0: a5cb 8f3e b038 76be 71e9 da3c 6566 0d3e
000001c0: fdd4 b8be ac72 0ebd bcef cbbd aaef 33bc
000001d0: d28d 533d f495 88be 5556 64be 0bf9 50be
000001e0: c86c 44be 2311 2cbe 9e45 893e 4155 5c3e
000001f0: 96f5 7fbe 9234 123e d618 20be 7ea1 1e3d
00000200: 3ccc 9ebe bcf4 e03d 928d 04bf 3664 a13d
00000210: 90d1 713e 3626 e8bd 21e5 b5be 23e1 323d
00000220: 7359 76be ae47 8e3b 1105 423e d8ba 613e
00000230: 3753 1fbf a8b4 693e 0be8 18be 0234 f03e
00000240: 1e6b 833f 9af9 3f3e 587b 9abe 17ae 49bc
00000250: adce 3d3e 33db f8be 715f a23e 5766 403e
00000260: 2a57 fdbe 57a0 ec3d 9c45 c33e c37e bebd
00000270: 8688 94be b2c9 303e 0e9f cfbf 6d5d 453b
00000280: b943 6d3e 7148 92be 320f 043e 0fb9 86be
00000290: 1c82 adbd 96a3 403f 1a79 dabc 4d5f f3be
000002a0: aa89 fe3d b656 8ebe e14e 7dbe c952 563d
000002b0: f98e 803c 8c82 99bd 266f bd3e ee9d e2be
000002c0: 0648 373d 6398 403e dd85 bcbd 0ce0 a53e
000002d0: 709d 853b ddb2 61be 84c6 66be 46ae 28be
000002e0: eaab af3e d0c1 23bc 5558 103f 6548 993e
000002f0: 5dc9 7bbd 5073 103e 835b babe a562 a1be
00000300: 3845 7bbe 6697 4fbe 4c3d 89be a814 0fbe
00000310: 96d2 a8bd 166c bb3e 0345 7c3e e53d 483e
00000320: b576 45bd 61dc 3a3e 267a 45bc 600d 1abe
00000330: 7241 c73e 96dd 91be e55b e7be f662 e53e
00000340: 4eb0 df3d 86eb 32be 3305 a63d 4dcf a93e
00000350: 94e9 1fbf 9c21 9f3c 80f7 0f3f cb69 f6bd
00000360: 9d7d 983c 7aba 74be 7782 973c 691f ef3e
00000370: 07bd 62be ee75 86bf 4cce 12bf c858 ae3e
00000380: 16b3 b43e b1fc 33be edb2 8fbe a1c9 233e
00000390: 79e4 83bf ec44 093f 4b3f f53c 2729 d9bc
000003a0: 46f0 433e e8ca 873e 674d 0abf 4fba adbd
000003b0: 41bf 46bf 3042 943e 4f77 9abe ca67 7dbd
000003c0: bb7a 223e b6cd b7be 9ae8 43be c972 6e3e
000003d0: 4ffa a0be 6026 debd b577 c6bd 6bf9 2ebe
000003e0: edac 0d3e 891e fc3c 3e96 473e b8cd adbd
000003f0: 63a3 1cbe 6456 e13c 87dc 1dbd 112a 773d
-0.32592723 0.35227317 -0.30378878 -0.17387934 -0.28225368 -0.4603344 -0.4343662 -0.23499914
-0.17079298 0.06143872 0.14886712 0.2041742 0.09668065 0.1556995 -0.07533749 0.2183907
0.1484855 -0.11037957 -0.18617551 0.17782919 0.33637565 -0.20603706 0.006182009 0.23310763
0.1549301 -0.093626805 0.090350404 -0.13901024 -0.35196242 0.21226913 0.39567453 0.29728472
0.2277551 0.32073846 0.21852574 -0.2797777 -0.34482598 -0.08634839 -0.13244902 -0.35069996
-0.21074952 -0.34828213 -0.014224078 0.25104803 -0.41359475 -0.33740517 0.25633565 -0.103175394
0.13168162 0.3465832 0.011144776 -0.50349396 0.0069661993 -0.115581036 0.5292587 -0.27590308
-0.30687657 -0.12021669 0.3100437 -0.12303453 0.16395275 0.1099775 -0.021246508 0.30672222
-0.08834366 -0.26648208 -0.24432376 -0.15735978 -0.3523136 0.16992861 0.4018466 -0.07808675
-0.36120728 0.070070535 -1.1351944 0.35493034 0.045423143 0.137981 -0.17450897 -0.019676562
-0.0865074 0.2638715 0.1860129 0.10533491 0.31712988 -0.258027 -0.3445685 0.43237272
-1.1074458 0.20203613 0.1566801 -0.31418556 -0.29109198 0.10549432 0.013148768 -0.13985735
0.00033634956 -0.2834977 0.04401318 -0.2800896 -0.34370577 0.06632381 0.041988187 0.21371917
0.3613811 -0.23447108 -0.28678757 0.1644983 0.28085056 -0.24045062 0.026722642 0.13808592
-0.36099997 -0.03477733 -0.09957835 -0.010982433 0.051648922 -0.26676905 -0.22298558 -0.20407502
-0.19182122 -0.16803412 0.26810926 0.21516897 -0.24996027 0.14277866 -0.15634474 0.03872823
-0.31015193 0.109841794 -0.5177852 0.07880442 0.23615098 -0.11335413 -0.35526374 0.04367174
-0.2405756 0.004342041 0.18947245 0.22043931 -0.6223635 0.22822821 -0.14932267 0.4691468
1.0267065 0.18747559 -0.3017223 -0.012309573 0.18535872 -0.48604736 0.3171344 0.1878904
-0.49480563 0.1155402 0.38139045 -0.09301522 -0.2901041 0.1726444 -1.6220415 0.00301155
0.23170365 -0.28570893 0.12896422 -0.26313064 -0.08472082 0.7524961 -0.026669074 -0.47533646
0.12428601 -0.2780053 -0.24737121 0.052325044 0.015693175 -0.07495603 0.36998862 -0.44261116
0.04474642 0.18808131 -0.0920522 0.32397497 0.004077606 -0.22040887 -0.22536665 -0.1647273
0.34310848 -0.009994939 0.56384784 0.29938045 -0.061471332 0.14106488 -0.36397943 -0.31520572
-0.24538124 -0.20272598 -0.26804578 -0.13972723 -0.08243291 0.366059 0.24635701 0.19554861
-0.04820891 0.1824813 -0.012053048 -0.15044165 0.38917118 -0.2848937 -0.45187297 0.44802064
0.10922299 -0.17472658 0.081064604 0.3316597 -0.62465787 0.019425206 0.5623703 -0.12031897
0.018614585 -0.2389926 0.018494828 0.46703652 -0.2214242 -1.0504739 -0.57346034 0.3405211
0.35292882 -0.17576863 -0.28066197 0.15994884 -1.0304099 0.5362079 0.029937407 -0.02650888
0.19134626 0.26521993 -0.54024357 -0.08482801 -0.7763558 0.28956747 -0.3016915 -0.06186656
0.1586713 -0.35899132 -0.19131699 0.23285975 -0.3144097 -0.10847163 -0.09690801 -0.17087333
0.13835497 0.030776279 0.19490907 -0.08486503 -0.15296702 0.027507015 -0.03854039 0.060342852

linear_layer.0.bias f4 [256]
00000000: 8c83 3d3e 1a94 cfbe cbf6 c03d 6c27 8d3e
00000010: ad22 4b3b fc17 96bd 2891 8cbe f300 593d
00000020: 3506 13be 3c17 d13d fa9f 393e d166 933e
00000030: 4b8f 46be df05 3cbe 9599 cf3d 6276 403d
00000040: 5c61 91bd 181c 03bd a016 bcbe 6c41 a7bc
00000050: 355b 21be a967 0f3c ebdf 173e f191 92be
00000060: 0fac 9bbe 6560 873e 7385 b0bd d31a 4c3e
00000070: d85b 183e eb1c b7be a41f 95be 8a08 113f
00000080: 3fec 843e d6af b73e bce9 4c3d 4a8e 273d
00000090: 7b79 0d3e a1c3 7c3e 02a5 7c3e 9a8d dabe
000000a0: 2270 debe 93b0 063d 3b79 28be 58a1 2fbd
000000b0: 36ee 213e d60c 97be 55cf 8c3d 2250 91bd
000000c0: dcd1 e23e 2841 fabe 0b97 d6bd 49f7 febd
000000d0: 40ae 0e3d f26b dc3c 1c43 803e 69df c5bd
000000e0: 4abb 8fbe 3ff7 8fbd e1c8 d63c 0cb0 b93d
000000f0: 7e84 943e d4b9 c13d fd0c 013b f34f 93be
00000100: 2f1a 2cbe da03 6fbe c709 563c 8c3c 93bd
00000110: 19dc ad3e bc34 cbbe 61e2 a5be 248f d3bc
00000120: 2f17 5bbe 390a 9b3e 9ce5 32be 7711 21bc
00000130: 618e 9d3c c088 42be 8fb5 03be 91cd 1f3d
00000140: fa8d 4dbe 30d0 3b3e 055c e7be 3272 7dbd
00000150: ad26 b5bd a9a1 f3bd 9f0b d13e 7a40 a7be
00000160: 1a22 583e 46d2 893d 7657 0fbc ecd9 f4bd
00000170: 6288 933d a0e4 a5be 8864 b1be d933 94bc
00000180: 74dd b9bd ae40 9abe 858d 83be d307 093e
00000190: 367d b23d 6e38 e33c 83d4 c7be fd44 e7be
000001a0: f3c2 edbd 20e0 bbbe c820 0d3e a0be 8abe
000001b0: 1aaa 82bd edd9 c33e 49bd 87be 772f 053e
000001c0: bed6 59bd 7cfb 82be 0b23 c13e 421b 893e
000001d0: 8576 7f3e 4220 713d 6750 373e a484 d1be
000001e0: 5fe1 6fbe d741 44be c1ca 4fbe 74e6 ce3d
000001f0: 92af bf3e 3390 d3be ea4b b83e 09a4 a5be
00000200: 911d c9be 9f8f 343e 3c74 b4bd 672a 19bf
00000210: 3ca0 66be 02a1 81be 9a9e 453e 346d bebe
00000220: 0420 cebe d285 3c3e dfff b6be 9191 28be
00000230: a22f e2be 1734 bcbe cfe5 debe 385a febe
00000240: 17b4 65bd f0b1 b83e cdc1 a33e 8b64 a6be
00000250: 7b73 d03d 8b78 34be 88c7 84be 6bdb 04be
00000260: 7cb0 85bd 1dff 91be 4649 8dbe 8502 a1be
00000270: 8ad8 2abe 1858 26be c58f 4c3e c474 0e3e
00000280: 0d0a 5b3d 6725 95be 98aa 323e fb76 7b3e
00000290: 9e14 213e e32e 8c3d 12dc 08bf d4d4 4fbe
000002a0: 1b9d 7dbe bc2c 72be 3ff3 8d3e cbec 7b3e
000002b0: ca76 503e 45af 8a3e 26a6 89bd 7b51 8ebd
000002c0: 8466 91be 39b7 0e3d 892d 783e 5a11 f4bd
000002d0: 1f3e bc3e 0f7f 783d 64df d0bc f21e d23e
000002e0: cda5 eabe 4064 83be 7556 39be f66a ec3d
000002f0: 0477 ad3e dfa7 313e 9043 713e 4d8e bfbe
00000300: 0f12 afbe 2fe1 22be 9ad3 24bd 5632 fc3d
00000310: 25b6 66be 9e6c 283e 9fee dabe d5e6 693d
00000320: fd5c b03d 729d 33be 8918 98be 6897 c5bd
00000330: f3e6 ebbd f4ed 0d3f 02dd 8fbc 99a1 57be
00000340: e923 bbbe 6e7e 91be 2ee1 033e d666 5b3e
00000350: 1a07 85be 124d c63e 0fe7 703d e722 c33c
00000360: aca2 ad3e d226 bfbd eac2 00bf 5afa 65be
00000370: 2985 263d 71bd 263e 0117 0bbe 55f2 7bbe
00000380: 5141 94be 3e50 81be 604f ebbd c77c a43e
00000390: a278 9bbd 3cda 16bd b851 97bd 8d61 e7bc
000003a0: 31d4 a93e 65df 04bc 86dc 2bbe 40f6 6b3e
000003b0: 8ed6 603d 5777 29be 5b89 c03d 2958 0abf
000003c0: 4289 803d 2082 d33e 18ee afbe 23f1 8d3e
000003d0: 91cd ebbd 0560 333e f69a a6be 9130 08bf
000003e0: 5270 1ebe 0799 e83d 8e9d 593e 364f c4bd
000003f0: 3671 7c3e 5118 bc3e b63e d4be 8e84 d43e
0.18507212 -0.4054268 0.09422072 0.2756914 0.003099601 -0.073287934 -0.27454495 0.05297942
-0.14357837 0.1020951 0.18127432 0.2878938 -0.193906 -0.18361615 0.10136715 0.0469879
-0.07098648 -0.032009214 -0.36736012 -0.020416938 -0.15757449 0.008752742 0.14831512 -0.2862697
-0.30404708 0.2644073 -0.086192034 0.19932108 0.14878786 -0.3576425 -0.29125702 0.56653655
0.2596149 0.3587634 0.050027594 0.04090718 0.13815872 0.24684002 0.2467232 -0.42686158
-0.43444926 0.032883238 -0.16452496 -0.04287848 0.15813527 -0.2950198 0.06875483 -0.07095362
0.44300735 -0.48877835 -0.10478028 -0.1244951 0.034834146 0.026906941 0.250512 -0.09661753
-0.28072578 -0.0702958 0.026218833 0.090667814 0.29007334 0.09459272 0.001969158 -0.28771934
-0.16806863 -0.23341313 0.013063855 -0.07189283 0.33956984 -0.3968867 -0.32399276 -0.02582509
-0.21395563 0.30281237 -0.17470402 -0.009830824 0.01923293 -0.18997478 -0.12862228 0.039014403
-0.20073691 0.18341136 -0.45187393 -0.061876483 -0.088452674 -0.118960686 0.4082918 -0.3266638
0.21106759 0.067295596 -0.00874888 -0.11955628 0.07203747 -0.3240099 -0.34647012 -0.01809113
-0.09075442 -0.30127472 -0.25693908 0.13381891 0.08715288 0.027736869 -0.3902932 -0.4516982
-0.11609449 -0.3669443 0.13782036 -0.2709856 -0.063801005 0.38252202 -0.265116 0.13006388
-0.05318331 -0.25582492 0.37722048 0.2677861 0.24947555 0.058868654 0.17901765 -0.4092151
-0.23425816 -0.19165741 -0.20292188 0.10102549 0.37438637 -0.41320953 0.35995418 -0.3235171
-0.3928037 0.17632912 -0.088112324 -0.59830326 -0.22522062 -0.25318152 0.19298783 -0.3719269
-0.402588 0.18410423 -0.3574209 -0.16461779 -0.44176966 -0.3675849 -0.43534705 -0.49678206
-0.05607995 0.36073256 0.31983796 -0.32498583 0.10178276 -0.17624108 -0.2593348 -0.12974326
-0.06527802 -0.28514948 -0.27594966 -0.31447235 -0.16684166 -0.16244543 0.19976719 0.1391173
0.053476382 -0.29130098 0.17447889 0.24557106 0.15730521 0.068448804 -0.534608 -0.20296031
-0.24766962 -0.23649877 0.27724645 0.24602048 0.20357814 0.27086845 -0.067211434 -0.06949135
-0.28398526 0.034842703 0.2423612 -0.11917372 0.36766145 0.060668048 -0.025497146 0.41039234
-0.4582962 -0.25662422 -0.18099387 0.11543839 0.33879864 0.17349194 0.2356093 -0.37413254
-0.34193465 -0.15906213 -0.04024086 0.12314288 -0.2253042 0.16447684 -0.42760178 0.057104904
0.08611486 -0.1754053 -0.2970622 -0.09648019 -0.115186594 0.5544121 -0.01756144 -0.21057738
-0.36550835 -0.2841677 0.12878868 0.21425948 -0.2598198 0.38730675 0.058814105 0.023820354
0.3391317 -0.09333576 -0.50297415 -0.22458783 0.040654335 0.16283204 -0.13582994 -0.24604161
-0.28956082 -0.25256532 -0.11489749 0.32126448 -0.07591368 -0.03682922 -0.073886335 -0.028244758
0.33169702 -0.008109902 -0.16783342 0.23043156 0.054892115 -0.16549431 0.094011985 -0.5404077
0.0627618 0.41310215 -0.3436134 0.27723035 -0.11513818 0.17517097 -0.325401 -0.53199106
-0.15472534 0.11357313 0.21251509 -0.09585421 0.24652562 0.36737302 -0.41454095 0.4150738

linear_layer.2.weight f4 [256, 256]
00000000: 3b33 1bbb eb06 bf3c 26e2 2e3e 5849 ab3d
00000010: e09f 613e fec9 29bd bdd9 0ebd fdab 953d
00000020: 67c6 dabd 5037 34bd ba98 043e 0225 303d
00000030: b51a 843e ac00 413d 8033 81bb 264f 853a
00000040: c066 023c d0ef ee3c be84 89bd 6450 ca3c
00000050: 26c9 06bd 5473 2cbd 49ba 81bd d397 cdbc
00000060: 4a49 12bd 2dd3 173d e0ef 203e 46bb 47bd
00000070: ef62 783e ab84 59be ab4e 21bf 4b84 8e3d
00000080: de09 da3d f247 d13d a406 823c 4c01 bfbc
00000090: daad 163d 8025 dd3c 78df 62bc 0af5 a13c
000000a0: 52b6 863d 2ec1 d43d f806 74bc a8d3 aebd
000000b0: 981e 51bc ccf2 413d 3f69 223d 1a5e 973d
000000c0: fee4 2b3d 8443 c0be 303a 61bd 5421 a93d
000000d0: 109d c83b 4fae 2d3e 4882 0abd 405a f7bb
000000e0: f4e9 6dbd 7cef a13c e67b 333d e8c8 7d3c
000000f0: 0ab2 4d3d 2275 1e3c 76f6 17be 2002 6cbc
00000100: 1da9 183d cb64 edbb 830e 903b 2c09 96bb
00000110: d591 ca3d e3b4 8bbc e057 0cbc dea6 7a3d
00000120: ad5c b93c c789 a63d f6d5 24be e469 72bd
00000130: 8386 753d 3d27 a8bd 33e2 823d 5353 dbbe
00000140: 80de 1d3c cc35 70bd c1cd 803d 0c3f 8bbc
00000150: fe6f 8cbd 3ac2 a1be 0d5a 903e 009f 01bf
00000160: 363e a73e 7807 393c 3374 453e 4854 15bd
00000170: 64e6 543d e8ed babb 7f4f b9bd a620 4bbe
00000180: 3f46 86bd cf89 05bd ec57 9c3c 77a6 403e
00000190: 44c2 b9bc 7536 88bb 9147 073e e438 67be
000001a0: 1ccc c4bc 4062 bc3b b63f 66bd a0d9 563b
000001b0: 077e 9f3c a486 11be 3926 fcbd dc0d a23c
000001c0: 8e3d c43d 65f1 7c3d ee51 52bd deee 8dbf
000001d0: 306e 7ebd b13c 133e ff29 d9bc 7432 68bd
000001e0: 6750 e7bc 867e c43c 6e4e b43c 9885 89bd
000001f0: 0e26 44bd 9207 38be 3c84 7bbd ac4f 283d
00000200: d4c0 1cbd 7b25 293e 92d9 353d 44ce 3ebd
00000210: 94b0 433d 27ca 203d 564c 10bd 48f5 8f3d
00000220: c27d e9bc 2a25 3a3d de3f 623d f63c 37bc
00000230: 5027 dbbd f2e4 cfbe aacd 2bbe b2f4 a1ba
00000240: 9e22 68bd d0ef 07bc 34cd 22bd 51e5 2fbe
00000250: e859 263d b480 05bc 1be9 73bb 8d50 2e3e
00000260: 71a0 0a3d 6cea 843c 8afc 62bc 9fb3 b93c
00000270: 0f48 15bd 27cd 11be 0276 18bd 7651 793d
00000280: 5812 743c 002e c5ba 3e19 bfbc a904 2bbd
00000290: e4a6 613d 0317 153e 9322 d0be f6d5 493d
000002a0: 3824 49bd c606 ed3d 9ec3 1bbd de70 593d
000002b0: a6b6 9c3c aa07 0dbd 5749 9fbd 3965 d8bc
000002c0: a2fa 863d a05f c63c 14b5 7d3d 00c8 4abd
000002d0: b07c e9bb 247b 5abd 60ba d2bc 10a6 973d
000002e0: 5e59 ccbc 937d d9be 64ed 1b3c d08e 78bd
000002f0: 15f9 0a3e be8d b33d 2ca3 3d3d 5d1f 1fbd
00000300: 7427 523d 7512 debd e575 6d3d 9671 c23c
00000310: 9e1c 653d e4f1 c2bc ffb8 c63d c4ba f7bc
00000320: a441 003d 87dd 55bd 043c 3fbd afc6 aa3d
00000330: a6a7 4fbd cd01 223e 5721 32be 1a8c 603d
00000340: 0245 b63d dffc 903d a864 abbd 853c 643d
00000350: 2451 9e3c 6cfb 1abd d48b 843e 48b5 16bd
00000360: 55a2 9fbd bbcd 3c3d 6ae3 893c 06aa 233d
00000370: 89a6 96bd 3c83 3ebe b4a1 0c3d d862 33bd
00000380: a33b c2bc b073 61bd b738 0ebe 252d 6cbc
00000390: c378 29be b024 38bc 76d4 773d 76a4 6c3d
000003a0: 90bb 8ebc da01 483d f141 fbbd fd3e 3a3e
000003b0: cca3 0f3d 6a2d d33d 66d4 48bd 0a03 b3bb
000003c0: e83c 853e 1091 75be 00ab 61bd 150b 51bd
000003d0: d70c 36bd 6e5b 31bb 26ad 4ebe 4dbe e03c
000003e0: 3e37 b43c ce76 afbb 3753 853b 27a9 4bbc
000003f0: 5095 dd3b 24d6 763d 4bd9 9abd 50d4 d23c
-0.0023681659 0.023318728 0.17078456 0.083635986 0.22033644 -0.0414524 -0.03487562 0.07308195
-0.106823735 -0.043998063 0.12948886 0.043004043 0.25801626 0.04711978 -0.003942907 0.0010170683
0.007959068 0.029167086 -0.06714772 0.024696536 -0.032906674 -0.042102173 -0.06334359 -0.02509681
-0.035714425 0.037066627 0.15716505 -0.048762582 0.2425649 -0.21242015 -0.6301066 0.06958827
0.10646413 0.102188006 0.015872307 -0.023316048 0.03678689 0.02699542 -0.013847224 0.019770164
0.065777436 0.103884086 -0.01489424 -0.08536464 -0.012763642 0.04735069 0.03965115 0.07390995
0.04196643 -0.3755151 -0.054987133 0.0825831 0.006122239 0.16961025 -0.033815652 -0.0075486004
-0.058084443 0.019767515 0.04381933 0.015489794 0.05021862 0.009671481 -0.14840111 -0.0144048035
0.037270654 -0.0072446815 0.004396261 -0.00457873 0.098910965 -0.017054027 -0.008565873 0.061194293
0.022627199 0.08131748 -0.16097245 -0.059183016 0.059942733 -0.08210609 0.063908 -0.4283701
0.009635568 -0.058645055 0.062892444 -0.016997837 -0.06857298 -0.31593496 0.28193703 -0.5063324
0.3266465 0.011293285 0.19282608 -0.03645733 0.05197753 -0.00570463 -0.09048366 -0.19836673
-0.06556367 -0.032602128 0.019084893 0.18813501 -0.02267564 -0.0041568824 0.13210894 -0.22580296
-0.024023108 0.005749017 -0.056213103 0.0032783523 0.019469274 -0.14211518 -0.12311978 0.019782
0.09582053 0.06175365 -0.051347665 -1.1088521 -0.0621168 0.1437862 -0.026509283 -0.05668874
-0.028236581 0.023986112 0.022010054 -0.06714934 -0.047887854 -0.17971638 -0.061405405 0.041091606
-0.038269833 0.16518204 0.044396944 -0.04658343 0.04777582 0.039255287 -0.03522905 0.070292056
-0.028502349 0.0454456 0.05523669 -0.011183968 -0.10700858 -0.4060436 -0.16777673 -0.001235625
-0.05667364 -0.008296922 -0.03974648 -0.17177321 0.040613085 -0.008148361 -0.00372178 0.17022915
0.033844415 0.016225062 -0.013854155 0.022668658 -0.036445674 -0.14238416 -0.037221916 0.060868703
0.014896952 -0.0015043616 -0.023327466 -0.04175249 0.0550908 0.1455956 -0.40651378 0.049276315
-0.049106807 0.115735576 -0.038028352 0.053086154 0.019130062 -0.034431137 -0.0777766 -0.026415454
0.06590773 0.02421552 0.061940268 -0.04950714 -0.0071254596 -0.053340092 -0.025723636 0.07404721
-0.024944957 -0.42478618 0.009517048 -0.06068307 0.1357158 0.087672696 0.04629819 -0.03884827
0.051307157 -0.10843364 0.05797376 0.023735803 0.055935495 -0.023796983 0.09703254 -0.030240424
0.0313126 -0.052213218 -0.046688095 0.08338677 -0.05069699 0.15821 -0.1739553 0.05482111
0.08899881 0.07079481 -0.08368808 0.05572178 0.0193258 -0.03783743 0.2588793 -0.036793977
-0.07794634 0.046094637 0.016832072 0.03995707 -0.07355983 -0.1860475 0.0343339 -0.043795437
-0.023710078 -0.05504197 -0.13888822 -0.01441506 -0.16549973 -0.011239216 0.060505353 0.05777403
-0.017423421 0.04882989 -0.12268437 0.1818809 0.03506832 0.103113964 -0.049030684 -0.005463009
0.2602303 -0.23981118 -0.05509472 -0.05103596 -0.04444584 -0.0027062553 -0.20183238 0.027434492
0.021998998 -0.005354739 0.004068758 -0.012430466 0.006762184 0.060262814 -0.075609766 0.025736004

linear_layer.2.bias f4 [256]
00000000: 4f83 e53e 6fde 40bc a50c 393d a1f0 273d
00000010: 991f 86bd 9ef1 763c 5862 b8bd b3ef f5bc
00000020: ea4a 06bd 19ef a53e 7962 83bd 3103 743c
00000030: 22c5 9a3d 79f1 acbb 175d 9a3d 90b3 453d
00000040: 2db8 233c 16a5 333d 8609 f43c cc6c b3bc
00000050: 3843 83bd dc35 80bd e2fe 083d 5b73 273d
00000060: 6381 77bd 9370 88bd 3471 85bc 4079 543c
00000070: 4428 9cbd 0fda bf3c f394 ec3b e298 de3e
00000080: 724f 163d fa24 143d 295c a43b c5be 85be
00000090: a849 7b3d c297 ab3e 1962 163c 1cc3 b0ba
000000a0: 720c c1bd 445d 96bd 23f6 0bbd d530 f13c
000000b0: 89dd 093b 14f2 e53c 9f2b a73c f800 573c
000000c0: f4cb 22bd 612e 92ba f8c2 87bd c887 523e
000000d0: bd77 d9bd cc8b 93bd 63f0 b2bd c00f 11bd
000000e0: 873d 41bc 9795 423e b9fd 4dbd 04ed a3bc
000000f0: e4dc 0dbd 48dd dfbc 00a9 89bd 128b 2ebd
00000100: ccff 263d ff06 46bd d97a 643e 2899 04bd
00000110: afb3 153e 8922 85bd d25d 00bd a647 b1bd
00000120: c195 183d c667 8abd 33e2 74bd 2df8 cabc
00000130: 0816 133c 9e9c 6abd c0ac 16bd a5ec 08bd
00000140: ab97 2cbd 44b7 84bd f2a0 d1bc 9c62 8c3d
00000150: cccc a23c d8cd 0dbd 7063 6dbd efb8 ab3c
00000160: c685 a8be 98f9 8bbd 9ab4 123d bdbe 99bd
00000170: 1922 573c 84b5 dc3c 6b4e 18bd 4655 483c
00000180: 2f5b da3c 0e6a 3cbd 1a14 2a3d 3c0f 28bd
00000190: 6864 4fbd dfcf 353d 458e 193c d489 54be
000001a0: 7b81 61bd 94b3 1f3c 32f1 ca3e befb a8bd
000001b0: f61e b2bc 3872 c23e 5fe4 5abd d7fa afbd
000001c0: f2de 60bd ea6c 3dbd 5d99 6d3d 98b9 94bd
000001d0: c5e7 933c 701a cf3b 3a51 81bc 565c e73e
000001e0: 82d7 11be 06dd 5ebd 9430 c0bd abff a4bd
000001f0: 55a0 f23e 50dc 143d ee8b 81bb 5d6e e43e
00000200: aaf1 d03c 40d2 31bd e928 a9bd 9a44 15bc
00000210: bcbb 9abc 8458 a3bd a07d ab3e b652 4f3d
00000220: a1f9 983a 0bb4 91bc 8525 9abd 6655 bd3e
00000230: 92eb b03c e958 a83d e547 bd3c 2136 9fbd
00000240: 6ed7 b33e 7d98 813c c41a fb3c 2619 debd
00000250: 6c49 90bc aeaa b83b 1b3d 88bc a1c8 033c
00000260: 2c55 85bc 251e 3ebc bc2b 983c f8e9 b63c
00000270: 693c 86bc 224c c93e a9ce 70bc 8269 4bbc
00000280: f938 1c3d f4dd d73e 90c8 42bd ca17 97bd
00000290: 9f8d 01bd 599a 693b b9d5 d9bc 79b6 1fbd
000002a0: 1a0b 48be 84e4 0a3e dcf2 a33e 15a4 a33e
000002b0: e4bd c4bc 6b27 bcbc 501a 683c 1a18 f7bc
000002c0: 0c80 fabc cd21 55bd 702b 4fbb 8da6 7ebd
000002d0: fad7 3bbd 5bd6 ac3e 7067 e6bd 7b7f 82bc
000002e0: ffa2 7fbd 6a7d 83be fd39 393d f78e 52bd
000002f0: 51ce 0a3d 14f0 59bc 19e1 2bbc 1a3a f13c
00000300: 72d9 e93b 03ed 4cbd 73ff 5fbd 2246 6f3c
00000310: b481 a53e f62c 883d 9d43 93be 43e8 35be
00000320: c772 10bd f14b 443c 3845 9cbd 0296 c6bd
00000330: 3e47 0c3f 30ff 3ebe ee70 bc3e 9d37 61bd
00000340: 5cae 12bd b8c5 8ebc b243 8e3b fd51 203c
00000350: b414 61bd f74e 113e e432 57bb 2621 5bbd
00000360: 3579 85bd be00 91bd 1a87 e4bc aa30 f8bc
00000370: 12b9 eeba 701b d7bc 64f9 c43e 7042 ecbd
00000380: d6a8 74bd dd40 3d3e 86cf 8fbc 8dcf 68bd
00000390: 555f b7bd 4a67 8c3e d54c c3bb ad76 97bd
000003a0: 1934 7ebd 7ece 9dbc 956c 6b3e 7ea1 cfbc
000003b0: 6052 46bd e771 27bd 2d92 06bb e61e 0a3c
000003c0: 3fd2 a43e 14a8 c33e 2ed2 1d3d a70b eb3a
000003d0: 388e a3bd 87f9 dabc 3457 f93b 11d6 5abd
000003e0: 8581 92bd 7e0c e93e cc99 1f3e 7441 c6bd
000003f0: 2eab 26bd 4408 eb3d 92a4 9dbd 9934 1c3c
0.44826743 -0.011771782 0.045178074 0.041000966 -0.065489955 0.015072254 -0.090031326 -0.030021524
-0.032786287 0.3240898 -0.064152665 0.014893339 0.07557131 -0.005277809 0.07537287 0.048266947
0.009992641 0.04385861 0.029789697 -0.021902464 -0.06409305 -0.06260273 0.0334462 0.040881496
-0.060426127 -0.06662097 -0.016289331 0.012968361 -0.076248676 0.023419408 0.0072199046 0.43476015
0.03669686 0.036168076 0.005015869 -0.26122108 0.06134954 0.3351422 0.009178662 -0.0013485881
-0.09426202 -0.07342008 -0.03417028 0.02944223 0.0021036586 0.028069533 0.020406542 0.01312279
-0.039745286 -0.0011152738 -0.06628984 0.20559609 -0.106185414 -0.072043985 -0.087372564 -0.03541541
-0.011794454 0.19002376 -0.050290797 -0.020010479 -0.034634486 -0.027327195 -0.06721687 -0.042613097
0.04077129 -0.048346516 0.22312488 -0.032372624 0.14619325 -0.06500728 -0.031339474 -0.08656244
0.03725219 -0.067580745 -0.059786033 -0.024776543 0.008977421 -0.057278268 -0.03678584 -0.033428807
-0.04213683 -0.06480268 -0.02558944 0.06854746 0.019873045 -0.034620136 -0.05795616 0.020962207
-0.3291456 -0.068347156 0.035816766 -0.075070836 0.013130688 0.026942022 -0.03718416 0.012227362
0.026654808 -0.04599958 0.041523077 -0.041030154 -0.050632864 0.044387694 0.009372299 -0.20755702
-0.055055123 0.009747405 0.39637142 -0.08251141 -0.021743279 0.37977767 -0.053440448 -0.08592766
-0.054900117 -0.046246447 0.058007587 -0.07261962 0.018054852 0.0063202903 -0.015785802 0.45187634
-0.14242366 -0.054410003 -0.093842655 -0.08056577 0.4738795 0.03634292 -0.0039534485 0.4461545
0.02550586 -0.0434134 -0.08259756 -0.009110594 -0.018888347 -0.079758674 0.33494282 0.05061599
0.0011671075 -0.017786046 -0.075266875 0.36979216 0.021596704 0.08220083 0.023105571 -0.07773996
0.35125297 0.015819782 0.030652411 -0.108446404 -0.017613135 0.005635581 -0.0166307 0.008043439
-0.016275965 -0.011603867 0.018575542 0.022328362 -0.016386228 0.39315897 -0.014697709 -0.012415292
0.03814027 0.42161524 -0.047554553 -0.07377584 -0.0316292 0.0035644977 -0.026591169 -0.03899238
-0.19535485 0.13563734 0.32021224 0.31961122 -0.024016328 -0.022968015 0.01416643 -0.03016286
-0.030578636 -0.052034188 -0.0031611584 -0.062170554 -0.04586027 0.3375729 -0.11250198 -0.015929928
-0.062411305 -0.2568162 0.045221318 -0.051405873 0.033888165 -0.013301868 -0.010490679 0.02944665
0.007136517 -0.05003072 -0.054686975 0.014604123 0.32325518 0.066492006 -0.28762522 -0.17764382
-0.03526571 0.0119809965 -0.0763039 -0.096965805 0.54796207 -0.18652034 0.3680491 -0.054984678
-0.035810813 -0.017428264 0.004341566 0.0097851725 -0.054951385 0.14190279 -0.003283673 -0.05349841
-0.06517259 -0.0708022 -0.027896453 -0.030296642 -0.0018213114 -0.0262582 0.3847152 -0.115361094
-0.059731327 0.18481775 -0.01755501 -0.05683856 -0.0895373 0.27422553 -0.005960087 -0.073956825
-0.062061403 -0.019263502 0.2299064 -0.02534556 -0.048418403 -0.04088011 -0.0020533905 0.008430218
0.32191655 0.3821417 0.03853052 0.001793255 -0.079861104 -0.026730312 0.0076092724 -0.053426806
-0.0715361 0.45517343 0.15586013 -0.09680453 -0.040690593 0.11476186 -0.07697405 0.009534025

linear_layer.4.weight f4 [1, 256]
00000000: ed73 153e 6cb4 a8bb 8b20 dc3a a37e b63c
00000010: 63d8 1b3d c136 393d f607 71bc 54a3 36bc
00000020: 8623 22bd b13a 063e 9a2d ee3b 8600 083d
00000030: a980 c83d fd83 09bd a657 9a3d ef73 4abd
00000040: f26a 463c 0c8f e8bc 3d1b 78bd fc4e f93c
00000050: d0d3 903a 7fe2 13bc ed8b 76bd baba 1f3d
00000060: 6338 1cbd e136 063c c598 1e3b b0ef 473d
00000070: baa5 85bf 6f81 2a3d 2a69 d6ba 4c68 4a3e
00000080: edeb a9b9 1821 28bc c70c a53b 7710 63be
00000090: 2517 4a3b b144 203e f4aa ffbc 5a68 3a3d
000000a0: 9dd7 913c 5998 00bd 2b28 f5bc d7ed e53b
000000b0: eec4 2fbc 40d8 9abb e53e 3dbd 897b 5cba
000000c0: 98f3 d1b6 8711 a43b 8d2b 383d bcca b23e
000000d0: 0354 be3e 56c8 ebbb 2b7b 983c 211f ea3b
000000e0: 0cfc f73c 8c6d f43d b7c6 4bbd ba99 433d
000000f0: db16 be3a 5870 1b3d 8c2f 52bd 03ee 16bd
00000100: b7c6 42bd a71b ebbc 411d 223e 3a2d 20bb
00000110: 8350 693d 8e0e aa3c a363 48be 5ca1 97bb
00000120: 5d80 e33b ad0a c93c ceef 513c c613 c43b
00000130: ceac 33bd 581e e0b8 215c 343c 54bd 493d
00000140: 7b4d 82bb 4279 36bd d486 973b afa0 1eba
00000150: e987 b93d b83c 193c 4c69 513d 4cb3 ffbb
00000160: ad17 c2be 208e 47bc 2038 44bd 0092 f4bb
00000170: 3a75 1a3c 6174 e0bc 1c95 133d d465 7b3b
00000180: c8b2 113d 5ec6 a43b 40d2 90ba ccfe 193b
00000190: 8042 de3c f030 babb d9b6 253d 9a22 e2be
000001a0: 3ada 1c3c 3c4f e43a 8da0 4a3e f39f a4bc
000001b0: b784 1fbd 5d13 bb3e a305 333d a3d7 1fbf
000001c0: 90d0 743d 0241 973b d209 213c 11a6 df3b
000001d0: dd58 f33b b4d1 2eb9 cf0c d83c 8ff1 363e
000001e0: fb0d 1cbe 3fb1 03be fa9d d33e 417f c2bc
000001f0: 9747 693e b25a 99bc 9193 d33c 9571 003e
00000200: 2773 5cbd 530a 843a 580c c0bb a202 ec3b
00000210: 3087 563d 007b e73c 0326 1e3e 63f3 793e
00000220: addf 593d a3fb 4c3c 996e 5bbd 49b8 2f3e
00000230: e3c6 593e 8075 0e3c b8fc ca3c 53e2 82bc
00000240: 6b6a e03d 4b25 f83c c47d f3bb 60d6 9cbf
00000250: 90c3 c03c 0d52 263c 2e3e 593d 2990 933b
00000260: a85f 07bd b6dc a73e 4824 2ebc 90f1 52ba
00000270: 6595 133a 4947 1e3e c172 bfbb 0aad ce3b
00000280: fc6a 8abc 3e75 d83d 38ec e03c 6b80 1b3c
00000290: 1535 05bd c0af febc 133e 713c 86e8 d13c
000002a0: a76e 733f 2162 e43d 7336 f03d 1379 ee3d
000002b0: e1f9 1c3b 2d31 44be 8ac9 443b 4dfb 6cbd
000002c0: d42c 7fbd 4559 31bd 6599 5d3c b691 9ebc
000002d0: 9bfb 3fbc 0e4b 473e 21fa 37bc f14d 393c
000002e0: 6416 073c 62d0 91be 8fb0 c2b7 d24c 4d3d
000002f0: f24a 2c3a fc7a 23bd 8ef0 0bbd 35a5 7b3b
00000300: 775b c7bb 8c3b 18bc 1a2b eebc ee9b 203d
00000310: e4b0 e93d 7224 843d b5b6 11bf 68d0 b53f
00000320: 70a9 61bd 029d c23c b039 a43c 9753 20bb
00000330: 48a5 723e f0a2 66bf 28d2 2c3e a630 103d
00000340: c19b 24bb 47dd a4bc c145 2bbe 7b2f 513b
00000350: bb98 95bd 288c 0b3e 6006 7abc fa4e 533f
00000360: 94df 693c b03c 2ebd 5bf0 88be 8673 1fbd
00000370: 2775 25bd 0351 ab3c 5665 323e 9fcb 02bc
00000380: d35b 06bd d631 f23d d50b f93b af28 c83c
00000390: b32b bfbf 1819 5f3f eee4 923b 15c1 aebc
000003a0: 892e 59bd bf8c d83b 400a cc3d d997 683d
000003b0: 9064 b53b ad06 66bb 8940 d73a 8603 23bc
000003c0: 73f7 3c3e a55f 183e 0c34 bc3b a317 2f3c
000003d0: 06f5 0abd 87ad f3ba fb0e 6f3c 3ebf 0fbd
000003e0: 8253 89bf 1894 613e 18d5 613e ce83 c7bb
000003f0: 3aa6 a3bc 3766 4d3f b3c7 553f 642d da3d
0.14595003 -0.005148461 0.0016794367 0.022277182 0.03804816 0.045218233 -0.014711371 -0.011147339
-0.03958466 0.13108326 0.0072686197 0.033203624 0.09790165 -0.03357314 0.07536249 -0.04942697
0.012110459 -0.028388523 -0.06057285 0.03043317 0.0011049453 -0.009026169 -0.060192037 0.038996436
-0.038139712 0.008191795 0.0024199944 0.04881257 -1.0441201 0.041627344 -0.0016358246 0.19766349
-0.0003240997 -0.010261796 0.0050369236 -0.2217425 0.003083655 0.15651204 -0.031209446 0.045509674
0.017803008 -0.03139529 -0.02992638 0.007016878 -0.010728104 -0.004725486 -0.04620256 -0.0008410742
-6.2570434e-06 0.0050069722 0.04496341 0.349203 0.3717347 -0.0071955128 0.018613419 0.007144824
0.030271553 0.11934957 -0.049750056 0.047754027 0.0014502661 0.037948936 -0.051314875 -0.03684808
-0.04755279 -0.02869971 0.15831472 -0.002444102 0.056961548 0.020758893 -0.19569258 -0.00462739
0.0069427923 0.024541223 0.012813522 0.0059838025 -0.04386597 -0.00010686804 0.011008293 0.049252823
-0.0039765215 -0.044549234 0.004624227 -0.00060511654 0.09059126 0.009352855 0.05112581 -0.0078033563
-0.37908688 -0.012179881 -0.047905087 -0.0074636936 0.009427363 -0.027399244 0.036030874 0.0038360255
0.03557089 0.00502853 -0.0011048988 0.0023497818 0.027131319 -0.0056821033 0.04045758 -0.44167024
0.009573514 0.0017418633 0.19787808 -0.020095801 -0.038944926 0.3653821 0.043706547 -0.6243841
0.059769213 0.004615904 0.0098290015 0.0068252166 0.007426365 -0.00016672054 0.026373295 0.17865585
-0.15239708 -0.12860583 0.41331464 -0.02374232 0.22781216 -0.018720005 0.025827201 0.12543328
-0.053820755 0.0010073878 -0.0058608465 0.0072024623 0.05237502 0.028256893 0.15444188 0.24409251
0.05319183 0.012511167 -0.05357227 0.17160143 0.21267276 0.008695006 0.024778709 -0.01597706
0.109577976 0.03029122 -0.007430764 -1.2252922 0.023530751 0.010151398 0.053037815 0.004503269
-0.03305021 0.32785577 -0.010628767 -0.000804686 0.00056298665 0.1545688 -0.005842537 0.006307249
-0.016896717 0.10569237 0.027456388 0.009491066 -0.032521326 -0.031089664 0.014724272 0.025623571
0.9509072 0.11151529 0.11729135 0.11644187 0.002395265 -0.19159384 0.0030027353 -0.057856847
-0.06229861 -0.043298025 0.013525342 -0.01935659 -0.011717702 0.19462225 -0.011229069 0.011310087
0.008245084 -0.28479296 -2.3208819e-05 0.05012209 0.0006572447 -0.03991221 -0.034164958 0.0038398032
-0.0060839015 -0.009291541 -0.029073287 0.039211206 0.11410692 0.06452264 -0.56919414 1.4204226
-0.05509323 0.023756508 0.020047039 -0.0024463886 0.23695862 -0.9009237 0.16877043 0.035202645
-0.002511725 -0.020125045 -0.16725828 0.003191917 -0.07304522 0.13627684 -0.015260309 0.82542384
0.014274497 -0.042538345 -0.26745877 -0.03892853 -0.04039493 0.020912653 0.17421469 -0.007983117
-0.032802414 0.11825912 0.0076002874 0.024433462 -1.4935211 0.87147665 0.004482857 -0.021332303
-0.053022895 0.006608575 0.099628925 0.05678544 0.0055356696 -0.0035099194 0.0016422431 -0.0099495705
0.1845377 0.14880235 0.005743509 0.010686788 -0.03392508 -0.0018591144 0.014590974 -0.035094492
-1.072861 0.2202915 0.22053945 -0.0060887104 -0.019976724 0.8023409 0.8350784 0.10653189
