data/Apr-13_05-51-52/models/critic_1900.pth (torch, 274455 bytes, 5 tensors)

linear_layer.0.weight f4 [256, 7]
0	0xbeb10669	-0.34575203
1	0x3e8e7049	0.27820042
2	0xbeafe656	-0.3435542
3	0xbe709205	-0.23493202
4	0xbe07ef69	-0.13274921
5	0xbebd9bb0	-0.37032843
6	0xbea8fc18	-0.33004832
7	0xbe70a39d	-0.23499914
8	0xbe2ee45b	-0.17079298
9	0x3d7ba72b	0.06143872
10	0x3e18709f	0.14886712
11	0x3e51130b	0.2041742
12	0x3dc60081	0.09668065
13	0x3e1f6fb1	0.1556995
14	0xbd7e4d9e	-0.06208574
15	0x3e6f5c06	0.23374948
16	0x3e1fe0ce	0.156131
17	0xbdba2c07	-0.09090429
18	0xbe3b9695	-0.18319161
19	0x3e4b74df	0.19868802
20	0x3eac1cca	0.33615714
21	0xbe358565	-0.17726667
22	0x3d0fc77c	0.035102352
23	0x3e80f01c	0.2518319
24	0x3e3aaeff	0.18230818
25	0xbdb86690	-0.09003937
26	0x3de0b785	0.109725036
27	0xbdf924e4	-0.121652395
28	0xbeb4cfc3	-0.3531476
29	0x3e55d952	0.20883682
30	0x3ec42d57	0.38315842
31	0x3e978102	0.29590613
32	0x3e6ba10b	0.23010652
33	0x3ea4c03c	0.32177913
34	0x3e4cd216	0.20002016
35	0xbe8f3f06	-0.2797777
36	0xbeb08d08	-0.34482598
37	0xbdb0d76d	-0.08634839
38	0xbe07a0b7	-0.13244902
39	0xbeb38ef2	-0.35069996
40	0xbe57ceb9	-0.21074952
41	0xbeb25209	-0.34828213
42	0xbc690c1b	-0.014224078
43	0x3e80895e	0.25104803
44	0xbed3c2b1	-0.41359475
45	0xbeacc05f	-0.33740517
46	0x3e833e6d	0.25633565
47	0xbdd34d9f	-0.103175394
48	0x3e06d78c	0.13168162
49	0x3ea46688	0.32109475
50	0x3b9654a5	0.004587727
51	0xbf06f884	-0.52722955
52	0xbdb274c8	-0.087136805
53	0xbd52d152	-0.051469155
54	0x3ee7244e	0.45144886
55	0xbe883dd2	-0.26609665
56	0xbe9d1eed	-0.30687657
57	0xbdf6342b	-0.12021669
58	0x3e9ebe0c	0.3100437
59	0xbdfbf987	-0.12303453
60	0x3e27e33b	0.16395275
61	0x3de13be2	0.1099775
62	0xbcae0d28	-0.021246508
63	0x3e9d0ab2	0.30672222
64	0xbdb4ed85	-0.08834366
65	0xbe887057	-0.26648208
66	0xbe7a3002	-0.24432376
67	0xbe2122ec	-0.15735978
68	0xbeb46273	-0.3523136
69	0x3e2e01c4	0.16992861
70	0x3eb81fbd	0.35961714
71	0xbd5c0122	-0.053712018
72	0xbeb661fe	-0.35621637
73	0x3d71fbab	0.0590779
74	0xbf9148de	-1.1350362
75	0x3ea5ddc7	0.32395765
76	0x3d9bc76a	0.076063946
77	0x3e0d4ae4	0.137981
78	0xbe32b27b	-0.17450897
79	0xbca130be	-0.019676562
80	0xbdb12acb	-0.0865074
81	0x3e871a2a	0.2638715
82	0x3e3e7a2a	0.1860129
83	0x3dd7b9d4	0.10533491
84	0x3eaf9323	0.34291944
85	0xbe621cc7	-0.2208129
86	0xbe99de17	-0.30052254
87	0x3ee9d1ba	0.4566782
88	0xbf768ac8	-0.96305513
89	0x3e37107e	0.17877385
90	0x3db0b099	0.08627433
91	0xbea0dcee	-0.31418556
92	0xbe950a02	-0.29109198
93	0x3dd80d68	0.10549432
94	0x3c576dee	0.013148768
95	0xbe0f36c4	-0.13985735
96	0x39b05813	0.00033634956
97	0xbe91269c	-0.2834977
98	0x3d34472a	0.04401318
99	0xbe8f67e7	-0.2800896
100	0xbeaffa34	-0.34370577
101	0x3d87d4c7	0.06632381
102	0x3d2bfbce	0.041988187
103	0x3e5ad933	0.21371917
104	0x3eb906f2	0.3613811
105	0xbe701930	-0.23447108
106	0xbe92d5d2	-0.28678757
107	0x3e28723e	0.1644983
108	0x3e8fcba5	0.28085056
109	0xbe7638b0	-0.24045062
110	0x3cdae971	0.026722642
111	0x3e0d6665	0.13808592
112	0xbeb8d4fd	-0.36099997
113	0xbd0e72ac	-0.03477733
114	0xbdcbefbc	-0.09957835
115	0xbc33efaa	-0.010982433
116	0x3d538dd2	0.051648922
117	0xbe8895f4	-0.26676905
118	0xbe645655	-0.22298558
119	0xbe50f90b	-0.20407502
120	0xbe446cc8	-0.19182122
121	0xbe2c1123	-0.16803412
122	0x3e89459e	0.26810926
123	0x3e5c5541	0.21516897
124	0xbe7ff596	-0.24996027
125	0x3e123492	0.14277866
126	0xbe1f35af	-0.15547822
127	0x3d1c3741	0.03813863
128	0xbe9ee5ef	-0.310348
129	0x3de0544f	0.109535806
130	0xbf04abb8	-0.5182452
131	0x3da129e5	0.07869319
132	0x3e71be49	0.23607744
133	0xbde82636	-0.11335413
134	0xbeb5e521	-0.35526374
135	0x3d32e123	0.04367174
136	0xbe765973	-0.2405756
137	0x3b8e47ae	0.004342041
138	0x3e420511	0.18947245
139	0x3e61bad8	0.22043931
140	0xbf211825	-0.62927467
141	0x3e4b41b3	0.19849281
142	0xbe40e42f	-0.18837045
143	0x3ed5d699	0.41765288
144	0x3f7ed0b3	0.995372
145	0x3e5d7fcf	0.21630786
146	0xbe961ce8	-0.2931893
147	0xbb775619	-0.0037740527
148	0x3e4d78c3	0.20065598
149	0xbee90dc9	-0.4551833
150	0x3ea0b45c	0.31387603
151	0x3e4b61cb	0.19861524
152	0xbeebaa6e	-0.46028465
153	0x3e116749	0.14199556
154	0x3eabb506	0.33536547
155	0xbdc8e486	-0.098092124
156	0xbe91a3ab	-0.2844518
157	0x3e3ab387	0.18232547
158	0xbfc359a6	-1.5261734
159	0xbd9f4244	-0.07776311
160	0x3e675668	0.22591555
161	0xbe7896e6	-0.24276313
162	0x3e2fe935	0.17178805
163	0xbe62b5df	-0.22139691
164	0xbd1f541a	-0.038898565
165	0x3f4ccd80	0.8000107
166	0xbd79e4f4	-0.061009362
167	0xbf03bf81	-0.51464087
168	0x3dfe89aa	0.12428601
169	0xbe8e56b6	-0.2780053
170	0xbe7d4ee1	-0.24737121
171	0x3d5652c9	0.052325044
172	0x3c808ef9	0.015693175
173	0xbd99828c	-0.07495603
174	0x3ebd6f26	0.36998862
175	0xbee29dee	-0.44261116
176	0x3d374806	0.04474642
177	0x3e409863	0.18808131
178	0xbdbc85dd	-0.0920522
179	0x3ea5e00c	0.32397497
180	0x3b859d70	0.004077606
181	0xbe61b2dd	-0.22040887
182	0xbe6c3c7f	-0.23069952
183	0xbe0823ce	-0.13294908
184	0x3eb340d9	0.35010412
185	0xbcf11c2e	-0.029432382
186	0x3eaf3a21	0.34224036
187	0x3e8c22c2	0.27370268
188	0xbc60f621	-0.013730557
189	0x3e107350	0.14106488
190	0xbeba5b83	-0.36397943
191	0xbea162a5	-0.31520572
192	0xbe7b4538	-0.24538124
193	0xbe4f9766	-0.20272598
194	0xbe893d4c	-0.26804578
195	0xbe0f14a8	-0.13972723
196	0xbdb98f84	-0.090605766
197	0x3eb749af	0.35798404
198	0x3e6d3032	0.23162916
199	0x3e44a828	0.19204772
200	0xbd234d85	-0.03986885
201	0x3e35db86	0.17759523
202	0xbd123768	-0.03569737
203	0xbe19809f	-0.14990471
204	0x3ebd882c	0.37017953
205	0xbe859b6a	-0.26095134
206	0xbee75081	-0.45178607
207	0x3ef66937	0.48127148
208	0x3d976a46	0.07393317
209	0xbe270562	-0.16310647
210	0x3d9eb239	0.07748837
211	0x3e9dbc64	0.30807793
212	0xbf1bcc8e	-0.60859
213	0x3c29b025	0.010356938
214	0x3f0b1c9f	0.5434055
215	0xbe107686	-0.14107713
216	0x3d19697b	0.03745411
217	0xbe49f327	-0.19721662
218	0x3c90c15a	0.017670322
219	0x3eebe618	0.46073985
220	0xbe5614a6	-0.20906314
221	0xbf3ff5cc	-0.7498443
222	0xbf0be22a	-0.54641974
223	0x3e5b149a	0.21394578
224	0x3ea01feb	0.3127435
225	0xbe21e7d2	-0.15811089
226	0xbe8c312b	-0.27381262
227	0x3e1b3c99	0.15159835
228	0xbf804e79	-1.0023948
229	0x3ef76760	0.48321056
230	0x3d400462	0.04687918
231	0xbc90953f	-0.017649291
232	0x3e3063bb	0.17225544
233	0x3e7111d6	0.2354196
234	0xbf08d0b4	-0.53443456
235	0xbc4388fa	-0.011934513
236	0xbf318f45	-0.69359237
237	0x3e766a41	0.2406397
238	0xbe9a774f	-0.3016915
239	0xbd7d67ca	-0.06186656
240	0x3e227abb	0.1586713
241	0xbeb7cdb6	-0.35899132
242	0xbe43e89a	-0.19131699
243	0x3e6e72c9	0.23285975
244	0xbea0fa4f	-0.3144097
245	0xbdde2660	-0.10847163
246	0xbdc677b5	-0.09690801
247	0xbe2ef96b	-0.17087333
248	0x3e0daced	0.13835497
249	0x3cfc1e89	0.030776279
250	0x3e47963e	0.19490907
251	0xbdadcdb8	-0.08486503
252	0xbe285df3	-0.16442089
253	0xbae9b42a	-0.0017830182
254	0xbd43e10d	-0.047822047
255	0x3c474a20	0.012163669

linear_layer.0.bias f4 [256]
0	0x3e121cb8	0.14268768
1	0xbecf941a	-0.4054268
2	0x3dcaa815	0.0989534
3	0x3e9525b9	0.29130343
4	0xbc49f2f8	-0.012325995
5	0xbd9617fc	-0.073287934
6	0xbe8c9128	-0.27454495
7	0x3ccbb370	0.024865836
8	0xbe130635	-0.14357837
9	0x3dd1173c	0.1020951
10	0x3e3cbe14	0.18431884
11	0x3e9366d1	0.2878938
12	0xbe21607a	-0.15759459
13	0xbe3c05df	-0.18361615
14	0x3dcf9995	0.10136715
15	0x3d407662	0.0469879
16	0xbd91615c	-0.07098648
17	0xbd031c18	-0.032009214
18	0xbebc3322	-0.3675776
19	0xbca7416c	-0.020416938
20	0xbe3e967c	-0.18612093
21	0x3d3b8b7c	0.04578732
22	0x3e1530ce	0.14569399
23	0xbe78ff25	-0.2431608
24	0xbe9bac0f	-0.30404708
25	0x3e876065	0.2644073
26	0xbd722bfb	-0.059123974
27	0x3e4c1ad3	0.19932108
28	0x3e05f38e	0.1308119
29	0xbeab1925	-0.3341762
30	0xbe89c865	-0.269107
31	0x3f0b480a	0.544068
32	0x3e8581f0	0.26075697
33	0x3ea7ed39	0.32798174
34	0x3d4ce9bc	0.050027594
35	0x3d278e4a	0.04090718
36	0x3de13e43	0.109982036
37	0x3e7cc3a1	0.24684002
38	0x3e7ca502	0.2467232
39	0xbeda8d9a	-0.42686158
40	0xbed58aa7	-0.41707346
41	0x3c861d77	0.016371472
42	0xbe28793b	-0.16452496
43	0xbc858963	-0.016300863
44	0x3e21ee36	0.15813527
45	0xbe986bad	-0.2976965
46	0x3db69607	0.08915334
47	0xbd841975	-0.06450168
48	0x3ed40fab	0.41418204
49	0xbeeec92b	-0.46637854
50	0xbdd6970b	-0.10478028
51	0xbdfef749	-0.1244951
52	0x3d0eae40	0.034834146
53	0x3cb7a026	0.022415232
54	0x3e80431c	0.250512
55	0xbdc5df69	-0.09661753
56	0xbe8fbb4a	-0.28072578
57	0xbd8ff73f	-0.0702958
58	0x3d53efc0	0.051742315
59	0x3db9b00c	0.090667814
60	0x3e8a64e3	0.27030095
61	0x3dcec77c	0.100966424
62	0xbc1acf1d	-0.009448794
63	0xbe934ff3	-0.28771934
64	0xbe534442	-0.20631507
65	0xbe6f03da	-0.23341313
66	0x3c851530	0.016245455
67	0xbd989620	-0.07450509
68	0x3eac5c7d	0.33664313
69	0xbec7596d	-0.38935414
70	0xbea5e261	-0.32399276
71	0xbca4cd62	-0.020117465
72	0xbe4db6fe	-0.20089337
73	0x3e9b0a39	0.30281237
74	0xbe27d6b4	-0.16390496
75	0xbc211177	-0.009830824
76	0x3cceb200	0.025231361
77	0xbe2e29ac	-0.17008084
78	0xbe0e086b	-0.13870399
79	0x3c82fd9e	0.015990075
80	0xbe306242	-0.17224982
81	0x3e3bd030	0.18341136
82	0xbee75c05	-0.45187393
83	0xbd7d7232	-0.061876483
84	0xbdd2556f	-0.102702014
85	0xbde7efcd	-0.11325035
86	0x3ec5d653	0.3864008
87	0xbea2a398	-0.31765437
88	0x3e308f7e	0.17242238
89	0x3d89d246	0.067295596
90	0xbcdc757b	-0.026911488
91	0xbe02854f	-0.12746166
92	0x3d938862	0.07203747
93	0xbea5e4a0	-0.3240099
94	0xbeb0c971	-0.34528688
95	0xbbb64bd0	-0.005563237
96	0xbdb9dd74	-0.09075442
97	0xbe9a40ae	-0.30127472
98	0xbe838d85	-0.25693908
99	0x3e09beb5	0.13451655
100	0x3db27d36	0.08715288
101	0x3d8299a2	0.063769594
102	0xbed547a3	-0.41656217
103	0xbee06907	-0.4383013
104	0xbdedc2f3	-0.11609449
105	0xbebbe020	-0.3669443
106	0x3e0d20c8	0.13782036
107	0xbe8abea0	-0.2709856
108	0xbd82aa1a	-0.063801005
109	0x3ec32a95	0.38118425
110	0xbe728d42	-0.23686698
111	0x3e052f77	0.13006388
112	0xbd4f9ec0	-0.050688505
113	0xbe704765	-0.23464735
114	0x3ec1230b	0.37722048
115	0x3e80440b	0.25051913
116	0x3e7f7685	0.24947555
117	0x3db9adc5	0.09066347
118	0x3e375067	0.17901765
119	0xbed184a4	-0.4092151
120	0xbe7a805e	-0.2446303
121	0xbe4441d7	-0.19165741
122	0xbe74d8cf	-0.23910831
123	0x3dcee674	0.10102549
124	0x3ebfaf92	0.37438637
125	0xbecd93c4	-0.401518
126	0x3ebf285f	0.37335488
127	0xbea5a409	-0.3235171
128	0xbec91d91	-0.3928037
129	0x3e348f9f	0.17632912
130	0xbdb4743c	-0.088112324
131	0xbf16ba6b	-0.588782
132	0xbe66a03c	-0.22522062
133	0xbe5e8ca2	-0.21733335
134	0x3e459e9a	0.19298783
135	0xbebe4637	-0.37162945
136	0xbece2004	-0.402588
137	0x3e3c85d2	0.18410423
138	0xbea6c303	-0.32570657
139	0xbe0899cc	-0.13339919
140	0xbee1e725	-0.44121662
141	0xbea1ed45	-0.31626335
142	0xbec71e7d	-0.38890448
143	0xbefe8eb8	-0.4971826
144	0xbd65b417	-0.05607995
145	0x3eb8b1f0	0.36073256
146	0x3ea3c1cd	0.31983796
147	0xbea882d6	-0.3291232
148	0x3dd0737b	0.10178276
149	0xbe21ccf5	-0.15800841
150	0xbe847589	-0.25870922
151	0xbdedfe69	-0.116207905
152	0xbd85b07c	-0.06527802
153	0xbe91ff1d	-0.28514948
154	0xbe8d4946	-0.27594966
155	0xbe93a71c	-0.28838432
156	0xbe43df14	-0.19128066
157	0xbe325f86	-0.17419252
158	0x3e4c8fc5	0.19976719
159	0x3e0e74c4	0.1391173
160	0x3d5b0a0d	0.053476382
161	0xbe952567	-0.29130098
162	0x3e32aa98	0.17447889
163	0x3e85590c	0.260445
164	0x3e66d324	0.22541481
165	0x3da2fa2a	0.07957871
166	0xbf01a8f2	-0.50648415
167	0xbe4fd4d4	-0.20296031
168	0xbe49afee	-0.19696018
169	0xbe7c10ad	-0.24615736
170	0x3e8df33f	0.27724645
171	0x3e7beccb	0.24602048
172	0x3e4ce449	0.20008959
173	0x3e8aaf45	0.27086845
174	0xbd89a626	-0.067211434
175	0xbd3c72f7	-0.046008077
176	0xbe8e4fd6	-0.27795285
177	0x3d5feac7	0.05466726
178	0x3e782d89	0.2423612
179	0xbdf4115a	-0.11917372
180	0x3ebc3e1f	0.36766145
181	0x3d787f0f	0.060668048
182	0xbd948b17	-0.07253092
183	0x3ed0492d	0.4068083
184	0xbed5c4a9	-0.41751602
185	0xbe4813cc	-0.19538802
186	0xbe395675	-0.18099387
187	0x3dd6a012	0.1047975
188	0x3eae494b	0.34040293
189	0x3e2f2efe	0.1710777
190	0x3e714390	0.2356093
191	0xbebf8e4d	-0.37413254
192	0xbeaf120f	-0.34193465
193	0xbdf29bf1	-0.1184615
194	0xbda01d3d	-0.07818077
195	0x3e01efe6	0.1268917
196	0xbe642083	-0.22278027
197	0x3e286c9e	0.16447684
198	0xbedaee9f	-0.42760178
199	0x3d69e6d5	0.057104904
200	0x3dbe0ef9	0.092801996
201	0xbe4d4143	-0.20044427
202	0xbe981889	-0.2970622
203	0xbd9e0bc1	-0.07717086
204	0xbdebe6f3	-0.115186594
205	0x3f0d48d5	0.5518926
206	0xbb396e6b	-0.0028294574
207	0xbe57a199	-0.21057738
208	0xbeb88b74	-0.36043894
209	0xbe917e6e	-0.2841677
210	0x3e03e12e	0.12878868
211	0x3e619896	0.22030863
212	0xbe85071a	-0.2598198
213	0x3ed49434	0.4151932
214	0x3d2a8b06	0.04163649
215	0x3cc322e7	0.023820354
216	0x3e912e56	0.28355664
217	0xbdf8d1fd	-0.12149427
218	0xbf00c2ea	-0.50297415
219	0xbe799e1d	-0.24376722
220	0x3d268529	0.040654335
221	0x3e36be1e	0.17845961
222	0xbe106260	-0.14100027
223	0xbe7bf255	-0.24604161
224	0xbe9adc5c	-0.30246246
225	0xbe81865e	-0.25297827
226	0xbe168625	-0.1469961
227	0x3ea47cc7	0.32126448
228	0xbd78af96	-0.060714327
229	0xbd16da3c	-0.03682922
230	0xbde822cc	-0.11334762
231	0xbce7618d	-0.028244758
232	0x3ea9d431	0.33169702
233	0x3c079893	0.008276123
234	0xbe492c0f	-0.19645713
235	0x3e68da6f	0.22739576
236	0x3d60d68e	0.054892115
237	0xbe297757	-0.16549431
238	0x3dc0895b	0.094011985
239	0xbefef97a	-0.4979971
240	0x3d4800c0	0.04882884
241	0x3ed10062	0.40820605
242	0xbeafee18	-0.3436134
243	0x3e8df123	0.27723035
244	0xbdebcd91	-0.11513818
245	0x3e17f5cc	0.14839858
246	0xbe8cf70d	-0.27532235
247	0xbf083091	-0.53199106
248	0xbe1e7052	-0.15472534
249	0x3db4031f	0.08789658
250	0x3e7409f2	0.23831919
251	0xbdc44f36	-0.09585421
252	0x3e4ed016	0.20196566
253	0x3eb317fe	0.34979242
254	0xbed43eb6	-0.41454095
255	0x3edb1f8f	0.42797515

linear_layer.2.weight f4 [256, 256]
0	0x3d53864a	0.05164174
1	0x3cbf06eb	0.023318728
2	0x3e27d741	0.16390707
3	0x3dda1a02	0.10649492
4	0x3e4d318c	0.20038432
5	0xbd29c9fe	-0.0414524
6	0xbd0ed9bd	-0.03487562
7	0x3d27b291	0.04094178
8	0xbddac667	-0.106823735
9	0xbd343750	-0.043998063
10	0x3df3f7af	0.11912476
11	0x3d302502	0.043004043
12	0x3e6b554c	0.22981757
13	0x3d4100ac	0.04711978
14	0xbb813380	-0.003942907
15	0x3a854f26	0.0010170683
16	0x3c0266c0	0.007959068
17	0x3ceeefd0	0.029167086
18	0xbd9d55f7	-0.07682412
19	0x3cca5064	0.024696536
20	0xbb7c7073	-0.0038519173
21	0xbd427920	-0.047478795
22	0xbde68a35	-0.1125683
23	0xbd81db74	-0.063406855
24	0xbd12494a	-0.035714425
25	0x3d17d32d	0.037066627
26	0x3e07bf91	0.1325667
27	0xbd47bb46	-0.048762582
28	0x3e5e8284	0.21729475
29	0xbe3bf1bf	-0.18353938
30	0xbf0cb7ec	-0.5496814
31	0x3daeb5ee	0.08530794
32	0x3dd69634	0.10477868
33	0x3dc96de6	0.098354146
34	0x3c8206a4	0.015872307
35	0xbcbf014c	-0.023316048
36	0x3d9b1407	0.07572179
37	0x3cdd2580	0.02699542
38	0xbc62df78	-0.013847224
39	0x3ca1f508	0.01977016
40	0x3da28b1c	0.07936689
41	0x3dd7d880	0.10539341
42	0xbc7406f8	-0.01489424
43	0xbde3541d	-0.11100028
44	0xbc511e98	-0.012763642
45	0x3d89d996	0.06730954
46	0x3d29d52c	0.041463062
47	0x3d8bdf34	0.06829682
48	0x3d21f222	0.039537556
49	0xbea8ebc0	-0.32992363
50	0xbd613a30	-0.054987133
51	0x3da92154	0.0825831
52	0x3bc89d10	0.006122239
53	0x3e25a75d	0.16177125
54	0xbd0a8248	-0.033815652
55	0xbbf75a40	-0.0075486004
56	0xbd6de9f4	-0.058084443
57	0x3ca1ef7c	0.019767515
58	0x3d6ba251	0.057527844
59	0x3c7dc8e8	0.015489794
60	0x3d263077	0.040573563
61	0xbbfe35b7	-0.007757868
62	0xbe44f997	-0.19235836
63	0xbc6c0220	-0.0144048035
64	0x3d937f80	0.07202053
65	0xbbed64cb	-0.0072446815
66	0xbcb7b408	-0.022424713
67	0x3d37d8a3	0.044884335
68	0x3df2f56f	0.11863219
69	0xbbb1b65b	-0.00542335
70	0xbc0c57e0	-0.008565873
71	0x3d65d4f8	0.056111306
72	0x3badc49c	0.0053029787
73	0x3da689c7	0.08131748
74	0xbda4c7b9	-0.080459066
75	0xbd7269e4	-0.059183016
76	0x3d75a786	0.059974216
77	0xbd98e0cd	-0.07464752
78	0x3d6d8ee7	0.05799761
79	0xbebfbfc8	-0.37451005
80	0xb84a1abe	-4.818546e-05
81	0xbd7035cc	-0.058645055
82	0x3d80cdc1	0.062892444
83	0xbc8b3f0c	-0.016997837
84	0xbda9b5a9	-0.08286602
85	0xbe89f65a	-0.26945764
86	0x3e8bb308	0.27285028
87	0xbefeb6da	-0.4974888
88	0x3ebdc565	0.37064663
89	0x3c390778	0.011293285
90	0x3e293b4d	0.16526528
91	0xbc88bfb4	-0.016692974
92	0x3d54e664	0.05197753
93	0xbbbaede8	-0.00570463
94	0xbdc77e78	-0.09740919
95	0xbe485f99	-0.19567718
96	0xbd86463f	-0.06556367
97	0xbd0589cf	-0.032602128
98	0x3c9c57ec	0.019084893
99	0x3e02fd26	0.12791881
100	0xbcb9c244	-0.02267564
101	0x3c8859b9	0.016644346
102	0x3dd75cdb	0.10515758
103	0xbe034484	-0.12819105
104	0xbcc4cc1c	-0.024023108
105	0x3bbc6240	0.005749017
106	0xbd663fb6	-0.056213103
107	0x3b56d9a0	0.0032783523
108	0x3c9f7e07	0.019469274
109	0xbde21ac6	-0.11040263
110	0xbd8aaaa5	-0.06770829
111	0x3ca20ddc	0.019782
112	0x3dfbbcc1	0.12291861
113	0x3d8ce8d3	0.06880345
114	0xbd5251ee	-0.051347665
115	0xbfa04dd7	-1.2523755
116	0xbd7e6e30	-0.0621168
117	0x3e2a9937	0.1666001
118	0xbcd929ff	-0.026509283
119	0xbd683274	-0.05668874
120	0xbd35e7b0	-0.044410408
121	0x3cc47e86	0.023986112
122	0x3d84c2b5	0.0648245
123	0xbd898598	-0.06714934
124	0xbd44260e	-0.047887854
125	0xbe36215b	-0.17786162
126	0xbb908745	-0.0044106566
127	0x3d284fac	0.041091606
128	0xbd1cc0d4	-0.038269833
129	0x3e29257b	0.16518204
130	0x3d35d992	0.044396944
131	0xbd440f91	-0.047866408
132	0x3d43b094	0.04777582
133	0x3d914222	0.07092692
134	0xbd104c56	-0.03522905
135	0x3db91a72	0.09038247
136	0xbce97dc2	-0.028502349
137	0x3d3a252a	0.0454456
138	0x3d8be215	0.06830231
139	0x3ce5a25a	0.028031517
140	0xbddb25b6	-0.10700552
141	0xbec60c5d	-0.38681307
142	0xbe1577f0	-0.14596534
143	0xbc3af428	-0.01141075
144	0xbd68229e	-0.05667364
145	0xbc07efd0	-0.008296922
146	0xbd22cd34	-0.03974648
147	0xbe722811	-0.23648097
148	0x3d2659e8	0.040613085
149	0xbcc4d1c1	-0.0240258
150	0xbb6cc82d	-0.0036130056
151	0x3e23a782	0.15981868
152	0x3d0aa071	0.033844415
153	0x3c84ea6c	0.016225062
154	0xbc62fc8a	-0.013854155
155	0x3d987f13	0.074461125
156	0xbcfb9b25	-0.030713627
157	0xbde22dcd	-0.11043892
158	0xbd187602	-0.037221916
159	0x3d795176	0.060868703
160	0x3c741258	0.014896952
161	0xbac52e00	-0.0015043616
162	0xbcbf193e	-0.023327466
163	0xbd461fe1	-0.048370246
164	0x3d843bcd	0.064567186
165	0x3e12ac0b	0.14323442
166	0xbec68818	-0.38775706
167	0x3d49d5f6	0.049276315
168	0xbccb4ff1	-0.024818392
169	0x3db93688	0.09043604
170	0xbd1bc39e	-0.038028352
171	0x3d5970de	0.053086154
172	0x3c304278	0.010758035
173	0xbd0d07aa	-0.034431137
174	0xbd9f4957	-0.0777766
175	0x3cb661bf	0.022263406
176	0x3d9db819	0.077011295
177	0x3cfbff60	0.03076142
178	0x3d7db514	0.061940268
179	0xbd4ac800	-0.04950714
180	0xbbe97cb0	-0.0071254596
181	0xbd5a7b24	-0.053340092
182	0xbd879da6	-0.06621866
183	0x3db6719c	0.08908388
184	0x3cf2b3e4	0.029626794
185	0xbed63ab0	-0.4184165
186	0x3c1bed64	0.009517048
187	0xbd8a7101	-0.06759835
188	0x3df9c2c2	0.1219535
189	0x3dad3c78	0.08458799
190	0x3d3da32c	0.04629819
191	0xbd1f1f5d	-0.03884827
192	0x3d522774	0.051307157
193	0xbda5016d	-0.080569126
194	0x3dafe8a3	0.08589294
195	0x3cc589c1	0.024113538
196	0x3d34aea7	0.044111874
197	0xbcc2f1e4	-0.023796983
198	0x3dc6b8ff	0.09703254
199	0xbcf7bac4	-0.030240424
200	0x3d2819c6	0.041040204
201	0xbc92a99e	-0.017903145
202	0xbd3f3c04	-0.046688095
203	0x3db67362	0.08908726
204	0xbd4fa7a6	-0.05069699
205	0x3e2280e5	0.15869482
206	0xbd6b15f6	-0.05739399
207	0x3d608c1a	0.05482111
208	0x3db65bf6	0.08904259
209	0x3d90fcdf	0.07079481
210	0xbdab64a8	-0.08368808
211	0x3d5ec90c	0.054390952
212	0x3c9e5124	0.0193258
213	0xbafc8d46	-0.0019268177
214	0x3e72e259	0.23719157
215	0xbd16b548	-0.036793977
216	0xbd77b1ca	-0.060472287
217	0x3d828294	0.06372562
218	0x3c89e36a	0.016832072
219	0x3d2a593a	0.041589
220	0xbd96a689	-0.07355983
221	0xbd9d68bb	-0.076859914
222	0x3cc39182	0.023873094
223	0xbd3362d8	-0.043795437
224	0xbdbbbdd8	-0.09167069
225	0xbc17c357	-0.009262881
226	0xbe0f5bdd	-0.13999887
227	0xbc6c2d25	-0.01441506
228	0xbe1215cb	-0.14266126
229	0xbc3824b0	-0.011239216
230	0x3d866f14	0.06564155
231	0x3d6ca476	0.05777403
232	0xbc8ebb90	-0.017423421
233	0x3d129030	0.03578204
234	0xbda9d9ae	-0.08293472
235	0x3e2ca3c6	0.1685935
236	0x3d0fa3cc	0.03506832
237	0x3dd32d6a	0.103113964
238	0xbd48d466	-0.049030684
239	0x3d91baca	0.07115705
240	0x3e72bb11	0.23704173
241	0xbe5027ec	-0.20327729
242	0xbd61ab00	-0.05509472
243	0xbd510b15	-0.05103596
244	0xbd360cd7	-0.04444584
245	0x3b5aff5d	0.0033416369
246	0xbe312583	-0.17299466
247	0x3ce0be4d	0.027434492
248	0x3cb4373e	0.021998998
249	0xbd04e267	-0.032442477
250	0xbcad3b3a	-0.021146405
251	0xbc4ba927	-0.012430466
252	0x3c8f0d02	0.017462257
253	0x3d0b63ce	0.034030728
254	0xbd9ad94b	-0.075609766
255	0x3d92196c	0.07133755

linear_layer.2.bias f4 [256]
0	0x3eca873f	0.3955631
1	0xbc40de6f	-0.011771782
2	0x3d2efbd2	0.042720623
3	0x3d27f0a1	0.041000966
4	0xbd861f99	-0.065489955
5	0x3c76f19e	0.015072254
6	0xbdb86258	-0.090031326
7	0xbcf5efb3	-0.030021524
8	0xbd064aea	-0.032786287
9	0x3e98c5b7	0.29838344
10	0xbd6baac6	-0.05753591
11	0x3c740331	0.014893339
12	0x3d9ac522	0.07557131
13	0xbbacf179	-0.005277809
14	0x3d9a5d17	0.07537287
15	0x3d45b390	0.048266947
16	0x3c23b82d	0.009992641
17	0x3d33a516	0.04385861
18	0x3cf36fca	0.029716391
19	0xbcb36ccc	-0.021902464
20	0xbd834338	-0.06409305
21	0xbd0b46dc	-0.034003124
22	0x3d08fee2	0.0334462
23	0x3d27735b	0.040881496
24	0xbd778163	-0.060426127
25	0xbd887093	-0.06662097
26	0xbd324c3c	-0.043529734
27	0x3c547940	0.012968361
28	0xbd4851d6	-0.04890617
29	0x3cbfda0f	0.023419408
30	0x3c08c624	0.008348022
31	0x3ec023f4	0.3752743
32	0x3d1b3d06	0.037899993
33	0x3d1424fa	0.036168076
34	0x3ba45c29	0.005015869
35	0xbe5e2cf5	-0.21696837
36	0x3cd69884	0.026195772
37	0x3e9f938b	0.31167254
38	0x3c166219	0.009178662
39	0xbab0c31c	-0.0013485881
40	0xbdc10c72	-0.09426202
41	0xbd965d44	-0.07342008
42	0xbcea5e28	-0.02860935
43	0x3cf130d5	0.02944223
44	0x3b09dd89	0.0021036586
45	0x3ce5f214	0.028069533
46	0x3ca72b9f	0.020406542
47	0x3c5700f8	0.01312279
48	0xbd3cd8a8	-0.046105057
49	0xba922e61	-0.0011152738
50	0xbd87c2f8	-0.06628984
51	0x3e234275	0.1594332
52	0xbd84178d	-0.064498045
53	0xbd938bcc	-0.072043985
54	0xbda8e483	-0.0824671
55	0xbd110fc0	-0.03541541
56	0xbbd1f803	-0.006407739
57	0x3e0f867a	0.14016142
58	0xbd4dfdb9	-0.050290797
59	0xbca3ed04	-0.020010479
60	0xbd0ddce4	-0.034634486
61	0xbcdfdd48	-0.027327195
62	0xbd89a900	-0.06721687
63	0xbd2e8b12	-0.042613097
64	0x3d26ffcc	0.04077129
65	0xbd4606ff	-0.048346516
66	0x3e476ac4	0.19474322
67	0xbcf5adf6	-0.029990178
68	0x3dfd2a72	0.123616114
69	0xbd852289	-0.06500728
70	0xbc9b30c9	-0.018944161
71	0xbda96f8c	-0.08273229
72	0x3d1895c1	0.03725219
73	0xbd8a67c6	-0.067580745
74	0xbd74e233	-0.059786033
75	0xbccaf82d	-0.024776543
76	0x3c131608	0.008977421
77	0xbd68dcfe	-0.05685138
78	0xbc9ca921	-0.019123616
79	0xbd08eca5	-0.033428807
80	0xbd2c97ab	-0.04213683
81	0xbd84b744	-0.06480268
82	0xbcd1a0f2	-0.02558944
83	0x3da9d032	0.08291663
84	0x3ca2cccc	0.019873045
85	0xbd0dcdd8	-0.034620136
86	0x3c02d96a	0.007986406
87	0x3cabb8ef	0.020962207
88	0xbea3a655	-0.3196284
89	0xbd8bf998	-0.068347156
90	0x3d12b49a	0.035816766
91	0xbd99bebd	-0.075070836
92	0x3d6eac29	0.058269653
93	0x3cdcb584	0.026942022
94	0xbd184e6b	-0.03718416
95	0x3d0d841c	0.034549817
96	0x3cda5b2f	0.026654808
97	0xbd3c6a0e	-0.04599958
98	0x3d2a141a	0.041523077
99	0xbd280f3c	-0.041030154
100	0xbd4f6468	-0.050632864
101	0x3d35cfdf	0.044387694
102	0x3c198e45	0.009372299
103	0xbe4f42b9	-0.20240296
104	0xbd61817b	-0.055055123
105	0x3c335f1e	0.010947971
106	0x3eac8c2c	0.33700693
107	0xbda8fbbe	-0.08251141
108	0xbcb21ef6	-0.021743279
109	0x3ea0a383	0.3137475
110	0xbd5ae45f	-0.053440448
111	0xbdb71d63	-0.08941152
112	0xbd60def2	-0.054900117
113	0xbd3d6cea	-0.046246447
114	0x3d6d995d	0.058007587
115	0xbd94b998	-0.07261962
116	0x3d0c5183	0.034257423
117	0x3bcf1a70	0.0063202903
118	0xbc81513a	-0.015785802
119	0x3ec9fe00	0.394516
120	0xbe00b116	-0.12567553
121	0xbd5edd00	-0.05440998
122	0xbdbf0194	-0.09326473
123	0xbda4ffab	-0.08056577
124	0x3ed2db99	0.41183165
125	0x3d14dc50	0.03634292
126	0xbb818bee	-0.0039534485
127	0x3ecb533a	0.39711934
128	0x3cd0f1aa	0.02550586
129	0xbd31d240	-0.0434134
130	0xbd3d9433	-0.046283912
131	0xbc15449a	-0.009110594
132	0xbc9abbbc	-0.018888347
133	0xbda35884	-0.079758674
134	0x3e8fa9c9	0.28059223
135	0x3b2b217b	0.0026112485
136	0x3a98f9a1	0.0011671075
137	0xbc91b40b	-0.017786046
138	0xbd9a2585	-0.075266875
139	0x3ea05cd8	0.31320834
140	0x3d18d736	0.037314616
141	0x3e0de45c	0.13856643
142	0x3cbd47e5	0.023105571
143	0xbd9f3621	-0.07773996
144	0x3e9e0941	0.30866435
145	0x3c81987d	0.015819782
146	0x3cfb1ac4	0.030652411
147	0xbde1c089	-0.11023051
148	0xbc90496c	-0.017613135
149	0x3bb8aaae	0.005635581
150	0xbc883d1b	-0.0166307
151	0x3c03c8a1	0.008043439
152	0xbc85552c	-0.016275965
153	0x3d27de3c	0.040983424
154	0x3c982bbc	0.018575542
155	0x3cb6e9f8	0.022328362
156	0xbc863c69	-0.016386228
157	0x3ead853d	0.33890715
158	0xbc70cea9	-0.014697709
159	0xbc4b6982	-0.012415292
160	0x3d1c38f9	0.03814027
161	0x3ec16697	0.37773582
162	0xbd42c890	-0.047554553
163	0xbd9717ca	-0.07377584
164	0xbd018d9f	-0.0316292
165	0x3b699a59	0.0035644977
166	0xbcd9d5b9	-0.026591169
167	0xbd1fb679	-0.03899238
168	0xbe4aee35	-0.19817431
169	0x3e0ae484	0.13563734
170	0x3e8c816e	0.27442497
171	0x3e8bbce5	0.27292553
172	0xbcc4bde4	-0.024016328
173	0xbd8ce9a1	-0.06880499
174	0x3c681a50	0.01416643
175	0xbcf7181a	-0.03016286
176	0xbcfa800c	-0.030578636
177	0xbd5521cd	-0.052034188
178	0xbb4f2b70	-0.0031611584
179	0xbd7ea68d	-0.062170554
180	0xbd3bd7fa	-0.04586027
181	0x3e8f72bd	0.28017226
182	0xbdab46ee	-0.08363138
183	0xbc827f7b	-0.015929928
184	0xbd78ee69	-0.06077424
185	0xbe7a7d55	-0.24461873
186	0x3d3939fd	0.045221318
187	0xbd528ef7	-0.051405873
188	0x3d0ace51	0.033888165
189	0xbc59f014	-0.013301868
190	0xbc2be119	-0.010490679
191	0x3cf13a1a	0.02944665
192	0x3be9d972	0.007136517
193	0xbd4ced03	-0.05003072
194	0xbd5fff73	-0.054686975
195	0x3c6f4622	0.014604123
196	0x3e90197b	0.2814444
197	0x3d882cf6	0.066492006
198	0xbe83c0ad	-0.25732937
199	0xbe593a39	-0.21213616
200	0xbd1072c7	-0.03526571
201	0x3c444bf1	0.0119809965
202	0xbd9c4538	-0.0763039
203	0xbdc69602	-0.096965805
204	0x3ef883ad	0.4853796
205	0xbe294d02	-0.16533282
206	0x3e9fca85	0.31209198
207	0xbd61379d	-0.054984678
208	0xbd01def8	-0.03170678
209	0xbc8ec5b8	-0.017428264
210	0x3c89d2b3	0.016824102
211	0x3c2051fd	0.0097851725
212	0xbd54e707	-0.051978137
213	0x3dc1ebbb	0.0946879
214	0xbb5732e4	-0.003283673
215	0xbcb45786	-0.02201439
216	0xbd857935	-0.06517259
217	0xbd9100be	-0.0708022
218	0xbcff9909	-0.031200903
219	0xbcf830aa	-0.030296642
220	0xbaeeb912	-0.0018213114
221	0xbcd71b70	-0.0262582
222	0x3ea7c9ca	0.3277114
223	0xbdec4270	-0.115361094
224	0xbd74a8d6	-0.059731327
225	0x3e0cdc86	0.13755998
226	0xbc8fcf86	-0.01755501
227	0xbd68cf8d	-0.05683856
228	0xbdad4d3b	-0.08461996
229	0x3e6c2a4a	0.23063007
230	0x3bf58d6a	0.0074936645
231	0xbd9776ad	-0.073956825
232	0xbd7e3419	-0.062061403
233	0xbc9accc8	-0.018896475
234	0x3e584da7	0.21123372
235	0xbccfa17e	-0.02534556
236	0xbd465260	-0.048418403
237	0xbd2771e7	-0.04088011
238	0xbb06922d	-0.0020533905
239	0x3c0a1ee6	0.008430218
240	0x3e8c075a	0.2734936
241	0x3ea85b09	0.32881954
242	0x3d26ee5a	0.040754654
243	0x3aeb0ba7	0.001793255
244	0xbda38e38	-0.079861104
245	0xbcdaf987	-0.026730312
246	0x3bf95734	0.0076092724
247	0xbd5ad611	-0.053426806
248	0xbd3c3992	-0.04595334
249	0x3ec9b616	0.39396733
250	0x3dd21b78	0.102591455
251	0xbdc10426	-0.094246194
252	0xbd26ab2e	-0.040690593
253	0x3ddc4b44	0.10756543
254	0xbda15ef1	-0.07879437
255	0x3c1c3499	0.009534025

linear_layer.4.weight f4 [1, 256]
0	0x3e09dfee	0.13464329
1	0xbba8b46c	-0.005148461
2	0xbb4c7e28	-0.0031203125
3	0x3cb67ea3	0.022277182
4	0x3d1bd863	0.03804816
5	0x3d3936c1	0.045218233
6	0xbc7107f6	-0.014711371
7	0xbc36a354	-0.011147339
8	0xbd222386	-0.03958466
9	0x3e08c111	0.13354899
10	0x3a00447b	0.0004893017
11	0x3d080086	0.033203624
12	0x3dc880a9	0.09790165
13	0xbd0983fd	-0.03357314
14	0x3d9a57a6	0.07536249
15	0xbd4a73ef	-0.04942697
16	0x3c466af2	0.012110459
17	0xbce88f0c	-0.028388523
18	0xbd781110	-0.060563147
19	0x3cf94efc	0.03043317
20	0x3a90d3d0	0.0011049453
21	0xbba7f03f	-0.005125075
22	0xbd768bed	-0.060192037
23	0x3d1fbaba	0.038996436
24	0xbd1c3863	-0.038139712
25	0x3c0636e1	0.008191795
26	0x3bc91335	0.006136323
27	0x3d47efb0	0.04881257
28	0xbf4a0882	-0.7891923
29	0x3d2a816f	0.041627344
30	0x3b2057e6	0.0024466454
31	0x3e38c151	0.18042494
32	0x39e712cc	0.00044073758
33	0xbc282118	-0.010261796
34	0x3ba50cc7	0.0050369236
35	0xbe681046	-0.22662458
36	0x3bd0037e	0.0063480726
37	0x3e11e5c6	0.14247808
38	0xbcffaaf4	-0.031209446
39	0x3d3a685a	0.045509674
40	0x3c91d79d	0.017803008
41	0xbd009859	-0.03139529
42	0xbd13269f	-0.035925504
43	0x3be5edd7	0.007016878
44	0xbc2fc4ee	-0.010728104
45	0xbb9ad840	-0.004725486
46	0xbd3d3ee5	-0.04620256
47	0xba5c7b89	-0.0008410742
48	0x3c4289bf	0.011873662
49	0x3ba41187	0.0050069722
50	0x3d382b8d	0.04496341
51	0x3ea661dd	0.3249654
52	0x3d844fc6	0.06460528
53	0xbbebc856	-0.0071955128
54	0x3cf19325	0.02948911
55	0x3bea1f21	0.007144824
56	0x3d2c5715	0.042075235
57	0x3dfe29e7	0.12410336
58	0xbd4bc6b7	-0.049750056
59	0x3d4399ba	0.047754027
60	0x3abe16db	0.0014502661
61	0x3d1b7058	0.037948936
62	0xbd522f8c	-0.051314875
63	0xbd16ee03	-0.03684808
64	0xbd42c6b7	-0.04755279
65	0xbceb1ba7	-0.02869971
66	0x3e2959da	0.16538182
67	0x376f7a44	1.4273977e-05
68	0x3d89ad3b	0.06722494
69	0x3caa0e8e	0.020758893
70	0xbe2dabf8	-0.16960132
71	0x3be7f71a	0.0070790173
72	0x3be3805d	0.0069427923
73	0x3cc90aad	0.024541223
74	0x3c51efce	0.012813522
75	0x3bc413c6	0.0059838025
76	0xbd33acce	-0.04386597
77	0x3a8da15c	0.0010805535
78	0xbbfd9596	-0.0077387793
79	0x3d49bd54	0.049252823
80	0xbb824d7b	-0.0039765215
81	0xbd367942	-0.044549234
82	0x3b9786d4	0.004624227
83	0x3a94db30	0.0011356827
84	0x3db987e9	0.09059126
85	0x3c193cb8	0.009352855
86	0xbcaafcf4	-0.02087257
87	0xbbffb34c	-0.0078033563
88	0xbea5e29e	-0.32399458
89	0xbc478e20	-0.012179881
90	0xbd443820	-0.047905087
91	0xbbf49200	-0.0074636936
92	0xbc8a1196	-0.016854089
93	0xbce07461	-0.027399244
94	0x3d13951c	0.036030874
95	0x3c95a868	0.018268779
96	0x3d11b2c8	0.03557089
97	0x3ba4c65e	0.00502853
98	0xba90d240	-0.0011048988
99	0x3b19fecc	0.0023497818
100	0x3cde4280	0.027131319
101	0xbbba30f0	-0.0056821033
102	0x3d25b6d9	0.04045758
103	0xbed3bfc7	-0.41357252
104	0x3c1cda3a	0.009573514
105	0xbb200e2b	-0.0024422507
106	0x3e3c1932	0.18368986
107	0xbca49ff3	-0.020095801
108	0xbd1f84b7	-0.038944926
109	0x3ec32496	0.3811385
110	0x3d3305a3	0.043706547
111	0xbf0ff7e3	-0.5623762
112	0x3d74d090	0.059769213
113	0x3b974102	0.004615904
114	0x3c2109d2	0.0098290015
115	0x3bdfa611	0.0068252166
116	0x3aac389e	0.0013139432
117	0xb92ed1b4	-0.00016672054
118	0x3cd80ccf	0.026373295
119	0x3e28ee08	0.16497052
120	0xbdda136f	-0.10648238
121	0xbe03b13f	-0.12860583
122	0x3e8bac3f	0.2727985
123	0xbcc27f41	-0.02374232
124	0x3e5aaf82	0.21356013
125	0xbc995ab2	-0.018720005
126	0x3cd39391	0.025827201
127	0x3df1209e	0.11773799
128	0xbd5c7327	-0.053820755
129	0x3a840a53	0.0010073878
130	0x3bce9442	0.006304295
131	0x3bec02a2	0.0072024623
132	0x3d568730	0.05237502
133	0x3ce77b00	0.028256893
134	0x3e1343d5	0.14381345
135	0x3e9b6521	0.30350593
136	0x3d59dfad	0.05319183
137	0x3c4cfba3	0.012511167
138	0xbd5b6e99	-0.05357227
139	0x3e1fae88	0.15593922
140	0x3e000c76	0.12504753
141	0x3cb43dcc	0.022002123
142	0x3ccafcb8	0.024778709
143	0xbc82e253	-0.01597706
144	0x3de3fb30	0.111318946
145	0x3cf8254b	0.03029122
146	0xbbf37dc4	-0.007430764
147	0xbf89e1ce	-1.0772035
148	0x3cc0c390	0.023530751
149	0x3c26520d	0.010151398
150	0x3d593e2e	0.053037815
151	0x3b939029	0.004503269
152	0xbd075fa8	-0.03305021
153	0x3b1b4da6	0.0023697405
154	0xbc2e2448	-0.010628767
155	0xba52f190	-0.000804686
156	0x3a139565	0.00056298665
157	0x3e10db90	0.14146256
158	0xbbbf72c1	-0.005842537
159	0x3bcead0a	0.006307249
160	0xbc8a6afc	-0.016896717
161	0x3dcf1bc3	0.10112717
162	0x3ce0ec38	0.027456388
163	0x3c1b806b	0.009491066
164	0xbd053515	-0.032521326
165	0xbcfeafc0	-0.031089664
166	0x3c713e13	0.014724272
167	0x3cd1e886	0.025623571
168	0x3f3dc877	0.7413401
169	0x3de46221	0.11151529
170	0x3df5af3a	0.119963124
171	0x3ddf3e27	0.109005265
172	0x3b1cf9e1	0.002395265
173	0xbe52bbcb	-0.2057945
174	0x3b44c98a	0.0030027353
175	0xbd6cfb4d	-0.057856847
176	0xbd7f2cd4	-0.06229861
177	0xbd315945	-0.043298025
178	0x3c5d9965	0.013525342
179	0xbc9e91b6	-0.01935659
180	0xbc3ffb9b	-0.011717702
181	0x3e572ff0	0.2101438
182	0xbcf6877b	-0.030093899
183	0x3c394df1	0.011310087
184	0xb8882151	-6.491191e-05
185	0xbe76b2f1	-0.24091698
186	0xb7c2b08f	-2.3208819e-05
187	0x3d4d4cd2	0.05012209
188	0x3a2c4af2	0.0006572447
189	0xbd237afc	-0.03991221
190	0xbd0bf08e	-0.034164958
191	0x3b7ba535	0.0038398032
192	0xbbc75b77	-0.0060839015
193	0xbc183b8c	-0.009291541
194	0xbcee2b1a	-0.029073287
195	0x3d209bee	0.039211206
196	0x3df7d05c	0.12100288
197	0x3d842472	0.06452264
198	0xbf0f8aa9	-0.56070954
199	0x3f81e14e	1.0146883
200	0xbd61a970	-0.05509323
201	0x3cc29d02	0.023756508
202	0x3ca439b0	0.020047039
203	0xbb205397	-0.0024463886
204	0x3e606f55	0.2191747
205	0xbf4f4902	-0.80970776
206	0x3e1ca7b9	0.15298356
207	0x3d1030a6	0.035202645
208	0xbc005abc	-0.007834133
209	0xbca4dd47	-0.020125045
210	0xbe213c31	-0.15745617
211	0x3b512f7b	0.003191917
212	0xbcbb4dcc	-0.022864245
213	0x3e0da7af	0.13833497
214	0xbc7a0660	-0.015260309
215	0x3f35ed7b	0.7106549
216	0x3c69df94	0.014274497
217	0xbd2e3cb0	-0.042538345
218	0xbe876895	-0.26446977
219	0xbd1f7386	-0.03892853
220	0xbd257527	-0.04039493
221	0x3cab5103	0.020912653
222	0x3e27f4d4	0.16401988
223	0xbc02cb9f	-0.007983117
224	0xbd065bd3	-0.032802414
225	0x3df99bac	0.12187895
226	0x3bf90bd5	0.0076002874
227	0x3cc828af	0.024433462
228	0xbf9cbf9f	-1.2245978
229	0x3f59dc3f	0.85101694
230	0x3af1b3a3	0.0018440377
231	0xbcaec115	-0.021332303
232	0xbd592e89	-0.053022895
233	0xbb902fb0	-0.004400216
234	0x3dc806d3	0.097669266
235	0x3d6897d9	0.05678544
236	0x3bb56490	0.0055356696
237	0xbb6606ad	-0.0035099194
238	0x3ad74089	0.0016422431
239	0xbc230386	-0.0099495705
240	0x3e375a09	0.1790544
241	0x3e0ca94e	0.1373646
242	0x3c1a5891	0.00942053
243	0x3c2f17a3	0.010686788
244	0xbd0af506	-0.03392508
245	0xbaf3ad87	-0.0018591144
246	0x3c6f0efb	0.014590974
247	0xbd0fbf3e	-0.035094492
248	0xbf6a140e	-0.9143685
249	0x3e50b138	0.20380104
250	0x3e2fdec2	0.17174819
251	0xbbf1e1a6	-0.0073816357
252	0xbca3a63a	-0.019976724
253	0x3f52a652	0.82285035
254	0x3f460d49	0.7736402
255	0x3dda2d64	0.10653189
