data/Apr-13_05-51-52/models/critic_2000.pth (torch, 274455 bytes, 5 tensors)

linear_layer.0.weight f4 [256, 7]
000000 67 5a a7 be a0 e4 96 3e 77 11 a8 be ea d5 58 be
       -0.3268616 0.29471302 -0.32825825 -0.21175352
000010 a9 86 3e be 04 d8 f1 be 95 c1 da be 9d a3 70 be
       -0.18606056 -0.4723512 -0.42725816 -0.23499914
000020 5b e4 2e be 2b a7 7b 3d 9f 70 18 3e 0b 13 51 3e
       -0.17079298 0.06143872 0.14886712 0.2041742
000030 81 00 c6 3d b1 6f 1f 3e 64 40 85 bd c9 66 6e 3e
       0.09668065 0.1556995 -0.06506422 0.23281397
000040 b1 6a 1b 3e 58 52 cc bd 4f 57 37 be 22 96 47 3e
       0.15177418 -0.09976643 -0.179044 0.19490865
000050 c8 fb a5 3e 6b ae 3c be a2 fe f9 3c 05 71 7b 3e
       0.32418656 -0.1842591 0.030516926 0.24554832
000060 b4 8c 30 3e b1 62 af bd 3a 98 d2 3d 8a b5 0b be
       0.17241174 -0.08563746 0.10282941 -0.1364347
000070 92 c5 b5 be 73 38 57 3e 37 9e c3 3e fe 8d 94 3e
       -0.35502297 0.21017627 0.38206646 0.2901458
000080 97 91 6e 3e e6 a5 a3 3e 12 b4 41 3e 06 3f 8f be
       0.23297726 0.31962508 0.18916348 -0.2797777
000090 08 8d b0 be 6d d7 b0 bd b7 a0 07 be f2 8e b3 be
       -0.34482598 -0.08634839 -0.13244902 -0.35069996
0000a0 b9 ce 57 be 09 52 b2 be 1b 0c 69 bc 5e 89 80 3e
       -0.21074952 -0.34828213 -0.014224078 0.25104803
0000b0 b1 c2 d3 be 5f c0 ac be 6d 3e 83 3e 9f 4d d3 bd
       -0.41359475 -0.33740517 0.25633565 -0.103175394
0000c0 8c d7 06 3e 8e 31 b9 3e 5e 5d 32 3d 14 94 fb be
       0.13168162 0.3617062 0.043546073 -0.49136412
0000d0 3b 5f 24 bd 9e 44 48 bd 3b f2 fd 3e 73 1b 74 be
       -0.04012988 -0.048893563 0.4959887 -0.23838596
0000e0 ed 1e 9d be 2b 34 f6 bd 0c be 9e 3e 87 f9 fb bd
       -0.30687657 -0.12021669 0.3100437 -0.12303453
0000f0 3b e3 27 3e e2 3b e1 3d 28 0d ae bc b2 0a 9d 3e
       0.16395275 0.1099775 -0.021246508 0.30672222
000100 85 ed b4 bd 57 70 88 be 02 30 7a be ec 22 21 be
       -0.08834366 -0.26648208 -0.24432376 -0.15735978
000110 73 62 b4 be c4 01 2e 3e 8e c8 bb 3e c1 b1 71 bd
       -0.3523136 0.16992861 0.3667645 -0.05900741
000120 39 98 b9 be c2 18 72 3d 60 44 8e bf 05 2e b0 3e
       -0.3624895 0.059105642 -1.1114616 0.3441011
000130 f9 ea 82 3d e4 4a 0d 3e 7b b2 32 be be 30 a1 bc
       0.06392474 0.137981 -0.17450897 -0.019676562
000140 cb 2a b1 bd 2a 1a 87 3e 2a 7a 3e 3e d4 b9 d7 3d
       -0.0865074 0.2638715 0.1860129 0.10533491
000150 e8 fc a2 3e bc 86 7c be 0c 60 aa be 05 a6 d7 3e
       0.31833577 -0.24660772 -0.33276403 0.4211885
000160 39 74 7a bf 34 e4 2a 3e c1 7b 6a 3d ee dc a0 be
       -0.9783359 0.16688615 0.057246927 -0.31418556
000170 02 0a 95 be 68 0d d8 3d ee 6d 57 3c c4 36 0f be
       -0.29109198 0.10549432 0.013148768 -0.13985735
000180 13 58 b0 39 9c 26 91 be 2a 47 34 3d e7 67 8f be
       0.00033634956 -0.2834977 0.04401318 -0.2800896
000190 34 fa af be c7 d4 87 3d ce fb 2b 3d 33 d9 5a 3e
       -0.34370577 0.06632381 0.041988187 0.21371917
0001a0 f2 06 b9 3e 30 19 70 be d2 d5 92 be 3e 72 28 3e
       0.3613811 -0.23447108 -0.28678757 0.1644983
0001b0 a5 cb 8f 3e b0 38 76 be 71 e9 da 3c 65 66 0d 3e
       0.28085056 -0.24045062 0.026722642 0.13808592
0001c0 fd d4 b8 be ac 72 0e bd bc ef cb bd aa ef 33 bc
       -0.36099997 -0.03477733 -0.09957835 -0.010982433
0001d0 d2 8d 53 3d f4 95 88 be 55 56 64 be 0b f9 50 be
       0.051648922 -0.26676905 -0.22298558 -0.20407502
0001e0 c8 6c 44 be 23 11 2c be 9e 45 89 3e 41 55 5c 3e
       -0.19182122 -0.16803412 0.26810926 0.21516897
0001f0 96 f5 7f be 92 34 12 3e 01 51 1f be 15 9c 1b 3d
       -0.24996027 0.14277866 -0.15558244 0.03799065
000200 2e ed 9e be 0d 1c e0 3d 4e 77 04 bf a0 79 a1 3d
       -0.3104033 0.1094285 -0.51744545 0.07884526
000210 ed 47 72 3e 36 26 e8 bd 21 e5 b5 be 23 e1 32 3d
       0.2366025 -0.11335413 -0.35526374 0.04367174
000220 73 59 76 be ae 47 8e 3b 11 05 42 3e d8 ba 61 3e
       -0.2405756 0.004342041 0.18947245 0.22043931
000230 14 d4 20 bf 6a 5d 51 3e 7a cf 33 be d4 92 e1 3e
       -0.62823606 0.20445791 -0.17559615 0.44057333
000240 69 c2 78 3f f7 7e 58 3e d2 3b 99 be 54 50 94 bc
       0.97171646 0.21142183 -0.29928452 -0.01810471
000250 59 1b 3b 3e c0 27 f3 be 88 8f 9b 3e 4f 1a 55 3e
       0.18272151 -0.47491264 0.30382943 0.20810817
000260 d2 16 f6 be 25 8b 09 3e 7f 9b a4 3e 04 e4 f6 bd
       -0.48064286 0.13431986 0.32149884 -0.12055209
000270 f8 d3 9d be 58 c7 1f 3e 25 ab c4 bf 01 1d b6 bd
       -0.30825782 0.15603387 -1.5364729 -0.08892251
000280 38 3b 5a 3e e6 96 78 be 35 e9 2f 3e df b5 62 be
       0.21311653 -0.24276313 0.17178805 -0.22139691
000290 1a 54 1f bd 80 cd 4c 3f f4 e4 79 bd 81 bf 03 bf
       -0.038898565 0.8000107 -0.061009362 -0.51464087
0002a0 aa 89 fe 3d b6 56 8e be e1 4e 7d be c9 52 56 3d
       0.12428601 -0.2780053 -0.24737121 0.052325044
0002b0 f9 8e 80 3c 8c 82 99 bd 26 6f bd 3e ee 9d e2 be
       0.015693175 -0.07495603 0.36998862 -0.44261116
0002c0 06 48 37 3d 63 98 40 3e dd 85 bc bd 0c e0 a5 3e
       0.04474642 0.18808131 -0.0920522 0.32397497
0002d0 70 9d 85 3b dd b2 61 be d9 f3 62 be d8 45 04 be
       0.004077606 -0.22040887 -0.22163333 -0.12917268
0002e0 0a 22 b7 3e 5f 7d f5 bc 54 50 ca 3e 0d 1b 93 3e
       0.35768157 -0.029967008 0.3951441 0.28731576
0002f0 d2 73 94 ba 50 73 10 3e 83 5b ba be a5 62 a1 be
       -0.0011326021 0.14106488 -0.36397943 -0.31520572
000300 38 45 7b be 66 97 4f be 4c 3d 89 be a8 14 0f be
       -0.24538124 -0.20272598 -0.26804578 -0.13972723
000310 f7 15 bc bd 1c c9 b7 3e 0d e1 6a 3e 20 6b 3d 3e
       -0.09183877 0.35895622 0.22937413 0.18497896
000320 36 9e 0e bd 66 de 34 3e 33 02 3e bd 39 2d 1f be
       -0.03481885 0.17662963 -0.046388816 -0.15544595
000330 c4 f7 b9 3e cc 51 8d be 13 6b ec be bc 6a ff 3e
       0.36321843 -0.2760147 -0.4617544 0.4988612
000340 a7 2c 9a 3d ec df 36 be 09 2a 6b 3d 4d 19 92 3e
       0.07528048 -0.17858857 0.057413135 0.28534928
000350 0c 0a 23 bf 17 b3 3f bc ed aa 12 3f 10 eb 28 be
       -0.63687205 -0.011700413 0.5729206 -0.16495919
000360 ad 9b b0 3b 73 4a 42 be e6 fa 8e 3c ef f7 f1 3e
       0.0053896517 -0.18973713 0.017453622 0.4725947
000370 bb d8 51 be 07 eb 44 bf a3 79 0f bf f0 f4 76 3e
       -0.20492832 -0.76921123 -0.5604498 0.24116874
000380 49 9e a5 3e a3 8a 25 be e5 9c 8e be 8a 7a 1b 3e
       0.32347324 -0.16166167 -0.27854076 0.15183464
000390 29 03 7a bf 18 08 01 3f d3 f9 1a 3d 2a 31 d2 ba
       -0.9766107 0.50402975 0.037835907 -0.001603638
0003a0 fc c2 40 3e 9f 8b 82 3e 8d 2b 05 bf 1d 40 10 bd
       0.1882438 0.25497147 -0.5201958 -0.035217393
0003b0 0f 0d 30 bf b6 e5 85 3e 4f 77 9a be ca 67 7d bd
       -0.68769926 0.26151818 -0.3016915 -0.06186656
0003c0 bb 7a 22 3e b6 cd b7 be 9a e8 43 be c9 72 6e 3e
       0.1586713 -0.35899132 -0.19131699 0.23285975
0003d0 4f fa a0 be 60 26 de bd b5 77 c6 bd 6b f9 2e be
       -0.3144097 -0.10847163 -0.09690801 -0.17087333
0003e0 ed ac 0d 3e 89 1e fc 3c 3e 96 47 3e b8 cd ad bd
       0.13835497 0.030776279 0.19490907 -0.08486503
0003f0 c4 c5 1f be ee 75 11 3c 5b 3e 21 bd 51 f6 be 3c
       -0.15602785 0.008878214 -0.039366107 0.023310812

linear_layer.0.bias f4 [256]
000000 b4 9c 22 3e 1a 94 cf be e0 73 c1 3d 1d e9 91 3e
       0.1588009 -0.4054268 0.094459295 0.28498164
000010 9d cd 5b bc fc 17 96 bd 28 91 8c be 7d a7 7a 3d
       -0.013415721 -0.073287934 -0.27454495 0.061194886
000020 35 06 13 be 3c 17 d1 3d 0e ff 34 3e d1 66 93 3e
       -0.14357837 0.1020951 0.1767542 0.2878938
000030 44 a7 42 be df 05 3c be 95 99 cf 3d 62 76 40 3d
       -0.1900912 -0.18361615 0.10136715 0.0469879
000040 5c 61 91 bd 18 1c 03 bd b7 41 bc be 6c 41 a7 bc
       -0.07098648 -0.032009214 -0.36768886 -0.020416938
000050 c7 75 30 be fd f2 c7 3c 6b d1 fb 3d 25 ff 78 be
       -0.17232428 0.024407858 0.12295803 -0.2431608
000060 0f ac 9b be 65 60 87 3e 42 65 65 bd d3 1a 4c 3e
       -0.30404708 0.2644073 -0.05600477 0.19932108
000070 57 64 03 3e 8b 02 b3 be cb 59 99 be 60 f9 0d 3f
       0.12831245 -0.34962878 -0.2995132 0.5545864
000080 24 56 82 3e 97 2e b2 3e bc e9 4c 3d 4a 8e 27 3d
       0.25456345 0.3480117 0.050027594 0.04090718
000090 07 dc f6 3d a1 c3 7c 3e 02 a5 7c 3e 9a 8d da be
       0.12053686 0.24684002 0.2467232 -0.42686158
0000a0 27 49 d3 be 73 49 a5 3c 3b 79 28 be ce 2e df bc
       -0.41266748 0.020176625 -0.16452496 -0.027243998
0000b0 36 ee 21 3e c7 3a 98 be 77 f9 aa 3d 40 9f 91 bd
       0.15813527 -0.29732344 0.08348363 -0.07110453
0000c0 b5 45 d9 3e 35 af f7 be 0b 97 d6 bd 49 f7 fe bd
       0.42435995 -0.4837586 -0.10478028 -0.1244951
0000d0 40 ae 0e 3d 2a 7a 95 3c 1c 43 80 3e 69 df c5 bd
       0.034834146 0.018246729 0.250512 -0.09661753
0000e0 4a bb 8f be 3f f7 8f bd 52 13 34 3d 0c b0 b9 3d
       -0.28072578 -0.0702958 0.043963738 0.090667814
0000f0 59 70 88 3e e4 40 b4 3d 69 37 e8 bb f3 4f 93 be
       0.26648214 0.088014394 -0.0070866835 -0.28771934
000100 a8 a3 47 be da 03 6f be 5e 3a 84 3b 27 9b ae bd
       -0.19496024 -0.23341313 0.004035278 -0.08525687
000110 94 f0 a8 3e 33 e7 cb be 61 e2 a5 be d6 48 cc bc
       0.32996047 -0.39824829 -0.32399276 -0.024937075
000120 aa 8c 3b be 39 0a 9b 3e 50 7d 36 be 77 11 21 bc
       -0.18315378 0.30281237 -0.1782124 -0.009830824
000130 38 c8 c4 3c 61 e2 09 be 6d 18 13 be 5e a9 1d 3d
       0.024021253 -0.13465263 -0.14364786 0.0384916
000140 10 b1 49 be 30 d0 3b 3e 05 5c e7 be 32 72 7d bd
       -0.1969645 0.18341136 -0.45187393 -0.061876483
000150 8e 82 c9 bd 90 38 f3 bd a8 f5 c4 3e a7 9f ad be
       -0.098393545 -0.11876023 0.3846867 -0.33910868
000160 b5 7a 36 3e 46 d2 89 3d 6b be dc bc 4f d2 0a be
       0.17820247 0.067295596 -0.026946267 -0.13556789
000170 62 88 93 3d a0 e4 a5 be 08 b2 b0 be a4 fc a2 bc
       0.07203747 -0.3240099 -0.34510827 -0.019895859
000180 74 dd b9 bd ae 40 9a be 85 8d 83 be 60 12 1a 3e
       -0.09075442 -0.30127472 -0.25693908 0.15046072
000190 36 7d b2 3d b7 39 61 3d a4 27 cc be b4 36 e7 be
       0.08715288 0.05498668 -0.39873993 -0.45158923
0001a0 f3 c2 ed bd 20 e0 bb be c8 20 0d 3e a0 be 8a be
       -0.11609449 -0.3669443 0.13782036 -0.2709856
0001b0 1a aa 82 bd 1d f0 d4 3e f4 63 83 be 77 2f 05 3e
       -0.063801005 0.41589442 -0.25662196 0.13006388
0001c0 5d 3b 07 bd e4 d1 7a be 0b 23 c1 3e f8 5b 79 3e
       -0.033015598 -0.2449413 0.37722048 0.2435149
0001d0 85 76 7f 3e 8d c9 9a 3d 67 50 37 3e a4 84 d1 be
       0.24947555 0.07557974 0.17901765 -0.4092151
0001e0 52 bd 7a be d7 41 44 be 46 b9 73 be 74 e6 ce 3d
       -0.24486282 -0.19165741 -0.23801145 0.10102549
0001f0 92 af bf 3e 29 f3 d5 be d5 7b b9 3e 09 a4 a5 be
       0.37438637 -0.4178708 0.3622729 -0.3235171
000200 91 1d c9 be 9f 8f 34 3e 3c 74 b4 bd 64 4c 14 bf
       -0.3928037 0.17632912 -0.088112324 -0.5792906
000210 3c a0 66 be 02 a1 81 be 9a 9e 45 3e a2 ce c1 be
       -0.22522062 -0.25318152 0.19298783 -0.3785296
000220 04 20 ce be d2 85 3c 3e b8 af aa be 91 91 28 be
       -0.402588 0.18410423 -0.33337188 -0.16461779
000230 a2 2f e2 be fe e7 b1 be 56 fa cc be 48 88 02 bf
       -0.44176966 -0.34747308 -0.4003474 -0.509892
000240 17 b4 65 bd f0 b1 b8 3e cd c1 a3 3e c0 9d a8 be
       -0.05607995 0.36073256 0.31983796 -0.32932854
000250 7b 73 d0 3d cd a3 15 be 89 75 84 be fe 76 07 be
       0.10178276 -0.14613266 -0.25870922 -0.13228986
000260 7c b0 85 bd 1d ff 91 be 46 49 8d be e9 12 98 be
       -0.06527802 -0.28514948 -0.27594966 -0.29701927
000270 73 bc 42 be 25 e3 1c be c5 8f 4c 3e c4 74 0e 3e
       -0.190172 -0.15321024 0.19976719 0.1391173
000280 0d 0a 5b 3d 67 25 95 be 98 aa 32 3e 12 09 7f 3e
       0.053476382 -0.29130098 0.17447889 0.24905804
000290 8a 51 50 3e 44 50 8d 3d a5 da 05 bf d4 d4 4f be
       0.20343605 0.06900075 -0.5228675 -0.20296031
0002a0 83 8a 6e be 6b a3 80 be 3f f3 8d 3e cb ec 7b 3e
       -0.23295026 -0.25124678 0.27724645 0.24602048
0002b0 e4 57 45 3e 45 af 8a 3e 26 a6 89 bd 33 db f2 bc
       0.19271809 0.27086845 -0.067211434 -0.029645538
0002c0 4a 6f 8f be 50 75 48 3d 89 2d 78 3e 5a 11 f4 bd
       -0.28014594 0.048940003 0.2423612 -0.11917372
0002d0 1f 3e bc 3e 0f 7f 78 3d 64 39 a3 bd 96 56 d0 3e
       0.36766145 0.060668048 -0.07969931 0.4069106
0002e0 15 c2 dc be 1c 90 6a be 75 56 39 be 47 0c dd 3d
       -0.43116823 -0.22906536 -0.18099387 0.10793357
0002f0 9e 87 ad 3e 0d c0 29 3e 90 43 71 3e 4d 8e bf be
       0.3389253 0.16577168 0.2356093 -0.37413254
000300 0f 12 af be 61 78 0c be 99 09 22 bd cb 57 f0 3d
       -0.34193465 -0.13717796 -0.039559934 0.11735495
000310 0b f1 6b be 9e 6c 28 3e 9f ee da be d5 e6 69 3d
       -0.2304117 0.16447684 -0.42760178 0.057104904
000320 90 5e 97 3d 81 5a 59 be 89 18 98 be 6d 5e a3 bd
       0.07391083 -0.21225931 -0.2970622 -0.07976995
000330 f3 e6 eb bd fa 19 11 3f 64 da bb bc 99 a1 57 be
       -0.115186594 0.5668026 -0.022931285 -0.21057738
000340 87 99 b8 be 6e 7e 91 be 2e e1 03 3e 49 63 56 3e
       -0.36054632 -0.2841677 0.12878868 0.20936312
000350 1a 07 85 be 06 ca ce 3e 5e 02 23 3d e7 22 c3 3c
       -0.2598198 0.40388507 0.03979718 0.023820354
000360 95 a3 95 3e 60 73 cc bd ea c2 00 bf 17 08 6b be
       0.29226366 -0.099829435 -0.50297415 -0.22952305
000370 29 85 26 3d 9d 9d 40 3e 63 de 1c be 55 f2 7b be
       0.040654335 0.18810125 -0.15319209 -0.24604161
000380 8d 17 9a be 0d ab 84 be e1 5d 17 be c7 7c a4 3e
       -0.30096093 -0.2591175 -0.14781906 0.32126448
000390 88 a8 8f bd 3c da 16 bd d1 49 f4 bd 8d 61 e7 bc
       -0.07014567 -0.03682922 -0.11928142 -0.028244758
0003a0 31 d4 a9 3e 8d c0 17 3c 5d d5 4c be 16 9e 62 3e
       0.33169702 0.009262216 -0.20003267 0.22130617
0003b0 8e d6 60 3d 57 77 29 be 5b 89 c0 3d 56 fa 09 bf
       0.054892115 -0.16549431 0.094011985 -0.5389761
0003c0 4a 09 41 3d 7b 99 cf 3e 18 ee af be 23 f1 8d 3e
       0.047128 0.40546784 -0.3436134 0.27723035
0003d0 91 cd eb bd ac f6 2a 3e 73 64 a2 be 91 30 08 bf
       -0.11513818 0.1669566 -0.31717262 -0.53199106
0003e0 52 70 1e be 6c 24 dc 3d 54 dd 69 3e 36 4f c4 bd
       -0.15472534 0.107491344 0.22838336 -0.09585421
0003f0 16 d0 4e 3e 94 a5 b5 3e b6 3e d4 be b8 be d9 3e
       0.20196566 0.3547789 -0.41454095 0.4252832

linear_layer.2.weight f4 [256, 256]
000000 ce da f6 3c eb 06 bf 3c f9 eb 29 3e 04 18 cd 3d
       0.030133631 0.023318728 0.16593923 0.10014346
000010 5a ea 4d 3e fe c9 29 bd bd d9 0e bd 22 18 a8 3d
       0.2010893 -0.0414524 -0.03487562 0.08207728
000020 67 c6 da bd 50 37 34 bd 84 7d ff 3d 02 25 30 3d
       -0.106823735 -0.043998063 0.12475112 0.043004043
000030 bd 7c 5d 3e ac 00 41 3d 80 33 81 bb 26 4f 85 3a
       0.21629615 0.04711978 -0.003942907 0.0010170683
000040 c0 66 02 3c d0 ef ee 3c 78 2a 9e bd 64 50 ca 3c
       0.007959068 0.029167086 -0.07722944 0.024696536
000050 77 67 b7 bb ef fa 48 bd 20 0f 03 be 74 db 81 bd
       -0.005597051 -0.049067434 -0.12798738 -0.063406855
000060 4a 49 12 bd 2d d3 17 3d 0e d0 10 3e 46 bb 47 bd
       -0.035714425 0.037066627 0.14141867 -0.048762582
000070 16 a6 61 3e 8f c8 2b be f8 b8 0e bf c6 9b a7 3d
       0.22036013 -0.16775726 -0.5575099 0.08184008
000080 27 23 ce 3d 3a ec ed 3d a4 06 82 3c 4c 01 bf bc
       0.100652985 0.11617322 0.015872307 -0.023316048
000090 15 e4 95 3d 80 25 dd 3c 78 df 62 bc 0a f5 a1 3c
       0.07318894 0.02699542 -0.013847224 0.019770164
0000a0 69 26 a5 3d f3 cc f4 3d f8 06 74 bc 55 42 ca bd
       0.08063967 0.119531535 -0.01489424 -0.09875933
0000b0 98 1e 51 bc b9 d8 86 3d 32 41 23 3d ca a7 97 3d
       -0.012763642 0.06584305 0.039857097 0.0740505
0000c0 83 4e 7d 3d f8 a8 9f be 30 3a 61 bd 54 21 a9 3d
       0.061842453 -0.311836 -0.054987133 0.0825831
0000d0 10 9d c8 3b e7 96 23 3e 48 82 0a bd 40 5a f7 bb
       0.006122239 0.15975533 -0.033815652 -0.0075486004
0000e0 f4 e9 6d bd 7c ef a1 3c ff 16 0c 3d e8 c8 7d 3c
       -0.058084443 0.019767515 0.03420162 0.015489794
0000f0 8c e9 18 3d 73 ae 52 bc cc a7 34 be 20 02 6c bc
       0.037332103 -0.012858975 -0.17642134 -0.0144048035
000100 16 c7 a8 3d cb 64 ed bb 09 0d 6c bc f0 11 4c 3d
       0.08241098 -0.0072446815 -0.014407405 0.049821794
000110 c0 ed c2 3d 19 64 37 bc e0 57 0c bc 9a 41 7d 3d
       0.095180035 -0.011193299 -0.008565873 0.06183014
000120 12 f0 09 3d c7 89 a6 3d d5 da bc bd e4 69 72 bd
       0.033676215 0.08131748 -0.092214264 -0.059183016
000130 04 d1 74 3d 4c 85 d3 bd c7 8e 6d 3d ac 9c cd be
       0.059769645 -0.10328159 0.05799749 -0.40158594
000140 3a c5 60 bc cc 35 70 bd c1 cd 80 3d 0c 3f 8b bc
       -0.0137188975 -0.058645055 0.062892444 -0.016997837
000150 c6 f7 c5 bd 75 83 88 be fa ec 8b 3e f4 b0 00 bf
       -0.096664 -0.26662794 0.27329236 -0.5027001
000160 40 c8 c6 3e 78 07 39 3c c6 73 2c 3e 91 77 2a bd
       0.38824654 0.011293285 0.16841039 -0.041617934
000170 64 e6 54 3d e8 ed ba bb 62 f1 c8 bd 6e 3a 44 be
       0.05197753 -0.00570463 -0.09811665 -0.19162914
000180 3f 46 86 bd cf 89 05 bd ec 57 9c 3c 8b 73 17 3e
       -0.06556367 -0.032602128 0.019084893 0.1479017
000190 44 c2 b9 bc 94 bb 19 3c d4 96 ee 3d 15 5f 0c be
       -0.02267564 0.009383101 0.11649862 -0.13708146
0001a0 1c cc c4 bc 40 62 bc 3b b6 3f 66 bd a0 d9 56 3b
       -0.024023108 0.005749017 -0.056213103 0.0032783523
0001b0 07 7e 9f 3c 7a 83 15 be 34 33 8f bd dc 0d a2 3c
       0.019469274 -0.14600936 -0.06992188 0.019782
0001c0 e7 9a f2 3d 9e 36 83 3d ee 51 52 bd 15 ee a1 bf
       0.118459515 0.06406902 -0.051347665 -1.2650782
0001d0 30 6e 7e bd 68 52 2b 3e ff 29 d9 bc 74 32 68 bd
       -0.0621168 0.16730654 -0.026509283 -0.05668874
0001e0 8d ae 13 bd 86 7e c4 3c 8a 7c 80 3d 98 85 89 bd
       -0.036055136 0.023986112 0.06273754 -0.06714934
0001f0 0e 26 44 bd 86 09 29 be ba 39 81 bc ac 4f 28 3d
       -0.047887854 -0.16507539 -0.015774596 0.041091606
000200 d4 c0 1c bd 7b 25 29 3e 92 d9 35 3d db 57 38 bd
       -0.038269833 0.16518204 0.044396944 -0.04500566
000210 94 b0 43 3d 27 ca 20 3d 56 4c 10 bd e8 3c 9c 3d
       0.04777582 0.039255287 -0.03522905 0.076288044
000220 c2 7d e9 bc 2a 25 3a 3d be 9f 85 3d f6 3c 37 bc
       -0.028502349 0.0454456 0.06524609 -0.011183968
000230 50 27 db bd a5 66 c4 be d4 af 06 be b0 05 6e bb
       -0.10700858 -0.38359562 -0.1315301 -0.0036319308
000240 9e 22 68 bd d0 ef 07 bc 34 cd 22 bd 7a 29 54 be
       -0.05667364 -0.008296922 -0.03974648 -0.20718947
000250 e8 59 26 3d 37 be 36 bc 2d c8 6c bb c4 c0 1a 3e
       0.040613085 -0.011153749 -0.0036130056 0.15112597
000260 71 a0 0a 3d 6c ea 84 3c 8a fc 62 bc e0 89 8f 3d
       0.033844415 0.016225062 -0.013854155 0.070087194
000270 51 28 60 bd f7 41 09 be 02 76 18 bd 76 51 79 3d
       -0.05472595 -0.1340407 -0.037221916 0.060868703
000280 58 12 74 3c 00 2e c5 ba 3e 19 bf bc a5 05 6c bd
       0.014896952 -0.0015043616 -0.023327466 -0.05762257
000290 4c 81 96 3d 8f 31 10 3e 4e 01 c9 be f6 d5 49 3d
       0.0734888 0.14081405 -0.39258808 0.049276315
0002a0 d4 c7 b8 bb df 24 c5 3d 9e c3 1b bd de 70 59 3d
       -0.0056390557 0.09626173 -0.038028352 0.053086154
0002b0 60 4a 86 3c aa 07 0d bd 57 49 9f bd 5c 0e bd 3c
       0.016392887 -0.034431137 -0.0777766 0.023078136
0002c0 13 a0 a3 3d 06 e1 e6 3c 14 b5 7d 3d 00 c8 4a bd
       0.07989516 0.028183471 0.061940268 -0.04950714
0002d0 b0 7c e9 bb 24 7b 5a bd 28 1b 86 bd ee 16 c4 3d
       -0.0071254596 -0.053340092 -0.065481484 0.09574686
0002e0 92 53 42 3c bf 2f d8 be 64 ed 1b 3c ed 68 7b bd
       0.011860745 -0.42223927 0.009517048 -0.061379362
0002f0 66 45 06 3e ba 74 b4 3d 2c a3 3d 3d 5d 1f 1f bd
       0.13112411 0.08811326 0.04629819 -0.03884827
000300 74 27 52 3d db 3f a9 bd 5a 47 a0 3d 80 6f 94 3c
       0.051307157 -0.082641326 0.07826109 0.018119574
000310 43 42 46 3d e4 f1 c2 bc ff b8 c6 3d c4 ba f7 bc
       0.048403036 -0.023796983 0.09703254 -0.030240424
000320 5e 8c 0f 3d be a3 a4 bc 04 3c 3f bd 76 3c c0 3d
       0.035045974 -0.02009761 -0.046688095 0.09386532
000330 a6 a7 4f bd e1 b2 22 3e f0 c7 aa bd 1a 8c 60 3d
       -0.05069699 0.1588855 -0.08338916 0.05482111
000340 f6 5b b6 3d df fc 90 3d a8 64 ab bd 3f 4a 1d 3d
       0.08904259 0.07079481 -0.08368808 0.038400885
000350 24 51 9e 3c e3 aa 94 3b 5d d0 71 3e 48 b5 16 bd
       0.0193258 0.004536973 0.2361464 -0.036793977
000360 3d 78 82 bd 7d 37 49 3d 6a e3 89 3c 1b 3e 68 3d
       -0.0637059 0.049125183 0.016832072 0.056699853
000370 89 a6 96 bd e6 f3 af bd 06 6f 07 3d d8 62 33 bd
       -0.07355983 -0.08591442 0.033064865 -0.043795437
000380 88 50 a9 bd 22 da cf bc 43 3c 0f be 25 2d 6c bc
       -0.08267313 -0.025372569 -0.13987832 -0.01441506
000390 e4 db fc bd b0 24 38 bc 56 b6 70 3d 76 a4 6c 3d
       -0.12346628 -0.011239216 0.05876764 0.05777403
0003a0 90 bb 8e bc a5 04 4d 3d 6f d4 cc bd cc 25 2e 3e
       -0.017423421 0.050053257 -0.10001456 0.17006606
0003b0 cc a3 0f 3d 6a 2d d3 3d 66 d4 48 bd 05 fd ad 3c
       0.03506832 0.103113964 -0.049030684 0.021238813
0003c0 c7 29 76 3e 7f e4 67 be 00 ab 61 bd 15 0b 51 bd
       0.24039374 -0.22645758 -0.05509472 -0.05103596
0003d0 d7 0c 36 bd ab 67 ef bb 9a 13 3b be 4d be e0 3c
       -0.04444584 -0.0073060594 -0.18269196 0.027434492
0003e0 3e 37 b4 3c 0a 9a 8d bb 3f 62 b1 3b 27 a9 4b bc
       0.021998998 -0.0043213414 0.005413323 -0.012430466
0003f0 02 0d 8f 3c 40 45 56 3d 4b d9 9a bd 7b 27 9a 3d
       0.017462257 0.052312136 -0.075609766 0.075270616

linear_layer.2.bias f4 [256]
000000 69 ae cc 3e 6f de 40 bc d2 fb 2e 3d a1 f0 27 3d
       0.39976814 -0.011771782 0.042720623 0.041000966
000010 99 1f 86 bd 9e f1 76 3c 58 62 b8 bd b3 ef f5 bc
       -0.065489955 0.015072254 -0.090031326 -0.030021524
000020 ea 4a 06 bd 68 02 a2 3e cc 79 59 bd 31 03 74 3c
       -0.032786287 0.3164246 -0.05309467 0.014893339
000030 22 c5 9a 3d 79 f1 ac bb 17 5d 9a 3d 90 b3 45 3d
       0.07557131 -0.005277809 0.07537287 0.048266947
000040 2d b8 23 3c 16 a5 33 3d 86 09 f4 3c cc 6c b3 bc
       0.009992641 0.04385861 0.029789697 -0.021902464
000050 38 43 83 bd 45 56 12 bd e2 fe 08 3d 5b 73 27 3d
       -0.06409305 -0.035726804 0.0334462 0.040881496
000060 63 81 77 bd 93 70 88 bd 97 a1 3b bd 40 79 54 3c
       -0.060426127 -0.06662097 -0.0458084 0.012968361
000070 c3 bc 4f bd 0f da bf 3c 24 c6 08 3c d6 ed c2 3e
       -0.050717127 0.023419408 0.008348022 0.3807208
000080 06 3d 1b 3d fa 24 14 3d 29 5c a4 3b ba 51 58 be
       0.037899993 0.036168076 0.005015869 -0.21124926
000090 84 98 d6 3c 30 9f a7 3e 19 62 16 3c 1c c3 b0 ba
       0.026195772 0.32738638 0.009178662 -0.0013485881
0000a0 72 0c c1 bd 44 5d 96 bd 28 5e ea bc d5 30 f1 3c
       -0.09426202 -0.07342008 -0.02860935 0.02944223
0000b0 89 dd 09 3b 14 f2 e5 3c 9f 2b a7 3c f8 00 57 3c
       0.0021036586 0.028069533 0.020406542 0.01312279
0000c0 a8 d8 3c bd 61 2e 92 ba f8 c2 87 bd 51 02 1d 3e
       -0.046105057 -0.0011152738 -0.06628984 0.15332915
0000d0 44 89 68 bd cc 8b 93 bd 83 e4 a8 bd c0 0f 11 bd
       -0.05677153 -0.072043985 -0.0824671 -0.03541541
0000e0 03 f8 d1 bb a5 e7 13 3e b9 fd 4d bd 04 ed a3 bc
       -0.006407739 0.14443834 -0.050290797 -0.020010479
0000f0 e4 dc 0d bd 48 dd df bc 00 a9 89 bd 12 8b 2e bd
       -0.034634486 -0.027327195 -0.06721687 -0.042613097
000100 cc ff 26 3d ff 06 46 bd db cc 57 3e 28 99 04 bd
       0.04077129 -0.048346516 0.2107424 -0.032372624
000110 6f 51 fc 3d 89 22 85 bd 36 32 c2 bb a6 47 b1 bd
       0.1232022 -0.06500728 -0.0059263958 -0.08656244
000120 c1 95 18 3d c6 67 8a bd 33 e2 74 bd 2d f8 ca bc
       0.03725219 -0.067580745 -0.059786033 -0.024776543
000130 08 16 13 3c fe dc 68 bd 21 a9 9c bc a5 ec 08 bd
       0.008977421 -0.05685138 -0.019123616 -0.033428807
000140 ab 97 2c bd 44 b7 84 bd f2 a0 d1 bc 49 f7 a8 3d
       -0.04213683 -0.06480268 -0.02558944 0.08250291
000150 cc cc a2 3c d8 cd 0d bd ba 65 97 3a ef b8 ab 3c
       0.019873045 -0.034620136 0.0011550703 0.020962207
000160 c3 4f a5 be 98 f9 8b bd 9a b4 12 3d bd be 99 bd
       -0.32287416 -0.068347156 0.035816766 -0.075070836
000170 d7 05 f8 3c 84 b5 dc 3c 6b 4e 18 bd 1c 84 0d 3d
       0.030276222 0.026942022 -0.03718416 0.034549817
000180 2f 5b da 3c 0e 6a 3c bd 1a 14 2a 3d 3c 0f 28 bd
       0.026654808 -0.04599958 0.041523077 -0.041030154
000190 68 64 4f bd df cf 35 3d 45 8e 19 3c f6 9f 4d be
       -0.050632864 0.044387694 0.009372299 -0.20080552
0001a0 7b 81 61 bd 94 b3 1f 3c 8a 59 af 3e be fb a8 bd
       -0.055055123 0.009747405 0.34248 -0.08251141
0001b0 f6 1e b2 bc f7 97 a9 3e 5f e4 5a bd e3 e2 81 bd
       -0.021743279 0.33123752 -0.053440448 -0.06342103
0001c0 f2 de 60 bd ea 6c 3d bd 5d 99 6d 3d 98 b9 94 bd
       -0.054900117 -0.046246447 0.058007587 -0.07261962
0001d0 c5 e7 93 3c 70 1a cf 3b 3a 51 81 bc a8 95 cc 3e
       0.018054852 0.0063202903 -0.015785802 0.3995793
0001e0 9e a0 f5 bd 06 dd 5e bd 00 79 68 bd ab ff a4 bd
       -0.11993526 -0.054410003 -0.05675602 -0.08056577
0001f0 39 f1 d5 3e 50 dc 14 3d ee 8b 81 bb 3f 26 cd 3e
       0.417856 0.03634292 -0.0039534485 0.40068242
000200 aa f1 d0 3c 40 d2 31 bd c0 86 51 bd 9a 44 15 bc
       0.02550586 -0.0434134 -0.0511539 -0.009110594
000210 bc bb 9a bc 84 58 a3 bd c8 f8 91 3e fa 3e 58 ba
       -0.018888347 -0.079758674 0.28510118 -0.00082491303
000220 a1 f9 98 3a 0b b4 91 bc 85 25 9a bd 76 dc a2 3e
       0.0011671075 -0.017786046 -0.075266875 0.31808823
000230 e8 36 11 3d 42 97 02 3e e5 47 bd 3c 21 36 9f bd
       0.035452753 0.12753013 0.023105571 -0.07773996
000240 31 b8 a0 3e 7d 98 81 3c c4 1a fb 3c 94 f9 f2 bd
       0.31390527 0.015819782 0.030652411 -0.118640095
000250 6c 49 90 bc ae aa b8 3b 1b 3d 88 bc a1 c8 03 3c
       -0.017613135 0.005635581 -0.0166307 0.008043439
000260 2c 55 85 bc da c6 27 3d bc 2b 98 3c f8 e9 b6 3c
       -0.016275965 0.040961124 0.018575542 0.022328362
000270 69 3c 86 bc 29 ce af 3e a9 ce 70 bc 82 69 4b bc
       -0.016386228 0.34336975 -0.014697709 -0.012415292
000280 f9 38 1c 3d 3e c3 c2 3e 90 c8 42 bd ca 17 97 bd
       0.03814027 0.38039583 -0.047554553 -0.07377584
000290 9f 8d 01 bd 59 9a 69 3b b9 d5 d9 bc 79 b6 1f bd
       -0.0316292 0.0035644977 -0.026591169 -0.03899238
0002a0 43 39 40 be 84 e4 0a 3e 7c 38 8f 3e 92 51 8d 3e
       -0.18771844 0.13563734 0.27972782 0.27601296
0002b0 e4 bd c4 bc 79 02 3e bd 50 1a 68 3c 1a 18 f7 bc
       -0.024016328 -0.046389077 0.01416643 -0.03016286
0002c0 0c 80 fa bc cd 21 55 bd 70 2b 4f bb 8d a6 7e bd
       -0.030578636 -0.052034188 -0.0031611584 -0.062170554
0002d0 fa d7 3b bd 24 23 95 3e 42 67 e6 bd 7b 7f 82 bc
       -0.04586027 0.29128373 -0.112501636 -0.015929928
0002e0 f4 da 78 bd 26 78 82 be fd 39 39 3d f7 8e 52 bd
       -0.060755685 -0.2548229 0.045221318 -0.051405873
0002f0 51 ce 0a 3d 14 f0 59 bc 19 e1 2b bc 1a 3a f1 3c
       0.033888165 -0.013301868 -0.010490679 0.02944665
000300 72 d9 e9 3b 03 ed 4c bd 73 ff 5f bd 22 46 6f 3c
       0.007136517 -0.05003072 -0.054686975 0.014604123
000310 51 ec 91 3e f6 2c 88 3d 71 7f 92 be da 0d 23 be
       0.28500608 0.066492006 -0.28612855 -0.15923253
000320 c7 72 10 bd f1 4b 44 3c 38 45 9c bd 02 96 c6 bd
       -0.03526571 0.0119809965 -0.0763039 -0.096965805
000330 49 9e fb 3e 21 50 39 be d0 36 a2 3e 9d 37 61 bd
       0.491442 -0.18096973 0.31682444 -0.054984678
000340 f8 de 01 bd b8 c5 8e bc c3 a0 0a 3d fd 51 20 3c
       -0.03170678 -0.017428264 0.03384472 0.0097851725
000350 57 01 55 bd ff 3c c9 3d e4 32 57 bb f0 7d 4c bd
       -0.05200323 0.09826087 -0.003283673 -0.04992479
000360 35 79 85 bd be 00 91 bd 71 b1 d3 bc aa 30 f8 bc
       -0.06517259 -0.0708022 -0.025841447 -0.030296642
000370 12 b9 ee ba 70 1b d7 bc b9 5c aa 3e 70 42 ec bd
       -0.0018213114 -0.0262582 0.33273867 -0.115361094
000380 d6 a8 74 bd c8 05 0c 3e 86 cf 8f bc 8d cf 68 bd
       -0.059731327 0.1367408 -0.01755501 -0.05683856
000390 44 42 b5 bd 9f 62 71 3e f6 0b ef 3b ad 76 97 bd
       -0.0885053 0.23572777 0.007295127 -0.073956825
0003a0 19 34 7e bd c8 cc 9a bc 62 35 68 3e 7e a1 cf bc
       -0.062061403 -0.018896475 0.22676614 -0.02534556
0003b0 60 52 46 bd e7 71 27 bd 2d 92 06 bb e6 1e 0a 3c
       -0.048418403 -0.04088011 -0.0020533905 0.008430218
0003c0 c0 75 96 3e 20 8c aa 3e 5a ee 26 3d a7 0b eb 3a
       0.2938671 0.33310032 0.040754654 0.001793255
0003d0 38 8e a3 bd 87 f9 da bc 34 57 f9 3b 11 d6 5a bd
       -0.079861104 -0.026730312 0.0076092724 -0.053426806
0003e0 17 eb 7b bd 9f ab cc 3e 49 8a d3 3d 74 41 c6 bd
       -0.061503496 0.39974687 0.1032911 -0.09680453
0003f0 2e ab 26 bd 8e 4d cc 3d 68 e7 88 bd 99 34 1c 3c
       -0.040690593 0.0997573 -0.06684762 0.009534025

linear_layer.4.weight f4 [1, 256]
000000 44 25 0b 3e 6c b4 a8 bb 28 7e 4c bb a3 7e b6 3c
       0.13588434 -0.005148461 -0.0031203125 0.022277182
000010 63 d8 1b 3d c1 36 39 3d f6 07 71 bc 54 a3 36 bc
       0.03804816 0.045218233 -0.014711371 -0.011147339
000020 86 23 22 bd 35 db 05 3e 4d 75 7f 3b 86 00 08 3d
       -0.03958466 0.13071902 0.0038979829 0.033203624
000030 a9 80 c8 3d fd 83 09 bd a6 57 9a 3d ef 73 4a bd
       0.09790165 -0.03357314 0.07536249 -0.04942697
000040 f2 6a 46 3c 0c 8f e8 bc 3d 1b 78 bd fc 4e f9 3c
       0.012110459 -0.028388523 -0.06057285 0.03043317
000050 d0 d3 90 3a 53 1b b2 bc ed 8b 76 bd ba ba 1f 3d
       0.0011049453 -0.021741545 -0.060192037 0.038996436
000060 63 38 1c bd e1 36 06 3c dd 31 04 3c b0 ef 47 3d
       -0.038139712 0.008191795 0.008068529 0.04881257
000070 ef a6 52 bf 6f 81 2a 3d e6 57 20 3b 85 df 3a 3e
       -0.8228597 0.041627344 0.0024466454 0.18249328
000080 cc 12 e7 39 18 21 28 bc c7 0c a5 3b f3 4d 6f be
       0.00044073758 -0.010261796 0.0050369236 -0.23369579
000090 7e 03 d0 3b 80 f4 11 3e f4 aa ff bc 5a 68 3a 3d
       0.0063480726 0.14253426 -0.031209446 0.045509674
0000a0 9d d7 91 3c 59 98 00 bd 9f 26 13 bd d7 ed e5 3b
       0.017803008 -0.03139529 -0.035925504 0.007016878
0000b0 ee c4 2f bc 40 d8 9a bb e5 3e 3d bd 89 7b 5c ba
       -0.010728104 -0.004725486 -0.04620256 -0.0008410742
0000c0 bf 89 42 3c 87 11 a4 3b 8d 2b 38 3d e8 c9 a7 3e
       0.011873662 0.0050069722 0.04496341 0.3277123
0000d0 5a 0b 0e 3e 56 c8 eb bb 25 93 f1 3c 21 1f ea 3b
       0.13871518 -0.0071955128 0.02948911 0.007144824
0000e0 15 57 2c 3d 3e 69 f8 3d b7 c6 4b bd ba 99 43 3d
       0.042075235 0.12129448 -0.049750056 0.047754027
0000f0 db 16 be 3a 58 70 1b 3d 8c 2f 52 bd 03 ee 16 bd
       0.0014502661 0.037948936 -0.051314875 -0.03684808
000100 b7 c6 42 bd a7 1b eb bc c1 c7 24 3e 3a 2d 20 bb
       -0.04755279 -0.02869971 0.16091825 -0.002444102
000110 dc 39 89 3d 8e 0e aa 3c e9 29 36 be 42 a1 97 bb
       0.06700489 0.020758893 -0.17789425 -0.0046273777
000120 5d 80 e3 3b ad 0a c9 3c ce ef 51 3c c6 13 c4 3b
       0.0069427923 0.024541223 0.012813522 0.0059838025
000130 ce ac 33 bd 5c a1 8d 3a 96 95 fd bb 54 bd 49 3d
       -0.04386597 0.0010805535 -0.0077387793 0.049252823
000140 7b 4d 82 bb 42 79 36 bd d4 86 97 3b 8b 05 73 3a
       -0.0039765215 -0.044549234 0.004624227 0.00092705403
000150 e9 87 b9 3d b8 3c 19 3c 1d 26 e0 3b 4c b3 ff bb
       0.09059126 0.009352855 0.006840481 -0.0078033563
000160 2b 11 a8 be 20 8e 47 bc 20 38 44 bd 00 92 f4 bb
       -0.32825598 -0.012179881 -0.047905087 -0.0074636936
000170 f9 86 8d bb 61 74 e0 bc 1c 95 13 3d 68 a8 95 3c
       -0.0043190685 -0.027399244 0.036030874 0.018268779
000180 c8 b2 11 3d 5e c6 a4 3b 40 d2 90 ba cc fe 19 3b
       0.03557089 0.00502853 -0.0011048988 0.0023497818
000190 80 42 de 3c f0 30 ba bb d9 b6 25 3d 11 0f ce be
       0.027131319 -0.0056821033 0.04045758 -0.4024587
0001a0 3a da 1c 3c 3c 4f e4 3a b9 dc 3d 3e f3 9f a4 bc
       0.009573514 0.0017418633 0.1854123 -0.020095801
0001b0 b7 84 1f bd df d1 c1 3e a3 05 33 3d 3d c5 11 bf
       -0.038944926 0.3785543 0.043706547 -0.56941587
0001c0 90 d0 74 3d 02 41 97 3b d2 09 21 3c 11 a6 df 3b
       0.059769213 0.004615904 0.0098290015 0.0068252166
0001d0 dd 58 f3 3b b4 d1 2e b9 cf 0c d8 3c 93 80 2a 3e
       0.007426365 -0.00016672054 0.026373295 0.1665061
0001e0 9e 78 d6 bd 3f b1 03 be 86 64 af 3e 41 7f c2 bc
       -0.10472225 -0.12860583 0.3425638 -0.02374232
0001f0 45 3c 5b 3e b2 5a 99 bc 91 93 d3 3c 27 f8 f1 3d
       0.2140971 -0.018720005 0.025827201 0.118149094
000200 27 73 5c bd 53 0a 84 3a 61 93 81 bb a2 02 ec 3b
       -0.053820755 0.0010073878 -0.0039543365 0.0072024623
000210 30 87 56 3d 00 7b e7 3c a1 b6 14 3e 52 b9 92 3e
       0.05237502 0.028256893 0.14522792 0.28657013
000220 ad df 59 3d a3 fb 4c 3c 99 6e 5b bd 16 44 21 3e
       0.05319183 0.012511167 -0.05357227 0.15748629
000230 8e 99 1d 3e 01 59 8e 3c b8 fc ca 3c 53 e2 82 bc
       0.15390608 0.017376425 0.024778709 -0.01597706
000240 03 8e e5 3d 4b 25 f8 3c c4 7d f3 bb 42 25 8d bf
       0.11208727 0.03029122 -0.007430764 -1.1026995
000250 90 c3 c0 3c 0d 52 26 3c 2e 3e 59 3d 29 90 93 3b
       0.023530751 0.010151398 0.053037815 0.004503269
000260 a8 5f 07 bd 30 e4 1a 3b 48 24 2e bc 90 f1 52 ba
       -0.03305021 0.0023634546 -0.010628767 -0.000804686
000270 65 95 13 3a f0 c8 11 3e c1 72 bf bb 0a ad ce 3b
       0.00056298665 0.14236808 -0.005842537 0.006307249
000280 fc 6a 8a bc ec 23 cf 3d 38 ec e0 3c 6b 80 1b 3c
       -0.016896717 0.101142734 0.027456388 0.009491066
000290 15 35 05 bd c0 af fe bc 13 3e 71 3c 86 e8 d1 3c
       -0.032521326 -0.031089664 0.014724272 0.025623571
0002a0 83 2c 53 3f 21 62 e4 3d 3c dd f7 3d 36 76 df 3d
       0.82489794 0.11151529 0.12102744 0.10911219
0002b0 e1 f9 1c 3b b9 23 5e be 8a c9 44 3b 4d fb 6c bd
       0.002395265 -0.21693315 0.0030027353 -0.057856847
0002c0 d4 2c 7f bd 45 59 31 bd 65 99 5d 3c b6 91 9e bc
       -0.06229861 -0.043298025 0.013525342 -0.01935659
0002d0 9b fb 3f bc 05 58 4f 3e 59 fb 37 bc f1 4d 39 3c
       -0.011717702 0.2024842 -0.01122936 0.011310087
0002e0 92 43 8b 3a d6 30 81 be 8f b0 c2 b7 d2 4c 4d 3d
       0.0010624996 -0.2523257 -2.3208819e-05 0.05012209
0002f0 f2 4a 2c 3a fc 7a 23 bd 8e f0 0b bd 35 a5 7b 3b
       0.0006572447 -0.03991221 -0.034164958 0.0038398032
000300 77 5b c7 bb 8c 3b 18 bc 1a 2b ee bc ee 9b 20 3d
       -0.0060839015 -0.009291541 -0.029073287 0.039211206
000310 f4 80 f8 3d 72 24 84 3d ff 1a 15 bf c8 27 8d 3f
       0.12133971 0.06452264 -0.5824432 1.1027765
000320 70 a9 61 bd 02 9d c2 3c b0 39 a4 3c 97 53 20 bb
       -0.05509323 0.023756508 0.020047039 -0.0024463886
000330 45 e7 61 3e 16 68 56 bf 50 3e 1e 3e a6 30 10 3d
       0.22060879 -0.8375257 0.15453458 0.035202645
000340 bc 5a 00 bc 47 dd a4 bc 98 7a 30 be 7b 2f 51 3b
       -0.007834133 -0.020125045 -0.17234266 0.003191917
000350 93 4a bb bc e3 cc 0e 3e 60 06 7a bc e0 67 3f 3f
       -0.022862708 0.13945346 -0.015260309 0.74767876
000360 94 df 69 3c b0 3c 2e bd 04 60 90 be 86 73 1f bd
       0.014274497 -0.042538345 -0.28198254 -0.03892853
000370 27 75 25 bd 03 51 ab 3c f5 e2 28 3e 9f cb 02 bc
       -0.04039493 0.020912653 0.16492827 -0.007983117
000380 d3 5b 06 bd 15 d9 ff 3d d5 0b f9 3b af 28 c8 3c
       -0.032802414 0.12492577 0.0076002874 0.024433462
000390 0a f9 a2 bf 19 8f 5c 3f 1a ab a7 3b 15 c1 ae bc
       -1.2732251 0.8615585 0.0051168324 -0.021332303
0003a0 89 2e 59 bd b0 2f 90 bb c8 44 c4 3d d9 97 68 3d
       -0.053022895 -0.004400216 0.095834315 0.05678544
0003b0 90 64 b5 3b ad 06 66 bb 89 40 d7 3a 86 03 23 bc
       0.0055356696 -0.0035099194 0.0016422431 -0.0099495705
0003c0 e5 ce 36 3e 4c f5 0d 3e 91 58 1a 3c a3 17 2f 3c
       0.17852362 0.13863105 0.00942053 0.010686788
0003d0 06 f5 0a bd 87 ad f3 ba fb 0e 6f 3c 3e bf 0f bd
       -0.03392508 -0.0018591144 0.014590974 -0.035094492
0003e0 96 c7 71 bf be 83 52 3e a3 77 3c 3e ce 83 c7 bb
       -0.9444517 0.20558068 0.18405013 -0.0060887104
0003f0 3a a6 a3 bc e0 47 52 3f c7 66 52 3f 64 2d da 3d
       -0.019976724 0.8214092 0.82188076 0.10653189
