data/Apr-13_05-51-52/models/critic_400.pth (torch, 274455 bytes, 5 tensors)

linear_layer.0.weight f4 [256, 7]
-0.3141321 0.30175364 -0.33267766 -0.20531665 -0.2057991 -0.329351 -0.25682828 -0.23499914
-0.17079298 0.06143872 0.14886712 0.2041742 0.09668065 0.1556995 -0.036542505 0.25277767
0.15941006 -0.048188727 -0.2223928 0.22680342 0.25516385 -0.14542606 0.06230716 0.26211017
0.23884583 -0.13815321 0.14344724 -0.19063862 -0.34698474 0.20021243 0.35814965 0.31189758
0.15781495 0.32401142 0.09784302 -0.2797777 -0.34482598 -0.08634839 -0.13244902 -0.35069996
-0.21074952 -0.34828213 -0.014224078 0.25104803 -0.41359475 -0.33740517 0.25633565 -0.103175394
0.13168162 0.32603613 0.054414544 -0.45183244 -0.17629302 -0.09566609 0.30493054 -0.09876799
-0.30687657 -0.12021669 0.3100437 -0.12303453 0.16395275 0.1099775 -0.021246508 0.30672222
-0.08834366 -0.26648208 -0.24432376 -0.15735978 -0.3523136 0.16992861 0.21521746 0.0058787577
-0.30202678 -0.02892561 -0.9326432 0.14254692 0.23043238 0.137981 -0.17450897 -0.019676562
-0.0865074 0.2638715 0.1860129 0.10533491 0.07767231 -0.2929872 -0.37179777 0.3392395
-0.22980724 -0.07361147 -0.13518994 -0.31418556 -0.29109198 0.10549432 0.013148768 -0.13985735
0.00033634956 -0.2834977 0.04401318 -0.2800896 -0.34370577 0.06632381 0.041988187 0.21371917
0.3613811 -0.23447108 -0.28678757 0.1644983 0.28085056 -0.24045062 0.026722642 0.13808592
-0.36099997 -0.03477733 -0.09957835 -0.010982433 0.051648922 -0.26676905 -0.22298558 -0.20407502
-0.19182122 -0.16803412 0.26810926 0.21516897 -0.24996027 0.14277866 -0.043614145 0.07766509
-0.21448009 0.19676487 -0.21481037 0.10541583 0.28531373 -0.11335413 -0.35526374 0.04367174
-0.2405756 0.004342041 0.18947245 0.22043931 -0.49522737 0.20400687 -0.17177132 0.38528544
0.8043747 0.25704563 -0.18359175 0.013495655 0.23981868 -0.3710855 0.33762622 -0.029294608
-0.3693742 0.17065275 0.27693808 -0.08086807 -0.24551176 0.20428969 -1.0077795 -0.17446166
0.18515868 -0.21293633 0.21844877 -0.16565892 0.0010132962 0.7234212 -0.010949241 -0.43324143
0.12428601 -0.2780053 -0.24737121 0.052325044 0.015693175 -0.07495603 0.36998862 -0.4394021
0.050863646 0.19346848 -0.08658263 0.3308966 0.010530506 -0.2162504 -0.19240701 -0.0834337
0.36892232 0.05952974 0.24613908 0.30787867 0.022732014 0.14106488 -0.36397943 -0.31520572
-0.24538124 -0.20272598 -0.26804578 -0.13972723 -0.105416544 0.33021352 0.19743426 0.18267263
-0.06062553 0.15610129 -0.15567179 -0.15778211 0.31313878 -0.17479247 -0.41048297 0.48614395
0.053557817 -0.096664175 0.087987736 0.25507402 -0.5187885 -0.047870316 0.28341988 -0.2124557
0.17461102 -0.14698586 0.057712793 0.37965664 -0.24276939 -0.2908276 -0.38238224 -0.036629133
0.1884999 -0.11597082 -0.17282608 0.14441642 -0.75585926 0.29166368 0.21621971 0.056289755
0.16919792 0.17861207 -0.47460166 0.27437377 -0.39120686 0.09200573 -0.3016915 -0.06186656
0.1586713 -0.35899132 -0.19131699 0.23285975 -0.3144097 -0.10847163 -0.09690801 -0.17087333
0.13835497 0.030776279 0.19490907 -0.08486503 -0.07960043 0.107547894 0.045771245 0.1357728
00000000: ecd5 a0be 747f 9a3e ba54 aabe 873e 52be
00000010: 00bd 52be b2a0 a8be ff7e 83be 9da3 70be
00000020: 5be4 2ebe 2ba7 7b3d 9f70 183e 0b13 513e
00000030: 8100 c63d b16f 1f3e 98ad 15bd 136c 813e
00000040: 643c 233e 8b61 45bd f0ba 63be 283f 683e
00000050: d6a4 823e 92ea 14be cb35 7f3d 4e33 863e
00000060: 0094 743e 0978 0dbe d5e3 123e c536 43be
00000070: fca7 b1be 7d04 4d3e 645f b73e 0ab1 9f3e
00000080: 3e9a 213e d3e4 a53e ec61 c83d 063f 8fbe
00000090: 088d b0be 6dd7 b0bd b7a0 07be f28e b3be
000000a0: b9ce 57be 0952 b2be 1b0c 69bc 5e89 803e
000000b0: b1c2 d3be 5fc0 acbe 6d3e 833e 9f4d d3bd
000000c0: 8cd7 063e 35ee a63e c9e1 5e3d 9556 e7be
000000d0: 2886 34be 95ec c3bd db1f 9c3e df46 cabd
000000e0: ed1e 9dbe 2b34 f6bd 0cbe 9e3e 87f9 fbbd
000000f0: 3be3 273e e23b e13d 280d aebc b20a 9d3e
00000100: 85ed b4bd 5770 88be 0230 7abe ec22 21be
00000110: 7362 b4be c401 2e3e f761 5c3e 98a2 c03b
00000120: 41a3 9abe 67f5 ecbc b4c1 6ebf d2f7 113e
00000130: 77f6 6b3e e44a 0d3e 7bb2 32be be30 a1bc
00000140: cb2a b1bd 2a1a 873e 2a7a 3e3e d4b9 d73d
00000150: a912 9f3d 6b02 96be 475c bebe cdb0 ad3e
00000160: 9752 6bbe 9cc1 96bd 3b6f 0abe eedc a0be
00000170: 020a 95be 680d d83d ee6d 573c c436 0fbe
00000180: 1358 b039 9c26 91be 2a47 343d e767 8fbe
00000190: 34fa afbe c7d4 873d cefb 2b3d 33d9 5a3e
000001a0: f206 b93e 3019 70be d2d5 92be 3e72 283e
000001b0: a5cb 8f3e b038 76be 71e9 da3c 6566 0d3e
000001c0: fdd4 b8be ac72 0ebd bcef cbbd aaef 33bc
000001d0: d28d 533d f495 88be 5556 64be 0bf9 50be
000001e0: c86c 44be 2311 2cbe 9e45 893e 4155 5c3e
000001f0: 96f5 7fbe 9234 123e bfa4 32bd e00e 9f3d
00000200: aba0 5bbe bb7c 493e 40f7 5bbe 41e4 d73d
00000210: a414 923e 3626 e8bd 21e5 b5be 23e1 323d
00000220: 7359 76be ae47 8e3b 1105 423e d8ba 613e
00000230: 718e fdbe 2de7 503e d2e4 2fbe 2244 c53e
00000240: 80eb 4d3f 7c9b 833e 7aff 3bbe e11c 5d3c
00000250: 0793 753e ebfe bdbe 58dd ac3e 3ffb efbc
00000260: 9d1e bdbe 98bf 2e3e d4ca 8d3e 299e a5bd
00000270: 6f67 7bbe 5131 513e ebfe 80bf 14a6 32be
00000280: 3d9a 3d3e fb0b 5abe 09b1 5f3e 7ea2 29be
00000290: 94d0 843a 2232 393f 7264 33bc d2d1 ddbe
000002a0: aa89 fe3d b656 8ebe e14e 7dbe c952 563d
000002b0: f98e 803c 8c82 99bd 266f bd3e 50f9 e0be
000002c0: 6656 503d 9a1c 463e 3c52 b1bd 476b a93e
000002d0: 2588 2c3c bf70 5dbe 5806 45be 4adf aabd
000002e0: 63e3 bc3e 75d5 733d e20b 7c3e 46a2 9d3e
000002f0: 7d38 ba3c 5073 103e 835b babe a562 a1be
00000300: 3845 7bbe 6697 4fbe 4c3d 89be a814 0fbe
00000310: a1e4 d7bd bf11 a93e 352c 4a3e 890e 3b3e
00000320: 7a52 78bd 04d9 1f3e 6d68 1fbe a291 21be
00000330: ba53 a03e ccfc 32be d32a d2be dce7 f83e
00000340: 715f 5b3d def7 c5bd ea32 b43d 1099 823e
00000350: 53cf 04bf aa13 44bd 691c 913e fd8d 59be
00000360: 3bcd 323e 7683 16be 4064 6c3d 5b62 c23e
00000370: 8a98 78be 5be7 94be 9bc7 c3be 6e08 16bd
00000380: 1e06 413e 1c82 edbd 52f9 30be e6e1 133e
00000390: fe7f 41bf f154 953e b368 5d3e 1690 663d
000003a0: 3842 2d3e 15e6 363e fdfe f2be b87a 8c3e
000003b0: 444c c8be 806d bc3d 4f77 9abe ca67 7dbd
000003c0: bb7a 223e b6cd b7be 9ae8 43be c972 6e3e
000003d0: 4ffa a0be 6026 debd b577 c6bd 6bf9 2ebe
000003e0: edac 0d3e 891e fc3c 3e96 473e b8cd adbd
000003f0: 8d05 a3bd 1242 dc3d a17a 3b3d 0608 0b3e

linear_layer.0.bias f4 [256]
0.16860232 -0.4054268 0.10403139 0.29944146 -0.03552288 -0.073287934 -0.27454495 0.10207098
-0.14357837 0.1020951 0.23199625 0.2878938 -0.27990755 -0.18361615 0.10136715 0.0469879
-0.07098648 -0.032009214 -0.30526137 -0.020416938 -0.14095493 0.17525066 0.15985575 -0.18441178
-0.30404708 0.26915535 -0.05213076 0.19932108 0.09756394 -0.24005428 -0.1482362 0.41632724
0.33747444 0.25752848 0.050027594 0.04090718 0.21161361 0.24684002 0.2467232 -0.33181033
-0.39868015 -0.04714243 -0.16452496 -0.029277103 0.15813527 -0.22752236 0.2032578 0.0583969
0.34464332 -0.37248644 -0.09206213 -0.1244951 0.034834146 0.12426571 0.250512 -0.09661753
-0.28072578 -0.0702958 0.045699853 0.090667814 0.2673515 0.17863514 -0.029310483 -0.28771934
-0.20675167 -0.23341313 0.044360578 0.016527498 0.37441304 -0.387451 -0.32399276 -0.04608731
-0.090020314 0.3141174 -0.21345769 -0.009830824 0.066468336 -0.21990252 -0.13517463 -0.071290456
-0.1783823 0.18341136 -0.45187393 -0.02028786 -0.075470425 -0.25727028 0.22645614 -0.19447912
0.20332167 0.067295596 -0.067287795 -0.11935787 0.10794239 -0.3080856 -0.32856783 0.106236294
-0.09075442 -0.30127472 -0.25693908 0.066903695 0.08715288 0.07336417 -0.44501716 -0.3902301
-0.11609449 -0.3669443 0.17962784 -0.2709856 -0.063801005 0.3707948 -0.15033427 0.13006388
-0.15375268 -0.12372851 0.37722048 0.21761543 0.24947555 0.11895629 0.18612404 -0.33825636
-0.2808133 -0.19165741 -0.2594679 0.15369812 0.37438637 -0.31443214 0.27466944 -0.31443185
-0.3928037 0.21850093 -0.088112324 -0.5465158 -0.22522062 -0.20146136 0.19298783 -0.32139146
-0.38815787 0.18410423 -0.25533426 -0.06451436 -0.394135 -0.25114912 -0.31486174 -0.45339704
-0.05607995 0.36073256 0.31983796 -0.23473585 0.10178276 -0.09028526 -0.25870922 -0.13633059
-0.06527802 -0.28514948 -0.27594966 -0.2255557 -0.08584637 -0.22530927 0.19976719 0.1391173
0.053476382 -0.29130098 0.21026416 0.18969299 0.14058189 0.094478354 -0.40279004 -0.20296031
-0.20916308 -0.26407546 0.27724645 0.24602048 0.29143676 0.27086845 -0.067211434 -0.08217253
-0.33428377 0.07277312 0.2423612 -0.11917372 0.36766145 0.060668048 -0.0843596 0.30896014
-0.3930141 -0.08588914 -0.15539034 0.0014428834 0.3027379 0.26397392 0.2356093 -0.37413254
-0.3299549 -0.020180803 -0.13224633 0.23441346 -0.27373338 0.16447684 -0.40076718 0.057104904
0.16081907 -0.30913472 -0.2970622 -0.0579837 -0.115186594 0.48436877 0.081728704 -0.21057738
-0.34135953 -0.26441482 0.16560033 0.29155535 -0.2598198 0.35357648 0.0028138985 0.023820354
0.21060722 -0.2612634 -0.4943151 -0.32940897 0.040654335 0.13204329 -0.11039912 -0.24604161
-0.3446585 -0.21178569 -0.08790985 0.31585425 0.026473261 -0.03682922 -0.090054475 -0.028244758
0.33169702 0.10680198 -0.23944137 0.22606817 0.054892115 -0.12554571 0.094011985 -0.453623
0.031155424 0.27341518 -0.3436134 0.27723035 -0.09717301 0.011723602 -0.15880984 -0.5104033
-0.15472534 0.1576023 0.26328722 -0.09585421 0.2184192 0.32409236 -0.41454095 0.37810037
00000000: 16a6 2c3e 1a94 cfbe 690e d53d 6450 993e
00000010: 7080 11bd fc17 96bd 2891 8cbe 970a d13d
00000020: 3506 13be 3c17 d13d 6d90 6d3e d166 933e
00000030: 0b50 8fbe df05 3cbe 9599 cf3d 6276 403d
00000040: 5c61 91bd 181c 03bd 384b 9cbe 6c41 a7bc
00000050: 7d56 10be e974 333e 3ab1 233e 71d6 3cbe
00000060: 0fac 9bbe bbce 893e 1087 55bd d31a 4c3e
00000070: 9acf c73d cad0 75be 3bcb 17be d828 d53e
00000080: 73c9 ac3e c6da 833e bce9 4c3d 4a8e 273d
00000090: 3db1 583e a1c3 7c3e 02a5 7c3e 0be3 a9be
000000a0: ce1f ccbe 6c18 41bd 3b79 28be 89d6 efbc
000000b0: 36ee 213e 9ffb 68be d022 503e 9631 6f3d
000000c0: 1775 b03e 8bb6 bebe 128b bcbd 49f7 febd
000000d0: 40ae 0e3d 057f fe3d 1c43 803e 69df c5bd
000000e0: 4abb 8fbe 3ff7 8fbd c52f 3b3d 0cb0 b93d
000000f0: 4ce2 883e 21ec 363e 8a1c f0bc f34f 93be
00000100: b6b6 53be da03 6fbe 70b3 353d ad64 873c
00000110: 11b3 bf3e fa5f c6be 61e2 a5be 0cc6 3cbd
00000120: 925c b8bd ffd3 a03e a794 5abe 7711 21bc
00000130: 8d20 883d 202e 61be 386b 0abe bb00 92bd
00000140: daa9 36be 30d0 3b3e 055c e7be ba32 a6bc
00000150: 3d90 9abd eeb8 83be 1ee4 673e 8925 47be
00000160: 8e33 503e 46d2 893d 2fce 89bd e671 f4bd
00000170: e610 dd3d 65bd 9dbe 0b3a a8be 6a92 d93d
00000180: 74dd b9bd ae40 9abe 858d 83be ce04 893d
00000190: 367d b23d f43f 963d 4ad9 e3be 3dcc c7be
000001a0: f3c2 edbd 20e0 bbbe 5cf0 373e a0be 8abe
000001b0: 1aaa 82bd d1d8 bd3e 3af1 19be 772f 053e
000001c0: 5871 1dbe 6065 fdbd 0b23 c13e 94d6 5e3e
000001d0: 8576 7f3e 5b9f f33d 4d97 3e3e f02f adbe
000001e0: c3c6 8fbe d741 44be fad8 84be 0a63 1d3e
000001f0: 92af bf3e 40fd a0be 79a1 8c3e 36fd a0be
00000200: 911d c9be b5be 5f3e 3c74 b4bd 76e8 0bbf
00000210: 3ca0 66be e34b 4ebe 9a9e 453e 6c8d a4be
00000220: a1bc c6be d285 3c3e 2cbb 82be 1b20 84bd
00000230: 10cc c9be 9e96 80be 8f35 a1be a823 e8be
00000240: 17b4 65bd f0b1 b83e cdc1 a33e 985e 70be
00000250: 7b73 d03d 7ae7 b8bd 8975 84be 3f9a 0bbe
00000260: 7cb0 85bd 1dff 91be 4649 8dbe 13f8 66be
00000270: 39d0 afbd 79b7 66be c58f 4c3e c474 0e3e
00000280: 0d0a 5b3d 6725 95be 7d4f 573e e13e 423e
00000290: b3f4 0f3e de7d c13d 7f3a cebe d4d4 4fbe
000002a0: d92e 56be e634 87be 3ff3 8d3e cbec 7b3e
000002b0: 3337 953e 45af 8a3e 26a6 89bd 124a a8bd
000002c0: 3e27 abbe 130a 953d 892d 783e 5a11 f4bd
000002d0: 1f3e bc3e 0f7f 783d bac4 acbd 0630 9e3e
000002e0: 2539 c9be a5e6 afbd a51e 1fbe 221f bd3a
000002f0: 7600 9b3e 9727 873e 9043 713e 4d8e bfbe
00000300: d9ef a8be 3652 a5bc 956b 07be 150a 703e
00000310: c826 8cbe 9e6c 283e 5b31 cdbe d5e6 693d
00000320: c1ad 243e e846 9ebe 8918 98be 5180 6dbd
00000330: f3e6 ebbd 2fff f73e 6161 a73d 99a1 57be
00000340: adc6 aebe 6161 87be 2293 293e be46 953e
00000350: 1a07 85be fa07 b53e 6269 383b e722 c33c
00000360: 6ba9 573e 51c4 85be de16 fdbe 4ba8 a8be
00000370: 2985 263d 5b36 073e ef18 e2bd 55f2 7bbe
00000380: 1477 b0be 59de 58be 140a b4bd a6b7 a13e
00000390: 74de d83c 3cda 16bd 7b6e b8bd 8d61 e7bc
000003a0: 31d4 a93e ffba da3d 1e30 75be 6a7e 673e
000003b0: 8ed6 603d 0e8f 00be 5b89 c03d 4641 e8be
000003c0: a939 ff3c 13fd 8b3e 18ee afbe 23f1 8d3e
000003d0: a502 c7bd 5a14 403c 0c9f 22be caa9 02bf
000003e0: 5270 1ebe 7f62 213e 95cd 863e 364f c4bd
000003f0: 48a9 5f3e 6fef a53e b63e d4be 5f96 c13e

linear_layer.2.weight f4 [256, 256]
0.031730257 0.023318728 0.094582565 0.06723357 0.114184156 -0.0414524 -0.03487562 0.026601128
-0.106823735 -0.043998063 0.0530336 0.043004043 0.027715132 0.04711978 -0.003942907 0.0010170683
0.007959068 0.029167086 -0.04333348 0.024696536 0.059224218 -0.011726042 -0.2233008 -0.08579202
-0.035714425 0.036972 0.1582565 -0.048762582 0.123171225 -0.02838757 -0.30177876 0.08617178
0.035362452 0.11076849 0.015872307 -0.023316048 0.10526866 0.02699542 -0.013847224 0.046386305
0.064228386 0.10449161 -0.01489424 0.10360935 -0.012763642 0.1026034 -0.10440487 0.06981195
-0.010346718 -0.10257951 -0.075595185 0.0825831 0.006122239 0.13955799 -0.033815652 -0.0075486004
-0.058084443 0.019767515 0.034846283 0.015489794 0.059535854 -0.02924755 -0.29933462 -0.0144048035
0.066580124 -0.0072446815 -0.057437226 0.0768013 0.12066119 -0.00016297064 -0.008565873 0.007683934
0.0491198 0.036327984 0.04960042 -0.059183016 0.12278785 0.015843611 0.040834714 -0.30809355
-0.061814073 -0.058645055 0.062892444 -0.028117098 0.0024815567 -0.19651283 0.1778935 -0.27243888
0.07780186 0.011293285 0.062245842 0.024538817 0.028455412 -0.009556627 -0.017242512 -0.1371715
-0.06556367 -0.032602128 0.019084893 -0.03761789 -0.02267564 -0.048819892 0.0035592788 -0.01515165
-0.024023108 0.005749017 -0.056213103 0.0032783523 0.019469274 -0.054100778 -0.040415406 0.019782
0.16348876 0.10423563 -0.051347665 -0.80110353 -0.0621168 0.124394014 -0.025796823 -0.028059296
0.0043354454 0.023986112 0.08294822 -0.08622817 -0.047887854 -0.24181598 0.0954113 0.0353729
-0.038269833 0.14739762 0.044396944 -0.0292905 0.04777582 0.062630855 -0.03522905 0.08151867
-0.041193534 0.0454456 0.01227269 0.049942665 -0.074848376 -0.23210281 -0.070647724 -0.05103979
-0.05667364 -0.008296922 -0.03974648 -0.40683645 0.040613085 -0.041188125 -0.0036130056 -0.021268254
0.033844415 0.016225062 -0.013854155 0.06161705 0.08149741 -0.12662095 -0.037221916 0.060868703
0.014896952 -0.0015043616 0.004379299 -0.046116706 -0.013469905 0.08729011 -0.22631145 0.049276315
0.08637678 0.06887115 -0.038028352 0.053086154 0.01616935 -0.034431137 -0.0777766 0.08201823
0.056975473 0.043014582 0.061940268 -0.04950714 -0.0071254596 -0.053340092 0.0060596 0.10120793
-0.09530482 -0.15279016 0.017576758 0.012027506 0.046679243 0.054596703 0.04629819 -0.03884827
0.05282246 -0.063252315 0.06486798 0.028483612 -0.09071594 -0.023796983 0.118757375 -0.030240424
0.009556763 0.042740513 -0.046688095 0.09693759 -0.05069699 0.07356249 0.010598452 0.05482111
0.07387567 0.0688705 -0.06637545 0.09058756 0.0193258 0.08347759 0.15422456 -0.036793977
-0.012909596 0.1383361 0.009727751 0.04811103 -0.07355983 0.037310004 -0.1038334 -0.043795437
-0.37783626 -0.018244628 -0.106199585 -0.06586974 -0.1308567 -0.011239216 0.0832785 0.05777403
-0.017423421 0.009242439 -0.009082726 0.09561476 0.03506832 0.08001562 -0.049030684 0.014877887
0.14471044 -0.07191409 -0.05509472 -0.05103596 0.026215792 0.07043903 -0.044074297 0.02757225
0.021998998 -0.17291415 0.045425326 -0.012430466 0.0023256866 0.013085602 -0.075609766 0.17176193
00000000: 96f7 013d eb06 bf3c 81b4 c13d c1b1 893d
00000010: 62d9 e93d fec9 29bd bdd9 0ebd 9cea d93c
00000020: 67c6 dabd 5037 34bd c339 593d 0225 303d
00000030: d80a e33c ac00 413d 8033 81bb 264f 853a
00000040: c066 023c d0ef ee3c 727e 31bd 6450 ca3c
00000050: 1895 723d 961e 40bc f7a8 64be bab3 afbd
00000060: 4a49 12bd f46f 173d fe0d 223e 46bb 47bd
00000070: 3241 fc3d 0d8d e8bc bf82 9abe d57a b03d
00000080: 38d8 103d 97da e23d a406 823c 4c01 bfbc
00000090: 1897 d73d 8025 dd3c 78df 62bc 91ff 3d3d
000000a0: 2c8a 833d b2ff d53d f806 74bc 2431 d43d
000000b0: 981e 51bc bb21 d23d 38d2 d5bd 91f9 8e3d
000000c0: 4885 29bc 3515 d2bd a6d1 9abd 5421 a93d
000000d0: 109d c83b 4ae8 0e3e 4882 0abd 405a f7bb
000000e0: f4e9 6dbd 7cef a13c faba 0e3d e8c8 7d3c
000000f0: dedb 733d 8f98 efbc 6342 99be 2002 6cbc
00000100: 295b 883d cb64 edbb 4c43 6bbd 004a 9d3d
00000110: 371d f73d 19e3 2ab9 e057 0cbc 83c9 fb3b
00000120: d831 493d a7cc 143d cf29 4b3d e469 72bd
00000130: 3278 fb3d 76ca 813c 4d42 273d 70be 9dbe
00000140: c130 7dbd cc35 70bd c1cd 803d d455 e6bc
00000150: 9da1 223b a93a 49be b729 363e 1c7d 8bbe
00000160: 9556 9f3d 7807 393c 7ff5 7e3d a105 c93c
00000170: 531b e93c 6693 1cbc 2b40 8dbc b076 0cbe
00000180: 3f46 86bd cf89 05bd ec57 9c3c 3715 1abd
00000190: 44c2 b9bc 5ef7 47bd ca42 693b a03e 78bc
000001a0: 1ccc c4bc 4062 bc3b b63f 66bd a0d9 563b
000001b0: 077e 9f3c c798 5dbd a08a 25bd dc0d a23c
000001c0: 9969 273e 7d79 d53d ee51 52bd 1f15 4dbf
000001d0: 306e 7ebd 4ac2 fe3d dc53 d3bc 9cdc e5bc
000001e0: 5a10 8e3b 867e c43c c2e0 a93d 6598 b0bd
000001f0: 0e26 44bd 9c9e 77be 0067 c33d 2de3 103d
00000200: d4c0 1cbd 67ef 163e 92d9 353d a1f2 efbc
00000210: 94b0 433d 9b44 803d 564c 10bd 43f3 a63d
00000220: 8dba 28bd 2a25 3a3d 6513 493c ae90 4c3d
00000230: 1b4a 99bd 5cac 6dbe c1af 90bd 190f 51bd
00000240: 9e22 68bd d0ef 07bc 34cd 22bd de4c d0be
00000250: e859 263d e1b4 28bd 2dc8 6cbb c33a aebc
00000260: 71a0 0a3d 6cea 843c 8afc 62bc 2962 7c3d
00000270: 1de8 a63d eca8 01be 0276 18bd 7651 793d
00000280: 5812 743c 002e c5ba 3980 8f3b dfe4 3cbd
00000290: e0b0 5cbc 28c5 b23d 30be 67be f6d5 493d
000002a0: 4fe6 b03d 510c 8d3d 9ec3 1bbd de70 593d
000002b0: 9675 843c aa07 0dbd 5749 9fbd 2cf9 a73d
000002c0: 1d5f 693d 0f30 303d 14b5 7d3d 00c8 4abd
000002d0: b07c e9bb 247b 5abd 9c8f c63b 1a46 cf3d
000002e0: 2c2f c3bd 0675 1cbe 22fd 8f3c 040f 453c
000002f0: bc32 3f3d cba0 5f3d 2ca3 3d3d 5d1f 1fbd
00000300: 5d5c 583d 6e8a 81bd 81d9 843d 7756 e93c
00000310: 47c9 b9bd e4f1 c2bc 1137 f33d c4ba f7bc
00000320: f893 1c3c ad10 2f3d 043c 3fbd 3787 c63d
00000330: a6a7 4fbd eea7 963d 21a5 2d3c 1a8c 603d
00000340: 214c 973d fa0b 8d3d daef 87bd f885 b93d
00000350: 2451 9e3c 4cf6 aa3d 0bed 1d3e 48b5 16bd
00000360: c582 53bc fba7 0d3e 2561 1f3c 1210 453d
00000370: 89a6 96bd 60d2 183d 9ba6 d4bd d862 33bd
00000380: c173 c1be c275 95bc 2b7f d9bd b7e6 86bd
00000390: 4cff 05be b024 38bc eb8d aa3d 76a4 6c3d
000003a0: 90bb 8ebc 996d 173c b7cf 14bc acd1 c33d
000003b0: cca3 0f3d 3bdf a33d 66d4 48bd 62c2 733c
000003c0: f92e 143e b247 93bd 00ab 61bd 150b 51bd
000003d0: 80c2 d63c 5742 903d 4087 34bd 33df e13c
000003e0: 3e37 b43c 6810 31be e80f 3a3d 27a9 4bbc
000003f0: 8c6a 183b fe64 563c 4bd9 9abd 5ce2 2f3e

linear_layer.2.bias f4 [256]
0.24205583 2.6637481e-05 0.031765115 0.041000966 -0.055632554 0.015072254 -0.07506053 -0.025608443
-0.020173475 0.19924524 -0.052575972 0.01841953 0.115196325 0.0045126956 0.08754255 0.048266947
0.01396044 0.044053644 0.058305744 -0.015142709 -0.06409305 -0.03060696 0.0334462 0.040881496
-0.060426127 -0.06662097 -0.026378334 0.012968361 -0.087631926 0.023419408 0.010977629 0.20246056
0.024804553 0.037435453 0.005015869 -0.07462664 0.027195878 0.19440448 0.009178662 -8.656183e-05
-0.09426202 -0.07342008 -0.02860935 0.030631915 0.0021036586 0.028069533 0.020406542 0.01312279
-0.046105057 -0.0011152738 -0.06628984 0.04371873 -0.07364541 -0.072043985 -0.0824671 -0.03541541
-0.006407739 0.013222494 -0.050290797 -0.020010479 -0.03459316 -0.019450126 -0.06721687 -0.031902567
0.04077129 -0.048346516 0.08458617 -0.029990178 -0.008078353 -0.06500728 -0.0053565786 -0.08273229
0.03725219 -0.06378961 -0.059786033 -0.010087931 0.0121021345 -0.05685138 -0.03999313 -0.033428807
-0.031917434 -0.06480268 -0.02558944 0.04115902 0.034119345 -0.034620136 0.0261453 0.021907942
-0.21924141 -0.068347156 0.035816766 -0.061513215 0.03376423 0.026942022 -0.03718416 0.034549817
0.03539707 -0.04599958 0.041523077 -0.038237132 -0.050632864 0.044387694 0.009372299 -0.158713
-0.055055123 0.013186879 0.16239831 -0.06080645 -0.021743279 0.19856212 -0.046477165 -0.07195406
-0.054900117 -0.04450028 0.058007587 -0.07113156 0.039800476 0.018813461 -0.015785802 0.22647288
-0.059054468 -0.017902074 -0.027569134 -0.08056577 0.23036876 0.050693847 -0.0039534485 0.24924263
0.02550586 -0.0434134 -0.0042795837 0.0026688685 -0.018888347 -0.06850639 0.1194804 -0.045615606
0.011368692 -0.011114799 -0.06269509 0.14960639 0.04458034 0.076465115 0.023105571 -0.07773996
0.18029502 0.015819782 0.030652411 -0.096376225 -0.017613135 0.011672704 -0.0166307 0.008043439
-0.016275965 0.0764132 0.018575542 0.022328362 0.012939134 0.18089437 -0.0076365066 -0.010346773
0.04446862 0.24337336 -0.047554553 -0.07377584 -0.0316292 0.01843246 -0.017943032 -0.024945604
-0.06205826 0.136535 0.15723465 0.13041915 -0.0070214844 -0.050842352 0.015066608 -0.03016286
-0.030578636 -0.052034188 -0.0031611584 -0.053938806 -0.04586027 0.16313535 -0.08363138 0.010639077
-0.025546586 -0.13107628 0.045221318 -0.029249663 0.033888165 -0.013301868 0.0030854435 0.02944665
0.011165399 -0.04970012 -0.054686975 0.014604123 0.1451196 0.086089335 -0.18495876 -0.06508666
-0.03526571 0.0119809965 -0.0763039 -0.05621521 0.30325195 -0.090947 0.15050231 -0.053553212
-0.0172398 -0.002016046 -0.009094448 0.022302816 -0.011895673 -0.01784934 -0.003283673 0.031592738
-0.06517259 -0.0708022 -0.056702748 -0.01471636 -0.0018213114 -0.0262582 0.15991755 -0.069680326
-0.059731327 0.016533576 -0.01755501 -0.056076724 -0.07203414 0.1527913 0.046617378 -0.073956825
-0.062061403 -0.018896475 0.108370006 -0.02534556 -0.048418403 -0.04088011 -0.0020533905 0.008430218
0.15886113 0.17247051 0.040754654 0.001793255 -0.06756544 -0.026582303 0.0076092724 -0.05178542
-0.024789026 0.21494098 0.06343002 -0.09362267 -0.032998156 0.10818405 0.0011869967 0.021503758
00000000: 7cdd 773e 8e73 df37 231c 023d a1f0 273d
00000010: f6de 63bd 9ef1 763c 56b9 99bd ccc8 d1bc
00000020: d842 a5bc f206 4c3e e759 57bd 8ee4 963c
00000030: 0dec eb3d 3cdf 933b 8249 b33d 90b3 453d
00000040: 54ba 643c 9871 343d 01d2 6e3d 2019 78bc
00000050: 3843 83bd 73bb fabc e2fe 083d 5b73 273d
00000060: 6381 77bd 9370 88bd 6017 d8bc 4079 543c
00000070: 5e78 b3bd 0fda bf3c 83db 333c d251 4f3e
00000080: eb32 cb3c eb55 193d 295c a43b dad5 98bd
00000090: e4c9 de3c f811 473e 1962 163c 8788 b5b8
000000a0: 720c c1bd 445d 96bd 285e eabc c8ef fa3c
000000b0: 89dd 093b 14f2 e53c 9f2b a73c f800 573c
000000c0: a8d8 3cbd 612e 92ba f8c2 87bd 6912 333d
000000d0: 68d3 96bd cc8b 93bd 83e4 a8bd c00f 11bd
000000e0: 03f8 d1bb 29a3 583c b9fd 4dbd 04ed a3bc
000000f0: 8fb1 0dbd df55 9fbc 00a9 89bd 44ac 02bd
00000100: ccff 263d ff06 46bd 843b ad3d f6ad f5bc
00000110: 115b 04bc 8922 85bd 3d86 afbb 8c6f a9bd
00000120: c195 183d 21a4 82bd 33e2 74bd d947 25bc
00000130: 0848 463c fedc 68bd d6cf 23bd a5ec 08bd
00000140: dbbb 02bd 44b7 84bd f2a0 d1bc 5c96 283d
00000150: bac0 0b3d d8cd 0dbd ab2e d63c 4978 b33c
00000160: d280 60be 98f9 8bbd 9ab4 123d 48f5 7bbd
00000170: 5c4c 0a3d 84b5 dc3c 6b4e 18bd 1c84 0d3d
00000180: 85fc 103d 0e6a 3cbd 1a14 2a3d 8a9e 1cbd
00000190: 6864 4fbd dfcf 353d 458e 193c a985 22be
000001a0: 7b81 61bd c80d 583c be4b 263e 2f10 79bd
000001b0: f61e b2bc de53 4b3e d75e 3ebd a65c 93bd
000001c0: f2de 60bd ed45 36bd 5d99 6d3d 6cad 91bd
000001d0: d305 233d b01e 9a3c 3a51 81bc 82e8 673e
000001e0: 19e3 71bd 5fa7 92bc aad8 e1bc abff a4bd
000001f0: cae5 6b3e 5aa4 4f3d ee8b 81bb 7639 7f3e
00000200: aaf1 d03c 40d2 31bd c03b 8cbb 2fe8 2e3b
00000210: bcbb 9abc 144d 8cbd 24b2 f43d 6ed7 3abd
00000220: c043 3a3c d91a 36bc 4966 80bd 6b32 193e
00000230: e099 363d be99 9c3d e547 bd3c 2136 9fbd
00000240: 429f 383e 7d98 813c c41a fb3c e660 c5bd
00000250: 6c49 90bc de3e 3f3c 1b3d 88bc a1c8 033c
00000260: 2c55 85bc 867e 9c3d bc2b 983c f8e9 b63c
00000270: a9fe 533c 603c 393e a93b fabb 8385 29bc
00000280: ba24 363d de36 793e 90c8 42bd ca17 97bd
00000290: 9f8d 01bd acff 963c 44fd 92bc b95a ccbc
000002a0: cd30 7ebd d5cf 0b3e 1f02 213e 998c 053e
000002b0: 7b14 e6bb 1240 50bd efd9 763c 1a18 f7bc
000002c0: 0c80 fabc cd21 55bd 702b 4fbb f0ee 5cbd
000002d0: fad7 3bbd f40c 273e ee46 abbd 864f 2e3c
000002e0: 1347 d1bc dc38 06be fd39 393d fd9c efbc
000002f0: 51ce 0a3d 14f0 59bc 2735 4a3b 1a3a f13c
00000300: 14ef 363c 5a92 4bbd 73ff 5fbd 2246 6f3c
00000310: 3c9a 143e 9b4f b03d d465 3dbe 284c 85bd
00000320: c772 10bd f14b 443c 3845 9cbd ec41 66bd
00000330: d743 9b3e 6c42 babd 471d 1a3e 9d5a 5bbd
00000340: 7b3a 8dbc a41f 04bb e100 15bc 65b4 b63c
00000350: 12e6 42bc c738 92bc e432 57bb 6367 013d
00000360: 3579 85bd be00 91bd 2441 68bd e31c 71bc
00000370: 12b9 eeba 701b d7bc 6dc1 233e 8fb4 8ebd
00000380: d6a8 74bd 6c71 873c 86cf 8fbc b5b0 65bd
00000390: a386 93bd 5375 1c3e ddf1 3e3d ad76 97bd
000003a0: 1934 7ebd c8cc 9abc 18f1 dd3d 7ea1 cfbc
000003b0: 6052 46bd e771 27bd 2d92 06bb e61e 0a3c
000003c0: 7eac 223e 1c9c 303e 5aee 263d a70b eb3a
000003d0: c05f 8abd 21c3 d9bc 3457 f93b f31c 54bd
000003e0: 5b12 cbbc 7d19 5c3e 99e7 813d 3ebd bfbd
000003f0: 1329 07bd 998f dd3d 0095 9b3a a628 b03c

linear_layer.4.weight f4 [1, 256]
0.09357772 -0.020618998 0.0041944813 0.022277182 0.0444873 0.045218233 -0.021067746 -0.012797955
-0.052623954 0.079768114 0.0030271595 0.034247622 0.10913068 -0.036053672 0.07572963 -0.04942697
0.020779438 -0.028747534 -0.051135894 0.03880391 0.0011049453 -0.124804564 -0.060192037 0.038996436
-0.038139712 0.008191795 0.0014582234 0.04881257 -0.2988175 0.041627344 -0.0018536386 0.12404432
0.0020099806 -0.010608809 0.0050369236 -0.17305137 0.0063606757 0.07503988 -0.031209446 0.04624391
0.017803008 -0.03139529 -0.035925504 0.0071350853 -0.010728104 -0.004725486 -0.04620256 -0.0008410742
0.011873662 0.0050069722 0.04496341 0.18213125 0.007278365 -0.0071955128 0.02948911 0.007144824
0.042075235 0.008145318 -0.049750056 0.047754027 0.0015571188 0.040921707 -0.051314875 -0.05048038
-0.04755279 -0.02869971 0.1047506 1.4273977e-05 0.058926415 0.020758893 -0.16789027 0.0070790173
0.0069427923 0.02649269 0.012813522 -0.009830708 -0.045341074 0.0010805535 0.0042430805 0.049252823
-0.018639153 -0.044549234 0.004624227 0.009026182 0.090776555 0.009352855 0.0031120265 0.0006801033
-0.083569005 -0.012179881 -0.047905087 -0.022983456 0.036208622 -0.027399244 0.036030874 0.018268779
0.039282802 0.00502853 -0.0011048988 -0.007374547 0.027131319 -0.0056821033 0.04045758 -0.25937274
0.009573514 -0.010212992 0.13764302 -0.037607152 -0.038944926 0.17751281 0.046119623 -0.36710072
0.059769213 0.0072260513 0.0098290015 0.00777605 0.016372584 0.013510471 0.026373295 0.12056093
-0.051621955 -0.14551541 0.009484419 -0.02374232 0.1698507 -0.02478347 0.025827201 0.088961564
-0.053820755 0.0010073878 0.001772061 0.02222089 0.05237502 0.033119924 0.1090485 -0.0009776632
0.054319024 -0.0029101088 -0.011046009 0.1078088 0.032219887 0.049532387 0.024778709 -0.01597706
0.0701937 0.03029122 -0.007430764 -0.42298725 0.023530751 0.0089941695 0.053037815 0.004503269
-0.03305021 0.027937403 -0.010628767 -0.000804686 0.013759516 0.101646654 0.046167575 -0.006476411
-0.023877261 0.08034924 0.027456388 0.009491066 -0.032521326 -0.04684434 0.023826873 0.03647893
0.03653469 0.11157245 0.07996604 0.083996795 -0.00053408847 -0.06121344 -0.0012579141 -0.057856847
-0.06229861 -0.043298025 0.013525342 -0.032279518 -0.011717702 0.11420996 -0.030093899 -0.0035242345
-0.017853804 -0.13082008 -2.3208819e-05 0.03288628 0.0006572447 -0.03991221 -0.038218975 0.0038398032
-0.018717315 0.00078076613 -0.029073287 0.039211206 0.093707204 0.066375844 -0.28367788 0.019612595
-0.05509323 0.023756508 0.020047039 -0.03912887 0.16095711 -0.43512338 0.10220267 0.035306677
0.005192171 -0.035878766 -0.111794345 0.021327777 0.036243927 0.08532207 -0.015260309 0.037974082
0.014274497 -0.042538345 -0.20258117 -0.05473634 -0.04039493 0.020912653 0.13161379 0.001999
-0.032802414 0.0044247485 0.0076002874 0.025493406 -0.4911695 0.4795498 0.03461962 -0.021332303
-0.053022895 -0.004400216 0.06565739 0.05678544 0.0055356696 -0.0035099194 0.0016422431 -0.0099495705
0.101940185 0.099307165 0.00942053 0.010686788 -0.04857427 0.00055137044 0.014590974 -0.03613756
-0.1609145 0.15002105 0.023899486 -0.007444656 -0.033358 0.3491715 0.019667603 0.10678712
00000000: ada5 bf3d 2ce9 a8bc dc71 893b a37e b63c
00000010: 5138 363d c136 393d 4496 acbc 84ae 51bc
00000020: 378c 57bd 775d a33d 4f63 463b 3c47 0c3d
00000030: e87f df3d 04ad 13bd 2318 9b3d ef73 4abd
00000040: a439 aa3c f37f ebbc df73 51bd d9f0 1e3d
00000050: d0d3 903a 8999 ffbd ed8b 76bd baba 1f3d
00000060: 6338 1cbd e136 063c dc21 bf3a b0ef 473d
00000070: 9bfe 98be 6f81 2a3d caf5 f2ba f30a fe3d
00000080: e1b9 033b 92d0 2dbc c70c a53b 6134 31be
00000090: 376d d03b 82ae 993d f4aa ffbc 416a 3d3d
000000a0: 9dd7 913c 5998 00bd 9f26 13bd 6fcd e93b
000000b0: eec4 2fbc 40d8 9abb e53e 3dbd 897b 5cba
000000c0: bf89 423c 8711 a43b 8d2b 383d 9d80 3a3e
000000d0: 5a7f ee3b 56c8 ebbb 2593 f13c 211f ea3b
000000e0: 1557 2c3d f173 053c b7c6 4bbd ba99 433d
000000f0: 3d18 cc3a 859d 273d 8c2f 52bd 84c4 4ebd
00000100: b7c6 42bd a71b ebbc 7c87 d63d 447a 6f37
00000110: d35c 713d 8e0e aa3c 6deb 2bbe 1af7 e73b
00000120: 5d80 e33b 3307 d93c ceef 513c fa10 21bc
00000130: 90b7 39bd 5ca1 8d3a 8a09 8b3b 54bd 493d
00000140: 23b1 98bc 4279 36bd d486 973b 8de2 133c
00000150: 0fe9 b93d b83c 193c 24f3 4b3b f648 323a
00000160: 3a26 abbd 208e 47bc 2038 44bd cd47 bcbc
00000170: 7e4f 143d 6174 e0bc 1c95 133d 68a8 953c
00000180: 01e7 203d 5ec6 a43b 40d2 90ba 2fa6 f1bb
00000190: 8042 de3c f030 babb d9b6 253d 81cc 84be
000001a0: 3ada 1c3c 6554 27bc 4bf2 0c3e f509 1abd
000001b0: b784 1fbd ebc5 353e eee7 3c3d a0f4 bbbe
000001c0: 90d0 743d 83c8 ec3b d209 213c 3cce fe3b
000001d0: cc1f 863c 065b 5d3c cf0c d83c a6e8 f63d
000001e0: 8b71 53bd fe01 15be 8964 1b3c 417f c2bc
000001f0: 58ed 2d3e b406 cbbc 9193 d33c 7b31 b63d
00000200: 2773 5cbd 530a 843a 8044 e83a 9508 b63c
00000210: 3087 563d c2a8 073d d254 df3d ef24 80ba
00000220: a07d 5e3d 86b7 3ebb 52fa 34bc dcca dc3d
00000230: 00f9 033d 79e2 4a3d b8fc ca3c 53e2 82bc
00000240: b7c1 8f3d 4b25 f83c c47d f3bb c991 d8be
00000250: 90c3 c03c 485c 133c 2e3e 593d 2990 933b
00000260: a85f 07bd fbdc e43c 4824 2ebc 90f1 52ba
00000270: 986f 613c 1f2c d03d 361a 3d3d 1338 d4bb
00000280: 3f9a c3bc 248e a43d 38ec e03c 6b80 1b3c
00000290: 1535 05bd dadf 3fbd 9330 c33c ee6a 153d
000002a0: 66a5 153d 1980 e43d 3cc5 a33d 8306 ac3d
000002b0: 1202 0cba f2ba 7abd 98e0 a4ba 4dfb 6cbd
000002c0: d42c 7fbd 4559 31bd 6599 5d3c 8737 04bd
000002d0: 9bfb 3fbc e9e6 e93d 7b87 f6bc d8f6 66bb
000002e0: 2442 92bc b3f5 05be 8fb0 c2b7 c4b3 063d
000002f0: f24a 2c3a fc7a 23bd 808b 1cbd 35a5 7b3b
00000300: 0e55 99bc 54ac 4c3a 1a2b eebc ee9b 203d
00000310: 90e9 bf3d 0ff0 873d 3a3e 91be 98aa a03c
00000320: 70a9 61bd 029d c23c b039 a43c 9845 20bd
00000330: f1d1 243e 7ec8 debe a24f d13d bc9d 103d
00000340: 1623 aa3b 9df5 12bd 6ff4 e4bd 97b7 ae3c
00000350: 8374 143d 56bd ae3d 6006 7abc b68a 1b3d
00000360: 94df 693c b03c 2ebd 7071 4fbe 3633 60bd
00000370: 2775 25bd 0351 ab3c c4c5 063e a801 033b
00000380: d35b 06bd 7bfd 903b d50b f93b 8cd7 d03c
00000390: 927a fbbe 8d87 f53e 4dcd 0d3d 15c1 aebc
000003a0: 892e 59bd b02f 90bb 6277 863d d997 683d
000003b0: 9064 b53b ad06 66bb 8940 d73a 8603 23bc
000003c0: 04c6 d03d 8e61 cb3d 9158 1a3c a317 2f3c
000003d0: d0f5 46bd d889 103a fb0e 6f3c fa04 14bd
000003e0: c5c6 24be 1e9f 193e dbc8 c33c 4df2 f3bb
000003f0: 66a2 08bd 9bc6 b23e f41d a13c 35b3 da3d
