data/Apr-13_05-51-52/models/critic_1150.pth (torch, 274455 bytes, 5 tensors)

linear_layer.0.weight f4 [256, 7]
-0.3270368 0.2904858 -0.34064138 -0.21609223 -0.17561398 -0.3625903 -0.3158061 -0.23499914
-0.17079298 0.06143872 0.14886712 0.2041742 0.09668065 0.1556995 -0.04427583 0.24576178
0.16000372 -0.07542382 -0.16316082 0.2076112 0.28655607 -0.15497702 0.05492154 0.26283202
0.2066729 -0.093844496 0.12220957 -0.15610908 -0.3512204 0.20279627 0.36786363 0.29221404
0.23139066 0.31361166 0.1512554 -0.2797777 -0.34482598 -0.08634839 -0.13244902 -0.35069996
-0.21074952 -0.34828213 -0.014224078 0.25104803 -0.41359475 -0.33740517 0.25633565 -0.103175394
0.13168162 0.33714494 0.031512868 -0.4765296 -0.12912513 -0.009600844 0.38703206 -0.16486472
-0.30687657 -0.12021669 0.3100437 -0.12303453 0.16395275 0.1099775 -0.021246508 0.30672222
-0.08834366 -0.26648208 -0.24432376 -0.15735978 -0.3523136 0.16992861 0.31081173 -0.018121874
-0.33422908 0.034006942 -0.96121645 0.27662665 -0.010158839 0.137981 -0.17450897 -0.019676562
-0.0865074 0.2638715 0.1860129 0.10533491 0.20245409 -0.23037069 -0.3329802 0.4165104
-0.5731552 0.049756788 -0.038972568 -0.31418556 -0.29109198 0.10549432 0.013148768 -0.13985735
0.00033634956 -0.2834977 0.04401318 -0.2800896 -0.34370577 0.06632381 0.041988187 0.21371917
0.3613811 -0.23447108 -0.28678757 0.1644983 0.28085056 -0.24045062 0.026722642 0.13808592
-0.36099997 -0.03477733 -0.09957835 -0.010982433 0.051648922 -0.26676905 -0.22298558 -0.20407502
-0.19182122 -0.16803412 0.26810926 0.21516897 -0.24996027 0.14277866 -0.12777784 0.031830598
-0.286275 0.11613551 -0.34379536 0.08548017 0.20328167 -0.11335413 -0.35526374 0.04367174
-0.2405756 0.004342041 0.18947245 0.22043931 -0.558974 0.22114204 -0.13802254 0.3926682
0.87190926 0.1828962 -0.037307277 0.009511652 0.19938882 -0.41760907 0.3111946 0.1389436
-0.4208078 0.085308574 0.28854576 -0.08628603 -0.25067538 0.22138388 -1.3732703 -0.10078456
0.05809541 -0.2416885 0.17578158 -0.21529278 -0.03470381 0.81512475 -0.03973044 -0.49934894
0.12428601 -0.2780053 -0.24737121 0.052325044 0.015693175 -0.07495603 0.36998862 -0.44198048
0.045990925 0.18908896 -0.091263324 0.32508072 0.0049582943 -0.21966034 -0.19143815 -0.07985582
0.39009824 0.017787585 0.2608157 0.29550055 0.04006708 0.14106488 -0.36397943 -0.31520572
-0.24538124 -0.20272598 -0.26804578 -0.13972723 -0.08936046 0.34859732 0.21698862 0.18594012
-0.0005056447 0.16732611 -0.11593262 -0.14748023 0.3312531 -0.21662536 -0.43367067 0.5718504
0.069074996 -0.14520273 0.11836025 0.26949698 -0.56935215 -0.009654697 0.64435756 -0.16949536
0.073672764 -0.17337197 0.026299512 0.41988617 -0.26108733 -0.37507555 -0.47440505 0.044129
0.25967255 -0.1288198 -0.23393136 0.15580858 -0.83914554 0.4265313 -0.09181368 0.015583893
0.15302159 0.19941004 -0.5336086 0.14691983 -0.58903486 0.1626619 -0.3016915 -0.06186656
0.1586713 -0.35899132 -0.19131699 0.23285975 -0.3144097 -0.10847163 -0.09690801 -0.17087333
0.13835497 0.030776279 0.19490907 -0.08486503 -0.1369836 0.030653348 -0.020914968 0.056034308
00000000: 5e71 a7be 8eba 943e 8c68 aebe 4847 5dbe
00000010: 27d4 33be 70a5 b9be 56b1 a1be 9da3 70be
00000020: 5be4 2ebe 2ba7 7b3d 9f70 183e 0b13 513e
00000030: 8100 c63d b16f 1f3e 935a 35bd faa8 7b3e
00000040: 04d8 233e ce77 9abd a113 27be 0898 543e
00000050: 7ab7 923e 4cb2 1ebe 69f5 603d eb91 863e
00000060: 10a2 533e 8b31 c0bd 0349 fa3d 0fdb 1fbe
00000070: 29d3 b3be d3a9 4f3e 9f58 bc3e 149d 953e
00000080: acf1 6c3e b591 a03e b2e2 1a3e 063f 8fbe
00000090: 088d b0be 6dd7 b0bd b7a0 07be f28e b3be
000000a0: b9ce 57be 0952 b2be 1b0c 69bc 5e89 803e
000000b0: b1c2 d3be 5fc0 acbe 6d3e 833e 9f4d d3bd
000000c0: 8cd7 063e 439e ac3e a313 013d b0fb f3be
000000d0: 6139 04be dc4c 1dbc 1129 c63e 4cd2 28be
000000e0: ed1e 9dbe 2b34 f6bd 0cbe 9e3e 87f9 fbbd
000000f0: 3be3 273e e23b e13d 280d aebc b20a 9d3e
00000100: 85ed b4bd 5770 88be 0230 7abe ec22 21be
00000110: 7362 b4be c401 2e3e b722 9f3e 5374 94bc
00000120: 1320 abbe dd4a 0b3d 4812 76bf 02a2 8d3e
00000130: 4271 26bc e44a 0d3e 7bb2 32be be30 a1bc
00000140: cb2a b1bd 2a1a 873e 2a7a 3e3e d4b9 d73d
00000150: 2050 4f3e 4be6 6bbe 617c aabe da40 d53e
00000160: 4dba 12bf c6cd 4b3d b3a1 1fbd eedc a0be
00000170: 020a 95be 680d d83d ee6d 573c c436 0fbe
00000180: 1358 b039 9c26 91be 2a47 343d e767 8fbe
00000190: 34fa afbe c7d4 873d cefb 2b3d 33d9 5a3e
000001a0: f206 b93e 3019 70be d2d5 92be 3e72 283e
000001b0: a5cb 8f3e b038 76be 71e9 da3c 6566 0d3e
000001c0: fdd4 b8be ac72 0ebd bcef cbbd aaef 33bc
000001d0: d28d 533d f495 88be 5556 64be 0bf9 50be
000001e0: c86c 44be 2311 2cbe 9e45 893e 4155 5c3e
000001f0: 96f5 7fbe 9234 123e 32d8 02be cd60 023d
00000200: a392 92be 74d8 ed3d f205 b0be 3a10 af3d
00000210: 1229 503e 3626 e8bd 21e5 b5be 23e1 323d
00000220: 7359 76be ae47 8e3b 1105 423e d8ba 613e
00000230: ec18 0fbf 0f73 623e c855 0dbe ce0b c93e
00000240: 7235 5f3f 2449 3b3e 84cf 18bd c3d6 1b3c
00000250: 952c 4c3e dbd0 d5be e654 9f3e 3b47 0e3e
00000260: 1f74 d7be 43b6 ae3d 45bc 933e bbb6 b0bd
00000270: 8658 80be 75b2 623e 52c7 afbf 2368 cebd
00000280: 74f5 6d3d 317d 77be 1600 343e b675 5cbe
00000290: 9525 0ebd 04ac 503f 63bc 22bd aaaa ffbe
000002a0: aa89 fe3d b656 8ebe e14e 7dbe c952 563d
000002b0: f98e 803c 8c82 99bd 266f bd3e 444b e2be
000002c0: fb60 3c3d 89a0 413e 44e8 babd fb70 a63e
000002d0: 3079 a23b a4ee 60be 5d08 44be 738b a3bd
000002e0: f5ba c73e 45b7 913c a389 853e d94b 973e
000002f0: 611d 243d 5073 103e 835b babe a562 a1be
00000300: 3845 7bbe 6697 4fbe 4c3d 89be a814 0fbe
00000310: 9e02 b7bd 597b b23e 4432 5e3e 1667 3e3e
00000320: 3e8d 04ba 8957 2b3e 156e edbd 0f05 17be
00000330: 029a a93e 0ad3 5dbe 150a debe ca64 123f
00000340: 3177 8d3d 06b0 14be dc66 f23d 82fb 893e
00000350: 10c1 11bf bc2e 1ebc 9ef4 243f 3190 2dbe
00000360: bfe1 963d 6c88 31be 1372 d73c 52fb d63e
00000370: 3dad 85be e709 c0be 38e5 f2be 9cc0 343d
00000380: cdf3 843e 56e9 03be b48b 6fbe 498c 1f3e
00000390: 3ed2 56bf 5062 da3e d008 bcbd 9653 7f3c
000003a0: b1b1 1c3e 2532 4c3e 939a 08bf 2772 163e
000003b0: fdca 16bf d790 263e 4f77 9abe ca67 7dbd
000003c0: bb7a 223e b6cd b7be 9ae8 43be c972 6e3e
000003d0: 4ffa a0be 6026 debd b577 c6bd 6bf9 2ebe
000003e0: edac 0d3e 891e fc3c 3e96 473e b8cd adbd
000003f0: 6e45 0cbe bb1c fb3c de55 abbc 3b84 653d

linear_layer.0.bias f4 [256]
0.15559012 -0.4054268 0.105081365 0.3043025 -0.0244844 -0.073287934 -0.27454495 0.07143189
-0.14357837 0.1020951 0.18973207 0.2878938 -0.2135468 -0.18361615 0.10136715 0.0469879
-0.07098648 -0.032009214 -0.36526614 -0.020416938 -0.12148524 0.10661601 0.16837479 -0.23935682
-0.30404708 0.26535815 -0.022727842 0.19932108 0.11764607 -0.28859362 -0.23212264 0.47592533
0.28013185 0.28861138 0.050027594 0.04090718 0.14635895 0.24684002 0.2467232 -0.40424335
-0.35304213 -0.030511366 -0.16452496 -0.094905905 0.15813527 -0.2772806 0.16555479 -0.023111584
0.43595624 -0.43756217 -0.10478028 -0.1244951 0.034834146 0.05003711 0.250512 -0.09661753
-0.28072578 -0.0702958 0.048475668 0.090667814 0.30239213 0.14135487 -0.029764066 -0.28771934
-0.1814615 -0.23341313 0.049538735 -0.043450665 0.35632485 -0.39764395 -0.32399276 -0.021346793
-0.1707334 0.30331662 -0.21151532 -0.009830824 0.020596828 -0.22315305 -0.15398307 -0.02134412
-0.15444927 0.18341136 -0.45187393 -0.05299573 -0.08807156 -0.16919512 0.36047152 -0.255353
0.20081855 0.067295596 -0.044402782 -0.12235699 0.07203747 -0.3240099 -0.343617 0.044095326
-0.09075442 -0.30127472 -0.25693908 0.105632804 0.08715288 0.03830095 -0.40386787 -0.3489626
-0.11609449 -0.3669443 0.13782036 -0.2709856 -0.063801005 0.3707948 -0.19331008 0.13006388
-0.09164101 -0.16261242 0.37722048 0.23526892 0.24947555 0.10934735 0.18105647 -0.40574372
-0.23709404 -0.19165741 -0.24820374 0.10102549 0.37438637 -0.3665963 0.3055388 -0.3235171
-0.3928037 0.18140686 -0.088112324 -0.5357071 -0.22522062 -0.22574958 0.19298783 -0.3722647
-0.402588 0.18410423 -0.3140613 -0.120624125 -0.42224678 -0.27670267 -0.33684456 -0.49308372
-0.05607995 0.36073256 0.31983796 -0.28963447 0.10178276 -0.1530798 -0.25870922 -0.070849456
-0.06527802 -0.28514948 -0.27594966 -0.28366506 -0.14752972 -0.16857716 0.19976719 0.1391173
0.053476382 -0.29130098 0.17447889 0.22081003 0.18487886 0.09043777 -0.45518973 -0.20296031
-0.18968558 -0.24774367 0.27724645 0.24602048 0.21933156 0.27086845 -0.067211434 -0.0521827
-0.23039863 0.038572952 0.2423612 -0.11917372 0.36766145 0.060668048 -0.07382485 0.3580501
-0.40909788 -0.16917637 -0.18099387 0.060421266 0.33367002 0.19234069 0.2356093 -0.37413254
-0.34193465 -0.08738402 -0.07751835 0.1494085 -0.21396731 0.16447684 -0.42617255 0.057104904
0.116622075 -0.27904928 -0.2970622 -0.022802992 -0.115186594 0.5366446 0.023384372 -0.21057738
-0.3503151 -0.26441482 0.12878868 0.25621897 -0.2598198 0.37789485 0.026180986 0.023820354
0.25361666 -0.19666904 -0.50297415 -0.27926707 0.040654335 0.17446811 -0.15902668 -0.24604161
-0.3104865 -0.24797513 -0.12656084 0.32297912 -0.04469136 -0.03682922 -0.100766465 -0.028244758
0.33169702 0.07480264 -0.20131886 0.22595128 0.054892115 -0.1734867 0.094011985 -0.49109456
0.040361222 0.34308916 -0.3436134 0.27723035 -0.121696524 0.07293664 -0.22224413 -0.53199106
-0.15472534 0.10445365 0.2852222 -0.09585421 0.20196566 0.33466783 -0.41454095 0.39247096
00000000: 0453 1f3e 1a94 cfbe e634 d73d 8acd 9b3e
00000010: 8293 c8bc fc17 96bd 2891 8cbe e24a 923d
00000020: 3506 13be 3c17 d13d 2049 423e d166 933e
00000030: 03ac 5abe df05 3cbe 9599 cf3d 6276 403d
00000040: 5c61 91bd 181c 03bd 2a04 bbbe 6c41 a7bc
00000050: 41cd f8bd 7f59 da3d 716a 2c3e f419 75be
00000060: 0fac 9bbe 06dd 873e bd2f babc d31a 4c3e
00000070: 6cf0 f03d 8bc2 93be 8fb1 6dbe 7cac f33e
00000080: 716d 8f3e dfc4 933e bce9 4c3d 4a8e 273d
00000090: 1fdf 153e a1c3 7c3e 02a5 7c3e fcf8 cebe
000000a0: f0c1 b4be f9f2 f9bc 3b79 28be 075e c2bd
000000b0: 36ee 213e b9f7 8dbe 3287 293e 8154 bdbc
000000c0: a835 df3e 2608 e0be 0b97 d6bd 49f7 febd
000000d0: 40ae 0e3d b6f3 4c3d 1c43 803e 69df c5bd
000000e0: 4abb 8fbe 3ff7 8fbd 6c8e 463d 0cb0 b93d
000000f0: 24d3 9a3e 55bf 103e c5d3 f3bc f34f 93be
00000100: 0bd1 39be da03 6fbe 21e9 4a3d 53f9 31bd
00000110: 3670 b63e fd97 cbbe 61e2 a5be 78df aebc
00000120: bdd4 2ebe 514c 9b3e 7997 58be 7711 21bc
00000130: aeba a83c 3c82 64be bdad 1dbe ddd9 aebc
00000140: f327 1ebe 30d0 3b3e 055c e7be 0d12 59bd
00000150: dd5e b4bd 7c41 2dbe b98f b83e a1bd 82be
00000160: 61a3 4d3e 46d2 893d b1df 35bd 4d96 fabd
00000170: 6288 933d a0e4 a5be 91ee afbe 4d9d 343d
00000180: 74dd b9bd ae40 9abe 858d 83be 0356 d83d
00000190: 367d b23d 75e1 1c3d c5c7 cebe 3aab b2be
000001a0: f3c2 edbd 20e0 bbbe c820 0d3e a0be 8abe
000001b0: 1aaa 82bd d1d8 bd3e 14f3 45be 772f 053e
000001c0: 48ae bbbd df83 26be 0b23 c13e 56ea 703e
000001d0: 8576 7f3e 81f1 df3d de66 393e a4bd cfbe
000001e0: c8c8 72be d741 44be 1f29 7ebe 74e6 ce3d
000001f0: 92af bf3e 83b2 bbbe 956f 9c3e 09a4 a5be
00000200: 911d c9be b8c2 393e 3c74 b4bd 1a24 09bf
00000210: 3ca0 66be e62a 67be 9a9e 453e 7b99 bebe
00000220: 0420 cebe d285 3c3e a5cc a0be c809 f7bd
00000230: bb30 d8be f9ab 8dbe e476 acbe 7875 fcbe
00000240: 17b4 65bd f0b1 b83e cdc1 a33e f84a 94be
00000250: 7b73 d03d f3c0 1cbe 8975 84be 8519 91bd
00000260: 7cb0 85bd 1dff 91be 4649 8dbe 8c3c 91be
00000270: 0812 17be 7e9f 2cbe c58f 4c3e c474 0e3e
00000280: 0d0a 5b3d 6725 95be 98aa 323e 061c 623e
00000290: e250 3d3e 7037 b93d a10e e9be d4d4 4fbe
000002a0: f03c 42be 84b0 7dbe 3ff3 8d3e cbec 7b3e
000002b0: 7498 603e 45af 8a3e 26a6 89bd 87bd 55bd
000002c0: 9eed 6bbe acfe 1d3d 892d 783e 5a11 f4bd
000002d0: 1f3e bc3e 0f7f 783d 7c31 97bd 5852 b73e
000002e0: 4775 d1be 923c 2dbe 7556 39be 4a7c 773d
000002f0: ccd6 aa3e f5f4 443e 9043 713e 4d8e bfbe
00000300: 0f12 afbe 65f6 b2bd f1c1 9ebd 8bfe 183e
00000310: 3f1a 5bbe 9e6c 283e 4a33 dabe d5e6 693d
00000320: 8ed7 ee3d 8cdf 8ebe 8918 98be 57cd babc
00000330: f3e6 ebbd 8a61 093f 9590 bf3c 99a1 57be
00000340: 805c b3be 6161 87be 2ee1 033e 222f 833e
00000350: 1a07 85be 6f7b c13e 8279 d63c e722 c33c
00000360: 0bda 813e 9c63 49be eac2 00bf 18fc 8ebe
00000370: 2985 263d c5a7 323e e4d7 22be 55f2 7bbe
00000380: 16f8 9ebe 31ed 7dbe 2a99 01be 855d a53e
00000390: 4a0e 37bd 3cda 16bd a65e cebd 8d61 e7bc
000003a0: 31d4 a93e 2032 993d 8826 4ebe c65f 673e
000003b0: 8ed6 603d 7fa6 31be 5b89 c03d bf70 fbbe
000003c0: cf51 253d 62a9 af3e 18ee afbe 23f1 8d3e
000003d0: 073c f9bd ce5f 953d f793 63be 9130 08bf
000003e0: 5270 1ebe cceb d53d a508 923e 364f c4bd
000003f0: 16d0 4e3e 9559 ab3e b63e d4be f4f1 c83e

linear_layer.2.weight f4 [256, 256]
0.0522283 0.023318728 0.13803692 0.09588381 0.16252173 -0.0414524 -0.03487562 0.004372202
-0.106823735 -0.043998063 0.07924927 0.043004043 0.14219727 0.04711978 -0.003942907 0.0010170683
0.007959068 0.029167086 -0.057254985 0.024696536 -0.0173671 -0.040594753 -0.21839052 -0.065879785
-0.035714425 0.03706429 0.16273035 -0.048762582 0.17806633 -0.08810343 -0.4621582 0.0964248
0.05012965 0.13746698 0.015872307 -0.023316048 0.07308404 0.02699542 -0.013847224 0.027414024
0.08175084 0.12519616 -0.01489424 0.09025175 -0.012763642 0.072513804 -0.008806937 0.05623053
0.045603327 -0.21223971 -0.054987133 0.0825831 0.006122239 0.13345926 -0.033815652 -0.0075486004
-0.058084443 0.019767515 0.053833403 0.015489794 -0.0033575227 -0.03275065 -0.24624091 -0.0144048035
0.07478544 -0.0072446815 -0.081897035 0.05890104 0.10164121 0.008555323 -0.008565873 0.038001943
0.018312149 0.08131259 -0.055470973 -0.059183016 0.06661716 -0.023693366 0.039424956 -0.32851478
-0.013741769 -0.058645055 0.062892444 -0.017511765 0.020792073 -0.2871707 0.2560554 -0.3548628
0.18726848 0.011293285 0.121477656 0.014941389 0.05197753 -0.00570463 -0.09856528 -0.20387825
-0.06556367 -0.032602128 0.019084893 0.069658265 -0.02267564 -0.015072471 0.038512234 -0.14067732
-0.024023108 0.005749017 -0.056213103 0.0032783523 0.019469274 -0.054100778 -0.041632157 0.019782
0.16668162 0.1253754 -0.051347665 -1.1259977 -0.0621168 0.16168393 -0.02648742 -0.024077661
-0.051044334 0.023986112 0.07911667 -0.06714934 -0.047887854 -0.21453847 0.013059118 0.041091606
-0.038269833 0.16546012 0.044396944 -0.085567296 0.04777582 0.07228906 -0.03522905 0.050996758
-0.028502349 0.0454456 0.033367842 0.033305965 -0.117239416 -0.30688536 -0.13511324 -0.054656673
-0.05667364 -0.008296922 -0.03974648 -0.36398903 0.040613085 -0.07119581 -0.0036130056 0.13388965
0.033844415 0.016225062 -0.013854155 0.035246074 -0.0067261253 -0.12081875 -0.037221916 0.060868703
0.014896952 -0.0015043616 -0.023327466 -0.05628994 -0.048107825 0.12489418 -0.37109032 0.049276315
-0.062017214 0.06282575 -0.038028352 0.053086154 0.0061168056 -0.034431137 -0.0777766 0.074830204
0.13137604 0.09123633 0.061940268 -0.04950714 -0.0071254596 -0.053340092 -0.02138423 0.11788353
-0.0550458 -0.35927597 0.009517048 0.00792254 0.11137944 0.05566273 0.04629819 -0.03884827
0.051307157 -0.12561844 0.093617246 0.010431189 -0.023195049 -0.023796983 0.09704821 -0.030240424
0.004656786 0.019587629 -0.046688095 0.11291396 -0.05069699 0.13874285 -0.06266199 0.05482111
0.082705416 0.0688705 -0.08368808 0.05385101 0.0193258 0.036903776 0.2024176 -0.036793977
-0.010914014 0.11595478 0.016832072 0.07609029 -0.07355983 -0.046563603 -0.0067781564 -0.043795437
-0.18749735 -0.011935683 -0.088181786 -0.013790231 -0.17826012 -0.011239216 0.06751251 0.05777403
-0.017423421 0.010989038 -0.031130638 0.1424537 0.03506832 0.08285731 -0.049030684 0.04087761
0.20140538 -0.15226774 -0.05509472 -0.05103596 -0.006100288 0.055120364 -0.06975956 0.027434492
0.021998998 -0.079014495 -0.015130157 -0.012430466 0.017462257 0.025950547 -0.075609766 0.084712625
00000000: 58ed 553d eb06 bf3c 8d59 0d3e bb5e c43d
00000010: 196c 263e fec9 29bd bdd9 0ebd b044 8f3b
00000020: 67c6 dabd 5037 34bd 714d a23d 0225 303d
00000030: 299c 113e ac00 413d 8033 81bb 264f 853a
00000040: c066 023c d0ef ee3c 3484 6abd 6450 ca3c
00000050: 7345 8ebc af46 26bd c4a1 5fbe fbeb 86bd
00000060: 4a49 12bd bad0 173d c9a2 263e 46bb 47bd
00000070: 0557 363e 926f b4bd 00a0 ecbe 5e7a c53d
00000080: bf54 4d3d 25c4 0c3e a406 823c 4c01 bfbc
00000090: 16ad 953d 8025 dd3c 78df 62bc 6093 e03c
000000a0: fc6c a73d 6c33 003e f806 74bc e9d5 b83d
000000b0: 981e 51bc 1e82 943d f94a 10bc fc51 663d
000000c0: 8eca 3a3d 5e55 59be 303a 61bd 5421 a93d
000000d0: 109d c83b 8ba9 083e 4882 0abd 405a f7bb
000000e0: f4e9 6dbd 7cef a13c 6a80 5c3d e8c8 7d3c
000000f0: e209 5cbb 8c25 06bd 9426 7cbe 2002 6cbc
00000100: 1c29 993d cb64 edbb a2b9 a7bd 3842 713d
00000110: 4429 d03d a02b 0c3c e057 0cbc eda7 1b3d
00000120: 5c03 963c 3787 a63d 8835 63bd e469 72bd
00000130: 946e 883d 9718 c2bc 107c 213d 1733 a8be
00000140: 2825 61bc cc35 70bd c1cd 803d d574 8fbc
00000150: 2354 aa3c 0a08 93be b219 833e 94b0 b5be
00000160: 4fc3 3f3e 7807 393c 47c9 f83d bacc 743c
00000170: 64e6 543d e8ed babb 98dc c9bd 76c5 50be
00000180: 3f46 86bd cf89 05bd ec57 9c3c fea8 8e3d
00000190: 44c2 b9bc 87f2 76bc 01bf 1d3d b70d 10be
000001a0: 1ccc c4bc 4062 bc3b b63f 66bd a0d9 563b
000001b0: 077e 9f3c c798 5dbd 7b86 2abd dc0d a23c
000001c0: 96ae 2a3e 6962 003e ee51 52bd b120 90bf
000001d0: 306e 7ebd 7990 253e 25fc d8bc 843e c5bc
000001e0: dd13 51bd 867e c43c ec07 a23d 9885 89bd
000001f0: 0e26 44bd f9af 5bbe e9f5 553c ac4f 283d
00000200: d4c0 1cbd 616e 293e 92d9 353d e83d afbd
00000210: 94b0 433d 490c 943d 564c 10bd fae1 503d
00000220: c27d e9bc 2a25 3a3d b8ac 083d d66b 083d
00000230: 381b f0bd 1420 9dbe 205b 0abe addf 5fbd
00000240: 9e22 68bd d0ef 07bc 34cd 22bd c55c babe
00000250: e859 263d 1ccf 91bd 2dc8 6cbb 5e1a 093e
00000260: 71a0 0a3d 6cea 843c 8afc 62bc 305e 103d
00000270: d466 dcbb d26f f7bd 0276 18bd 7651 793d
00000280: 5812 743c 002e c5ba 3e19 bfbc 4890 66bd
00000290: b60c 45bd 85c8 ff3d 8dff bdbe f6d5 493d
000002a0: c305 7ebd c9aa 803d 9ec3 1bbd de70 593d
000002b0: 7c6f c83b aa07 0dbd 5749 9fbd 9440 993d
000002c0: 7187 063e 1dda ba3d 14b5 7d3d 00c8 4abd
000002d0: b07c e9bb 247b 5abd fb2d afbc ec6c f13d
000002e0: b477 61bd 05f3 b7be 64ed 1b3c 8bcd 013c
000002f0: e71a e43d 9afe 633d 2ca3 3d3d 5d1f 1fbd
00000300: 7427 523d 1fa2 00be 66ba bf3d 94e7 2a3c
00000310: 8b03 bebc e4f1 c2bc 36c1 c63d c4ba f7bc
00000320: f497 983b 3c76 a03c 043c 3fbd 6f3f e73d
00000330: a6a7 4fbd 9b12 0e3e ee54 80bd 1a8c 603d
00000340: 7561 a93d fa0b 8d3d a864 abbd e092 5c3d
00000350: 2451 9e3c 6a28 173d 8f46 4f3e 48b5 16bd
00000360: b1d0 32bc b379 ed3d 6ae3 893c 3ad5 9b3d
00000370: 89a6 96bd 7ab9 3ebd 4c1b debb d862 33bd
00000380: 4eff 3fbe e28d 43bc a798 b4bd 6cf0 61bc
00000390: d289 36be b024 38bc 0044 8a3d 76a4 6c3d
000003a0: 90bb 8ebc 5e0b 343c ae05 ffbc 62df 113e
000003b0: cca3 0f3d 18b1 a93d 66d4 48bd 486f 273d
000003c0: 363d 4e3e 13ec 1bbe 00ab 61bd 150b 51bd
000003d0: ede4 c7bb e4c5 613d 1ade 8ebd 4dbe e03c
000003e0: 3e37 b43c 5ad2 a1bd 7ae4 77bc 27a9 4bbc
000003f0: 020d 8f3c 3e96 d43c 4bd9 9abd d07d ad3d

linear_layer.2.bias f4 [256]
0.32896695 -0.011771782 0.054040205 0.041000966 -0.065489955 0.015072254 -0.090031326 -0.030021524
-0.032786287 0.251714 -0.04753437 0.01841953 0.07828647 -0.005277809 0.0789427 0.048266947
0.009992641 0.044053644 0.07726694 -0.021902464 -0.06409305 0.0032846874 0.0334462 0.040881496
-0.060426127 -0.06662097 -0.029280564 0.012968361 -0.061553974 0.023419408 0.016170671 0.30104634
0.048522457 0.037435453 0.005015869 -0.13622867 0.026195772 0.2526014 0.009178662 -8.656183e-05
-0.09426202 -0.07342008 -0.02860935 0.030186629 0.0021036586 0.028069533 0.020406542 0.01312279
-0.046105057 -0.0011152738 -0.06628984 0.09490225 -0.00058956083 -0.072043985 -0.0824671 -0.03541541
-0.006407739 0.06751867 -0.050290797 -0.020010479 -0.034634486 -0.027327195 -0.06721687 -0.042613097
0.04077129 -0.048346516 0.14371851 -0.029990178 0.07470825 -0.06500728 -0.016429268 -0.08273229
0.03725219 -0.06378961 -0.059786033 -0.024776543 0.0121021345 -0.05685138 0.0012778911 -0.033428807
-0.031917434 -0.06480268 -0.02558944 0.09668312 0.024013052 -0.034620136 0.0295896 0.020962207
-0.2664471 -0.068347156 0.035816766 -0.075070836 0.061515834 0.026942022 -0.03718416 0.034549817
0.026654808 -0.04599958 0.041523077 -0.041030154 -0.050632864 0.044387694 0.009372299 -0.18792553
-0.055055123 0.013186879 0.2620809 -0.08251141 -0.021743279 0.26277375 -0.053440448 -0.07959602
-0.054900117 -0.046246447 0.058007587 -0.07261962 0.036100242 0.0063202903 -0.015785802 0.32228044
-0.0900687 -0.034895122 -0.023303924 -0.08056577 0.33369005 0.03634292 -0.0039534485 0.33402893
0.02550586 -0.0434134 0.012183423 -0.009110594 -0.018888347 -0.079758674 0.21209829 -0.0061885375
0.011368692 -0.017786046 -0.06683274 0.24242695 0.047432162 0.12880921 0.023105571 -0.07773996
0.25215486 0.015819782 0.030652411 -0.11340927 -0.017613135 0.005635581 -0.0166307 0.008043439
-0.016275965 0.056178518 0.018575542 0.022328362 -0.012992431 0.270717 -0.014697709 -0.012415292
0.03814027 0.3207938 -0.047554553 -0.07377584 -0.0316292 0.0035644977 -0.026591169 -0.024945604
-0.0977993 0.13563734 0.2173045 0.21228682 -0.02106646 -0.068778574 0.01416643 -0.03016286
-0.030578636 -0.052034188 -0.0031611584 -0.053938806 -0.04586027 0.22045922 -0.08363138 -0.015929928
-0.03799843 -0.20213655 0.045221318 -0.051405873 0.033888165 -0.013301868 -0.010490679 0.02944665
0.007136517 -0.04970012 -0.054686975 0.014604123 0.22746088 0.078416884 -0.23221907 -0.10041401
-0.03526571 0.0119809965 -0.0763039 -0.06920088 0.4068759 -0.112025686 0.24182703 -0.054984678
-0.03170678 -0.017428264 -0.003023321 0.014443851 -0.03724072 0.02891279 -0.003283673 -0.018877124
-0.06517259 -0.0708022 -0.036246553 -0.030296642 -0.0018213114 -0.0262582 0.2556127 -0.11285982
-0.059731327 0.07610381 -0.01755501 -0.056076724 -0.082024224 0.1828078 0.016438324 -0.073956825
-0.062061403 -0.018896475 0.1577011 -0.02534556 -0.048418403 -0.04088011 -0.0020533905 0.008430218
0.21944466 0.26131508 0.040754654 0.001793255 -0.06756544 -0.026582303 0.0076092724 -0.053426806
-0.039320767 0.3171451 0.070934705 -0.094246194 -0.040690593 0.12756039 -0.06428229 0.014295063
00000000: 5b6e a83e 6fde 40bc 4359 5d3d a1f0 273d
00000010: 991f 86bd 9ef1 763c 5862 b8bd b3ef f5bc
00000020: ea4a 06bd a8e0 803e 66b3 42bd 8ee4 963c
00000030: a854 a03d 79f1 acbb b6ac a13d 90b3 453d
00000040: 2db8 233c 9871 343d 213e 9e3d cc6c b3bc
00000050: 3843 83bd e943 573b e2fe 083d 5b73 273d
00000060: 6381 77bd 9370 88bd cbdd efbc 4079 543c
00000070: 0520 7cbd 0fda bf3c 5b78 843c bf22 9a3e
00000080: 7cbf 463d eb55 193d 295c a43b 877f 0bbe
00000090: 8498 d63c f854 813e 1962 163c 8788 b5b8
000000a0: 720c c1bd 445d 96bd 285e eabc f349 f73c
000000b0: 89dd 093b 14f2 e53c 9f2b a73c f800 573c
000000c0: a8d8 3cbd 612e 92ba f8c2 87bd 1c5c c23d
000000d0: c28c 1aba cc8b 93bd 83e4 a8bd c00f 11bd
000000e0: 03f8 d1bb 3a47 8a3d b9fd 4dbd 04ed a3bc
000000f0: e4dc 0dbd 48dd dfbc 00a9 89bd 128b 2ebd
00000100: ccff 263d ff06 46bd f22a 133e f6ad f5bc
00000110: a400 993d 8922 85bd ac96 86bc 8c6f a9bd
00000120: c195 183d 21a4 82bd 33e2 74bd 2df8 cabc
00000130: 0848 463c fedc 68bd e97e a73a a5ec 08bd
00000140: dbbb 02bd 44b7 84bd f2a0 d1bc cd01 c63d
00000150: 05b7 c43c d8cd 0dbd e465 f23c efb8 ab3c
00000160: c16b 88be 98f9 8bbd 9ab4 123d bdbe 99bd
00000170: 07f8 7b3d 84b5 dc3c 6b4e 18bd 1c84 0d3d
00000180: 2f5b da3c 0e6a 3cbd 1a14 2a3d 3c0f 28bd
00000190: 6864 4fbd dfcf 353d 458e 193c 8d6f 40be
000001a0: 7b81 61bd c80d 583c 782f 863e befb a8bd
000001b0: f61e b2bc 488a 863e 5fe4 5abd 3d03 a3bd
000001c0: f2de 60bd ea6c 3dbd 5d99 6d3d 98b9 94bd
000001d0: d9dd 133d 701a cf3b 3a51 81bc f101 a53e
000001e0: f075 b8bd 30ee 0ebd dfe7 bebc abff a4bd
000001f0: 6cd9 aa3e 50dc 143d ee8b 81bb d705 ab3e
00000200: aaf1 d03c 40d2 31bd fb9c 473c 9a44 15bc
00000210: bcbb 9abc 8458 a3bd 4b30 593e 37c9 cabb
00000220: c043 3a3c 0bb4 91bc 9bdf 88bd c53e 783e
00000230: 3a48 423d 90e6 033e e547 bd3c 2136 9fbd
00000240: 711a 813e 7d98 813c c41a fb3c 1f43 e8bd
00000250: 6c49 90bc aeaa b83b 1b3d 88bc a1c8 033c
00000260: 2c55 85bc 721b 663d bc2b 983c f8e9 b63c
00000270: 35de 54bc 6b9b 8a3e a9ce 70bc 8269 4bbc
00000280: f938 1c3d 163f a43e 90c8 42bd ca17 97bd
00000290: 9f8d 01bd 599a 693b b9d5 d9bc b95a ccbc
000002a0: 004b c8bd 84e4 0a3e 1285 5e3e b761 593e
000002b0: 9293 acbc c8db 8cbd 501a 683c 1a18 f7bc
000002c0: 0c80 fabc cd21 55bd 702b 4fbb f0ee 5cbd
000002d0: fad7 3bbd 10c0 613e ee46 abbd 7b7f 82bc
000002e0: 3ea4 1bbd e2fc 4ebe fd39 393d f78e 52bd
000002f0: 51ce 0a3d 14f0 59bc 19e1 2bbc 1a3a f13c
00000300: 72d9 e93b 5a92 4bbd 73ff 5fbd 2246 6f3c
00000310: 81eb 683e 0899 a03d d6ca 6dbe dca5 cdbd
00000320: c772 10bd f14b 443c 3845 9cbd 31b9 8dbd
00000330: 0a52 d03e b96d e5bd 81a1 773e 9d37 61bd
00000340: f8de 01bd b8c5 8ebc e922 46bb e7a5 6c3c
00000350: ba89 18bd 84da ec3c e432 57bb 33a4 9abc
00000360: 3579 85bd be00 91bd 4477 14bd aa30 f8bc
00000370: 12b9 eeba 701b d7bc abdf 823e 0d23 e7bd
00000380: d6a8 74bd 50dc 9b3d 86cf 8fbc b5b0 65bd
00000390: 51fc a7bd f831 3b3e aaa9 863c ad76 97bd
000003a0: 1934 7ebd c8cc 9abc 667c 213e 7ea1 cfbc
000003b0: 6052 46bd e771 27bd 2d92 06bb e61e 0a3c
000003c0: 1ab6 603e 17cb 853e 5aee 263d a70b eb3a
000003d0: c05f 8abd 21c3 d9bc 3457 f93b 11d6 5abd
000003e0: d00e 21bd d860 a23e 3746 913d 2604 c1bd
000003f0: 2eab 26bd 319f 023e 6fa6 83bd d735 6a3c

linear_layer.4.weight f4 [1, 256]
0.1196631 -0.005148461 0.0108987605 0.022277182 0.03804816 0.045218233 -0.014711371 -0.011147339
-0.03958466 0.12055089 0.0050134994 0.034247622 0.09792851 -0.03357314 0.0754549 -0.04942697
0.012110459 -0.028747534 -0.08232692 0.03043317 0.0011049453 -0.025175031 -0.060192037 0.038996436
-0.038139712 0.008191795 0.0010460692 0.04881257 -0.58375555 0.041627344 0.0013383634 0.1572326
0.00021748513 -0.010608809 0.0050369236 -0.1919727 0.0063480726 0.11735672 -0.031209446 0.04624391
0.017803008 -0.03139529 -0.035925504 0.007045177 -0.010728104 -0.004725486 -0.04620256 -0.0008410742
0.011873662 0.0050069722 0.04496341 0.28362107 0.009144895 -0.0071955128 0.02948911 0.007144824
0.042075235 0.14415962 -0.049750056 0.047754027 0.0014502661 0.037948936 -0.051314875 -0.03684808
-0.04755279 -0.02869971 0.15077786 1.4273977e-05 0.095688686 0.020758893 -0.1591527 0.0070790173
0.0069427923 0.02649269 0.012813522 0.0059838025 -0.045341074 0.0010805535 0.0035773164 0.049252823
-0.018639153 -0.044549234 0.004624227 0.027000753 0.09061206 0.009352855 0.057200756 -0.0078033563
-0.15115488 -0.012179881 -0.047905087 -0.0074636936 0.041893966 -0.027399244 0.036030874 0.018268779
0.03557089 0.00502853 -0.0011048988 0.0023497818 0.027131319 -0.0056821033 0.04045758 -0.34011042
0.009573514 -0.010212992 0.16887327 -0.020095801 -0.038944926 0.3411477 0.043706547 -0.49528164
0.059769213 0.004615904 0.0098290015 0.0068252166 0.0006784963 -0.00016672054 0.026373295 0.14555588
-0.052868966 -0.1285647 0.011453862 -0.02374232 0.19773726 -0.018720005 0.025827201 0.10724895
-0.053820755 0.0010073878 0.05921414 0.0072024623 0.05237502 0.028256893 0.13161007 0.007899568
0.054319024 0.012511167 -0.03397082 0.13566665 0.03596712 0.05018774 0.024778709 -0.01597706
0.102254555 0.03029122 -0.007430764 -0.6823022 0.023530751 0.010151398 0.053037815 0.004503269
-0.03305021 -0.0014143424 -0.010628767 -0.000804686 0.0009663287 0.12513666 -0.005842537 0.006307249
-0.016896717 0.09547933 0.027456388 0.009491066 -0.032521326 -0.031089664 0.014724272 0.03647893
0.18517366 0.11151529 0.110287555 0.09999754 0.0025087812 -0.12932055 0.0030027353 -0.057856847
-0.06229861 -0.043298025 0.013525342 -0.032279518 -0.011717702 0.1800235 -0.030093899 0.011310087
0.016669035 -0.19633274 -2.3208819e-05 0.05012209 0.0006572447 -0.03991221 -0.034164958 0.0038398032
-0.0060839015 0.00078076613 -0.029073287 0.039211206 0.120798714 0.065932006 -0.41522604 0.47963962
-0.05509323 0.023756508 0.020047039 -0.036845174 0.19651495 -0.67450047 0.13348787 0.035202645
-0.007834133 -0.020125045 -0.14524008 -0.0047132783 -0.027870629 0.12707573 -0.015260309 0.30768314
0.014274497 -0.042538345 -0.24880315 -0.03892853 -0.04039493 0.020912653 0.15228982 -0.008340491
-0.032802414 0.13784288 0.0076002874 0.025493406 -0.83409804 0.7334302 0.0028552294 -0.021332303
-0.053022895 -0.004400216 0.09753924 0.05678544 0.0055356696 -0.0035099194 0.0016422431 -0.0099495705
0.1495165 0.12249919 0.00942053 0.010686788 -0.04857427 0.00055137044 0.014590974 -0.035094492
-0.45447916 0.18370685 0.0890637 -0.0073816357 -0.019976724 0.6551701 0.544271 0.10662838
00000000: ed11 f53d 6cb4 a8bb b790 323c a37e b63c
00000010: 63d8 1b3d c136 393d f607 71bc 54a3 36bc
00000020: 8623 22bd 63e3 f63d 4848 a43b 3c47 0c3d
00000030: be8e c83d fd83 09bd 1988 9a3d ef73 4abd
00000040: f26a 463c f37f ebbc 049b a8bd fc4e f93c
00000050: d0d3 903a de3b cebc ed8b 76bd baba 1f3d
00000060: 6338 1cbd e136 063c 421c 893a b0ef 473d
00000070: 0171 15bf 6f81 2a3d 066c af3a 9501 213e
00000080: b80c 6439 92d0 2dbc c70c a53b 7e94 44be
00000090: 7e03 d03b b858 f03d f4aa ffbc 416a 3d3d
000000a0: 9dd7 913c 5998 00bd 9f26 13bd 3adb e63b
000000b0: eec4 2fbc 40d8 9abb e53e 3dbd 897b 5cba
000000c0: bf89 423c 8711 a43b 8d2b 383d c836 913e
000000d0: 78d4 153c 56c8 ebbb 2593 f13c 211f ea3b
000000e0: 1557 2c3d 949e 133e b7c6 4bbd ba99 433d
000000f0: db16 be3a 5870 1b3d 8c2f 52bd 03ee 16bd
00000100: b7c6 42bd a71b ebbc 8365 1a3e 447a 6f37
00000110: 6ef8 c33d 8e0e aa3c edf8 22be 1af7 e73b
00000120: 5d80 e33b 3307 d93c ceef 513c c613 c43b
00000130: 90b7 39bd 5ca1 8d3a 6971 6a3b 54bd 493d
00000140: 23b1 98bc 4279 36bd d486 973b af30 dd3c
00000150: d192 b93d b83c 193c 574b 6a3d 4cb3 ffbb
00000160: 58c8 1abe 208e 47bc 2038 44bd 0092 f4bb
00000170: 0299 2b3d 6174 e0bc 1c95 133d 68a8 953c
00000180: c8b2 113d 5ec6 a43b 40d2 90ba ccfe 193b
00000190: 8042 de3c f030 babb d9b6 253d f422 aebe
000001a0: 3ada 1c3c 6554 27bc 1ded 2c3e f39f a4bc
000001b0: b784 1fbd e9aa ae3e a305 333d 8e95 fdbe
000001c0: 90d0 743d 0241 973b d209 213c 11a6 df3b
000001d0: 1edd 313a b4d1 2eb9 cf0c d83c 9a0c 153e
000001e0: 218d 58bd 77a6 03be fba8 3b3c 417f c2bc
000001f0: a37b 4a3e b25a 99bc 9193 d33c 56a5 db3d
00000200: 2773 5cbd 530a 843a 878a 723d a202 ec3b
00000210: 3087 563d 007b e73c cac4 063e 316d 013c
00000220: a07d 5e3d a3fb 4c3c fd24 0bbd 33ec 0a3e
00000230: 4252 133d a991 4d3d b8fc ca3c 53e2 82bc
00000240: d66a d13d 4b25 f83c c47d f3bb 5bab 2ebf
00000250: 90c3 c03c 0d52 263c 2e3e 593d 2990 933b
00000260: a85f 07bd 7561 b9ba 4824 2ebc 90f1 52ba
00000270: 3951 7d3a d323 003e c172 bfbb 0aad ce3b
00000280: fc6a 8abc ab8a c33d 38ec e03c 6b80 1b3c
00000290: 1535 05bd c0af febc 133e 713c ee6a 153d
000002a0: 2a9e 3d3e 2162 e43d 71de e13d 83cb cc3d
000002b0: 5d6a 243b 9b6c 04be 8ac9 443b 4dfb 6cbd
000002c0: d42c 7fbd 4559 31bd 6599 5d3c 8737 04bd
000002d0: 9bfb 3fbc 1558 383e 7b87 f6bc f14d 393c
000002e0: 808d 883c 730b 49be 8fb0 c2b7 d24c 4d3d
000002f0: f24a 2c3a fc7a 23bd 8ef0 0bbd 35a5 7b3b
00000300: 775b c7bb 54ac 4c3a 1a2b eebc ee9b 203d
00000310: 5165 f73d 5c07 873d 8298 d4be 5393 f53e
00000320: 70a9 61bd 029d c23c b039 a43c f7ea 16bd
00000330: 373b 493e 10ac 2cbf 0bb1 083e a630 103d
00000340: bc5a 00bc 47dd a4bc d1b9 14be d871 9abb
00000350: f250 e4bc 2420 023e 6006 7abc a588 9d3e
00000360: 94df 693c b03c 2ebd 41c6 7ebe 8673 1fbd
00000370: 2775 25bd 0351 ab3c ddf1 1b3e 8ea6 08bc
00000380: d35b 06bd af26 0d3e d50b f93b 8cd7 d03c
00000390: 7387 55bf 15c2 3b3f cd1e 3b3b 15c1 aebc
000003a0: 892e 59bd b02f 90bb a7c2 c73d d997 683d
000003b0: 9064 b53b ad06 66bb 8940 d73a 8603 23bc
000003c0: da1a 193e dbe0 fa3d 9158 1a3c a317 2f3c
000003d0: d0f5 46bd d889 103a fb0e 6f3c 3ebf 0fbd
000003e0: 7eb1 e8be a61d 3c3e 0767 b63d a6e1 f1bb
000003f0: 3aa6 a3bc 3ab9 273f 5855 0b3f fb5f da3d
