data/Apr-12_21-53-58/models/critic.pth (torch, 274455 bytes, 5 tensors)

linear_layer.0.weight f4 [256, 7]
00000000: 0bae 8abe 609d ae3e 6295 8bbe afdc 18be
00000010: 3892 96be 0023 95be 2d02 4fbe 9da3 70be
00000020: 5be4 2ebe 2ba7 7b3d 9f70 183e 0b13 513e
00000030: 8100 c63d b16f 1f3e a55f 1bbd 617f 873e
00000040: 46e9 203e 3ffb 0dbd 4b0f 9fbe f6c2 763e
00000050: e078 a53e 27fa 13be 37f6 9d3d a047 833e
00000060: f79b 843e 5070 56be 3caf 243e 7297 fcbd
00000070: bf35 b3be aaed 5a3e ee8a b33e 61b8 a53e
00000080: 928f 143d 381a ad3e 136b 253e 063f 8fbe
00000090: 088d b0be 6dd7 b0bd b7a0 07be f28e b3be
000000a0: b9ce 57be 0952 b2be 86cd 983b b66c 8b3e
000000b0: d9f2 c8be 6828 a2be 5e85 843e 7391 b8bd
000000c0: d490 1d3e 84fc b53e 87c3 9a3d cb52 c6be
000000d0: b5dc 46be de2d 13be 959f a93e ed07 d2bd
000000e0: ed1e 9dbe 2b34 f6bd 0cbe 9e3e 87f9 fbbd
000000f0: 3be3 273e e23b e13d 280d aebc b20a 9d3e
00000100: 85ed b4bd 5770 88be 0230 7abe ec22 21be
00000110: 7362 b4be c401 2e3e 8ac1 613e 8f07 863d
00000120: 377d 72be 36c9 e2bc a594 39bf 7042 993d
00000130: b729 b13e e44a 0d3e 7bb2 32be be30 a1bc
00000140: cb2a b1bd 2a1a 873e 2a7a 3e3e d4b9 d73d
00000150: a912 9f3d 6b02 96be 475c bebe cdb0 ad3e
00000160: 9752 6bbe 9cc1 96bd 3b6f 0abe eedc a0be
00000170: 020a 95be 680d d83d ee6d 573c c436 0fbe
00000180: 1358 b039 9c26 91be 2a47 343d e767 8fbe
00000190: 34fa afbe c7d4 873d cefb 2b3d 33d9 5a3e
000001a0: f206 b93e 3019 70be d2d5 92be 3e72 283e
000001b0: a5cb 8f3e b038 76be 71e9 da3c 6566 0d3e
000001c0: fdd4 b8be ac72 0ebd bcef cbbd aaef 33bc
000001d0: d28d 533d f495 88be 5556 64be 0bf9 50be
000001e0: c86c 44be 2311 2cbe 9e45 893e 4155 5c3e
000001f0: 96f5 7fbe 9234 123e 113b bbbd 9709 563d
00000200: 9f72 86be cd19 153e 527b 49be bfdf 993d
00000210: 7beb 893e 3626 e8bd 21e5 b5be 23e1 323d
00000220: 7359 76be ae47 8e3b 1105 423e d8ba 613e
00000230: e072 f3be bd29 5e3e 8220 2fbe a0bd a03e
00000240: 751d ff3e d2ef 863e b5be 67be fab5 823c
00000250: d483 873e 9b3d b3be 83f3 ae3e 3784 adbd
00000260: 59d7 b3be e871 813e cd0f 913e a398 bbbd
00000270: 15f5 87be 2dad 403e 13fa 11bf 9cd2 8fbe
00000280: 5b06 fb3d d31a 5abe f9c3 673e 14e1 e1bd
00000290: 7dbb 883c 965f e23e 9cfe 443d 42e0 dabe
000002a0: aa89 fe3d b656 8ebe e14e 7dbe c952 563d
000002b0: f98e 803c 8c82 99bd 266f bd3e d57c c0be
000002c0: 725e 143e 766c 833e 490a 16bd 9551 653e
000002d0: 8d88 8f3d 0dbb 2fbe 9202 80be 403c 2dbe
000002e0: 581b 883e fcaf 3fbc 822d 253e a31b 883e
000002f0: 526a 5ebd 5073 103e 835b babe a562 a1be
00000300: 3845 7bbe 6697 4fbe 4c3d 89be a814 0fbe
00000310: d823 fbbd 4f84 a73e 89f8 383e 12e9 353e
00000320: 9be1 03be 50cd 173e 24ba c4bd 21f0 35be
00000330: 3aac a53e b6df 03be efbb c2be 451a 173e
00000340: e0db ce3d cea3 7bbd bcdd fd3d 3194 8a3e
00000350: 851d e8be 94cc 6cbd b01d aa3d cd3e 56be
00000360: e135 333e 8d76 08be 8fbb a53d 24fe bf3e
00000370: 40be 4abe 6c65 a8be 03ab b2be a2ae 433c
00000380: 4e3f 1b3e 7421 9bbd 4748 ecbd 34b8 433e
00000390: 718a 18bf f2dc 693e 9284 c93e 5688 fa3c
000003a0: c85f 1f3e 5c5c 0d3e 3ecd e8be b743 733e
000003b0: de37 a5be 3fef cc3d 4f77 9abe ca67 7dbd
000003c0: bb7a 223e b6cd b7be 9ae8 43be c972 6e3e
000003d0: 4ffa a0be 6026 debd b577 c6bd 6bf9 2ebe
000003e0: edac 0d3e 891e fc3c 3e96 473e b8cd adbd
000003f0: d7d0 91bd 1600 103e b17e 813d f61b 283e
-0.2708591 0.34104443 -0.27262408 -0.14927934 -0.2940843 -0.29128265 -0.20215674 -0.23499914
-0.17079298 0.06143872 0.14886712 0.2041742 0.09668065 0.1556995 -0.03793301 0.2646437
0.15713987 -0.034663435 -0.31066355 0.24097809 0.32318783 -0.14450894 0.077129774 0.25640583
0.25900242 -0.20941281 0.16082472 -0.123335734 -0.35001943 0.21379724 0.35066932 0.32367232
0.03626973 0.33809066 0.16154127 -0.2797777 -0.34482598 -0.08634839 -0.13244902 -0.35069996
-0.21074952 -0.34828213 0.004663172 0.27231377 -0.39247778 -0.31671453 0.25883 -0.09012117
0.15387279 0.35544217 0.07556825 -0.3873504 -0.1942013 -0.14372966 0.33129564 -0.10255418
-0.30687657 -0.12021669 0.3100437 -0.12303453 0.16395275 0.1099775 -0.021246508 0.30672222
-0.08834366 -0.26648208 -0.24432376 -0.15735978 -0.3523136 0.16992861 0.22046486 0.065444104
-0.23680578 -0.027683835 -0.7249244 0.07483375 0.34602138 0.137981 -0.17450897 -0.019676562
-0.0865074 0.2638715 0.1860129 0.10533491 0.07767231 -0.2929872 -0.37179777 0.3392395
-0.22980724 -0.07361147 -0.13518994 -0.31418556 -0.29109198 0.10549432 0.013148768 -0.13985735
0.00033634956 -0.2834977 0.04401318 -0.2800896 -0.34370577 0.06632381 0.041988187 0.21371917
0.3613811 -0.23447108 -0.28678757 0.1644983 0.28085056 -0.24045062 0.026722642 0.13808592
-0.36099997 -0.03477733 -0.09957835 -0.010982433 0.051648922 -0.26676905 -0.22298558 -0.20407502
-0.19182122 -0.16803412 0.26810926 0.21516897 -0.24996027 0.14277866 -0.091421254 0.05225524
-0.26259324 0.14560623 -0.19675949 0.07513379 0.2693747 -0.11335413 -0.35526374 0.04367174
-0.2405756 0.004342041 0.18947245 0.22043931 -0.4754858 0.2169561 -0.17102244 0.31394672
0.4982716 0.26354843 -0.22631343 0.015955914 0.26467764 -0.3500794 0.3417016 -0.084724836
-0.35125235 0.25282216 0.28332368 -0.091599725 -0.2655417 0.18816061 -0.5702221 -0.2809037
0.122570716 -0.21299295 0.22633351 -0.11029258 0.016690964 0.4421355 0.048094377 -0.4274922
0.12428601 -0.2780053 -0.24737121 0.052325044 0.015693175 -0.07495603 0.36998862 -0.3759524
0.14489153 0.25668687 -0.036630902 0.22394402 0.07008467 -0.17161198 -0.2500196 -0.16917515
0.26583362 -0.011699673 0.16130641 0.26583585 -0.054300614 0.14106488 -0.36397943 -0.31520572
-0.24538124 -0.20272598 -0.26804578 -0.13972723 -0.12262696 0.3271813 0.18063559 0.1776469
-0.1287903 0.14824414 -0.09605816 -0.17767383 0.3235796 -0.12878308 -0.38034007 0.14756115
0.101005316 -0.061435513 0.12395808 0.27066186 -0.45335022 -0.05781229 0.08306444 -0.20922394
0.17501022 -0.13326474 0.080924146 0.3749858 -0.19799137 -0.3288988 -0.34896097 0.011943491
0.15160868 -0.0757474 -0.11537223 0.19113237 -0.59586245 0.2283819 0.39358956 0.030582588
0.15563881 0.13804764 -0.45469087 0.237563 -0.32269186 0.1000657 -0.3016915 -0.06186656
0.1586713 -0.35899132 -0.19131699 0.23285975 -0.3144097 -0.10847163 -0.09690801 -0.17087333
0.13835497 0.030776279 0.19490907 -0.08486503 -0.07119911 0.14062533 0.063229926 0.16416916

linear_layer.0.bias f4 [256]
00000000: 3990 6e3e 1a94 cfbe 6ed2 a63d bb74 883e
00000010: 0be0 86bd fc17 96bd c6c3 81be ddcd 533e
00000020: 3506 13be 3c17 d13d 69a4 993e d166 933e
00000030: 0b50 8fbe df05 3cbe 9599 cf3d 6276 403d
00000040: 5c61 91bd 181c 03bd d2fc b5be 6c41 a7bc
00000050: 1661 03be f21d 443e abea 053e 86dc 9bbd
00000060: 0fac 9bbe 7396 a93e ce62 21be d31a 4c3e
00000070: f477 6e3d bf6d 20be 03aa efbc 0a60 c33e
00000080: 8861 be3e 5a33 533e bce9 4c3d 4a8e 273d
00000090: 5d1a 543e 5ace 843e 02a5 7c3e 11bc a8be
000000a0: a476 bbbe 2b57 75bd 3b79 28be 4312 f3bd
000000b0: 36ee 213e 07a1 8bbe 49b3 623e f85d 9a3d
000000c0: 1775 b03e bc39 99be 7d38 aabd fa5c ddbd
000000d0: 40ae 0e3d 8ef4 183e 1c43 803e 69df c5bd
000000e0: 4abb 8fbe 3ff7 8fbd abb6 643d 0cb0 b93d
000000f0: 15e1 953e 5f24 433e 3639 5e3c f34f 93be
00000100: 0c52 1dbe da03 6fbe 1fe9 903d 5f68 a23c
00000110: c8e8 ab3e 4d1a aebe 61e2 a5be 17e7 90bd
00000120: e262 38bd 6cd8 983e dd7f 8cbe 7711 21bc
00000130: 139e 743d fe9c 92be ea92 0bbe 3e0f cbbd
00000140: 0e54 40be 30d0 3b3e b733 c1be 3412 cebc
00000150: d94e 1ebd f35f 99be 4f27 733e b2e9 bdbd
00000160: 08e6 813e 46d2 893d d033 dfbd f628 35be
00000170: 67f0 fc3d 4d75 97be 630a a5be 948d 743e
00000180: 47a5 b0bd ae40 9abe 858d 83be 0757 a73d
00000190: 367d b23d 3609 2a3e d09a c3be 8fb1 a5be
000001a0: f3c2 edbd 20e0 bbbe e468 3f3e a0be 8abe
000001b0: 205d 31bd d1d8 bd3e 35e1 babd 772f 053e
000001c0: 0fff 3dbe 0a41 0abe 0b23 c13e 5622 5b3e
000001d0: 8576 7f3e 53e2 de3d cff4 833e b42c a6be
000001e0: 605d 86be d741 44be ecc9 95be c02c 1d3e
000001f0: 92af bf3e ba47 88be 8e7c 5f3e 8726 96be
00000200: 259d c1be f360 2f3e 3c74 b4bd c2c1 e7be
00000210: 3ca0 66be fd59 08be 9a9e 453e 95a5 b9be
00000220: 8a46 bebe d285 3c3e 79e6 4abe bcb7 5abd
00000230: b9f4 bdbe 2783 22be 8910 4dbe cd61 c4be
00000240: 17b4 65bd f0b1 b83e cdc1 a33e 1012 44be
00000250: 7b73 d03d 3717 06bd 3c14 80be 4269 fdbd
00000260: 7cb0 85bd 1dff 91be 18c5 88be 856d 58be
00000270: 26e9 e8bd 1783 56be c58f 4c3e c474 0e3e
00000280: 0d0a 5b3d 6725 95be abc9 703e 043d d23d
00000290: 89c1 143e 126a 9e3d 985d 98be d4d4 4fbe
000002a0: 0a67 29be e84d a9be 3ff3 8d3e cbec 7b3e
000002b0: 670c b73e 45af 8a3e 26a6 89bd d89d 0bbe
000002c0: fc44 a5be 2280 e53d 892d 783e 5a11 f4bd
000002d0: 1f3e bc3e 0f7f 783d 5f44 90bd c127 923e
000002e0: dc45 9abe 4eda 8c3c df79 07be 6087 6abd
000002f0: 767d 8c3e a8e1 963e 9043 713e 4d8e bfbe
00000300: 1da8 a6be 7418 b33d b159 32be c5b4 723e
00000310: 2b51 5fbe 9e6c 283e 4b56 afbe d5e6 693d
00000320: bbaa 7f3e 54c2 a4be 8918 98be cd3b 41bd
00000330: f3e6 ebbd 1415 e13e e037 953d 99a1 57be
00000340: 2030 b9be 673b 81be 7278 1c3e cfe8 8f3e
00000350: 1a07 85be 26e0 9f3e 7d12 2bbd e722 c33c
00000360: 1873 403e 9c5f 9abe 5f3e e4be bc77 babe
00000370: 2985 263d e77e 4c3d f0ae b3bd 55f2 7bbe
00000380: 83ec 9bbe 6bf1 d4bd 8da8 56bd d9d1 b03e
00000390: 451c ec3d 3cda 16bd 1cf0 18be 8d61 e7bc
000003a0: 31d4 a93e b402 4e3e 3959 97be e141 4f3e
000003b0: 8ed6 603d 1eb3 37be 5b89 c03d e351 cbbe
000003c0: 564a 1839 7e5c 613e 18ee afbe 23f1 8d3e
000003d0: ace6 debd d9c0 b4bc 3440 f2bc 4235 cfbe
000003e0: 5270 1ebe 02f7 3f3e 93cb 8c3e 2b98 c2bd
000003f0: 1dc1 973e 4640 883e 8c45 cfbe 8e0c ba3e
0.23297204 -0.4054268 0.08145605 0.26651558 -0.065857016 -0.073287934 -0.25344676 0.20684
-0.14357837 0.1020951 0.30008247 0.2878938 -0.27990755 -0.18361615 0.10136715 0.0469879
-0.07098648 -0.032009214 -0.3554445 -0.020416938 -0.12830004 0.19152048 0.130778 -0.07610421
-0.30404708 0.33122596 -0.15760347 0.19932108 0.058219865 -0.15666865 -0.029255873 0.3815921
0.37183785 0.20625058 0.050027594 0.04090718 0.20713182 0.25938684 0.2467232 -0.32955983
-0.36613953 -0.059897583 -0.16452496 -0.118687175 0.15813527 -0.27271292 0.22138704 0.07537454
0.34464332 -0.2992686 -0.083115555 -0.108087495 0.034834146 0.1493704 0.250512 -0.09661753
-0.28072578 -0.0702958 0.05583827 0.090667814 0.29273286 0.19056843 0.013563445 -0.28771934
-0.1536333 -0.23341313 0.07075714 0.019825159 0.33576035 -0.3400444 -0.32399276 -0.07075327
-0.045016177 0.29852617 -0.27441302 -0.009830824 0.059721064 -0.286354 -0.13630262 -0.099150166
-0.18782064 0.18341136 -0.37734768 -0.025155164 -0.038649414 -0.29956016 0.23745464 -0.092730895
0.25370812 0.067295596 -0.10898554 -0.17691407 0.123505406 -0.2958168 -0.32234487 0.23882133
-0.08625274 -0.30127472 -0.25693908 0.08170896 0.08715288 0.16605076 -0.3820405 -0.3236203
-0.11609449 -0.3669443 0.18692356 -0.2709856 -0.0433017 0.3707948 -0.09124986 0.13006388
-0.18554328 -0.13501373 0.37722048 0.21399817 0.24947555 0.10883012 0.25772712 -0.3245598
-0.26243114 -0.19165741 -0.29255617 0.15349102 0.37438637 -0.26617223 0.21824858 -0.2932627
-0.37815204 0.17126827 -0.088112324 -0.45265013 -0.22522062 -0.13315578 0.19298783 -0.36259142
-0.37163192 0.18410423 -0.19814481 -0.05339788 -0.3710077 -0.15870343 -0.20025839 -0.38355866
-0.05607995 0.36073256 0.31983796 -0.19147515 0.10178276 -0.032736983 -0.25015438 -0.12373592
-0.06527802 -0.28514948 -0.2671287 -0.21135528 -0.113725945 -0.20948444 0.19976719 0.1391173
0.053476382 -0.29130098 0.2351443 0.10265544 0.14526953 0.07735075 -0.29758906 -0.20296031
-0.16543213 -0.3306725 0.27724645 0.24602048 0.3575165 0.27086845 -0.067211434 -0.13634431
-0.32279193 0.1120608 0.2423612 -0.11917372 0.36766145 0.060668048 -0.07044291 0.28545955
-0.30131423 0.01719394 -0.13230084 -0.05725801 0.2743947 0.29469037 0.2356093 -0.37413254
-0.32550135 0.087448984 -0.17417027 0.2370177 -0.21808307 0.16447684 -0.34245524 0.057104904
0.24967472 -0.3217951 -0.2970622 -0.04717617 -0.115186594 0.43961394 0.07286048 -0.21057738
-0.3616953 -0.25240633 0.15280321 0.28107306 -0.2598198 0.312257 -0.04176568 0.023820354
0.18793905 -0.3015107 -0.44578835 -0.36419475 0.040654335 0.04992571 -0.08773601 -0.24604161
-0.30453882 -0.10397609 -0.052406836 0.345351 0.115288295 -0.03682922 -0.14935344 -0.028244758
0.33169702 0.20118219 -0.2956026 0.20239975 0.054892115 -0.17939422 0.094011985 -0.39710912
0.00014523542 0.22007939 -0.3436134 0.27723035 -0.10883841 -0.022064613 -0.02957163 -0.4047032
-0.15472534 0.1874657 0.27499065 -0.0950168 0.2963952 0.26611537 -0.40482748 0.36337703

linear_layer.2.weight f4 [256, 256]
00000000: a585 443d eb06 bf3c 6a22 803d 804a 103d
00000010: 1661 9f3d fec9 29bd 2547 f4bc 0296 5dbd
00000020: 67c6 dabd 5037 34bd 5afe a63d 0225 303d
00000030: d80a e33c ac00 413d 8033 81bb 264f 853a
00000040: c066 023c d0ef ee3c d3a5 47bd 6450 ca3c
00000050: 39c5 e73c 0a9a 0ebc ba71 7dbe 3f4d f5bc
00000060: 4a49 12bd 57ba d33c 6a86 873d 46bb 47bd
00000070: 5ece ae3d b48f cb3a 607c 68be cb4e 9f3d
00000080: 0530 643d 5c9c 813d a406 823c 4c01 bfbc
00000090: 3bce c73d bc9a ab3c 78df 62bc 3fab f83c
000000a0: 12d4 083d 969d c63d f806 74bc b759 cdbc
000000b0: 981e 51bc 58c7 923d 140e b4bd 4938 303d
000000c0: 4885 29bc 6dd7 7fbd 726c 75bd 48cb bc3d
000000d0: 109d c83b 4945 0f3e 4882 0abd 405a f7bb
000000e0: f4e9 6dbd 7cef a13c 1847 1f3d e8c8 7d3c
000000f0: 521c 953d daf0 19bd 1ffd 5dbe 2002 6cbc
00000100: 45e3 813d cb64 edbb f35c 57bd 3cad 8c3d
00000110: 8ecd e43d e7ef 7f3c e057 0cbc 08b0 63bd
00000120: caec 413d 0c6b 8b3d fa0e 60ba e469 72bd
00000130: 66b1 873d a8d6 863c 423f 943c c26b 91be
00000140: c0c6 21be cc35 70bd 1912 a43d 7c4e 44bd
00000150: 34d3 853c 8eaa bcbd 8175 353d fa8c 5ebe
00000160: f9d4 933d 7807 393c b3ce bf3c 80f1 b23c
00000170: 9c57 853c a90e 4abc 3ad9 abbc db94 f6bc
00000180: 6465 86bd cf89 05bd ec57 9c3c 3f01 abbd
00000190: 44c2 b9bc 37c9 53bd 37be 5fbd 59e3 caba
000001a0: 1ccc c4bc 4062 bc3b 3f14 7ebd a0d9 563b
000001b0: 1792 2639 c798 5dbd 622b 47bd dc0d a23c
000001c0: d1fa 053e 1551 a23d ee51 52bd da80 dbbe
000001d0: 306e 7ebd 6eef ba3d c3ed 36bd be46 f2bc
000001e0: 68e3 c03c 867e c43c 6d80 843d edf3 81bc
000001f0: 0e26 44bd cd02 54be 3149 cb3d e315 383d
00000200: 3cf7 31bd 7119 ac3d 92d9 353d 502f 1ebe
00000210: 94b0 433d 53be 923d 564c 10bd 7385 973d
00000220: e1fe 01bd 2a25 3a3d d8d2 f93b 3b2c 8ebc
00000230: 51a2 6cbd aacb 37be 02b0 00bd 0815 5ebd
00000240: 9e22 68bd d0ef 07bc 34cd 22bd f3ef b4be
00000250: e859 263d 4bf6 943c 6e1e 11bc feba 6dbd
00000260: 71a0 0a3d 6cea 843c 07ba 1dbc 6dc8 7d3d
00000270: ffec a43d 3fc7 3cbe 0276 18bd 7651 793d
00000280: 5812 743c 002e c5ba c7ec 813c 358c 1cbd
00000290: b101 0b3d fda5 733d f573 38be f6d5 493d
000002a0: d5c4 713d e60c 863d 9ec3 1bbd de70 593d
000002b0: 4931 04bc aa07 0dbd 5749 9fbd 2567 f83c
000002c0: 0a6f 3b3d 196d 653d 14b5 7d3d 00c8 4abd
000002d0: b07c e9bb 247b 5abd d777 26bd 8c7d b53d
000002e0: 0fc8 ddbd 8015 91bd f698 933c 52e2 55bd
000002f0: 0611 833c 08ce 1b3d 2ca3 3d3d 5d1f 1fbd
00000300: 7ac1 633d b4c8 09bd e15e 70bd c900 c0bb
00000310: c4b0 15be e4f1 c2bc 4f73 9f3d c4ba f7bc
00000320: f880 55bc 6b37 733d 043c 3fbd 90d2 563d
00000330: a6a7 4fbd c4f3 1e3d b953 a73a 1a8c 603d
00000340: 642f ae3d 7189 803d 3e61 f8bc fdc7 903d
00000350: 2451 9e3c 466c a73d d50c e83d 48b5 16bd
00000360: f15c 3d3c 0a25 fc3d 4681 693d 164d 223c
00000370: 89a6 96bd 099e a73c 5c7c 51be d862 33bd
00000380: f3a1 8ebe ba49 243c e4d1 56bd 7df5 a4bd
00000390: 0ca0 07be b024 38bc 587c 7e3d 76a4 6c3d
000003a0: 90bb 8ebc 383c 0b3d ec95 00bd 4f77 7c3d
000003b0: cca3 0f3d e0a8 d13c 66d4 48bd a8f6 b83c
000003c0: a96c d83d c2a9 413d 00ab 61bd 150b 51bd
000003d0: 1292 f03c 524a 1c3d 0e86 63bd ff4c 5a3b
000003e0: 3e37 b43c ab10 81be 397f 3bbb a1e4 4dbc
000003f0: e37e 2d3d e5a1 05bd 1c24 b9bd c896 173e
0.047979016 0.023318728 0.06256564 0.0352273 0.077821895 -0.0414524 -0.02981908 -0.054098137
-0.106823735 -0.043998063 0.081539825 0.043004043 0.027715132 0.04711978 -0.003942907 0.0010170683
0.007959068 0.029167086 -0.048742127 0.024696536 0.028292285 -0.008703718 -0.24750414 -0.02994406
-0.035714425 0.02584569 0.06617434 -0.048762582 0.08535455 0.0015530498 -0.22703695 0.077787004
0.055709857 0.06328651 0.015872307 -0.023316048 0.09756132 0.020947807 -0.013847224 0.030355094
0.03340537 0.09698026 -0.01489424 -0.025067193 -0.012763642 0.07166928 -0.08791748 0.043022428
-0.010346718 -0.062461305 -0.059917875 0.0921846 0.006122239 0.13991274 -0.033815652 -0.0075486004
-0.058084443 0.019767515 0.03888616 0.015489794 0.07280792 -0.03758321 -0.2167859 -0.0144048035
0.06342176 -0.0072446815 -0.052578878 0.06868979 0.11172019 0.015621162 -0.008565873 -0.0555878
0.04734496 0.06807527 -0.00085471536 -0.059183016 0.06625633 0.016459778 0.01809657 -0.28402525
-0.15798473 -0.058645055 0.08011264 -0.04792641 0.016336061 -0.09212218 0.044301514 -0.21733466
0.07218356 0.011293285 0.023413992 0.021843672 0.016277127 -0.012332597 -0.020977605 -0.030100277
-0.065623075 -0.032602128 0.019084893 -0.08349847 -0.02267564 -0.051705565 -0.054624762 -0.0015479132
-0.024023108 0.005749017 -0.062031027 0.0032783523 0.00015885416 -0.054100778 -0.048625357 0.019782
0.1308396 0.079256214 -0.051347665 -0.42871743 -0.0621168 0.09127699 -0.04466034 -0.029574748
0.023545936 0.023986112 0.06469808 -0.015863383 -0.047887854 -0.20704193 0.099260695 0.044942748
-0.04344867 0.0840329 0.044396944 -0.15447736 0.04777582 0.07165208 -0.03522905 0.073985
-0.031737212 0.0454456 0.0076240115 -0.017355075 -0.057771984 -0.17948785 -0.031417854 -0.054219276
-0.05667364 -0.008296922 -0.03974648 -0.35339317 0.040613085 0.018183848 -0.008857353 -0.058039658
0.033844415 0.016225062 -0.009626872 0.06195872 0.08053016 -0.18435381 -0.037221916 0.060868703
0.014896952 -0.0015043616 0.015859975 -0.03821965 0.03393716 0.05948447 -0.18012984 0.049276315
0.059025604 0.06545429 -0.038028352 0.053086154 -0.008068391 -0.034431137 -0.0777766 0.03032262
0.045760192 0.056012247 0.061940268 -0.04950714 -0.0071254596 -0.053340092 -0.040641632 0.08861837
-0.10829174 -0.07084179 0.018017273 -0.05221779 0.015999328 0.038038284 0.04629819 -0.03884827
0.055604436 -0.03363867 -0.058684234 -0.0058594686 -0.14618212 -0.023796983 0.07785665 -0.030240424
-0.013031237 0.059379023 -0.046688095 0.0524469 -0.05069699 0.03880669 0.001276604 0.05482111
0.08505133 0.06276215 -0.030319806 0.07069395 0.0193258 0.081749484 0.113305725 -0.036793977
0.0115578035 0.12311752 0.05700805 0.009906074 -0.07355983 0.0204611 -0.20457596 -0.043795437
-0.27857932 0.010027343 -0.05244626 -0.08054636 -0.13244647 -0.011239216 0.062130302 0.05777403
-0.017423421 0.033992976 -0.031392977 0.06163722 0.03506832 0.025593221 -0.049030684 0.022578552
0.105676 0.047281034 -0.05509472 -0.05103596 0.029366527 0.038156815 -0.055547766 0.0033310053
0.021998998 -0.2520803 -0.0028609766 -0.012566716 0.042357337 -0.032625098 -0.090400904 0.14803612

linear_layer.2.bias f4 [256]
00000000: e9a6 233e 8e73 df37 745e 3e3d b848 3b3d
00000010: f6de 63bd 9ef1 763c 4d7f 90bd 0ac6 05bc
00000020: d842 a5bc 0e6b 1c3e 27bd 48bd 8ee4 963c
00000030: 4d01 433d 3cdf 933b 3d13 d33d 90b3 453d
00000040: bd3f 773c 9871 343d f175 833d 2019 78bc
00000050: a11c 71bd ee5b bebc e2fe 083d 5b73 273d
00000060: de5e 52bd 9370 88bd 935a 1ebc 4079 543c
00000070: 6492 93bd 1f27 133d 6872 7b3c 3e1c ea3d
00000080: d8ae e73c 17f5 2d3d 6389 753c c8b2 c5ba
00000090: d953 513d dfe0 0b3e d570 8b3c 8788 b5b8
000000a0: 4bb4 8dbd 9af5 8abd df5e cfbc 74a0 153d
000000b0: 89dd 093b 14f2 e53c 9f2b a73c 8c8e 8c3c
000000c0: 7d1a 0dbd 4128 5f3b f8c2 87bd 189d 8cbd
000000d0: 797f f9bc a99e 64bd 83e4 a8bd 62d2 e5bc
000000e0: 03f8 d1bb 1700 553d b9fd 4dbd 04ed a3bc
000000f0: 0273 02bd d1eb 44bc 11e2 66bd 44ac 02bd
00000100: ccff 263d 375b 14bd b929 073d f6ad f5bc
00000110: 115b 04bc 8922 85bd 80dc c93c 8c6f a9bd
00000120: 5508 1c3d 21a4 82bd 33e2 74bd d947 25bc
00000130: 0848 463c 8d71 67bd 7922 0abd a5ec 08bd
00000140: 281b d6bc 0190 38bd f2a0 d1bc 7a54 2d3d
00000150: 8c14 2e3d 97ce ddbc 2301 da3c 13d5 b73c
00000160: 37bf 05be 8b15 61bd 9ab4 123d 48f5 7bbd
00000170: 5c4c 0a3d cfb4 053d be4d a8bc 1c84 0d3d
00000180: cb21 1f3d 0e6a 3cbd 1a14 2a3d 606a ffbc
00000190: 6864 4fbd d890 483d 458e 193c 6577 edbd
000001a0: 7b81 61bd c80d 583c 83fd 943d 2f10 79bd
000001b0: 7418 a0bc 24eb 013e 0d65 2fbd b888 93bd
000001c0: f2de 60bd 7232 15bd 5d99 6d3d 6cad 91bd
000001d0: e634 563d b01e 9a3c 3a51 81bc a974 0e3e
000001e0: 19e3 71bd c0c6 edba 08d4 59bc 49e3 96bd
000001f0: 2711 0e3e 8007 2e3d 8edf 363b a6fa 2b3e
00000200: aaf1 d03c cf1d 08bd c03b 8cbb 2fe8 2e3b
00000210: de07 fbbb 7fae 64bd f8f2 233d 2903 33bd
00000220: c043 3a3c 60e7 20bc 4966 80bd 11f8 823d
00000230: e099 363d 84d1 bcbc a3df f63c 2136 9fbd
00000240: 7948 013e 7d98 813c 2486 0b3d 867e 8ebd
00000250: 9210 23bc 656b 813c 1b3d 88bc 8a07 3f3c
00000260: 928e 7dbb f8a9 c53c bc2b 983c f8e9 b63c
00000270: 744f a3bc 23b6 c63d a93b fabb bb5b 21bb
00000280: ba24 363d eb91 293e 90c8 42bd ca17 97bd
00000290: 1ca7 debc acff 963c 44fd 92bc b95a ccbc
000002a0: cd30 7ebd 142f 163e 154c b83d 3aa3 503d
000002b0: ce7b 0bbd 7bcb 87bd 03b9 7a3c 88c3 d5bc
000002c0: 0c80 fabc cd21 55bd 702b 4fbb 60ec 42bd
000002d0: d175 18bd d836 e53d ee46 abbd fa84 803c
000002e0: d81c 35bc 325f 50bd c4ce 563d d262 eabc
000002f0: 1b89 ed3c bee0 8dbb cd3a 983c 5c03 213d
00000300: 14ef 363c 5a92 4bbd ee0f 36bd 2246 6f3c
00000310: 35ab c03d d01b ca3d 8584 c9bd 34ef 6abd
00000320: 3102 b7bc f14b 443c 3845 9cbd ec41 66bd
00000330: 9295 583e f009 9abc c36d 873d 9d5a 5bbd
00000340: 7b3a 8dbc a41f 04bb e39b bfbc e32d c83c
00000350: 12e6 42bc 00d9 a5bd e432 57bb 6367 013d
00000360: 3245 76bd f430 7abd 28ae 75bd e31c 71bc
00000370: 1103 113c 701b d7bc e7ba 9f3d 423e 53bd
00000380: 6a3b 5ebd 01c1 a23c 86cf 8fbc b5b0 65bd
00000390: 8dd0 ecbb b5ff c63d b0d1 ea3b 4e51 81bd
000003a0: 0246 3dbd c8cc 9abc 5fbc 823d 7ea1 cfbc
000003b0: 6052 46bd e771 27bd 2d92 06bb 3833 463c
000003c0: f685 d73d 959f b63d 5aee 263d a70b eb3a
000003d0: c05f 8abd 21c3 d9bc 3457 f93b f31c 54bd
000003e0: 981c 273c feff fd3d 9a21 073d 841d 79bd
000003f0: 452d f0bc 6111 783d 0095 9b3a 3acf 133d
0.1598164 2.6637481e-05 0.046476796 0.045723647 -0.055632554 0.015072254 -0.07055531 -0.008164892
-0.020173475 0.15275213 -0.049008515 0.01841953 0.047608662 0.0045126956 0.10306404 0.048266947
0.01509088 0.044053644 0.0641898 -0.015142709 -0.058865193 -0.023237195 0.0334462 0.040881496
-0.051360004 -0.06662097 -0.009665149 0.012968361 -0.07205656 0.03592598 0.015347101 0.11431168
0.028281614 0.042470064 0.014986369 -0.0015083188 0.051105354 0.1366 0.017021576 -8.656183e-05
-0.06919154 -0.06785126 -0.025313793 0.036529973 0.0021036586 0.028069533 0.020406542 0.017157815
-0.03444909 0.0034051093 -0.06628984 -0.06865901 -0.030456292 -0.055815373 -0.0824671 -0.02805442
-0.006407739 0.05200204 -0.050290797 -0.020010479 -0.03184796 -0.012019114 -0.056367937 -0.031902567
0.04077129 -0.0362198 0.032998774 -0.029990178 -0.008078353 -0.06500728 0.024641275 -0.08273229
0.038093884 -0.06378961 -0.059786033 -0.010087931 0.0121021345 -0.056504775 -0.033724282 -0.033428807
-0.026135996 -0.045059208 -0.02558944 0.04231689 0.042500064 -0.027076049 0.02661187 0.022440469
-0.13061224 -0.054952186 0.035816766 -0.061513215 0.03376423 0.032643136 -0.020544883 0.034549817
0.038850587 -0.04599958 0.041523077 -0.031178653 -0.050632864 0.04896626 0.009372299 -0.11595038
-0.055055123 0.013186879 0.07274916 -0.06080645 -0.01954291 0.12687355 -0.04282098 -0.072038114
-0.054900117 -0.03642506 0.058007587 -0.07113156 0.05229654 0.018813461 -0.015785802 0.1391169
-0.059054468 -0.0018140897 -0.013295181 -0.0736757 0.1387373 0.04248762 0.0027904245 0.16794834
0.02550586 -0.033231553 -0.0042795837 0.0026688685 -0.00766085 -0.055830475 0.040026635 -0.043704186
0.011368692 -0.009820789 -0.06269509 0.06394971 0.04458034 -0.023049124 0.030135935 -0.07773996
0.12625302 0.015819782 0.034063473 -0.06957726 -0.009952681 0.01579828 -0.0166307 0.011659512
-0.0038689715 0.024128899 0.018575542 0.022328362 -0.019935347 0.097027086 -0.0076365066 -0.0024621326
0.04446862 0.1655957 -0.047554553 -0.07377584 -0.027179293 0.01843246 -0.017943032 -0.024945604
-0.06205826 0.14666396 0.089988865 0.050936915 -0.034053616 -0.06630608 0.015302899 -0.026094213
-0.030578636 -0.052034188 -0.0031611584 -0.047588706 -0.037221733 0.11192101 -0.08363138 0.015688408
-0.01105424 -0.050872035 0.05244328 -0.028611574 0.028996041 -0.00432977 0.018582726 0.039309844
0.011165399 -0.04970012 -0.044448785 0.014604123 0.09407655 0.09868586 -0.09839729 -0.057357028
-0.022339912 0.0119809965 -0.0763039 -0.05621521 0.21150807 -0.018803567 0.06612732 -0.053553212
-0.0172398 -0.002016046 -0.023389762 0.024435943 -0.011895673 -0.0809803 -0.003283673 0.031592738
-0.060124584 -0.06108184 -0.05998054 -0.01471636 0.008850829 -0.0262582 0.07799321 -0.051573046
-0.05425588 0.019867422 -0.01755501 -0.056076724 -0.0072270096 0.09716741 0.00716611 -0.06314336
-0.046209343 -0.018896475 0.06383585 -0.02534556 -0.048418403 -0.04088011 -0.0020533905 0.012097172
0.10523598 0.089171566 0.040754654 0.001793255 -0.06756544 -0.026582303 0.0076092724 -0.05178542
0.010199688 0.12402342 0.03299103 -0.060819164 -0.029318461 0.06056345 0.0011869967 0.0360863

linear_layer.4.weight f4 [1, 256]
00000000: be28 913d 2ce9 a8bc ea13 853c 1a03 fc3c
00000010: 5138 363d c136 393d cf81 903a 1c89 0d3c
00000020: 378c 57bd f62f 733d d345 3fbc 3c47 0c3d
00000030: 27de 5b3c 04ad 13bd d3ab a23d ef73 4abd
00000040: febe b73c f37f ebbc c06f 03be d9f0 1e3d
00000050: 79f9 a6bb cf7e 88bd ed8b 76bd baba 1f3d
00000060: 3de4 49bd e136 063c 3fd5 94bc b0ef 473d
00000070: c4dc 15be 303a 633d f419 c9bb 9dcc c73d
00000080: 80e1 e2ba 6bae 8bbc ad60 39bc 4a0d 04be
00000090: 4945 cabb 9e4d 2b3d b85b 8dbb 416a 3d3d
000000a0: ed49 a93b 56fb 16bd 25d7 21bd 2af8 303c
000000b0: eec4 2fbc 40d8 9abb e53e 3dbd 5b8e 8fbb
000000c0: 9b2d bdbb 3154 afbb 8d2b 383d a7a1 473c
000000d0: 2ee1 65bc f42a 803c 2593 f13c decd 7a3c
000000e0: 1557 2c3d 27b9 8abc b7c6 4bbd ba99 433d
000000f0: b81d 0d3c 3603 423d a090 73bd 84c4 4ebd
00000100: b7c6 42bd fea0 17bd 87b8 1d3d 447a 6f37
00000110: d35c 713d 8e0e aa3c 29fe 02be 1af7 e73b
00000120: 46cf 6b3a 3307 d93c ceef 513c fa10 21bc
00000130: 90b7 39bd aadf bb3a ac68 06bb 54bd 493d
00000140: 3117 c5bc 07c4 7bbd d486 973b 5ddc 223c
00000150: 1d42 a83d c94e 8f3c 49b6 743b e8c8 f73a
00000160: 620d 09bd f19e dbbc 2038 44bd cd47 bcbc
00000170: 7e4f 143d 1add 05bd d878 043d 68a8 953c
00000180: 9153 343d 5ec6 a43b 40d2 90ba 1c8c 62bc
00000190: 8042 de3c 5b90 2bbc d9b6 253d 1a42 3abe
000001a0: 3ada 1c3c 6554 27bc 0476 d63d f509 1abd
000001b0: 7aba 24bd 3c50 683d ed44 4b3d 0b0e babd
000001c0: 90d0 743d 894b 4b3c d209 213c 3cce fe3b
000001d0: 669d b03c 065b 5d3c cf0c d83c 8237 c23d
000001e0: 8b71 53bd 8a19 55bd 544c e9bc 8d7c f2bc
000001f0: 52b9 0e3e 3abd d4bc a1c9 083d 6446 8d3d
00000200: 2773 5cbd 1252 00bb 8044 e83a 9508 b63c
00000210: a462 173b 040f e63c 8764 643b c834 d23b
00000220: a07d 5e3d 0006 dc3a 52fa 34bc 8168 a63d
00000230: 00f9 033d 2aee ae3c 0db2 ec3c 53e2 82bc
00000240: beb4 7e3d 4b25 f83c 4805 403b 0de2 03be
00000250: b8c7 ee3c 322f 5c3c 2e3e 593d f55a 2cbc
00000260: 97f1 39bd b16d 603c 4824 2ebc 90f1 52ba
00000270: b4e5 b73c 161c a23d 361a 3d3d 2fae 93bc
00000280: 3f9a c3bc 5363 823d 38ec e03c 6b80 1b3c
00000290: dd8a 1dbd dadf 3fbd 9330 c33c ee6a 153d
000002a0: 66a5 153d 6d0c db3d 1591 913d cdc9 8c3d
000002b0: 3a51 ee3b 2286 48bd 0146 6d3b d859 6ebd
000002c0: d42c 7fbd 4559 31bd 6599 5d3c f3c3 14bd
000002d0: 5d99 ccbc 3ebb f23c 7b87 f6bc ae00 263b
000002e0: 31c2 3abd d4c1 a7bd a8d3 5abc 2239 093d
000002f0: 4af2 0e3d e03c 41bd fd40 eebc 0cb5 8b3c
00000300: 0e55 99bc 54ac 4c3a befb 3bbd ee9b 203d
00000310: 5b1b 333d c66d b73d 82d4 99bd 4e4c d73c
00000320: 5267 8abd 029d c23c b039 a43c 9845 20bd
00000330: b07d ff3d b498 67be 189c 9d3d bc9d 103d
00000340: 1623 aa3b 9df5 12bd 7811 8cbd 90db ba3c
00000350: 8374 143d 88d3 84bc 6006 7abc b68a 1b3d
00000360: 6472 8bbb 5360 30bd a830 0abe 3633 60bd
00000370: 570e 51bd 0351 ab3c 096e df3d 07ce 57bb
00000380: d89f 25bd 4c48 e0ba d50b f93b 8cd7 d03c
00000390: 1045 93be f444 713e d1d9 f73c 6c7e d0bc
000003a0: a23a 7ebd b02f 90bb 5adb 583d d997 683d
000003b0: 9064 b53b ad06 66bb 8940 d73a 843d 84bc
000003c0: fd99 4a3d aca7 a33d 9158 1a3c a317 2f3c
000003d0: d0f5 46bd d889 103a fb0e 6f3c fa04 14bd
000003e0: 5cf4 37bd b90e f43d 257d 843b 7071 8fbc
000003f0: e15b 1abd f662 e93d f41d a13c 3ad0 cd3d
0.07087849 -0.020618998 0.016244847 0.030763198 0.0444873 0.045218233 0.0011025014 0.008638646
-0.052623954 0.05937191 -0.011674362 0.034247622 0.013419664 -0.036053672 0.07942929 -0.04942697
0.02242994 -0.028747534 -0.12835598 0.03880391 -0.0050956574 -0.06664812 -0.060192037 0.038996436
-0.04928993 0.008191795 -0.01816809 0.04881257 -0.14634997 0.055475414 -0.006137127 0.09755824
-0.0017309636 -0.017050942 -0.011314553 -0.12895694 -0.00617281 0.04182207 -0.0043139122 0.04624391
0.0051662833 -0.036860786 -0.03951182 0.010801354 -0.010728104 -0.004725486 -0.04620256 -0.0043809838
-0.005773259 -0.0053506126 0.04496341 0.012184537 -0.014030738 0.015645482 0.02948911 0.015307872
0.042075235 -0.01693399 -0.049750056 0.047754027 0.0086130425 0.047366343 -0.059464097 -0.05048038
-0.04755279 -0.03701877 0.038506057 1.4273977e-05 0.058926415 0.020758893 -0.12792267 0.0070790173
0.0008995425 0.02649269 0.012813522 -0.009830708 -0.045341074 0.0014333625 -0.0020509167 0.049252823
-0.02405891 -0.061466243 0.004624227 0.009940234 0.08215735 0.017493622 0.0037340096 0.0018904479
-0.03346003 -0.026809188 -0.047905087 -0.022983456 0.036208622 -0.032681562 0.032341808 0.018268779
0.044025008 0.00502853 -0.0011048988 -0.01382735 0.027131319 -0.010471429 0.04045758 -0.18189278
0.009573514 -0.010212992 0.104717284 -0.037607152 -0.0402169 0.056717142 0.04962628 -0.0908471
0.059769213 0.012408146 0.0098290015 0.00777605 0.021559428 0.013510471 0.026373295 0.094832435
-0.051621955 -0.05202631 -0.028478779 -0.029600406 0.13937882 -0.025969137 0.033395413 0.068981916
-0.053820755 -0.0019580168 0.001772061 0.02222089 0.0023099566 0.028083332 0.0034849958 0.0064149834
0.054319024 0.0016786456 -0.011046009 0.08125401 0.032219887 0.0213538 0.028893495 -0.01597706
0.062184088 0.03029122 0.0029300023 -0.128792 0.029147968 0.013438987 0.053037815 -0.010519733
-0.045396414 0.0136980275 -0.010628767 -0.000804686 0.022448398 0.07915513 0.046167575 -0.018027393
-0.023877261 0.06366601 0.027456388 0.009491066 -0.03846251 -0.04684434 0.023826873 0.03647893
0.03653469 0.106957294 0.0710775 0.06874428 0.0072728666 -0.048956044 0.0036205056 -0.05819115
-0.06229861 -0.043298025 0.013525342 -0.036319684 -0.024975473 0.0296303 -0.030093899 0.0025329995
-0.04559535 -0.08191267 -0.013356127 0.03350175 0.034899034 -0.047177196 -0.029083723 0.017054103
-0.018717315 0.00078076613 -0.045894377 0.039211206 0.04372726 0.089564845 -0.07511236 0.026281502
-0.06757988 0.023756508 0.020047039 -0.03912887 0.12475145 -0.22616845 0.07695788 0.035306677
0.005192171 -0.035878766 -0.068392694 0.022809774 0.036243927 -0.016214147 -0.015260309 0.037974082
-0.00425558 -0.043060612 -0.13495123 -0.05473634 -0.051039066 0.020912653 0.109096594 -0.0032929198
-0.040435642 -0.001711139 0.0076002874 0.025493406 -0.28763628 0.2356146 0.03025523 -0.025450908
-0.062067635 -0.004400216 0.052943565 0.05678544 0.0055356696 -0.0035099194 0.0016422431 -0.016142614
0.04946326 0.07990965 0.00942053 0.010686788 -0.04857427 0.00055137044 0.014590974 -0.03613756
-0.044910774 0.119168706 0.0040432387 -0.017510146 -0.03768528 0.113958284 0.019667603 0.10049482
