load_model/critic.pth (torch, 381719 bytes, 5 tensors)

linear_layer.0.weight f4 [320, 38]
0	0x3e0bbd14	0.13646346
1	0xbd277d19	-0.040890787
2	0x3ccd748e	0.025079992
3	0x3d961bc8	0.073295176
4	0xbd66c5a2	-0.05634082
5	0x3deeb455	0.11655489
6	0xbe038272	-0.1284273
7	0x3d3e3894	0.046440676
8	0x3b9aa268	0.0047190674
9	0x3d498934	0.049203113
10	0xbdd4d0fa	-0.103914216
11	0xbdfca9db	-0.12337085
12	0x3e4364f0	0.19081473
13	0xbdc4ed06	-0.09615521
14	0xbd73cff3	-0.059524488
15	0xbdb315b9	-0.08744378
16	0xbe0692e6	-0.13141975
17	0x3daa0053	0.08300843
18	0xbe45b64e	-0.19307825
19	0x3ddd5586	0.10807328
20	0x3db2b0e6	0.08725147
21	0xbe0eeb81	-0.13957025
22	0xbdc59984	-0.096484214
23	0xbe0c95a7	-0.13728963
24	0x3f6561ce	0.89602363
25	0x3f3fb594	0.7488644
26	0x3f0796eb	0.5296466
27	0x3f408f84	0.7521899
28	0x3f2cecab	0.67548627
29	0x3f13502f	0.57544225
30	0x3f3e6f3b	0.74388474
31	0x3ee762e5	0.45192638
32	0x3f1ba728	0.60801935
33	0x3f408a43	0.7521097
34	0x3ef2c986	0.47419375
35	0x3ec162ff	0.3777084
36	0x3f261934	0.64882207
37	0x3f3bd286	0.7336811
38	0x3de40b94	0.11135021
39	0xbe207d38	-0.15672767
40	0xbdd5a722	-0.10432269
41	0xbe20b0df	-0.15692471
42	0xbd81b546	-0.06333403
43	0x3d5b4fcc	0.053542897
44	0xbdf909f3	-0.12160101
45	0x3db8fee6	0.09032993
46	0x3e00c33c	0.12574476
47	0x3d8ac4c9	0.06775815
48	0xbe01abec	-0.12663239
49	0x3d856b87	0.0651465
50	0x3cb90b61	0.022588434
51	0x3d5618e1	0.05226982
52	0xbdf1b8cd	-0.11802826
53	0x3df70bfc	0.12062833
54	0xbd970e92	-0.07375826
55	0xbd910363	-0.07080724
56	0xbd751af9	-0.059840176
57	0x3de1f8ce	0.11033784
58	0x3cc4ecb3	0.024038648
59	0x3e0c1ebb	0.13683598
60	0xbd94a459	-0.07257909
61	0x3e071513	0.13191633
62	0x3f47eb60	0.7809353
63	0x3f482f62	0.781973
64	0x3f5445c1	0.82918936
65	0x3f151283	0.5823137
66	0x3f2c1f50	0.6723528
67	0x3f3cb325	0.7371085
68	0x3f134b3f	0.5753669
69	0x3eef60c7	0.46753523
70	0x3f52d617	0.82357925
71	0x3f2c8c4f	0.67401594
72	0x3f157cf0	0.58393764
73	0x3f02c511	0.5108195
74	0x3f40015d	0.7500208
75	0x3f2951d8	0.6614051
76	0xbd6e369b	-0.058157545
77	0x3d6f9496	0.058491312
78	0x3de55b61	0.1119907
79	0xbe22122c	-0.15827245
80	0x3dc305ee	0.095226154
81	0xba605a8e	-0.00085584156
82	0x3d942881	0.07234288
83	0x3e161fa1	0.14660503
84	0x3d1f134b	0.03883676
85	0x3d8f7e81	0.070065506
86	0x3e145a31	0.1448753
87	0xbd9c3762	-0.07627751
88	0xbda62d1d	-0.081140734
89	0xbdd90bec	-0.10597977
90	0x3d1c6ac6	0.038187765
91	0x3d967de3	0.0734823
92	0x3dfb90cc	0.12283477
93	0x3d3ac882	0.045601375
94	0xbdd247a4	-0.102675706
95	0x3cdb7ae2	0.026791994
96	0xbe100a51	-0.14066435
97	0xbd3284cd	-0.04358368
98	0xbd6e1089	-0.058121238
99	0xbda3f428	-0.080055535
100	0x3f4b575f	0.7943019
101	0x3f0ec554	0.5576985
102	0x3f1e1bf9	0.6176143
103	0x3f1a26f1	0.6021567
104	0x3f038b16	0.51384103
105	0x3f0038c9	0.5008665
106	0x3f3c79f1	0.7362357
107	0x3f1deb20	0.616869
108	0x3f2c2dbe	0.672573
109	0x3f1ccfdc	0.6125467
110	0x3f16451c	0.586992
111	0x3f048690	0.51767826
112	0x3f360e2f	0.7111539
113	0x3f3a45ec	0.7276294
114	0xbc84bf93	-0.016204631
115	0xbd49ca4f	-0.049265202
116	0xbe4722c9	-0.19446863
117	0xbd4dbc34	-0.050228313
118	0x3e08d310	0.13361764
119	0x3d53f44e	0.05174666
120	0x3d75c4e3	0.06000222
121	0xbd53da02	-0.05172158
122	0xbbbf6c55	-0.0058417716
123	0x3c5f3bee	0.013625128
124	0x3ca8da93	0.020612037
125	0xbdc6084b	-0.096695505
126	0x3d461032	0.04835529
127	0xbda22376	-0.0791692
128	0x3e0885c1	0.13332273
129	0xbbc8e984	-0.006131353
130	0xbd7c3851	-0.061577145
131	0xbe152694	-0.14565498
132	0x3c50fe35	0.01275592
133	0x3cc796ca	0.024363894
134	0xbd99ac2d	-0.07503543
135	0xbd9bf16e	-0.076144084
136	0xbcbdacf1	-0.023153754
137	0x3c769e8c	0.015052449
138	0x3f81de65	1.0145994
139	0x3f26feb7	0.65232414
140	0x3f46e0d2	0.776868
141	0x3f3b924a	0.73270094
142	0x3f2f2257	0.68411773
143	0x3f45bf32	0.77244866
144	0x3f47f711	0.7811137
145	0x3f32ca03	0.69839495
146	0x3f56a49b	0.8384492
147	0x3f62f59f	0.8865604
148	0x3f18e111	0.59718424
149	0x3f4465d1	0.7671786
150	0x3f29da2b	0.6634852
151	0x3f070590	0.5274286
152	0xbe0b32ae	-0.13593552
153	0xbdadc571	-0.084849246
154	0xbe0dac7b	-0.13835327
155	0xbc2fd4c3	-0.010731879
156	0x3dd48f0c	0.103788465
157	0xbdf2dada	-0.11858149
158	0xbe11dd81	-0.14244653
159	0x3d0eca63	0.03486098
160	0xbd0b40b9	-0.03399727
161	0xbd80acae	-0.06282936
162	0x3df90597	0.12159269
163	0x3cd4f79e	0.02599698
164	0x3dbed7cc	0.09318504
165	0x3dbc6f02	0.092008606
166	0x3d84a043	0.0647588
167	0x3d6626e7	0.056189444
168	0x3e2a20c5	0.16614063
169	0x3d0ad3c0	0.033893347
170	0xbc1a861c	-0.009431388
171	0x3d2d04e6	0.042241
172	0xbddfe7f4	-0.109329134
173	0xbe1eb2e0	-0.15497923
174	0xbcf7e759	-0.030261682
175	0xbe12fc6c	-0.14354104
176	0x3f2522b6	0.6450609
177	0x3f06c684	0.5264666
178	0x3f18143d	0.5940588
179	0x3f2beabc	0.6715505
180	0x3f058cdc	0.5216806
181	0x3f1cc350	0.61235523
182	0x3f04deb5	0.51902324
183	0x3ee78d30	0.45224905
184	0x3f0d9377	0.5530314
185	0x3f0fc06e	0.56153
186	0x3f299d5f	0.66255754
187	0x3f0e2deb	0.55538815
188	0x3f0ac04a	0.5419966
189	0x3ee60556	0.44925946
190	0x3d47cb0e	0.048777632
191	0xbd841f1b	-0.064512454
192	0xbe185a26	-0.14878139
193	0x3d1b62dc	0.037936077
194	0xbe1eb537	-0.15498815
195	0x3c7d84bc	0.015473541
196	0xbe18b39c	-0.14912266
197	0x3db8a853	0.0901648
198	0xbce251de	-0.027626928
199	0x3e0369ff	0.12833403
200	0x3df68546	0.12037139
201	0x3e1be7f8	0.15225208
202	0xbd4c9342	-0.049945123
203	0xbdff4885	-0.12465004
204	0xbd10c4d2	-0.035343952
205	0xbe2024e1	-0.15639068
206	0x3d6e9a7d	0.0582528
207	0xbe07b48e	-0.1325247
208	0x3cd9b602	0.026576046
209	0xbe150a4f	-0.14554714
210	0xbd449de1	-0.048002128
211	0xbe00a77f	-0.12563895
212	0x3bc04da8	0.0058686323
213	0xbd92ee45	-0.071743526
214	0x3f1f3747	0.6219372
215	0x3f2ae1f3	0.6675102
216	0x3f3cf757	0.7381491
217	0x3ee661d9	0.44996527
218	0x3f3c23a0	0.7349186
219	0x3f15a159	0.5844932
220	0x3f061f0c	0.52391124
221	0x3f04b067	0.5183167
222	0x3f0bc4e7	0.54597324
223	0x3f022e51	0.50851923
224	0x3f3b0d36	0.73067033
225	0x3f1858d4	0.5951054
226	0x3f398ac2	0.7247735
227	0x3f3352e5	0.7004836
228	0x3deb6c6b	0.114952885
229	0xbdca1768	-0.09867746
230	0xbe3fdbca	-0.18736187
231	0xb9f592a4	-0.00046839297
232	0xbe17331c	-0.1476559
233	0x3dde01f3	0.108402155
234	0xbcd13425	-0.02553756
235	0x3d0837de	0.033256404
236	0xbbc01c58	-0.005862754
237	0xbda845d4	-0.08216444
238	0x3e092ffe	0.13397214
239	0xbe1e0f5c	-0.15435547
240	0xbe5bb49c	-0.21455616
241	0x3da53322	0.080663934
242	0xbcaa870a	-0.020816345
243	0x3cf5afb4	0.029991008
244	0x3cb1b9e7	0.02169509
245	0x3d2e88fd	0.04261111
246	0x3dd6176d	0.10453687
247	0x3ca2eab9	0.019887315
248	0xbdcd8b0d	-0.100362875
249	0x3d75ba74	0.05999227
250	0xbddc4e3e	-0.10757111
251	0xbba3dbdd	-0.005000575
252	0x3f449285	0.7678607
253	0x3f58c64b	0.8467757
254	0x3f4625ec	0.77401614
255	0x3f4ac28b	0.792031

linear_layer.0.bias f4 [320]
0	0x3f3f23c7	0.74663967
1	0x3f4529f7	0.7701716
2	0x3f43d239	0.7649265
3	0x3f7571c7	0.95876735
4	0x3f0cb0db	0.5495736
5	0x3f330158	0.69923925
6	0x3f3dc4b7	0.7412829
7	0x3f2cf28a	0.67557585
8	0x3f2222f1	0.63334566
9	0x3f571a7b	0.8402478
10	0x3f4e9ad7	0.80705017
11	0x3f2ae3e0	0.6675396
12	0x3f680cd7	0.9064459
13	0x3f4bb9a5	0.79580146
14	0x3f12ae81	0.5729752
15	0x3f667c27	0.9003319
16	0x3f461bfd	0.77386457
17	0x3f21bd6c	0.6317966
18	0x3f50177a	0.8128582
19	0x3f2f2c5e	0.68427074
20	0x3f374fff	0.7160644
21	0x3f211f89	0.62938744
22	0x3f6dd947	0.92909664
23	0x3f0f053d	0.5586737
24	0x3f3719ed	0.71523935
25	0x3e0d4b32	0.13798216
26	0x3f646aa3	0.89225215
27	0x3f18b1ee	0.596465
28	0x3f3f23ed	0.74664193
29	0x3f403db8	0.75094175
30	0x3f536272	0.8257209
31	0x3f4b5dd2	0.79440033
32	0x3f2fe54d	0.6870926
33	0x3f1a0008	0.601563
34	0x3f4c1fc6	0.7973598
35	0x3f1cdb05	0.612717
36	0x3ee712b5	0.4513146
37	0x3f47da8e	0.78067863
38	0x3f41adc4	0.7565577
39	0x3f32b8cd	0.69813234
40	0x3f5b7c0b	0.8573615
41	0x3f2fdfdd	0.68700963
42	0x3f1bcd40	0.6086006
43	0x3f4ad56f	0.79231924
44	0x3f38f069	0.72241837
45	0x3f5046b6	0.81357896
46	0x3f3afe8c	0.7304466
47	0x3f614cc6	0.8800777
48	0x3f353763	0.7078764
49	0x3f665287	0.89969677
50	0x3f08de36	0.53464067
51	0x3f4cb9fc	0.7997129
52	0x3f574130	0.84083843
53	0x3f3d8085	0.7402423
54	0x3f4a99f0	0.7914114
55	0x3f6adad8	0.9174018
56	0xbdf03d91	-0.11730493
57	0x3f056113	0.5210125
58	0x3f51cb93	0.81951255
59	0x3f2e3c1a	0.6806046
60	0x3f301b5b	0.6879174
61	0x3f4933e0	0.7859478
62	0x3e2ef062	0.17083886
63	0x3f434370	0.76274776
64	0x3f440427	0.76568836
65	0x3f114266	0.5674194
66	0x3f21d75f	0.63219255
67	0x3f468af6	0.7755579
68	0x3f10d6ba	0.56577647
69	0x3f4bdd1e	0.79634273
70	0x3f3e3428	0.74298334
71	0x3f474c00	0.7785034
72	0x3f416e97	0.7555937
73	0x3f3dfb9d	0.74212056
74	0x3f30e1e0	0.6909466
75	0x3f3af407	0.73028606
76	0x3f2a176a	0.6644198
77	0x3f1e5a29	0.61856323
78	0x3f16eb5a	0.5895287
79	0x3f2ac60b	0.6670844
80	0x3f4f8ec3	0.8107721
81	0x3f10fa98	0.56632376
82	0x3f44f74d	0.7693985
83	0x3f48b6c6	0.7840389
84	0x3f347eae	0.705058
85	0x3f658784	0.89659905
86	0x3f4c0493	0.7969448
87	0x3f163f25	0.586901
88	0x3f0c5436	0.54815996
89	0x3f4d8bae	0.8029126
90	0x3f2fa414	0.6860974
91	0x3f39aea1	0.7253209
92	0x3f53a415	0.82672244
93	0x3f498afb	0.7872769
94	0x3f34429b	0.7041413
95	0x3f0cc5f8	0.54989576
96	0x3f5c37e4	0.8602278
97	0x3f3de1df	0.74172777
98	0x3f3a1929	0.7269464
99	0x3f396082	0.72412884
100	0x3f2d84ef	0.67780966
101	0x3f4e46ce	0.8057679
102	0x3f5c7dc2	0.8612939
103	0x3f353238	0.7077975
104	0x3f531f25	0.824694
105	0x3f8d5f54	1.1044717
106	0x3f372777	0.71544594
107	0x3f1fb74c	0.62389064
108	0x3f282951	0.65688044
109	0x3f30f7f2	0.69128335
110	0x3f4f0640	0.8086891
111	0x3f4089e4	0.75210404
112	0x3f26f34f	0.6521501
113	0x3f12aa08	0.572907
114	0x3f255d7b	0.64595765
115	0x3f34ecf4	0.7067406
116	0x3f33b667	0.702002
117	0x3f42dd1e	0.7611865
118	0x3f2f2b1f	0.6842517
119	0x3f21b819	0.63171536
120	0x3f4644f6	0.77448976
121	0x3f2c7da3	0.67379206
122	0x3f1a757d	0.6033552
123	0x3f093bae	0.5360669
124	0x3f2b3f39	0.66893345
125	0x3f2017c5	0.6253627
126	0x3f63fab0	0.89054394
127	0x3f7286d1	0.94736964
128	0x3f453a7c	0.77042365
129	0x3f2880ce	0.6582154
130	0x3f538655	0.8262685
131	0x3f43ed39	0.7653385
132	0x3f29d814	0.66345334
133	0x3f55b719	0.8348251
134	0x3ecf301b	0.4046639
135	0x3f25fb87	0.64836925
136	0x3f5c0df0	0.85958767
137	0x3f2a4f91	0.6652766
138	0x3f5582c7	0.83402675
139	0x3f6d89bb	0.92788285
140	0x3f58a1f4	0.8462212
141	0x3f3bc451	0.7334643
142	0x3f4d230f	0.8013162
143	0x3f3b5f60	0.73192406
144	0x3f4ed01b	0.80786294
145	0x3f1f52b3	0.62235564
146	0x3f3a58fe	0.7279204
147	0x3f447661	0.7674313
148	0x3f47f857	0.7811331
149	0x3f4dddab	0.80416363
150	0x3f41b24b	0.7566268
151	0x3f36a428	0.7134423
152	0x3f1b6155	0.6069539
153	0x3f1e621c	0.61868453
154	0x3f4b3ea7	0.79392475
155	0x3f5a70ec	0.85328555
156	0x3f1daa3f	0.615879
157	0x3f331c85	0.6996539
158	0x3f4e754c	0.8064773
159	0x3f1cd965	0.6126922
160	0x3f351005	0.7072757
161	0x3f2885f2	0.65829384
162	0x3f77c6e0	0.96787834
163	0x3f406e9c	0.75168777
164	0x3f5dd395	0.86650974
165	0x3f8898fc	1.0671687
166	0x3f4c65cf	0.7984285
167	0x3f36ce89	0.714089
168	0x3f2e0fa6	0.6799263
169	0x3f3ed053	0.7453663
170	0x3f3ca187	0.7368397
171	0x3f64823f	0.8926124
172	0x3f3b3eff	0.73143
173	0x3f31098f	0.6915521
174	0x3f3901c1	0.722683
175	0x3f41503c	0.7551305
176	0x3f3d4017	0.7392592
177	0x3f5b00fd	0.85548383
178	0x3f4f6645	0.81015426
179	0x3f16b3d3	0.5886814
180	0x3f2f749d	0.6853731
181	0x3f2b4455	0.6690114
182	0x3f5a84b8	0.8535876
183	0x3f1c9127	0.61158985
184	0x3f315989	0.69277245
185	0x3f448306	0.76762426
186	0x3f50c742	0.81554043
187	0x3f3267a2	0.6968938
188	0x3f533244	0.82498574
189	0x3f47e770	0.7808752
190	0x3f1dd6bd	0.6165579
191	0x3f2e1330	0.6799803
192	0x3f41e3a3	0.7573797
193	0x3f4c48cf	0.797986
194	0x3f540e2b	0.8283412
195	0x3f43ff18	0.7656112
196	0x3f44fdb2	0.7694961
197	0x3f1bb7e3	0.60827464
198	0x3f05765c	0.5213373
199	0x3f13cfa7	0.5773873
200	0x3f201052	0.625249
201	0x3f666440	0.8999672
202	0x3f139a71	0.57657534
203	0x3f4c290f	0.7975015
204	0x3f6c88df	0.9239635
205	0xbe34da8c	-0.17661494
206	0x3f610c0a	0.87908995
207	0x3f24c584	0.64363885
208	0x3f226971	0.6344214
209	0x3f25bb7f	0.6473922
210	0x3f4f2ffc	0.80932593
211	0x3f2a1130	0.66432476
212	0x3f518cb1	0.81855303
213	0x3f39421b	0.72366494
214	0x3f4adbaa	0.7924143
215	0x3f30cec0	0.69065475
216	0x3f581228	0.84402704
217	0x3f1aa7fb	0.6041257
218	0x3f6846d0	0.9073305
219	0x3f252cf9	0.6452175
220	0x3f4740a4	0.7783301
221	0x3f21ee00	0.63253784
222	0x3f38d6a1	0.722025
223	0x3f5d5293	0.86454123
224	0xbd39efee	-0.04539483
225	0x3f15ac1c	0.58465743
226	0x3f2ef9ba	0.683498
227	0x3f688ed4	0.9084294
228	0x3cb26693	0.021777427
229	0x3f158491	0.58405405
230	0x3f55dc11	0.8353892
231	0x3f5ce82a	0.86291754
232	0x3f350fa1	0.7072697
233	0x3f18b923	0.59657496
234	0x3f5614f9	0.8362575
235	0x3f749f78	0.9555583
236	0x3f57d630	0.843112
237	0x3f183700	0.59458923
238	0x3f556d96	0.8337034
239	0x3f1b77d0	0.60729694
240	0x3f51ef63	0.820059
241	0x3f28e6d2	0.65977204
242	0x3f2728a3	0.6529638
243	0x3f5ef6c1	0.87095267
244	0xbdf797ba	-0.120894864
245	0x3f1f1260	0.62137413
246	0x3f45b32d	0.77226526
247	0x3f4314bc	0.76203513
248	0x3f2589b6	0.64663255
249	0x3f4b4f18	0.7941756
250	0x3f4a0271	0.78909975
251	0x3f5fadc2	0.8737451
252	0x3f51acb2	0.8190414
253	0x3f4ae860	0.79260826
254	0x3f33dd80	0.7025986
255	0x3f72abcd	0.947934

linear_layer.2.weight f4 [256, 320]
0	0x3bad5a1b	0.0052902824
1	0xbcea64f3	-0.02861259
2	0x3bb5faab	0.0055535636
3	0xbb8a108c	-0.0042133983
4	0xbc39b125	-0.011333738
5	0xbd302d7d	-0.04301213
6	0xbd2a0b53	-0.041514706
7	0xbcc02e20	-0.023459494
8	0x3d0d5ff7	0.034515347
9	0xbd7e67eb	-0.062110823
10	0x3d116afd	0.035502423
11	0x3a51d2b9	0.00080041174
12	0xbd4c1879	-0.049828026
13	0xbb254c9e	-0.002522267
14	0x3cf9baec	0.03048464
15	0xbcecc314	-0.028901614
16	0x3bb1c687	0.0054252776
17	0xbd6904d2	-0.056889363
18	0xbd7e3cc1	-0.06206966
19	0xbd50543c	-0.050861582
20	0xbcc58a9b	-0.024113944
21	0xbd2f7ac2	-0.04284168
22	0xbd6ba910	-0.057534277
23	0x3c64e9bb	0.013971741
24	0xbd021c6b	-0.031765383
25	0xbcb71feb	-0.022354087
26	0x3cfce926	0.030872893
27	0xbc9e5330	-0.019326776
28	0xbd1e5280	-0.038652897
29	0x3cab118e	0.020882394
30	0xbca63207	-0.020287527
31	0x3cf8677a	0.030322779
32	0xbcf98a65	-0.0304615
33	0xbd805520	-0.06266236
34	0x3d08d2f2	0.033404298
35	0xbd62ce3a	-0.055372454
36	0x3c3b5437	0.011433653
37	0x3ca4d619	0.020121621
38	0xbd733072	-0.059372373
39	0x3cba8e16	0.02277283
40	0xbd41f808	-0.04735568
41	0xbd23bfda	-0.039977886
42	0xbc577139	-0.013149553
43	0xbc7f8eff	-0.015598058
44	0xbd2513e8	-0.040302187
45	0x3d096c5a	0.033550598
46	0xbd6a5783	-0.057212364
47	0x3d123bfb	0.035701733
48	0x3ca6bfdb	0.020355156
49	0xbd74c9e9	-0.05976287
50	0xbcf7d1b9	-0.03025137
51	0x3ce82c34	0.02834139
52	0xbc54ad23	-0.012980732
53	0xbd6111bb	-0.05494855
54	0x3cefde1d	0.029280717
55	0xbd78ab87	-0.060710456
56	0x3d31860a	0.04334072
57	0x3d092d6c	0.033490583
58	0xbcefa69c	-0.02925425
59	0x3ceab4a1	0.028650584
60	0x3c1f13df	0.0097093275
61	0xbbcff328	-0.006346125
62	0xbc9f495d	-0.019444162
63	0xbd32e591	-0.043675963
64	0xbd3d097b	-0.04615162
65	0x3b85a83a	0.004078892
66	0xbd5c7974	-0.053826764
67	0x3becf626	0.0072314916
68	0x3d0969ff	0.03354835
69	0xbd1da170	-0.038484037
70	0xbc850532	-0.016237829
71	0x3cde5886	0.02714182
72	0x3d26eefd	0.04075526
73	0xbd1e8486	-0.038700603
74	0x3aae5403	0.0013300184
75	0x3d38e8c8	0.045143872
76	0xbd4b1660	-0.049581885
77	0xbd2f7c4f	-0.04284316
78	0xbce18a51	-0.027531775
79	0xbcc96aa8	-0.02458699
80	0x3d101084	0.035172
81	0xbade9f96	-0.0016984816
82	0x3c765340	0.015034497
83	0x3d19f11b	0.03758345
84	0xbd727ee4	-0.059203044
85	0xbc036eee	-0.008022053
86	0xbcf741bb	-0.03018271
87	0x3bd6cf15	0.006555448
88	0xbd630b60	-0.05543077
89	0xbbffde1d	-0.0078084604
90	0x3cfc02ec	0.030763112
91	0x3c821c86	0.015882742
92	0x3cf75b8c	0.03019502
93	0xbcb35366	-0.021890353
94	0x3c818b72	0.015813563
95	0xbc1813fc	-0.009282108
96	0x3cec0456	0.028810661
97	0x3c8cf719	0.01720767
98	0xbc570d67	-0.013125754
99	0xbb9604b2	-0.0045781964
100	0xbc996d63	-0.018728917
101	0xbc4a3246	-0.012341088
102	0xbce21c30	-0.027601331
103	0xbd366c50	-0.04453689
104	0x3b968b54	0.004594246
105	0xbd0649df	-0.032785293
106	0x3ab8fc1c	0.001411322
107	0x3cd86891	0.026417049
108	0x3c000354	0.0078132935
109	0xbbabdc42	-0.0052447626
110	0xbcb11767	-0.021617604
111	0x3d038c8a	0.03211645
112	0x3b88cb37	0.0041746157
113	0xbcc73d56	-0.02432124
114	0x3d29ad0d	0.0414248
115	0xbce0608d	-0.027389789
116	0xbc3959cb	-0.011312912
117	0xbc3a484c	-0.011369776
118	0x3ba4b6c2	0.0050266692
119	0xbd00b433	-0.03142185
120	0xbc7fc89b	-0.015611793
121	0x3cda865c	0.026675396
122	0x3d410b92	0.047130175
123	0x3ca91ae6	0.020642709
124	0xbc6555bd	-0.013997492
125	0xbd6cd820	-0.0578233
126	0xbd4a3b0d	-0.04937272
127	0x3cff51d0	0.03116694
128	0xbd625aba	-0.055262305
129	0xbc96a8b2	-0.018390987
130	0xbd5ddbaa	-0.054164566
131	0x3b97e2c3	0.0046351864
132	0xbccdb4a1	-0.025110545
133	0x3ccdf9a2	0.025143448
134	0xbd18391b	-0.037163835
135	0x3c87abca	0.016561408
136	0xbd2a664f	-0.041601475
137	0xbd569a83	-0.052393448
138	0xbd6b0560	-0.057378173
139	0x3d0ea6a7	0.0348269
140	0xbd2447ed	-0.040107656
141	0x3aa2b828	0.0012414502
142	0x3d21c2f8	0.039492577
143	0x3c9c51be	0.019081946
144	0x3d2cf717	0.04222783
145	0xbcc0e30e	-0.023545768
146	0xbd372032	-0.04470844
147	0xbb5b78f7	-0.0033488849
148	0x3bd7df57	0.0065879035
149	0xbd42ce27	-0.047559883
150	0xbb4a4a5b	-0.0030867073
151	0x3c110744	0.00885183
152	0xbb728cd9	-0.0037010221
153	0xbd65df56	-0.056121193
154	0xbd783683	-0.06059886
155	0x3d2b7f4c	0.041869447
156	0xbce4d639	-0.02793418
157	0x3d406d4d	0.046979237
158	0x3ceed35d	0.02915352
159	0x3cfe9ce7	0.031080676
160	0x3bcf530d	0.006327039
161	0xbd12ef34	-0.035872653
162	0x3cc78697	0.02435617
163	0x3c5e6c5f	0.013575642
164	0xbca1f311	-0.019769223
165	0xb9850724	-0.00025373057
166	0x3d152e01	0.036420826
167	0x3b8dd54f	0.004328407
168	0x3cabca37	0.020970447
169	0x3c41e668	0.011834718
170	0xbd7a5794	-0.061118677
171	0x3b47fdbe	0.0030516232
172	0x3c6aee43	0.014339033
173	0x3c100fad	0.0087928
174	0xbd334eec	-0.043776438
175	0xbcdb65dc	-0.026781969
176	0x3cafd0f1	0.021461936
177	0x3cb2eae4	0.02184052
178	0xbd2259b0	-0.039636314
179	0xbc013e73	-0.007888424
180	0xbd677810	-0.056510985
181	0x3c5f8d3f	0.013644516
182	0xbc8021e0	-0.015641153
183	0x3d2452a8	0.04011789
184	0xbb74ec1b	-0.0037372175
185	0x3d22d352	0.039752312
186	0x3a28dc84	0.0006441551
187	0xbcb5d6c5	-0.022197137
188	0xbd578872	-0.05262036
189	0xbc585773	-0.013204443
190	0xbd547649	-0.051870618
191	0xbd29a5c6	-0.04141786
192	0xbd5a1aa7	-0.053248074
193	0x3d1b6ea1	0.0379473
194	0xbc69dc12	-0.01427366
195	0x3cb7a779	0.022418724
196	0xbce2dfc2	-0.027694587
197	0xbc7ed73c	-0.015554246
198	0x3c9256a1	0.017863574
199	0xbd7986fa	-0.06091974
200	0xbcf307d7	-0.029666824
201	0xbd14072d	-0.036139656
202	0x3ccab041	0.024742248
203	0xbd137744	-0.036002412
204	0xbb95e8e3	-0.0045748814
205	0x3d3c622c	0.04599206
206	0xbd7920e4	-0.060822383
207	0xbc69e90d	-0.014276755
208	0xbcc01154	-0.023445763
209	0xbbac722b	-0.0052626333
210	0xbceafd99	-0.028685378
211	0xbd07590b	-0.033043902
212	0x3ca9fa64	0.020749278
213	0xbceab229	-0.028649407
214	0x3cedcdd0	0.029028803
215	0xbd39074c	-0.045172974
216	0xbc49c79a	-0.012315655
217	0xbd5c5648	-0.05379322
218	0x3bbb0e9c	0.0057085287
219	0x3c3ee0e3	0.011650297
220	0x3d35fb30	0.044429004
221	0xbd65afa1	-0.056075696
222	0xbd0f84a7	-0.035038617
223	0xbbaee4da	-0.00533734
224	0xbd412838	-0.047157496
225	0xbc8f3dba	-0.017485488
226	0xbce1bb1a	-0.027555037
227	0xbba88195	-0.0051424005
228	0x3d02ceb1	0.031935398
229	0x3bfa16c9	0.0076321107
230	0x3cc4c571	0.024019929
231	0x3b1a1815	0.002351289
232	0xbd140abe	-0.036143057
233	0x3cb013d4	0.02149383
234	0xbd538d44	-0.051648393
235	0xbd66435e	-0.05621659
236	0xbd57f46c	-0.052723333
237	0xbc8b4927	-0.017002655
238	0xbd235f6a	-0.039885916
239	0xbc6ab196	-0.014324566
240	0x3d0eeb3e	0.034892313
241	0xbbb5e47b	-0.0055509186
242	0xbbc5efd3	-0.006040552
243	0xbcfba0e5	-0.030716369
244	0xbd459bab	-0.04824416
245	0x3c9cac50	0.019125134
246	0xbd24a105	-0.040192623
247	0xbc9500ac	-0.018188797
248	0x3d1e259a	0.03861008
249	0xbb198c51	-0.0023429582
250	0x3bdee649	0.0068023545
251	0x3c80b843	0.015712863
252	0xbb495296	-0.003071939
253	0x3c5ab969	0.013349869
254	0x3d0b4cee	0.034008913
255	0x3d38ee8e	0.04514938

linear_layer.2.bias f4 [256]
0	0x3cd74e38	0.026282415
1	0x3e854be8	0.26034474
2	0xbd388cbe	-0.045056097
3	0x3d1115d7	0.03542122
4	0xbce9a518	-0.028521106
5	0x3e68cbd2	0.22734001
6	0xbc7a08c7	-0.015260882
7	0x3e6d91a5	0.2320009
8	0x3c5785d7	0.0131544685
9	0xbca06d43	-0.01958335
10	0x3e861f4e	0.2619576
11	0x3e26f841	0.16305639
12	0x3d1f34c6	0.038868688
13	0xbcf8ca0e	-0.030369785
14	0x3eae6ad5	0.3406588
15	0x3d1a4eae	0.03767269
16	0x3d344ab5	0.04401656
17	0x3ea61d81	0.32444385
18	0x3ebf1ccc	0.37326658
19	0x3e903046	0.2816183
20	0x3e427d25	0.18993051
21	0xbccf0769	-0.025272088
22	0xbcdf6900	-0.027271748
23	0x3e969f34	0.29418337
24	0x3ce4420a	0.027863521
25	0x3e99b217	0.30018684
26	0x3e5f5557	0.21809898
27	0xbd399776	-0.04531046
28	0x3ebfeda5	0.37485996
29	0xbcb1daf7	-0.021710856
30	0xbcdd3969	-0.027004914
31	0x3e42827d	0.1899509
32	0xbd639a02	-0.055566795
33	0xbc8da797	-0.017291827
34	0x3e8bf4b4	0.2733513
35	0xbd0f1724	-0.034934178
36	0xbd1e6a3e	-0.03867554
37	0xbcc49906	-0.023998749
38	0x3c292e1c	0.010325935
39	0x3e89042f	0.26761004
40	0x3e756bca	0.239669
41	0x3e89cf7f	0.2691612
42	0x3e35a59f	0.1773896
43	0xbd32f823	-0.043693673
44	0xbd132697	-0.035925474
45	0x3e51b5bd	0.20479484
46	0xbd39ed8c	-0.045392558
47	0x3ea4947c	0.32144535
48	0x3bba6e99	0.005689454
49	0x3ea8fe68	0.33006597
50	0xbc936405	-0.017992029
51	0xbd08ced2	-0.033400364
52	0x3e841f3d	0.25805083
53	0xbb7e3c3d	-0.003879323
54	0x3e8cc681	0.27495196
55	0x3d2306e1	0.039801482
56	0x3e96d739	0.29461077
57	0x3c9b6a65	0.018971631
58	0xbd52cb11	-0.05146319
59	0x3e4f0353	0.20216112
60	0xbc91831f	-0.017762719
61	0xbc062a58	-0.0081888065
62	0x3ebd0550	0.36918116
63	0x3e4782c6	0.1948348
64	0x3caadd02	0.020857338
65	0x3d44a610	0.048009932
66	0xbd46bf32	-0.04852218
67	0x3e99f179	0.30067042
68	0x3c985c22	0.01859862
69	0x3e654527	0.22389661
70	0x3b9b5ef4	0.004741544
71	0x3e99125b	0.29896817
72	0x3e7226d9	0.23647632
73	0x3d2581b7	0.04040691
74	0x3e53d77a	0.20687667
75	0xbd31e3ec	-0.043430254
76	0x3ea36a87	0.3191721
77	0x3c2298ef	0.0099241575
78	0xbcb7307c	-0.022361986
79	0x3e8d5fde	0.27612203
80	0xbd3c556c	-0.045979902
81	0x3d3c3f67	0.045958903
82	0x3e73f9ef	0.23825811
83	0x3c2209ba	0.009890014
84	0xbca8934c	-0.02057805
85	0xb9b8b356	-0.0003522883
86	0x3c089f7c	0.008338805
87	0x3ec1e36d	0.37868825
88	0x3ea74196	0.32667226
89	0xbd605df6	-0.054777108
90	0xbc898415	-0.016786614
91	0x3e86b976	0.2631337
92	0x3eabc765	0.33550563
93	0x3c5364d3	0.012902456
94	0x3ec13066	0.37732238
95	0xbd7ac52a	-0.061223187
96	0x3eae8092	0.34082466
97	0xbd3993ac	-0.045306846
98	0x3e9b2c12	0.3030706
99	0x3e9631f1	0.29334977
100	0xb9ab48c4	-0.00032669876
101	0xbb840fe9	-0.004030217
102	0x3c2b28b4	0.010446716
103	0x3e8dfd7f	0.27732465
104	0x3ccb50a1	0.02481872
105	0x3e8bf3eb	0.27334532
106	0x3e8c8a7c	0.27449405
107	0x3e9d4cff	0.30722806
108	0xbbe20340	-0.00689736
109	0xbd2cd21a	-0.042192556
110	0xbd258a12	-0.040414877
111	0xbd3f2622	-0.046667226
112	0xbd490f72	-0.049086995
113	0xbd486814	-0.04892738
114	0x3e514a78	0.20438564
115	0x3e8392bb	0.25697884
116	0x3e8830a7	0.2659962
117	0x3c03b9fd	0.0080399485
118	0x3ea3909f	0.31946275
119	0x3eb99539	0.3624666
120	0xbd6ee263	-0.058321368
121	0x3eb56612	0.35429436
122	0x3e65e7fc	0.22451776
123	0xbd223ef9	-0.039610837
124	0x3e4394e4	0.19099766
125	0x3d4cc658	0.049993843
126	0xbcec0690	-0.028811723
127	0x3e8136f0	0.25237226
128	0xbd4f98bb	-0.050682765
129	0x3ec879cf	0.39155433
130	0x3e960ccc	0.29306638
131	0x3cc58857	0.024112863
132	0x3ebdf17f	0.3709831
133	0x3e78be0d	0.24291249
134	0x3e8e8107	0.27832815
135	0x3cb35bd2	0.02189437
136	0xbb7670f7	-0.0037603953
137	0x3e89cd97	0.26914665
138	0x3eb456f4	0.3522259
139	0x3e9c9ff9	0.305908
140	0xbd5c6eb8	-0.053816527
141	0x393abac8	0.00017807924
142	0x3cd5f540	0.02611792
143	0xbd370b3f	-0.04468846
144	0x3ec9fc23	0.39450178
145	0x3eb87ac1	0.36031154
146	0x3bedac67	0.007253218
147	0x3e9d7821	0.30755714
148	0xbcfe1697	-0.031016631
149	0x3d13cea9	0.03608576
150	0x3e76a976	0.24088082
151	0x3eb9ef3a	0.36315328
152	0xbd46d4ad	-0.048542667
153	0xbd60b2b5	-0.05485793
154	0xbcc3d03a	-0.023903001
155	0x3d03a9ed	0.032144476
156	0x3e8146b1	0.25249246
157	0x3b71e88c	0.003691229
158	0x3ba57c9d	0.0050502555
159	0xbd4ae01f	-0.049530145
160	0x3e841ebe	0.25804704
161	0x3e9b439c	0.3032502
162	0x3eabdc93	0.33566722
163	0xbd321241	-0.04347444
164	0xbd3ab3c4	-0.045581594
165	0x3e8e0f7f	0.27746198
166	0x3bee1bf9	0.007266518
167	0x3d004f38	0.03132555
168	0x3d00994d	0.0313962
169	0xbc65b5f2	-0.01402043
170	0xbcca1848	-0.024669781
171	0x3e8ecc08	0.27890038
172	0x3e914bed	0.2837824
173	0xbd68ad95	-0.056806166
174	0x3e4f0774	0.20217687
175	0x3e85bf7b	0.2612265
176	0xbb7e0a40	-0.0038763434
177	0x3e56f7aa	0.20992914
178	0x3e89e8a6	0.2693531
179	0xbcc16423	-0.02360732
180	0x3e6e7d33	0.23289947
181	0x3ea1c431	0.31594995
182	0x3e6fe621	0.23427631
183	0x3e86e8de	0.2634954
184	0xbd29ef04	-0.04148771
185	0x3ea13d36	0.31492013
186	0x3e8f2715	0.27959505
187	0xbd3d2007	-0.04617312
188	0x3cc2087d	0.023685688
189	0x3c9e41ce	0.019318487
190	0xbd6ec06a	-0.05828897
191	0xbd37a9ce	-0.044839673
192	0xbd46055f	-0.048344966
193	0x3c4953d0	0.012288049
194	0xbc3ece60	-0.011645883
195	0xba0d7355	-0.0005395909
196	0x3c3906d1	0.011293129
197	0xbd6b34bd	-0.057423342
198	0xbb8641a7	-0.004097182
199	0x3e88d3d7	0.2672412
200	0x3ecd50fd	0.40100852
201	0x3c12ffba	0.008972103
202	0x3e6e0435	0.23243792
203	0x3e9144c4	0.28372777
204	0x3ec73048	0.38904023
205	0x3b00ce40	0.0019654185
206	0x3e7e0d78	0.24809825
207	0x3d1bf17e	0.0380721
208	0x3e70077b	0.23440354
209	0xbd160fcb	-0.036636155
210	0x3e398eb7	0.18120848
211	0xbd5e3f3f	-0.054259535
212	0x3e52c29b	0.20582049
213	0x3cd1867f	0.025576828
214	0xbc35d20a	-0.0110974405
215	0x3c003ddf	0.007827251
216	0x3c07d34e	0.008290125
217	0x3c88a4f3	0.016680216
218	0x3eb5e7af	0.35528323
219	0x3c72bf97	0.014816186
220	0x3d19b915	0.037530024
221	0x3b7d25c7	0.0038627253
222	0x3e754a03	0.23954014
223	0xbd67d585	-0.056600112
224	0x3e944d09	0.28965023
225	0x3e81d206	0.25355548
226	0x3e462eb8	0.1935376
227	0x3e81dcce	0.25363773
228	0x3d02d2f4	0.03193946
229	0xbd3d2097	-0.04617366
230	0xbc046863	-0.008081528
231	0x3e7b35cc	0.2453224
232	0x3ec45113	0.38343105
233	0xbd533614	-0.051565245
234	0xbd5514e7	-0.052021887
235	0x3d2e7657	0.042593326
236	0x3d2ffa7b	0.042963486
237	0xbd2c6ded	-0.04209702
238	0x3eba43af	0.36379763
239	0x3e993f59	0.29931143
240	0x3e9773dc	0.2958058
241	0x3d1ef783	0.038810264
242	0x3d2b9ff9	0.04190061
243	0x3ea5b90c	0.32367742
244	0xbd6474b7	-0.05577537
245	0x3e89f69f	0.2694597
246	0x3e862830	0.26202536
247	0x3ea97fd7	0.33105347
248	0x3e907682	0.28215414
249	0x3e8d8366	0.27639312
250	0x3e6ff88f	0.23434661
251	0x3d04ac68	0.032390982
252	0x3e4a6bdf	0.19767712
253	0x3b289d60	0.0025728568
254	0x3e2e261b	0.17006724
255	0x3bd5fed8	0.006530624

linear_layer.4.weight f4 [1, 256]
0	0x3ce6a5a4	0.028155155
1	0xbf2ef971	-0.6834937
2	0x3c56dcac	0.013114136
3	0x3d5371bb	0.051622134
4	0x3cdb012a	0.026733954
5	0xbf3c1df8	-0.7348323
6	0x3d35942a	0.044330753
7	0xbf3d4174	-0.73928
8	0x3c0ddd43	0.00865871
9	0x3cd05e24	0.025435515
10	0xbf362c5f	-0.71161455
11	0xbf2e41a0	-0.68068886
12	0x3c4e4b0e	0.012591137
13	0xbb7c071f	-0.0038456393
14	0xbf3ee278	-0.74564314
15	0x3d17a365	0.03702106
16	0x3cd4641b	0.02592664
17	0xbf3d2a06	-0.7389225
18	0xbf317841	-0.6932412
19	0xbf3a940e	-0.72882164
20	0xbf426cf8	-0.75947523
21	0xbcb25490	-0.021768838
22	0xbbd03dd0	-0.006355025
23	0xbf38809f	-0.7207126
24	0x3d3bd4fc	0.045857415
25	0xbf3c1bd6	-0.73479974
26	0xbf374a6a	-0.7159792
27	0x3c7acef3	0.01530813
28	0xbf344dd1	-0.7043124
29	0x3ba28aac	0.0049603786
30	0x3d0f2af9	0.03495309
31	0xbf38a880	-0.7213211
32	0x3d1336ed	0.035941053
33	0x3cdc0ec5	0.026862511
34	0xbf40214d	-0.7505081
35	0x3cf5bbd9	0.0299968
36	0x3d521c3c	0.051296458
37	0x3b6aca58	0.0035826173
38	0x3d1ab1ba	0.03776715
39	0xbf3a073e	-0.726673
40	0xbf37a3f6	-0.7173456
41	0xbf3dd1c9	-0.7414823
42	0xbf3ed8e5	-0.74549705
43	0x3c29fd38	0.010375313
44	0x3d2dddd2	0.042447872
45	0xbf3d7b15	-0.74015933
46	0x3b79c354	0.003811081
47	0xbf3731d6	-0.7156042
48	0x3ce0fa9f	0.027463255
49	0xbf37dd16	-0.71821725
50	0x3c11c815	0.008897801
51	0x3d13ed58	0.03611502
52	0xbf39d1c3	-0.72585696
53	0x3d240725	0.040045876
54	0xbf34b0d9	-0.7058235
55	0x3d3798be	0.0448234
56	0xbf3ff2e1	-0.7497998
57	0x3d579be8	0.05263892
58	0x3d43134c	0.047625825
59	0xbf3eb851	-0.74499995
60	0x3bae47ad	0.005318603
61	0x3d523dcf	0.051328477
62	0xbf39ee23	-0.7262899
63	0xbf388b42	-0.7208749
64	0x3cc3d293	0.02390412
65	0x3d090b65	0.033458132
66	0x3d0401ca	0.03222827
67	0xbf3d3ed3	-0.7392399
68	0x3d3a1b63	0.045436274
69	0xbf3d30d2	-0.7390262
70	0x3d50289c	0.050819978
71	0xbf38bf8e	-0.7216729
72	0xbf3de39d	-0.74175435
73	0x3cff1dfb	0.031142225
74	0xbf38f8ca	-0.7225462
75	0x3ca6897d	0.020329231
76	0xbf65d052	-0.89770997
77	0x3c55bdef	0.013045772
78	0x3d4f231f	0.050570603
79	0xbf3c600e	-0.7358407
80	0x3d2f7d95	0.042844374
81	0x3d3ce399	0.04611549
82	0xbf41a477	-0.7564158
83	0x3d00b328	0.031420857
84	0x3d0e1bb1	0.034694377
85	0x3b80f78b	0.0039357594
86	0x3cfbd6f6	0.03074215
87	0xbf34e695	-0.7066434
88	0xbf3af714	-0.7303326
89	0x3d1347e8	0.035957247
90	0x3d1dd3a9	0.038531933
91	0xbf2ea867	-0.6822571
92	0xbf3cf5b7	-0.7381243
93	0x3a6e7d66	0.00090976653
94	0xbf3d3129	-0.7390314
95	0x3d385304	0.045001045
96	0xbf350b16	-0.7072004
97	0x3d42bcd4	0.04754336
98	0xbf3548d1	-0.70814234
99	0xbf39c271	-0.7256232
100	0x3ca97d97	0.020689769
101	0x3d27e05d	0.040985454
102	0x3d291174	0.04127641
103	0xbf3066b9	-0.6890674
104	0x3d50a370	0.050937116
105	0xbf379ef1	-0.717269
106	0xbf3ac1a5	-0.7295173
107	0xbf413582	-0.7547227
108	0x3d00f8b5	0.031487186
109	0x3c1a7332	0.009426879
110	0x3d362a98	0.044474214
111	0x3d5277e3	0.051383864
112	0x3d1c5031	0.038162414
113	0x3d3c64e9	0.045994673
114	0xbf3565e2	-0.70858586
115	0xbf2e1cdc	-0.68012786
116	0xbf3e4a27	-0.743319
117	0xbd05bd1e	-0.03265106
118	0xbf37f83e	-0.7186316
119	0xbf3a6ad1	-0.7281924
120	0x3d1e92fc	0.038714394
121	0xbf3b3f19	-0.73143154
122	0xbf3bbe56	-0.73337305
123	0x3d50ab4b	0.050944608
124	0xbf39f7fc	-0.7264402
125	0x3d4789fa	0.04871557
126	0x3cdf3fb6	0.02725206
127	0xbf3b5680	-0.73178864
128	0x3baa4e14	0.005197296
129	0xbf3e9c5c	-0.74457335
130	0xbf3d6058	-0.73975134
131	0x3bb1f285	0.005430522
132	0xbf3b01a3	-0.7304937
133	0xbf3dcc56	-0.74139917
134	0xbf366171	-0.71242434
135	0x3c741b56	0.0148990955
136	0x3cb1b5ed	0.021693194
137	0xbf3cfda8	-0.7382455
138	0xbf2fe50f	-0.6870889
139	0xbf370f6b	-0.715079
140	0x3ce9568d	0.028483653
141	0x3c82ea55	0.015980879
142	0x3d18da49	0.037317548
143	0x3d57ecf2	0.052716203
144	0xbf3e8704	-0.7442477
145	0xbf3d88b2	-0.74036705
146	0x3d6311b6	0.055436812
147	0xbf3e7144	-0.7439158
148	0xbaf4b367	-0.0018669189
149	0x3ceff1a1	0.029290022
150	0xbf3d4d6b	-0.73946255
151	0xbf3b4cb7	-0.7316393
152	0x3d28bab2	0.04119367
153	0x3c2af126	0.010433471
154	0x3d3176c8	0.04332617
155	0x3d3f55e1	0.04671276
156	0xbf3df9d8	-0.74209356
157	0x3cdc8f87	0.026923908
158	0x3bd05a0d	0.006358391
159	0x3d407450	0.046985924
160	0xbf343491	-0.7039271
161	0xbf3c2c47	-0.7350506
162	0xbf3b85af	-0.7325086
163	0x3d385d36	0.045010768
164	0x3b0c855e	0.0021441798
165	0xbf35b767	-0.70982975
166	0x3d42a173	0.04751725
167	0x3ceb6df4	0.028738953
168	0x3cf8b2c5	0.030358681
169	0x3d15f8a5	0.03661408
170	0xbcfd9310	-0.030953914
171	0xbf30a844	-0.6900675
172	0xbf39c120	-0.7256031
173	0x3b5422ef	0.0032369455
174	0xbf386fb1	-0.7204543
175	0xbf3a526b	-0.7278201
176	0xbb80dca2	-0.0039325515
177	0xbf4048a1	-0.7511082
178	0xbf38eda7	-0.7223763
179	0x3c60ab0d	0.013712657
180	0xbf3b24e7	-0.73103184
181	0xbf3b7452	-0.73224366
182	0xbf412aca	-0.75455916
183	0xbf313e9f	-0.6923618
184	0x3d3cf63f	0.046133276
185	0xbf3dc161	-0.741232
186	0xbf38a407	-0.72125286
187	0x3d00c2b8	0.0314357
188	0x3b6553d1	0.0034992585
189	0x3d19428e	0.037416987
190	0x3cdfa50b	0.027300378
191	0x3d460f2d	0.048354317
192	0x3d4e8031	0.05041522
193	0x3d233830	0.039848506
194	0x3b5e9afe	0.0033966894
195	0x3cbafa38	0.022824392
196	0x3aded60b	0.0017001046
197	0x3d4a10da	0.049332477
198	0x3ca0be8d	0.019622112
199	0xbf3a38cb	-0.7274291
200	0xbf39059b	-0.7227418
201	0x3b2723d4	0.0025503533
202	0xbf50ac88	-0.8151326
203	0xbf395f26	-0.7241081
204	0xbf37eb85	-0.7184375
205	0xba28dd35	-0.0006441654
206	0xbf3ab012	-0.7292491
207	0x3c763701	0.015027762
208	0xbf3e2aeb	-0.7428424
209	0xbd5516d0	-0.05202371
210	0xbf4220aa	-0.7583109
211	0x3cfaa41a	0.030595828
212	0xbf3bfdbd	-0.7343405
213	0x3d010fea	0.031509317
214	0xbaec1c81	-0.0018013866
215	0x3d4deff9	0.050277684
216	0x3cd7e75e	0.026355442
217	0x3d13dcd4	0.03609927
218	0xbf3a2845	-0.72717696
219	0x3ca22af2	0.019795869
220	0x3baeb03b	0.005331067
221	0x3c4278dd	0.011869636
222	0xbf3668de	-0.71253765
223	0x3c8f6d80	0.017508268
224	0xbf3aa739	-0.7291141
225	0xbf3aedb1	-0.7301894
226	0xbf37ae3f	-0.71750253
227	0xbf3c47e5	-0.735472
228	0x3cebbccf	0.028776554
229	0x3c3ca3a8	0.011513628
230	0xbc430cd8	-0.011904918
231	0xbf33ee33	-0.7028534
232	0xbf3bb5bb	-0.73324174
233	0x3d36e351	0.04465038
234	0x3cc48f81	0.02399421
235	0x3d1058eb	0.03524105
236	0x3cf8b194	0.030358113
237	0x3d0a2a04	0.033731475
238	0xbf385bcb	-0.72015065
239	0xbf3e9f3a	-0.7446171
240	0xbf41b136	-0.7566103
241	0x3d0a74a5	0.033802647
242	0xbaf0bc96	-0.001836675
243	0xbf3c82d9	-0.7363716
244	0xbbfb5760	-0.007670328
245	0xbf3c1556	-0.73470056
246	0xbf33eaeb	-0.7028033
247	0xbf35af4e	-0.7097062
248	0xbf40ed45	-0.75362045
249	0xbf3edd0c	-0.7455604
250	0xbf38cae5	-0.7218459
251	0x3d432d39	0.04765055
252	0xbf355bce	-0.7084321
253	0x3c1e1b6c	0.009650093
254	0xbf2de2f7	-0.67924446
255	0x3d6c84ee	0.05774396
