data/300_500/models/actor_650.pth (torch, 323799 bytes, 6 tensors)

linear_layer.0.weight f4 [256, 7]
0	0x3e5d622b	0.2161948
1	0xbe14aa87	-0.14518176
2	0xbd4e432a	-0.05035702
3	0x3e46eaaa	0.19425455
4	0xbecf741f	-0.4051828
5	0x3e9a9701	0.30193332
6	0xbbd0eb81	-0.0063757305
7	0x3e2c1fde	0.16809031
8	0x3d09ee95	0.033674795
9	0xbd6aebf4	-0.05735393
10	0x3dbf5dcc	0.09344062
11	0x3e026a51	0.12735869
12	0x3e052078	0.13000667
13	0xbe52b324	-0.20576149
14	0xbc4bae76	-0.012431731
15	0xbc543f44	-0.012954537
16	0x3d9baa7e	0.07600878
17	0x3ca56bd1	0.020193012
18	0x3f0b972d	0.5452755
19	0x3de658ba	0.11247392
20	0xbe748ec6	-0.23882589
21	0xbe69c12a	-0.22827592
22	0xbd81bf18	-0.06335276
23	0xbe26f1b8	-0.16303146
24	0xbdf80ccb	-0.12111815
25	0x3c94414d	0.018097544
26	0x3e66b901	0.22531511
27	0x3e525e38	0.20543754
28	0xbec1ca8f	-0.37849852
29	0x3e6d2134	0.23157197
30	0x3de35bd3	0.111014985
31	0x3eb2e754	0.34942114
32	0x3ed1ff69	0.41015175
33	0xbec92145	-0.39283195
34	0xbedf52f0	-0.43617964
35	0xbe4726aa	-0.19448343
36	0x3ea0c072	0.31396824
37	0xbd8e0576	-0.06934635
38	0x3e217544	0.1576739
39	0xbe220955	-0.15823872
40	0x3ed05044	0.40686238
41	0xbe21a3c0	-0.15785122
42	0x3e8a8f62	0.27062517
43	0xbc0f2335	-0.008736421
44	0xbe5ac079	-0.21362485
45	0x3e44f52c	0.1923415
46	0xbe8f2ebd	-0.27965346
47	0x3e207890	0.15670991
48	0xbd54243f	-0.05179238
49	0xbd29bacc	-0.04143791
50	0xbeba0bb4	-0.36337054
51	0xbe388811	-0.18020655
52	0x3e5204c9	0.20509638
53	0xbdbc28bd	-0.09187458
54	0x3ec0c0da	0.37647134
55	0x3e9b1f23	0.30297193
56	0xbb8d8272	-0.004318529
57	0xbe744f86	-0.23858461
58	0x3e7aec22	0.2450414
59	0x3e171d03	0.14757161
60	0xbe96ac9d	-0.29428568
61	0x3ea8a45d	0.329379
62	0x3e7c077b	0.24612229
63	0x3eb48ee8	0.3526528
64	0xbe43d441	-0.19123937
65	0xbd557368	-0.052112013
66	0xbb91089b	-0.0044260747
67	0xbdfe0320	-0.1240294
68	0xbea9b57f	-0.33146283
69	0xbe67e6ae	-0.22646591
70	0x3e482fc6	0.19549474
71	0xbdc58c2e	-0.09645878
72	0x3e2c068e	0.16799375
73	0xba242a02	-0.0006262363
74	0xbd5a12f9	-0.05324075
75	0x3d6861ad	0.056733776
76	0x3e600fe3	0.2188106
77	0x3e40ae8a	0.18816581
78	0xbeb2da78	-0.34932303
79	0x3e43756b	0.1908776
80	0xbe884b07	-0.2661974
81	0xbe924ec4	-0.28575718
82	0x3cb75a0a	0.022381801
83	0xbd833540	-0.06406641
84	0x3e63ff8b	0.2226545
85	0xbe624e46	-0.22100171
86	0xbeadeb16	-0.3396842
87	0x3e8d74cc	0.2762817
88	0xbd83f124	-0.06442478
89	0x3e3a9e11	0.1822436
90	0x3e021e1c	0.12706798
91	0xbe911d3e	-0.28342623
92	0x3d9b8274	0.07593241
93	0x3db9ede4	0.09078577
94	0xbe81924f	-0.25306937
95	0xbe37a33e	-0.17933366
96	0x3e03f83f	0.12887667
97	0x3d8aa754	0.067701966
98	0xbe048449	-0.12941088
99	0xbda957af	-0.082686774
100	0x3ec2aa71	0.3802066
101	0xbd170ca4	-0.03687729
102	0x3ed1513d	0.40882292
103	0x3e2b9a8c	0.16758174
104	0xbea430e6	-0.32068557
105	0xbea9580d	-0.3307499
106	0x3eb2ecf6	0.34946412
107	0x3b8706e9	0.004120697
108	0x3e7b4956	0.24539694
109	0xbd145eb0	-0.036223114
110	0x3e008ed2	0.12554482
111	0x3eace466	0.33768004
112	0x3eb5498e	0.3540768
113	0xbe81a9d1	-0.25324872
114	0x3d4abf68	0.049498945
115	0x3e904fb3	0.28185806
116	0x3ee9159c	0.455243
117	0x3e64d661	0.22347404
118	0xbec22a05	-0.37922683
119	0xbe917b67	-0.2841446
120	0xbe768d75	-0.24077399
121	0x3d144b44	0.03620459
122	0x3ebaa34b	0.36452708
123	0xbe6ae5c4	-0.22939211
124	0x3e43d24b	0.19123189
125	0xbe4db49d	-0.2008843
126	0xbed59d6f	-0.41721675
127	0xbe0e994e	-0.13925669
128	0x3e1dd02a	0.1541144
129	0x3e96f7c5	0.29485908
130	0xbe4bfcf1	-0.19920708
131	0x3d49a207	0.049226787
132	0x3e7fa64f	0.24965785
133	0x3e66adeb	0.22527282
134	0x3e5bc1e6	0.21460685
135	0x3e76b4e3	0.2409244
136	0x3e5b25c2	0.21401122
137	0x3e3925b3	0.18080787
138	0xbe9d621c	-0.30738914
139	0xbed26bc5	-0.41097847
140	0xbe324b13	-0.17411451
141	0xbd35e557	-0.04440817
142	0xbe6cb4d0	-0.2311585
143	0x3e0cb16f	0.1373956
144	0x3df1cf46	0.118071124
145	0xbdb07021	-0.08615137
146	0x3e15afac	0.14617795
147	0x3dd22c42	0.10262348
148	0x3e62a695	0.22133859
149	0x3e7d2d6d	0.2472436
150	0xbe10ecd0	-0.14152837
151	0x3ef0676d	0.46953908
152	0xbdbc6622	-0.09199168
153	0xbdc164eb	-0.09443077
154	0xbeb6a859	-0.35675314
155	0xbe791a36	-0.24326405
156	0xbe621b89	-0.22080816
157	0xbe258b44	-0.16166407
158	0x3e8995d4	0.26872122
159	0xbdfcf3a9	-0.12351162
160	0xbe909cba	-0.28244573
161	0x3e0bea69	0.13663639
162	0x3dead26a	0.114659145
163	0x3e6c8199	0.23096313
164	0xbe5752b6	-0.21027645
165	0xbd736c97	-0.05942973
166	0xbe13e43f	-0.14442538
167	0xbc8c6525	-0.017138073
168	0xbe9a37c8	-0.30120683
169	0xbe30654e	-0.17226145
170	0xbded10b7	-0.11575454
171	0x3e258296	0.16163096
172	0x3d8d6a25	0.06905011
173	0x3dbf3554	0.093363434
174	0x3ec126b0	0.3772483
175	0x3eb22a52	0.34797913
176	0x3e7a68e5	0.24454077
177	0xbba79d3a	-0.0051151784
178	0xbe8f3647	-0.27971098
179	0x3e900777	0.28130695
180	0xbe0a9ac1	-0.13535596
181	0xbd340167	-0.04394665
182	0xbea82df3	-0.32847556
183	0xbd9dfa82	-0.07713796
184	0xbe7bfaa2	-0.24607328
185	0x3eb0b278	0.3451116
186	0xbea65217	-0.32484505
187	0xbe929dd5	-0.2863604
188	0xbc155e1b	-0.009116675
189	0xbe5146b1	-0.20437123
190	0x3e0a7c62	0.13524011
191	0xbe14fadc	-0.1454882
192	0xbe35c92c	-0.17752522
193	0x3caf5dc5	0.021407017
194	0x3e8c164f	0.2736077
195	0xbe882001	-0.26586917
196	0x3e2911fb	0.16510765
197	0x3e7272d4	0.23676616
198	0x3ebc67c9	0.36797932
199	0xbe8cc9a2	-0.27497584
200	0x3e288ad0	0.16459203
201	0xbead0c84	-0.3379861
202	0x3e8a7f5c	0.27050292
203	0xbe209ea2	-0.15685514
204	0x3e5f943e	0.21833894
205	0x3c1e092f	0.009645744
206	0xbd25c39b	-0.040469747
207	0x3dae1ae7	0.08501225
208	0x3cb8495d	0.02249592
209	0x3dccd151	0.100008614
210	0x3d3c9207	0.0460377
211	0x3dc68218	0.09692782
212	0xbeb411f6	-0.35169953
213	0x3e8b6024	0.27221787
214	0x3ed73e7c	0.4203986
215	0x3eb682c2	0.35646635
216	0x3e61a6d0	0.2203629
217	0xbe87128c	-0.26381338
218	0xbe03519b	-0.12824099
219	0x3eb12df7	0.3460538
220	0xbe8cc3c9	-0.27493122
221	0x3eb3dd62	0.3512984
222	0xbe920041	-0.2851582
223	0xbe7f4991	-0.24930407
224	0x3e48af35	0.19598086
225	0xbe8822d1	-0.26589063
226	0xbd98ca77	-0.07460492
227	0x3e9762aa	0.29567462
228	0x3e8d6dd3	0.27622852
229	0x3edb1d59	0.42795828
230	0xbd8b43ed	-0.06800065
231	0xbe88f001	-0.26745608
232	0x3ecc9611	0.39958242
233	0xbd5249ec	-0.05134003
234	0xbe087be6	-0.13328514
235	0x3e2cb700	0.16866684
236	0xbe98f2a4	-0.2987262
237	0x3e7d56d7	0.24740158
238	0x3e729160	0.23688269
239	0xbe998d81	-0.2999077
240	0xbe9ef33f	-0.31044957
241	0xbd079c9a	-0.03310833
242	0x3e229098	0.1587547
243	0xbc33599d	-0.010946658
244	0xbe4441d0	-0.1916573
245	0x3c0d93c5	0.008641188
246	0xbeb5e4c4	-0.35526097
247	0xbe88c556	-0.26713055
248	0xbe80d29f	-0.2516069
249	0x3e9f5e27	0.3112652
250	0x3eaa964b	0.3331779
251	0xbe03768f	-0.12838195
252	0x39b789dc	0.00035007193
253	0x3e1f14a2	0.15535215
254	0x3d11a68d	0.035559226
255	0xbe483091	-0.19549777

linear_layer.0.bias f4 [256]
0	0xbe363633	-0.17794113
1	0x3eaa37e5	0.3324577
2	0x3d0f0ca8	0.03492418
3	0x3e4b2eea	0.19842115
4	0x3dbd9b93	0.09258189
5	0x3d51db50	0.051234543
6	0x3e854050	0.2602563
7	0xbc9b2d03	-0.018942362
8	0x3e8f80f7	0.2802808
9	0x3e139bcb	0.14414899
10	0xbe690129	-0.22754349
11	0x3e7e8d65	0.24858625
12	0xbe89c5d3	-0.2690874
13	0x3e4982cd	0.19678803
14	0xbd289821	-0.041160706
15	0x3dcedd4a	0.10100801
16	0xbd26a7f1	-0.040687505
17	0x3d804023	0.06262233
18	0xbe3292f6	-0.17438874
19	0x3e0f346c	0.13984841
20	0x3e33e975	0.17569526
21	0xbeb30ba3	-0.34969816
22	0x3eaa9eac	0.33324182
23	0xbea32fec	-0.318725
24	0xbe2cc01f	-0.16870163
25	0x3e0d2081	0.1378193
26	0x3eb1265a	0.34599572
27	0x3dfbb270	0.122898936
28	0xbe593cac	-0.2121455
29	0x3d85f166	0.06540184
30	0xbe75ebc3	-0.24015717
31	0x3e4112ca	0.18854824
32	0x3d009ee5	0.031401534
33	0x3d8bd6a3	0.06828048
34	0xbe947160	-0.28992748
35	0x3e4e8f0f	0.2017176
36	0x3eb7254b	0.3577064
37	0xbe887030	-0.26648092
38	0x3deb508d	0.11489973
39	0xbe1fb263	-0.15595393
40	0xbdd603fa	-0.10449977
41	0x3ea41b1f	0.32051942
42	0xbeb1c90d	-0.34723702
43	0xbd949cdd	-0.07256482
44	0x3e00ae43	0.12566476
45	0x3e26872c	0.16262501
46	0xbe15a0a8	-0.14612067
47	0xbe6752a2	-0.22590116
48	0x3d9c1055	0.076203026
49	0xbeb664ea	-0.35623866
50	0x3d0adc05	0.033901233
51	0xbe8076e1	-0.25090697
52	0xbd88fc0d	-0.066887
53	0x3ea4fddc	0.3222493
54	0xbe8b4cd3	-0.2720705
55	0xbe475ea4	-0.19469696
56	0xbea0804f	-0.31347892
57	0x3e587cf1	0.21141411
58	0x3e98ee01	0.29869083
59	0xbe83ee4c	-0.25767744
60	0x3e605c37	0.21910177
61	0x3e77eb70	0.24210906
62	0xbe8eca57	-0.27888748
63	0x3e135a10	0.14389825
64	0x3e3944b6	0.18092617
65	0xbd0c2a06	-0.034219764
66	0x3e6a4621	0.22878315
67	0xbc7a4f0e	-0.015277637
68	0xbd50b5dd	-0.05095469
69	0x3e578c1a	0.21049538
70	0xbeb9f887	-0.36322424
71	0xbebe1198	-0.37122798
72	0x3d8fcf34	0.07021943
73	0x3bdc1aed	0.006717077
74	0x3cb0e3fe	0.02159309
75	0xbe3f81f2	-0.18701914
76	0x3eabf6bd	0.33586684
77	0xbe767a06	-0.24069986
78	0xbe350f68	-0.17681658
79	0xbea354f0	-0.3190074
80	0xbec0bbd3	-0.37643299
81	0x3d877d25	0.06615666
82	0xbe1bf784	-0.15231138
83	0x3e537f00	0.20653915
84	0x3eba3c90	0.3637433
85	0x3e017f23	0.12646155
86	0x3ea66ec5	0.32506385
87	0xbe8c7089	-0.27429608
88	0x3e40c78d	0.18826123
89	0x3e514a1b	0.20438425
90	0xbdff58cd	-0.12468109
91	0xbcdbc403	-0.026826864
92	0xbe65dc9c	-0.22447437
93	0x3d151b6f	0.036403116
94	0xbebf355e	-0.37345403
95	0xbe4e5b9e	-0.20152137
96	0xbe922f72	-0.28551823
97	0xbd5a355b	-0.05327354
98	0x3d1dcb0c	0.03852372
99	0xbe9d4074	-0.30713236
100	0xbe0e34ce	-0.13887331
101	0x3e560305	0.2089959
102	0x3cc3e15c	0.02391117
103	0x3d6f19d7	0.058374252
104	0xbe3073af	-0.1723163
105	0xbdffa40c	-0.12482461
106	0xbeb285b7	-0.3486764
107	0x3e9e874d	0.309626
108	0x3cd0c90d	0.025486493
109	0x3e324408	0.17408764
110	0x3e61cbfa	0.22050467
111	0x3ea9ac06	0.33139056
112	0xbe857bf8	-0.26071143
113	0x3dd9bdee	0.10631929
114	0xbea2e71c	-0.31816947
115	0x3e212357	0.15736137
116	0xbe5cbab2	-0.21555594
117	0x3e05bb65	0.13059767
118	0xbe8e7afd	-0.27828208
119	0x3e3fc937	0.18729101
120	0x3e8de025	0.2771007
121	0x3e53ef83	0.20696835
122	0xbea3cae9	-0.31990746
123	0x3e5ef567	0.21773301
124	0xbe7e80f9	-0.24853887
125	0xbeb4ff96	-0.35351247
126	0x3e5fb130	0.21844935
127	0x3d608731	0.05481643
128	0xbe1befa9	-0.15228142
129	0xbea8778d	-0.3290371
130	0x3da6d0ad	0.081452705
131	0xbe1de5e1	-0.15419723
132	0xbe9012e3	-0.2813941
133	0xbd639cb0	-0.05556935
134	0xbeae49b9	-0.3404062
135	0x3e3eab16	0.18619952
136	0xbe7dd9d2	-0.24790123
137	0xbe03bd76	-0.12865242
138	0xbebeb8ff	-0.37250516
139	0xbd6a6539	-0.05722544
140	0xbdf15400	-0.117836
141	0x3e55904d	0.20855828
142	0xbdbd18cb	-0.092332445
143	0x3e8245f7	0.25444004
144	0x3ea88642	0.3291493
145	0x3d9eba3a	0.07750364
146	0xbe04a724	-0.12954384
147	0xbea7d666	-0.3278076
148	0xbe87b9cc	-0.2650894
149	0xbe0ecf1e	-0.13946196
150	0xbe846b8d	-0.25863305
151	0x3e3f2997	0.18668209
152	0xbdf9e95c	-0.12202713
153	0xbc4c8c6a	-0.012484649
154	0x3c972ecf	0.018454937
155	0xbea736e4	-0.32659066
156	0x3ea0b2a3	0.3138629
157	0xbe0a513c	-0.13507551
158	0xbea38953	-0.31940708
159	0xbcddf101	-0.027092459
160	0xbeb32ed3	-0.34996662
161	0x3daf3b10	0.08556187
162	0xbe7cd558	-0.24690759
163	0xbdd2edc6	-0.10299258
164	0xbde3ab8a	-0.11116703
165	0x3e9734f7	0.29532596
166	0x3e8a0948	0.26960206
167	0x3ec05d9c	0.37571418
168	0x3cdffd8d	0.027342582
169	0x3e6aa401	0.22914125
170	0xbea7f538	-0.32804275
171	0xbe8a62d4	-0.27028525
172	0x3e504ae5	0.2034107
173	0x3dc30af6	0.09523575
174	0x3dd63eb5	0.10461179
175	0x3e5d3f25	0.21606119
176	0x3e56c381	0.20973016
177	0x3e35f1ae	0.17767975
178	0xbe0e4867	-0.13894807
179	0xbe06bb26	-0.13157329
180	0x3da3061b	0.07960149
181	0x3ea6f1b2	0.32606274
182	0xbcea9e3d	-0.028639907
183	0xbe098643	-0.13430123
184	0x3e5756d0	0.2102921
185	0x3e831013	0.255982
186	0xbce25b91	-0.027631553
187	0xbdddfe95	-0.10839573
188	0xbebfa7fe	-0.37432855
189	0xbae3725e	-0.001735281
190	0x3e027ce5	0.12742956
191	0xbe8e12b9	-0.2774866
192	0xbe8facde	-0.28061575
193	0xbec177cd	-0.37786713
194	0x3e905f46	0.28197688
195	0x3eac975f	0.33709237
196	0x3ebed0ea	0.37268764
197	0x3eae1299	0.33998564
198	0xbd595c13	-0.053066324
199	0x3e8a3ab3	0.2699791
200	0x3e651579	0.22371472
201	0xbde00625	-0.10938672
202	0xbe5efc9c	-0.2177605
203	0x3ea4ca1b	0.32185444
204	0xbd133ff1	-0.03594965
205	0x3e0317e1	0.12802078
206	0xbe3703f1	-0.17872597
207	0xbe59b12e	-0.21258995
208	0xbd8f6e90	-0.0700351
209	0x3c4cca82	0.0124994535
210	0x3e807205	0.2508699
211	0x3e7b6c68	0.24553072
212	0xbd4284de	-0.047489993
213	0x3eac0b0d	0.3360218
214	0xbe4e0b5d	-0.20121522
215	0x3cee89d3	0.029118454
216	0xbe773cd1	-0.24144293
217	0x3d769bc0	0.06020713
218	0x3eb07c85	0.3447
219	0xbe960e9b	-0.29308018
220	0x3df07679	0.11741347
221	0xbe9d9833	-0.3078018
222	0xbd016b7f	-0.031596657
223	0xbe30a309	-0.17249693
224	0xbb45ba3d	-0.003017082
225	0xbe90f50e	-0.28311962
226	0x3e1a5020	0.15069628
227	0xbec066b7	-0.37578365
228	0x3d9e2768	0.0772236
229	0xbe18ee47	-0.14934646
230	0xbe679ed1	-0.22619177
231	0x3ea34b47	0.3189337
232	0x3cffe66a	0.0312378
233	0xbe801956	-0.2501933
234	0xbe63117d	-0.2217464
235	0xbe2caf3e	-0.16863725
236	0xbe675f21	-0.22594883
237	0x3d8cf7ec	0.06883225
238	0x3bc2d0fe	0.005945324
239	0x3ebde94b	0.3709205
240	0xbb011ade	-0.0019699852
241	0xbe66fa2c	-0.2255637
242	0x3ea6663d	0.32499877
243	0x3da06513	0.078317784
244	0xbdaedfc4	-0.08538774
245	0x3e87a0da	0.26489908
246	0x3eb28504	0.34867108
247	0xbea457d3	-0.32098255
248	0xbea0bb9a	-0.3139313
249	0xbe74278d	-0.23843212
250	0xbea7e3a2	-0.32790858
251	0xbe17e5b8	-0.14833724
252	0x3e0dae1c	0.13835949
253	0xbeb31bff	-0.34982297
254	0xbec4ae0f	-0.38414046
255	0xbea6a296	-0.32545918

linear_layer.2.weight f4 [256, 256]
0	0x3c6c6a14	0.014429588
1	0x3d343ef7	0.04400536
2	0x3d715e74	0.05892797
3	0x3d7e513e	0.062089197
4	0xbbfaf462	-0.007658527
5	0xbd3b9c28	-0.04580322
6	0x3d969ee7	0.07354527
7	0xbd2c151e	-0.042012326
8	0x3da4167b	0.080121
9	0x3ccd7248	0.025078908
10	0x3cabebf0	0.020986527
11	0x3cb8a26e	0.02253839
12	0xbd33d4c3	-0.043904077
13	0xbcac85c4	-0.021059878
14	0xbd271642	-0.04079271
15	0x3d36d065	0.044632334
16	0xbc8a72aa	-0.01690038
17	0xb9827851	-0.00024885175
18	0x3d5ac835	0.05341359
19	0x3d2e856b	0.042607706
20	0xbd2eb7a3	-0.0426556
21	0xbd7eb2e8	-0.062182337
22	0x3d4a9e42	0.049467333
23	0x3ad2ad1d	0.001607332
24	0xbd44453a	-0.047917582
25	0x3d22f234	0.039781764
26	0xbd236319	-0.03988943
27	0x3d5d9d0e	0.054104857
28	0x3cecd529	0.028910236
29	0x3d1d3d5e	0.038388602
30	0x3c6ff73a	0.014646346
31	0x3c31533f	0.01082307
32	0x3d2d51d8	0.04231438
33	0xbcc9975f	-0.024608312
34	0x3b6c2c00	0.0036036968
35	0x3d3d915c	0.046281204
36	0xbd0882a2	-0.033327706
37	0x3d4e3992	0.050347872
38	0x3d14e4a1	0.03635085
39	0xbcb1949d	-0.02167731
40	0x3c269dd3	0.010169464
41	0xbd1e643b	-0.038669806
42	0xbd0a9428	-0.0338327
43	0xbd1db68d	-0.038504172
44	0xbd4514e8	-0.04811564
45	0x3d335891	0.043785635
46	0xbccdaaad	-0.025105799
47	0xbc9dd7a8	-0.019267872
48	0x3d3316d0	0.043722928
49	0x3c25eb77	0.01012694
50	0xbced1cb0	-0.028944343
51	0xbca88892	-0.020572934
52	0xbc60ddd8	-0.013724767
53	0x3ce255b8	0.027628765
54	0x3c35cf9d	0.011096862
55	0x3d39e71d	0.045386422
56	0xbd1142ba	-0.035464026
57	0xbbdd40e8	-0.006752122
58	0x3c2617f3	0.010137546
59	0xbd579374	-0.052630857
60	0x3d37f73a	0.044913508
61	0xbbe3af60	-0.0069483966
62	0x3d9d0d4d	0.076685525
63	0xbd8827ff	-0.06648254
64	0x3d98db41	0.07463694
65	0xbc463f58	-0.012100063
66	0xbb14c182	-0.0022698347
67	0x3d7730cb	0.060349267
68	0x3d37eb5e	0.044902198
69	0xbc89d285	-0.016824016
70	0x3cd31430	0.025766462
71	0xbd493738	-0.049124926
72	0x3bae1e80	0.0053136945
73	0x3cb80be5	0.02246661
74	0x3d1f00b0	0.038819015
75	0x3d5b889d	0.05359708
76	0xbd3d5a82	-0.046228893
77	0xbd2e6bee	-0.0425834
78	0x3c6c8e3a	0.014438206
79	0xbcb8178c	-0.022472166
80	0xbcd05768	-0.025432304
81	0xbdb7503e	-0.08950852
82	0xbd7b0b64	-0.06129016
83	0xbd1ab682	-0.03777171
84	0x3c06eb20	0.008234769
85	0x3bebcce9	0.007196058
86	0xbb8c04fb	-0.0042730547
87	0xbc879f4b	-0.016555449
88	0xbc88097c	-0.016606085
89	0xbd8ffd84	-0.07030776
90	0x3ccd1ce2	0.025038186
91	0xbd3b5158	-0.045731872
92	0x3b3826dd	0.0028099336
93	0x3ccb6ec8	0.024833098
94	0x3cc8f177	0.024529202
95	0xbd78ce9b	-0.06074391
96	0xbd7bf1ec	-0.06151001
97	0x3cf717d5	0.030162731
98	0x3ae97200	0.0017810464
99	0x3d70413b	0.05865596
100	0x3ceee09c	0.029159836
101	0x3ce7e03b	0.028305164
102	0x3ca9c235	0.020722488
103	0xbb0a3efc	-0.002109467
104	0xbd14c201	-0.03631783
105	0xbb9bd575	-0.0047556707
106	0x3d97fb48	0.07420975
107	0x3d0b6fc9	0.034042154
108	0x3d36c7bb	0.04462407
109	0x3d701484	0.058613315
110	0x3d5c1d9f	0.053739186
111	0xbd0fb05a	-0.03508029
112	0xbd0b6b0e	-0.034037642
113	0x3bc912c1	0.006136269
114	0x3bf963b9	0.007610765
115	0xbd741499	-0.059589956
116	0x3ac21caa	0.0014809568
117	0x3d391ced	0.0451936
118	0xbb89b6e0	-0.0042027086
119	0x3d971e25	0.073787965
120	0xbd48e2d0	-0.04904443
121	0xbd7f495d	-0.062325824
122	0x3c7c34c1	0.015393437
123	0x3c48e19a	0.012260819
124	0xbce61408	-0.028085724
125	0xbd018d98	-0.031629175
126	0x3c4a9d63	0.0123666255
127	0xba1b0eb5	-0.0005914972
128	0xbc8eca86	-0.017430555
129	0x3d0aa62d	0.033849884
130	0xbcb49579	-0.02204393
131	0x3d6a915b	0.057267528
132	0x3df517cd	0.1196743
133	0xbd1db68e	-0.038504176
134	0x3d0f4b9d	0.03498422
135	0x3d1d5364	0.038409606
136	0xbb5a6a93	-0.0033327683
137	0xbd48f578	-0.049062222
138	0xbc1e333f	-0.009655773
139	0xbca64369	-0.020295816
140	0xbc9bea05	-0.019032488
141	0xbc3d4608	-0.011552341
142	0xbb3cc3c1	-0.0028803202
143	0xbc6e5c68	-0.014548399
144	0xbcdbbbc6	-0.026822936
145	0xbcb40728	-0.021976069
146	0xbd566d2e	-0.052350216
147	0xbd6bf543	-0.057606947
148	0x3d125736	0.035727702
149	0x3d059589	0.03261331
150	0x3d56e7b8	0.052467078
151	0x3c2cfcb9	0.010558301
152	0xbcd29820	-0.025707304
153	0xbd2594cf	-0.040425118
154	0x3d0d3432	0.034473605
155	0xbd1ab616	-0.037771307
156	0x3d466686	0.048437618
157	0xbdc582db	-0.09644099
158	0xbd6fc631	-0.05853862
159	0xbd8ce2da	-0.06879206
160	0x3d4141cd	0.047181893
161	0x3c06573c	0.008199509
162	0x3cfd471d	0.030917699
163	0xbbc37817	-0.0059652436
164	0x3d5b8000	0.053588867
165	0xbccc1220	-0.024910986
166	0x3d9a2aac	0.0752767
167	0xbd1584b9	-0.036503527
168	0x3c0592ac	0.008152645
169	0x3d728534	0.059209064
170	0xbd3d977c	-0.046287045
171	0x3e28bd86	0.16478547
172	0xbd27ac96	-0.040936075
173	0x3e07c05c	0.13256973
174	0xbb4125c0	-0.0029471964
175	0x3c852fb8	0.016258106
176	0x3c736677	0.0148559725
177	0xbcfbbb96	-0.030729096
178	0x3c463ec2	0.012099924
179	0x3c91049c	0.017702393
180	0xbbe3fa80	-0.006957352
181	0xbd1bed1c	-0.038067922
182	0x3d7d5d4a	0.061856546
183	0xbc114a0b	-0.008867751
184	0xbd1f40f3	-0.0388803
185	0x3dbf1527	0.09330206
186	0xbcecd297	-0.02890901
187	0x3d24c9ee	0.040231638
188	0xbc12ca52	-0.00895937
189	0xbd608a05	-0.054819126
190	0x3b6851c5	0.003544913
191	0xbd0b2bf4	-0.033977464
192	0x3ca03f3c	0.019561402
193	0x3d717cb8	0.05895683
194	0x3b906f86	0.004407826
195	0xbcb0b6ed	-0.0215716
196	0xbc643b58	-0.013930164
197	0xbd53d911	-0.051720683
198	0x3d3ae350	0.04562694
199	0xbd730862	-0.059334166
200	0xbd4a95a4	-0.049459115
201	0xbd228bbd	-0.039684046
202	0x3d1f4386	0.038882755
203	0x3cae9158	0.02130954
204	0x3cf0ce94	0.02939538
205	0xbafab529	-0.0019127476
206	0xbc3e9414	-0.011631984
207	0x3cad1588	0.021128431
208	0xba206a80	-0.00061193854
209	0xbca4d488	-0.020120874
210	0xbd1871a6	-0.03721776
211	0xbd11e5d8	-0.035619587
212	0xbd314098	-0.043274492
213	0xbc70eb06	-0.014704471
214	0xbd367dce	-0.04455357
215	0x3ad56b7d	0.0016282644
216	0x3c0b6000	0.008506775
217	0x3d73d7b9	0.0595319
218	0x3c0efd8a	0.008727441
219	0x3d50cf2e	0.050978832
220	0xbd641042	-0.055679567
221	0xbd9f5c08	-0.077812254
222	0xbaff3466	-0.0019470572
223	0xbd83d732	-0.064375296
224	0x3c65e899	0.014032506
225	0x3d57fd3a	0.05273173
226	0xbc2149cd	-0.009844256
227	0xbd02bab4	-0.031916335
228	0xbcd26a4f	-0.025685458
229	0x3d7286d6	0.05921062
230	0xbc23f4e0	-0.010007113
231	0xbd41fa29	-0.047357712
232	0x3dd5395c	0.10411331
233	0x3b504060	0.0031776652
234	0xbd1e3106	-0.03862097
235	0xbbde4f40	-0.0067843497
236	0xbd88f292	-0.066868916
237	0x3dae015e	0.084963545
238	0xbcba0fe8	-0.022712663
239	0x3d03a37b	0.03213833
240	0x3d7dae7c	0.06193398
241	0xbcff3c47	-0.031156672
242	0xbcc87788	-0.02447106
243	0xb998fd17	-0.00029180266
244	0x3a73ae3b	0.0009295677
245	0x3d1949db	0.03742395
246	0xbca256b3	-0.019816732
247	0x3c1ba1d5	0.009499033
248	0xbc991510	-0.018686801
249	0x3cfa5487	0.030557884
250	0x3cbbac39	0.02290927
251	0xbd259290	-0.040422976
252	0x3d07e670	0.033178747
253	0xbc5aa9ab	-0.013346116
254	0x3d6f06d9	0.05835614
255	0xbd7e0c06	-0.062023185

linear_layer.2.bias f4 [256]
0	0xbbba282b	-0.005681058
1	0xbccc4084	-0.024933107
2	0x3c4a3622	0.012342008
3	0xbc80bf60	-0.015716255
4	0x3cc6ea44	0.024281628
5	0xbd1775d0	-0.03697759
6	0xbc5f52bc	-0.013630565
7	0x3cda4b00	0.02664709
8	0x3d644480	0.05572939
9	0xbd5147f4	-0.05109401
10	0x39f8f4af	0.0004748455
11	0xbd43ad4b	-0.047772687
12	0x3be1c720	0.0068901926
13	0xbd010c9b	-0.031506162
14	0xbce7056c	-0.028200828
15	0xbcf42b41	-0.029805781
16	0xbc19bc9c	-0.009383347
17	0xbd079913	-0.033104967
18	0x3c9208dc	0.01782649
19	0x3d6251b2	0.055253692
20	0x3c969c41	0.018385055
21	0x3d7aba12	0.061212607
22	0x3ce9fb9f	0.028562365
23	0xbd284194	-0.041078165
24	0xba077380	-0.0005167052
25	0xbd695f5a	-0.0569757
26	0x3d0af985	0.033929367
27	0xbcc9a170	-0.024613112
28	0xbd387e7b	-0.045042496
29	0x3d05028b	0.03247313
30	0xbbed2b19	-0.0072378037
31	0x3b90a2b2	0.004413926
32	0xbd9685f6	-0.0734977
33	0xbc010e3a	-0.007876927
34	0x3c0c7fd6	0.0085754
35	0xbd675116	-0.056473814
36	0x3d44722a	0.047960438
37	0x3ca02760	0.019550025
38	0xbca59fa3	-0.020217722
39	0xbd3d88df	-0.04627311
40	0x3c8665f4	0.016406037
41	0xbd1309a4	-0.035897866
42	0xbd8090a4	-0.06277588
43	0x3aa2863f	0.0012399628
44	0xbd61a436	-0.055088244
45	0xbad89e7a	-0.0016526722
46	0xbd1510cb	-0.03639297
47	0xbd0c7195	-0.034288008
48	0xbd1d0064	-0.03833045
49	0x3c75edb8	0.01501029
50	0x3d0fc78f	0.035102423
51	0xbd688d4f	-0.056775387
52	0xbd76a810	-0.06021887
53	0xbd41eefb	-0.04734705
54	0xbcbed1e0	-0.023293436
55	0x3cb18570	0.021670073
56	0x3c3d3822	0.011549028
57	0xbd84039d	-0.06446002
58	0xbb17cdc3	-0.0023163415
59	0x3d4288ba	0.047493674
60	0x3d020610	0.031744063
61	0xbd2808a5	-0.04102387
62	0xbc8d9776	-0.017284136
63	0x3c9c4f92	0.01908091
64	0x3d46a757	0.04849943
65	0x3d73124a	0.059343614
66	0x3bb70e40	0.0055864155
67	0xbc92c0a4	-0.017914124
68	0x3cf14089	0.029449718
69	0x3bbd9770	0.005785875
70	0xbcca03fb	-0.024660101
71	0xbc9921c1	-0.018692853
72	0xbc93c33e	-0.018037435
73	0x3c5da2f7	0.013527623
74	0xbd66e699	-0.05637226
75	0xbbd02fd0	-0.006353356
76	0xbd0697b0	-0.032859504
77	0x3d64bf34	0.055846408
78	0xbd23f5c6	-0.04002931
79	0xbc7e6949	-0.015528032
80	0x3c173c93	0.009230751
81	0xbc82fde8	-0.015990213
82	0x3d21e92c	0.03952901
83	0xbc76c6d4	-0.015062053
84	0x3d4c8c19	0.049938295
85	0xbc63c448	-0.013901778
86	0xbb823d9c	-0.0039746296
87	0x3d2d8ea8	0.042372376
88	0xbd8ba666	-0.06818847
89	0x3d54ae63	0.05192412
90	0x3c5de79d	0.01354399
91	0xbceb3ec1	-0.028716447
92	0xbc960966	-0.018315028
93	0xbc64e0ec	-0.013969641
94	0xbd014a6b	-0.03156511
95	0x3c1b11e3	0.009464714
96	0xbd81a278	-0.063298166
97	0xbd6283bd	-0.055301417
98	0x3d35f70e	0.044425063
99	0x3c09cb94	0.008410353
100	0xbd3c62ca	-0.04599265
101	0x3cafa97c	0.021443121
102	0xba259db3	-0.00063177495
103	0xbd07c302	-0.03314496
104	0xbc6c4b60	-0.014422268
105	0x3c8b54b5	0.017008165
106	0x3d11ba80	0.03557825
107	0x3d28f000	0.041244507
108	0x3cfa6709	0.03056671
109	0xbd10bb69	-0.03533498
110	0x3cd37f14	0.025817432
111	0x3cf26a96	0.02959184
112	0xbcc050af	-0.023475973
113	0xbc328367	-0.010895587
114	0xbcb5cc4e	-0.022192147
115	0xbd1064a4	-0.03525223
116	0xbd7008ef	-0.05860227
117	0x3d2876e9	0.041129027
118	0x3d3c72d8	0.04600796
119	0x3cea3978	0.028591856
120	0x3c26013c	0.01013213
121	0xbd31909a	-0.043350793
122	0x3d58a66a	0.05289308
123	0x3c647e0b	0.013946067
124	0x3bf8e215	0.0075953105
125	0x3d6fafe0	0.058517337
126	0x3c68ef54	0.0142172165
127	0x3ceb9ef0	0.02876231
128	0x3d8ec2a9	0.06970722
129	0xba40b3ef	-0.0007351031
130	0xbd115ee2	-0.035490878
131	0x3d6ac1b6	0.057313643
132	0xbd1af00a	-0.037826575
133	0x3c6f1605	0.014592652
134	0xbd1cfdad	-0.03832786
135	0x3c2a1747	0.010381526
136	0x3c4ff05c	0.0126915835
137	0xbd685287	-0.05671933
138	0x3d135f25	0.03597941
139	0x3d8c0f61	0.06838871
140	0x3ca30ffc	0.019905083
141	0xbc8e25dc	-0.017352037
142	0x3c22b418	0.009930633
143	0x3a337833	0.0006846219
144	0xbc72c8bd	-0.014818368
145	0x3d40663f	0.04697251
146	0xbcd9aa5c	-0.026570491
147	0xbcae1925	-0.021252224
148	0x3d79c770	0.060981214
149	0xbbe6d31d	-0.0070442096
150	0x3d399f14	0.045317724
151	0xbd550706	-0.05200865
152	0xbd4a71fd	-0.049425114
153	0xbd445a2d	-0.04793756
154	0x3c13657d	0.008996365
155	0xbd48cbc8	-0.049022466
156	0x3c9c3a9d	0.019070918
157	0x3d4e2e32	0.050337024
158	0xbc24d153	-0.010059672
159	0xbc5fe67e	-0.013665793
160	0x3ab4f54e	0.0013806017
161	0x3d740c79	0.059582207
162	0xbd064971	-0.032784883
163	0x3c815254	0.015786327
164	0x3c9c1228	0.019051626
165	0xbd2d5f62	-0.042327292
166	0xbc2cf044	-0.010555331
167	0x3c88d7df	0.016704498
168	0xbd48f6ed	-0.04906361
169	0xbd481ba6	-0.048854493
170	0x3d233e5a	0.039854385
171	0x3d3469c0	0.044046164
172	0x3d474ab4	0.048655227
173	0xbd87f6a7	-0.06638842
174	0xbd5ea8a9	-0.054360066
175	0x3d25ae2e	0.040449314
176	0xbcbedaf4	-0.023297764
177	0xbd03de60	-0.032194495
178	0x3cee32ec	0.029077016
179	0x3d0eeaca	0.03489188
180	0xbc845dba	-0.016157974
181	0xbd805151	-0.0626551
182	0x3cfb15ba	0.030650008
183	0x3c3ed905	0.011648421
184	0x3d59b088	0.05314687
185	0xbd59a0e2	-0.053131945
186	0xbcafae2e	-0.02144536
187	0xbc9182a4	-0.01776249
188	0x3d20553a	0.03914378
189	0xbab33bc0	-0.0013674423
190	0x3cd123ba	0.025529731
191	0x3d71f53b	0.05907176
192	0x3d79843b	0.06091712
193	0x3cb83fd0	0.022491366
194	0x3d46d48b	0.04854254
195	0xbd398a15	-0.0452977
196	0x3d5632fa	0.05229471
197	0x3c2e65ea	0.010644415
198	0x3d878885	0.06617836
199	0xbd4400a2	-0.047852166
200	0x3cec9b34	0.0288826
201	0xbd26f056	-0.040756546
202	0xbd615abc	-0.05501817
203	0xbd7046fa	-0.05866144
204	0xbcc847e2	-0.024448339
205	0xbd753266	-0.059862517
206	0x3c403410	0.011731163
207	0xbd716bbb	-0.05894063
208	0xbd05f61b	-0.032705408
209	0x3d4bbb97	0.049739446
210	0xbd1b1808	-0.037864715
211	0x3d32869c	0.043585405
212	0x3cebd5d8	0.028788492
213	0xbd1a1c61	-0.03762472
214	0xbd2e0ecc	-0.04249458
215	0xbb792100	-0.0038014054
216	0xbd464ade	-0.048411243
217	0xbd30b7eb	-0.043144148
218	0x3d6c00a4	0.0576178
219	0x3d25cf61	0.040480975
220	0x3b6b0c40	0.0035865456
221	0x3ae4d3a8	0.0017458098
222	0xbc68c318	-0.01420667
223	0xbc737e88	-0.01486171
224	0x3c1c9dd0	0.00955911
225	0x3cb1a072	0.021682952
226	0x3d1b9804	0.03798677
227	0x3d6673d3	0.056262802
228	0xbd868585	-0.065684356
229	0xbd78be97	-0.060728636
230	0xbbc5d2f0	-0.0060371086
231	0xbd44bde4	-0.048032656
232	0xbd64ec5e	-0.05588948
233	0x3ce3e994	0.02782134
234	0xbd8c4d0a	-0.068506315
235	0x3cc688f9	0.024235236
236	0x3a232104	0.0006222876
237	0x3d460256	0.04834207
238	0xbc3f4cd8	-0.011676036
239	0x3ceb18e3	0.02869839
240	0x3d6a8708	0.057257682
241	0x3d1499f1	0.036279622
242	0xbcf9df00	-0.030501842
243	0xbd0ab46c	-0.03386347
244	0x3be312a6	0.0069297133
245	0xbd803b08	-0.06261259
246	0xbd29cedb	-0.04145704
247	0x3d2ca94c	0.04215364
248	0x3b854dba	0.0040681036
249	0x3d5ddf9d	0.054168332
250	0xbd2215dc	-0.039571628
251	0x3cb51f42	0.022109631
252	0x3d2b866c	0.04187624
253	0x3d3cf7a3	0.046134602
254	0xbd7712b9	-0.06032059
255	0xbcbaa4de	-0.022783693

linear_layer.4.weight f4 [49, 256]
0	0xbd8e00f1	-0.06933773
1	0x3cdde2c8	0.027085677
2	0xbac508b0	-0.0015032496
3	0x3cce457e	0.02517962
4	0xbd8345cc	-0.06409797
5	0xbce4a678	-0.02791141
6	0x3d5e4605	0.054265995
7	0xbd27e544	-0.04099013
8	0x3d6a987d	0.05727433
9	0xbc9f8267	-0.01947136
10	0x3c4b83d1	0.012421564
11	0xbc514973	-0.012773859
12	0x3cd921a4	0.026505299
13	0xbd48b408	-0.048999816
14	0xbd3f51ff	-0.046709057
15	0x3d55d6e6	0.052206896
16	0xbc8b9a84	-0.017041452
17	0xbd2b13b0	-0.041766822
18	0xbd235df0	-0.039884508
19	0xbcbf8195	-0.02337722
20	0xbd19c4a4	-0.037541047
21	0x3d5baeec	0.053633615
22	0x3d0d791b	0.034539323
23	0xbcbd8df0	-0.02313897
24	0x3d446d5e	0.047955863
25	0x3a4bda1e	0.00077763374
26	0xbbc9ee5c	-0.006162448
27	0x3cecfec8	0.028930083
28	0x3d829d91	0.0637771
29	0x3d5fce8e	0.054640345
30	0x3d253ee7	0.04034319
31	0x3cba55ca	0.022745986
32	0xbb6144d8	-0.003437331
33	0x3d2ecf25	0.042678017
34	0x3cdb1259	0.026742147
35	0x3ca641c0	0.020295024
36	0x3d6e1496	0.0581251
37	0x3d4d4584	0.050115123
38	0xbd89e0ab	-0.06732305
39	0x3d0c0ca1	0.03419173
40	0x3c26e55e	0.010186521
41	0xbd29a34e	-0.041415505
42	0x3d42e430	0.047580898
43	0x3c05c01c	0.008163478
44	0xbd190430	-0.03735751
45	0x3c8ed520	0.01743561
46	0x3d022402	0.03177262
47	0x3d8dae25	0.06917981
48	0x3d232bba	0.039836623
49	0x3d0e68d8	0.034767956
50	0x3d4018c2	0.04689861
51	0x3c77fc74	0.015135873
52	0x3d26f9e4	0.040765658
53	0x3d3de3cb	0.04635982
54	0x3d3ee7e6	0.046607874
55	0xbcb0ca1c	-0.021580748
56	0xbcc34d18	-0.023840472
57	0xbc567cae	-0.013091249
58	0x3d58e72a	0.05295483
59	0x3a9f22c0	0.0012141094
60	0x3d6d7856	0.05797609
61	0xbcdd553c	-0.027018182
62	0xbd916db4	-0.07101002
63	0xbd2c11a0	-0.042008996
64	0xbd7092cf	-0.058733758
65	0xbbb4ed70	-0.005521469
66	0xbbadf3d0	-0.0053086057
67	0xbce9a69c	-0.028521828
68	0xbca101d0	-0.019654185
69	0xbd5862de	-0.052828662
70	0xbb1aafff	-0.0023603437
71	0x3d0fa140	0.03506589
72	0x3d310191	0.043214384
73	0x3d7b6073	0.061371278
74	0xbccb48dd	-0.024815017
75	0xbd2551df	-0.04036128
76	0x3cf8cad5	0.030370155
77	0x3ac0af00	0.0014700592
78	0x3c4c76eb	0.012479524
79	0xbd7cd139	-0.061722968
80	0x3afc25c8	0.0019237334
81	0xbd17c950	-0.03705722
82	0x3cf5827e	0.02996945
83	0x3caa6036	0.02079783
84	0xbd20ba9c	-0.039240465
85	0x3d387249	0.045030866
86	0x3d4c3c22	0.049862035
87	0x3d0429f4	0.032266572
88	0x3b4e7706	0.003150405
89	0xbcf1c29b	-0.02951174
90	0xbd82dd21	-0.06389833
91	0xbd82ce2c	-0.063869804
92	0x3d39f5be	0.045400374
93	0x3cee75ed	0.029108966
94	0xbce944fc	-0.028475277
95	0xbcad5711	-0.02115968
96	0xbd1db81a	-0.03850565
97	0xbd43e506	-0.047825836
98	0xbcdb5510	-0.02677396
99	0x3ce25d61	0.027632417
100	0xbd6314f2	-0.055439897
101	0xbd519b45	-0.051173467
102	0x3d58c172	0.05291886
103	0xbce49a44	-0.02790559
104	0xbc4c937d	-0.012486336
105	0x37eaf2e9	2.8008088e-05
106	0xbd740b12	-0.05958087
107	0xbd49bec7	-0.049254205
108	0xbc79caf1	-0.015246139
109	0x3d1244d3	0.035710167
110	0x3d60a772	0.05484719
111	0xbd2331bf	-0.039842363
112	0xbd0355c4	-0.032064214
113	0xbc190e23	-0.009341749
114	0x3ccf9c42	0.025343064
115	0x3cf6fa94	0.030148782
116	0xbd69567a	-0.056967236
117	0x3db9452d	0.09046397
118	0xbd7b9d74	-0.061429456
119	0x3d620167	0.05517712
120	0xbcc286e3	-0.02374596
121	0xbcd7a56b	-0.026323995
122	0x3d39ca9e	0.045359246
123	0xbd11beca	-0.03558234
124	0xbd1983d1	-0.037479226
125	0x3dc9c0e7	0.09851246
126	0x3ca522ff	0.020158289
127	0xbd3c7084	-0.04600574
128	0x3c3279fb	0.01089334
129	0xbc7b6295	-0.015343328
130	0xbcc4d858	-0.024028942
131	0xbd1fa5e0	-0.03897655
132	0xbd03d1ea	-0.03218261
133	0xbc3dbe3a	-0.011580998
134	0x3d526f96	0.051375948
135	0x3d06eb4e	0.032939248
136	0x3dc0bece	0.09411393
137	0x3d4833d2	0.048877545
138	0xbd65147d	-0.055927742
139	0xbc984af0	-0.01859042
140	0xbd51e20a	-0.05124096
141	0x3d129d34	0.03579445
142	0xbd132971	-0.035928193
143	0x3d73c48e	0.05951362
144	0xbcddee47	-0.027091159
145	0x3c5a5c53	0.013327676
146	0xbce7a517	-0.028276963
147	0xbd58a89e	-0.05289518
148	0xbb952c95	-0.0045524337
149	0xbc2f02df	-0.010681837
150	0xbd8090be	-0.062776074
151	0xbd734466	-0.0593914
152	0xbcf4ccfa	-0.029882897
153	0xbcec9118	-0.02887778
154	0xbc67605f	-0.014122098
155	0x3d2e1804	0.04250337
156	0xbc366fa6	-0.0111350175
157	0x3d0d075c	0.034430847
158	0xbcf0bcda	-0.029386926
159	0xbd6d3920	-0.057915807
160	0xbc0174e7	-0.007901407
161	0x3d477980	0.048699856
162	0xbc9ce536	-0.019152265
163	0xbc0450f0	-0.008075938
164	0x3b83aa8a	0.0040181326
165	0x3d96dde4	0.07366541
166	0x3b9df1c0	0.0048200786
167	0x3cc73604	0.024317749
168	0x3b9c24ac	0.004765114
169	0xbdbd83a0	-0.09253621
170	0xbc2e016f	-0.010620459
171	0xbbb11d6c	-0.0054051187
172	0x3ab73580	0.0013977736
173	0xbd4cd866	-0.05001106
174	0xbc831e61	-0.016005697
175	0x3d41c726	0.047309063
176	0x3d16b15c	0.036790237
177	0x39f5de49	0.00046895657
178	0xbd35aec0	-0.044356108
179	0xbda5c746	-0.08094649
180	0x3d4ef8e4	0.05053033
181	0xbcd4badb	-0.025968006
182	0xba8b16b6	-0.0010611627
183	0xbc8934a4	-0.016748734
184	0x3d3d091a	0.046151258
185	0xbdb26d50	-0.08712256
186	0xbd5e61a5	-0.05429234
187	0x3c7b7180	0.015346885
188	0x3d5f3766	0.05449619
189	0xba332680	-0.0006834045
190	0xbd22e432	-0.039768405
191	0x3c157fcc	0.009124707
192	0x3d948cf0	0.07253444
193	0xbcbb90df	-0.022896228
194	0x3c02233f	0.007942974
195	0xbd57d06d	-0.052689005
196	0xbd5ff936	-0.054681025
197	0xbb461464	-0.0030224556
198	0x3d2a57cb	0.041587632
199	0xbc885fac	-0.016647182
200	0x3cdb7d58	0.026793167
201	0xbd479f38	-0.048735827
202	0xbd0e91e2	-0.034807093
203	0x3d1dc5ec	0.03851883
204	0xbd5b34e1	-0.053517226
205	0x3bf906e9	0.0075997007
206	0x3d3dc2c8	0.046328336
207	0xbd1891d8	-0.037248462
208	0xbd308fb7	-0.043105807
209	0xbca2e0e1	-0.019882621
210	0x3d3438a5	0.043999333
211	0xbcf4d4a8	-0.029886559
212	0x3c89e709	0.016833799
213	0x3d475907	0.048668887
214	0xbb5817ed	-0.0032973245
215	0xbc8f7590	-0.017512113
216	0x3d5200ba	0.051270224
217	0xbd25da73	-0.040491533
218	0x3d495aa0	0.049158692
219	0xbd39b626	-0.045339726
220	0x3c20e3b8	0.009819917
221	0x3d34036c	0.043948576
222	0x3c6f76df	0.014615743
223	0xba702100	-0.0009160191
224	0x3d67c75e	0.056586616
225	0xbbaff4ae	-0.0053697443
226	0xbc81ee30	-0.015860647
227	0x3d033e6c	0.032041952
228	0x3b26f182	0.002547354
229	0xbd63cb69	-0.05561391
230	0xbcdcaf5e	-0.02693909
231	0x3d3d1849	0.04616574
232	0x3c605db0	0.013694212
233	0x3c715324	0.014729295
234	0xbd4ec330	-0.050479114
235	0xb8975454	-7.2159484e-05
236	0xbd56ec1b	-0.05247126
237	0x3ce8c548	0.028414384
238	0x3c107754	0.008817513
239	0xbd094862	-0.033516295
240	0x3d6530a4	0.05595459
241	0xbd16a335	-0.03677674
242	0xbba19530	-0.0049311146
243	0xbd1d89eb	-0.038461607
244	0x3a1300f0	0.00056077447
245	0xbd223d5c	-0.039609298
246	0xbc2c6f54	-0.01052459
247	0x3c71d659	0.014760577
248	0x3dbf50e6	0.09341602
249	0xbc3c1a34	-0.011480857
250	0xbcc88304	-0.024476536
251	0xbc4853e4	-0.012227032
252	0xbc4be09d	-0.012443689
253	0x3c727a6b	0.0147996945
254	0xb9ab18a6	-0.00032634026
255	0xbc38d1ef	-0.011280521

linear_layer.4.bias f4 [49]
0	0xbc93a21d	-0.018021638
1	0x3da18cd8	0.07888192
2	0xbc701aa6	-0.014654791
3	0x3d1d8845	0.038460035
4	0xbd7456fb	-0.059653264
5	0xbd66e679	-0.05637214
6	0xbcc04264	-0.023469158
7	0xbd4a89ca	-0.049447812
8	0xbc50ae8d	-0.012736929
9	0xbd54fb3e	-0.051997416
10	0xbd3c8cd4	-0.04603274
11	0x3c399a33	0.011328268
12	0xbd53cac1	-0.051707033
13	0x3d330656	0.043707214
14	0x3d1b04b6	0.03784629
15	0x3c81f90a	0.015865821
16	0x3ceefd50	0.029173523
17	0xbcd7e601	-0.026354792
18	0xbd02adf5	-0.03190418
19	0x3c930ea1	0.017951312
20	0x3d0c67e0	0.03427875
21	0x3d3c121d	0.04591571
22	0xbd25b2a0	-0.040453553
23	0xbd2629ec	-0.040567324
24	0xbd364134	-0.044495776
25	0xbcf52640	-0.029925466
26	0x3bab51e5	0.0052282684
27	0xbd67fe2c	-0.05663888
28	0x3d346aa6	0.04404702
29	0xbd7d7286	-0.061876796
30	0xbaaa1a1f	-0.0012977755
31	0x3d26235c	0.040561065
32	0x3c7c10c4	0.015384857
33	0x3d398482	0.045292385
34	0xbb86dc75	-0.004115636
35	0xbd537c06	-0.05163195
36	0xbc8082b4	-0.015687324
37	0xbd472115	-0.048615534
38	0x3d0680aa	0.032837547
39	0xbd23fd36	-0.040036403
40	0x3d4b09ae	0.04956978
41	0xbc1786ed	-0.009248477
42	0xbd1be2db	-0.038058143
43	0xbcc3992e	-0.023876753
44	0x3d64caa6	0.055857323
45	0xbd0dda25	-0.034631867
46	0xbd575fd3	-0.05258162
47	0x3ca4e229	0.020127373
48	0x3d57efcd	0.052718926
