data/300_500/models/actor_450.pth (torch, 323799 bytes, 6 tensors)

linear_layer.0.weight f4 [256, 7]
00000000: f428 593e 1342 17be 7cd4 53bd eca8 443e
00000010: 398f bdbe 2378 973e 2416 02bd 825f 313e
00000020: 85b3 243d f2df 5ebd b80a cb3d 8817 ba3d
00000030: 99df 073e 6a07 2dbe 445c 4abc dcf3 64bc
00000040: 24f2 963d 2a1d 963c 39b2 013f 756f e43d
00000050: f087 4fbe 2ac1 69be 18bf 81bd b8f1 26be
00000060: cb0c f8bd 4d41 943c 01b9 663e 385e 523e
00000070: 77e7 c0be c6ca 6d3e e359 e13d f392 b33e
00000080: 3231 bb3e fb9c c6be 4af9 cebe b42e 47be
00000090: 8db3 a33e ed20 86bd 1f04 253e 39d2 28be
000000a0: 7132 ce3e 51ae 24be e2c3 893e 2b08 00bc
000000b0: 992c 59be 6312 443e 0b82 79be 6525 1a3e
000000c0: 0610 9cbd ccba 29bd b40b babe 1188 38be
000000d0: c904 523e bd28 bcbd dac0 c03e 231f 9b3e
000000e0: ff0b eabb 81f4 73be d978 7b3e 9746 163e
000000f0: f6f6 8abe ceb4 a53e d1fd 6d3e f9c6 b73e
00000100: 2dbf 40be 7096 3dbd 2329 d9b9 7834 60bd
00000110: 5961 a3be a753 70be 6b9f 4c3e 93a8 bebd
00000120: 50f1 313e fe95 c33b 3e06 4cbc 5947 833d
00000130: b709 3f3e 8aae 403e 78da b2be 6b75 433e
00000140: 074b 88be c44e 92be 0a5a b73c 4035 83bd
00000150: 4d17 5e3e e2b4 66be 8458 afbe 41cf 8a3e
00000160: 090a 62bd 0752 443e 1e39 ed3d 3e1d 91be
00000170: 7482 9b3d e4ed b93d 4f92 81be 3ea3 37be
00000180: 3ff8 033e 54a7 8a3d f40b 04be 8d89 a9bd
00000190: f2d3 c13e acb3 1bbd 5d8e bc3e 25df 2a3e
000001a0: 4782 91be ea60 aabe 4e4a b33e 4434 b63b
000001b0: 8a38 7b3e 794d 1cbb 202b fb3d 4ee8 9f3e
000001c0: cfa1 b63e 922a 80be a825 513d 39e6 903e
000001d0: e2d1 d43e 4f6c 613e 9872 aebe 677b 91be
000001e0: 758d 76be 444b 143d 4ba3 ba3e c4e5 6abe
000001f0: 4bd2 433e 9db4 4dbe 1eba c9be acd0 ebbd
00000200: f372 373e a4ed a33e 29d8 53be 75ea 913d
00000210: 0a3f 8e3e f636 6c3e 6a54 5e3e da0f 793e
00000220: f5cc 5e3e 2b2e 1f3e 4365 99be 9fbd c2be
00000230: 134b 32be 57e5 35bd d0b4 6cbe 6fb1 0c3e
00000240: 46cf f13d 2170 b0bd acaf 153e 8ad8 d63d
00000250: afec 643e 0f57 7d3e c725 0ebe 0198 d93e
00000260: d37b acbd 6763 87bd 59a8 b6be 361a 79be
00000270: 891b 62be 448b 25be d495 893e a9f3 fcbd
00000280: ba9c 90be c7c2 0f3e cfd5 ed3d 9a48 703e
00000290: df29 51be 635e 05bd 3f50 07be 43e5 16bd
000002a0: c837 9abe 4e65 30be b710 edbd 9682 253e
000002b0: 256a 8d3d 5435 bf3d b026 c13e 164d b43e
000002c0: 9cd4 7c3e e4e7 3abb a9bc 8cbe aed4 7e3e
000002d0: dbf3 fdbd 8fd5 e7bc f32d a8be 82fa 9dbd
000002e0: a2fa 7bbe 78b2 b03e 1752 a6be d59d 92be
000002f0: 1b5e 15bc b146 51be 627c 0a3e dcfa 14be
00000300: 2cc9 35be c55d af3c 4f16 8c3e 0120 88be
00000310: 19ef 2c3e ec7a 733e 4fcb bc3e 4974 8bbe
00000320: 0a0a 0d3e ce2d a8be 4758 943e 78b8 19be
00000330: b959 653e 851c 693c 3a16 05bd ff49 403d
00000340: cb28 103d 7187 013e 1baa 423d 7739 cf3d
00000350: 8a3b b2be 445a 8b3e 21d5 d93e e23f b23e
00000360: 4de6 663e 8c12 87be 9b51 03be f72d b13e
00000370: c9c3 8cbe 62dd b33e 4100 92be 9149 7fbe
00000380: 4855 483e 8507 86be 6267 93bd 714f 973e
00000390: 7113 903e 86cb d63e 1139 8dbd f0e6 89be
000003a0: bbe8 ca3e b0b3 65bd 93c7 0abe 6a20 093e
000003b0: 6c53 95be 73c2 833e 6091 723e 818d 99be
000003c0: 3ff3 9ebe 9a9c 07bd 9890 223e 9d59 33bc
000003d0: d041 44be c593 0d3c c4e4 b5be 56c5 88be
000003e0: 9fd2 80be 275e 9f3e 4b96 aa3e 8f76 03be
000003f0: edca d13a bf99 203e 6450 103d b759 48be
0.21207029 -0.14771299 -0.051716313 0.19205064 -0.37023333 0.29583845 -0.031759396 0.1732159
0.040210266 -0.05441279 0.09914154 0.090865195 0.1326889 -0.1689736 -0.012351099 -0.013974156
0.073704034 0.018324453 0.5066257 0.11154071 -0.202667 -0.22827592 -0.06335276 -0.16303146
-0.12111815 0.018097544 0.22531511 0.20543754 -0.37676594 0.23221883 0.11003473 0.3507305
0.3656097 -0.38791642 -0.40424567 -0.1945141 0.31972924 -0.06549249 0.16114853 -0.16486444
0.4027286 -0.16082121 0.2690726 -0.007814447 -0.21208419 0.19147639 -0.24366014 0.15053327
-0.07620244 -0.04143791 -0.36337054 -0.18020655 0.20509638 -0.09187458 0.37647134 0.30297193
-0.0071425433 -0.2382374 0.24557818 0.14675365 -0.2714154 0.32364506 0.23241355 0.35893992
-0.18822928 -0.046286047 -0.00041420115 -0.054737538 -0.31910208 -0.23469411 0.19982688 -0.09309497
0.1737721 0.005968808 -0.01245266 0.06410093 0.1865605 0.18816581 -0.34932303 0.1908776
-0.2661974 -0.28575718 0.022381801 -0.06406641 0.21688576 -0.22529939 -0.3424722 0.27111247
-0.05518535 0.19171916 0.1158316 -0.28342623 0.07593241 0.09078577 -0.25306937 -0.17933366
0.12887667 0.067701966 -0.12895185 -0.08278189 0.37857014 -0.038013145 0.36827365 0.16686685
-0.28419706 -0.33277065 0.35017627 0.0055604298 0.24533287 -0.0023849888 0.12264085 0.31231922
0.35670325 -0.2503248 0.051061302 0.28300646 0.41566378 0.22013973 -0.34071803 -0.2841446
-0.24077399 0.03620459 0.36452708 -0.22939211 0.19123189 -0.2008843 -0.3939981 -0.115144104
0.17914943 0.32017243 -0.20687927 0.07124797 0.2778247 0.23067841 0.21711889 0.24322453
0.21757872 0.15544955 -0.2996007 -0.38035294 -0.17411451 -0.04440817 -0.2311585 0.1373956
0.118071124 -0.08615137 0.14617795 0.1049052 0.22355913 0.24740241 -0.13881598 0.42498782
-0.08422055 -0.06610756 -0.35675314 -0.24326405 -0.22080816 -0.16166407 0.26872122 -0.12351162
-0.28244573 0.14039145 0.116130464 0.23465195 -0.20426129 -0.032560717 -0.13214205 -0.036839735
-0.30120683 -0.17226145 -0.11575454 0.16163096 0.06905011 0.093363434 0.3772483 0.35215062
0.24690479 -0.0028519565 -0.27487686 0.24885818 -0.12400027 -0.028300075 -0.32847556 -0.07713796
-0.24607328 0.3451116 -0.32484505 -0.2863604 -0.009116675 -0.20437123 0.13524011 -0.1454882
-0.17752522 0.021407017 0.2736077 -0.26586917 0.16888084 0.2377736 0.36873862 -0.27237156
0.13773361 -0.32847446 0.289736 -0.15011775 0.22397508 0.014227991 -0.0324919 0.04694557
0.035195153 0.12649323 0.047525506 0.101183824 -0.3481105 0.27217305 0.42545417 0.34814364
0.2254879 -0.26381338 -0.12824099 0.3460538 -0.27493122 0.3512984 -0.2851582 -0.24930407
0.19563782 -0.26177612 -0.07197453 0.29552796 0.28139833 0.4195215 -0.0689565 -0.26934004
0.39630684 -0.056079566 -0.13552694 0.13391271 -0.29165208 0.2573429 0.23688269 -0.2999077
-0.31044957 -0.03310833 0.1587547 -0.010946658 -0.1916573 0.008641188 -0.35526097 -0.26713055
-0.2516069 0.3112652 0.3331779 -0.12838195 0.0016005911 0.1568365 0.035232916 -0.19565473

linear_layer.0.bias f4 [256]
00000000: ad01 37be 5042 ab3e be34 fd3c ea2e 4b3e
00000010: b992 b93d d743 663d 7663 863e 032d 9bbc
00000020: 87e7 8f3e 2bcf 173e 886a 61be 658d 7e3e
00000030: 38d4 8bbe cd82 493e 44e8 35bd 8261 d33d
00000040: 5eb2 27bd 2340 803d fc71 19be 4ce8 0f3e
00000050: 75e9 333e 9720 b3be ac9e aa3e c5fa a0be
00000060: 1fc0 2cbe 290d 103e 5a26 b13e 70b2 fb3d
00000070: d9e1 58be cfde 8e3d 454d 73be ca12 413e
00000080: 5059 0a3d 6fcc 823d 6071 94be 0f8f 4e3e
00000090: 301e b63e 533c 88be 69ae 0b3e 63b2 1fbe
000000a0: af35 dabd 4da7 a53e 0dc9 b1be f09e 94bd
000000b0: 6ccf 053e faf4 343e a8a0 15be d111 64be
000000c0: 5510 9c3d c2c1 b7be 83ca 273d 375c 7dbe
000000d0: 0dfc 88bd bb38 a83e f60e 94be 7aba 46be
000000e0: 8bf1 9abe 4d1e 5d3e 01ee 983e fed5 81be
000000f0: 7b5d 653e 70eb 773e 40e4 90be 2da8 153e
00000100: b644 393e 7117 9abd 5797 6e3e fcea 3abc
00000110: 0124 50bd b0f2 583e 87f8 b9be 9811 bebe
00000120: 34cf 8f3d c0db 843c fee3 b03c a67d 41be
00000130: 5b83 aa3e e275 71be 808a 32be f054 a3be
00000140: d3bb c0be 2271 b73d 84f7 1bbe 3cec 5d3e
00000150: f3f8 b93e 4c71 003e bb24 a73e 56ac 8bbe
00000160: 282c 423e af9c 523e fa62 fbbd 03c4 dbbc
00000170: d172 66be 6f1b 153d 1ee6 babe cf84 4ebe
00000180: d6c2 9cbe acd6 68bd 0ccb 1d3d 7440 9dbe
00000190: ce34 0ebe dc53 5a3e 5ce1 c33c 4f16 7a3d
000001a0: 4c4e 2ebe c300 f7bd 22bd b1be ad5f a33e
000001b0: b27e 003d 0844 323e facb 613e 06ac a93e
000001c0: f87b 85be e653 d93d 07cf 9cbe 189d 133e
000001d0: 6871 58be ec57 0c3e fd7a 8ebe a449 413e
000001e0: 25e0 8d3e 83ef 533e e9ca a3be 67f5 5e3e
000001f0: 9695 7abe 96ff b4be 46d2 673e dcfc 553d
00000200: 3211 14be 6715 abbe 6b63 983d 3b22 1bbe
00000210: 4a0a 8ebe b09c 63bd 347b adbe 16ab 3e3e
00000220: a130 7fbe 76bd 03be 14f0 c0be 3965 6abd
00000230: f5ca efbd 4d90 553e 4200 bbbd f745 823e
00000240: 1650 b73e c869 993d 24a7 04be 66d6 a7be
00000250: ccb9 87be a021 10be 8d6b 84be 9729 3f3e
00000260: 5ce9 f9bd 6a8c 4cbc 2f9a 9b3c e436 a7be
00000270: a3b2 a03e 40ca 0dbe dcef a0be f20c b4bc
00000280: 9bd6 b0be b125 993d e07a 7ebe 4725 cbbd
00000290: 8aab e3bd 85fe 903e 830e 8c3e 9c5d c03e
000002a0: 766f 003d 0047 703e c64a a5be 6e5e 89be
000002b0: e54a 503e d753 c83d b53e d63d 253f 5d3e
000002c0: e3f4 623e aef1 353e a7e2 0ebe b0de f7bd
000002d0: 1b06 a33d 7c41 a73e 3d9e eabc 02df 04be
000002e0: 04d8 543e 7e4f 853e cac2 b3bc 95fe ddbd
000002f0: 8e4c bdbe 2fa5 223c 6665 033e b912 8ebe
00000300: deac 8fbe cd77 c1be dc1d 923e 59f6 ad3e
00000310: 1e29 be3e 0132 ad3e eb7e 4bbd 5f72 8d3e
00000320: 7915 653e 2506 e0bd 9cfc 5ebe 9aac a33e
00000330: 103c 16bd f5c5 073e f103 37be f4f1 55be
00000340: 906e 8fbd 82ca 4c3c db1b 803e 686c 7b3e
00000350: de84 42bd 9719 ac3e 5d0b 4ebe 9878 d93c
00000360: 4ecb 78be c09b 763d 7f03 b03e 4adb 95be
00000370: d8b2 f53d b4ee a4be 798e 0ebd abe5 2cbe
00000380: 3dba 45bb 215b 8ebe 6faf 133e 9902 bfbe
00000390: cae9 9c3d be3a 19be d19e 67be c4f2 a13e
000003a0: ffe1 323d 5619 80be bb78 6abe 3eaf 2cbe
000003b0: a3c5 69be dd75 8a3d 3f25 8f3b 0de5 bb3e
000003c0: 4bfc 343a e417 66be 3d66 a63e ecb4 b33d
000003d0: beb1 adbd 4cc8 863e 8c96 af3e d357 a4be
000003e0: 9abb a0be 2c98 81be d677 a3be feb8 0cbe
000003f0: 1cae 0d3e 5338 b2be 155b c2be 96a2 a6be
-0.17871733 0.3344903 0.030908938 0.19842115 0.09061188 0.05621704 0.26247758 -0.018942362
0.2810633 0.14825122 -0.22013295 0.24858625 -0.27310348 0.19678803 -0.04441096 0.103213325
-0.04094159 0.06262233 -0.14984888 0.14053458 0.17569526 -0.34985802 0.33324182 -0.31441322
-0.16870163 0.1406752 0.34599572 0.122898936 -0.21179904 0.06976091 -0.23759945 0.18854824
0.03377658 0.06386649 -0.28992748 0.2017176 0.35569906 -0.26608524 0.13640751 -0.15595393
-0.106547706 0.32354203 -0.34723702 -0.072568774 0.13067406 0.17671576 -0.14612067 -0.22272421
0.076203026 -0.35890013 0.040964615 -0.24742208 -0.066887 0.32855782 -0.28917664 -0.19407073
-0.30262408 0.2159359 0.29869083 -0.25358576 0.22398941 0.24210906 -0.2829914 0.14614935
0.18092617 -0.07524002 0.23299919 -0.011408564 -0.050815586 0.21186328 -0.36322424 -0.37122798
0.07021943 0.016218066 0.02159309 -0.18895587 0.3330334 -0.23580125 -0.17435646 -0.3190074
-0.37643299 0.08957125 -0.15231138 0.21672148 0.36322746 0.1254322 0.3264521 -0.2727992
0.18962157 0.20567583 -0.12274738 -0.026826864 -0.22504736 0.036403116 -0.3650369 -0.2016785
-0.30617398 -0.056845352 0.03852372 -0.30713236 -0.13887331 0.21321052 0.02391117 0.06105643
-0.17022055 -0.12060692 -0.3471461 0.31908932 0.031370826 0.17408764 0.22050467 0.33139056
-0.26071143 0.106117055 -0.306267 0.14415395 -0.21137011 0.13705415 -0.27828208 0.18875748
0.2771007 0.20696835 -0.31990746 0.21773301 -0.24471125 -0.35351247 0.22638807 0.0522431
-0.14459684 -0.33414766 0.074408375 -0.15149777 -0.27742225 -0.05556935 -0.3388306 0.18619952
-0.24920894 -0.12865242 -0.37683165 -0.05722544 -0.11708633 0.20855828 -0.091309085 0.25444004
0.35803288 0.07490879 -0.12954384 -0.3278076 -0.2650894 -0.14075327 -0.25863305 0.18668209
-0.12202713 -0.012484649 0.018994419 -0.32659066 0.3138629 -0.13846684 -0.31432998 -0.021978829
-0.3453873 0.07477892 -0.2485156 -0.099192195 -0.11116703 0.28319183 0.27354822 0.37571418
0.031356297 0.23464584 -0.3228361 -0.26829857 0.2034107 0.09781616 0.10461179 0.21606119
0.2216373 0.17767975 -0.13953649 -0.12103021 0.07960149 0.32667148 -0.028639907 -0.12975696
0.20785528 0.2603721 -0.021943469 -0.10839573 -0.3697247 0.009927078 0.12831649 -0.2774866
-0.28061575 -0.37786713 0.28538406 0.3397701 0.37140745 0.33827212 -0.049681585 0.2762632
0.22371472 -0.10938672 -0.2177605 0.31967622 -0.036678374 0.13259108 -0.17872597 -0.20893079
-0.0700351 0.0124994535 0.25021252 0.24553072 -0.047489993 0.33613274 -0.20121522 0.026546761
-0.24296305 0.06020713 0.34377667 -0.29268867 0.11997002 -0.32213366 -0.03480384 -0.16884486
-0.003017082 -0.278039 0.14422391 -0.3730667 0.07661779 -0.14963815 -0.22619177 0.31630528
0.043672558 -0.2501933 -0.22897618 -0.16863725 -0.22829299 0.06760762 0.0043684538 0.3669819
0.00069040497 -0.22470051 0.32499877 0.087747425 -0.08481167 0.2632469 0.34294546 -0.32098255
-0.3139313 -0.2531141 -0.31927365 -0.13742444 0.13835949 -0.34808597 -0.37960115 -0.32545918

linear_layer.2.weight f4 [256, 256]
00000000: 953e 4c3b 6d12 2a3d ba88 733d 3e51 7e3d
00000010: 7f43 94bb 3db6 3fbd 4fb7 8b3d 1e15 2cbd
00000020: 44af 843d dce4 1e3c fb4a 8c3c 6ea2 b83c
00000030: eb5b 62bd c485 acbc 6149 2ebd 1ff0 373d
00000040: cba3 c1bc 5178 82b9 e370 733d 3d6a 2c3d
00000050: a3b7 2ebd 67ca 78bd 429e 4a3d bceb 533b
00000060: 3a45 44bd 86e6 2a3d 1963 23bd 0e9d 5d3d
00000070: e152 fe3c ac81 2b3d 3389 2e3c 3f53 313c
00000080: 1fd5 a23c bd07 05bb 002c 6c3b 5c91 3d3d
00000090: 128b f0bc 4967 573d afed 073d 9d94 b1bc
000000a0: a934 2d3c d08c 32bd 2894 0abd 8db6 1dbd
000000b0: ff7e 3bbd 1b08 4c3d adaa cdbc ccc3 aabc
000000c0: d016 333d 8ec6 7f3b 90c5 f2bc cb8c acbc
000000d0: d8dd 60bc 7439 cc3c f441 1a3d 09f9 363d
000000e0: 4d70 25bd 094b 6cbc f317 263c 0c3b 58bd
000000f0: 29b0 363d 60af e3bb dc82 813d bd72 9dbd
00000100: 41db 983d 3e81 1fbd f58b 8dbb 3f75 313d
00000110: 5eeb 373d 8a84 0abc 3014 d33c 3837 49bd
00000120: 801e ae3b 6842 9b3c b000 1f3d 4846 703d
00000130: fa39 20bd 0b26 13bd ecb1 973c 8c17 b8bc
00000140: 6857 d0bc 6a11 a8bd 640b 7bbd 7fa7 28bd
00000150: a496 ed3b c9d5 af3b fca8 48ba 72f7 92bc
00000160: 2ce0 8cbc c07f 8ebd 5584 8f3c 5851 3bbd
00000170: 14a7 403a c86e cb3c a27b 533c c0f7 4bbd
00000180: ec96 9dbd ab8b 163d 0072 e93a 3b41 703d
00000190: 9ce0 ee3c 91cc db3c 35c2 a93c fec6 a4bb
000001a0: 7add 20bd 8603 6dbb f37c 913d ef24 093d
000001b0: 59fd 393d 8414 703d 9f1d 5c3d 5ab0 0fbd
000001c0: 0e6b 0bbd 3de2 623b 211c 15bb 5c07 4dbd
000001d0: 2062 94bb 93a2 3e3d e0b6 89bb 271c 953d
000001e0: d0e2 48bd 5d49 7fbd c134 7c3c 9ae1 483c
000001f0: e231 cebc 988d 01bd cc12 4e3c 478f a8ba
00000200: 57dc 51bc e699 0b3d b247 c2bc 6ff4 513d
00000210: 6645 bb3d 8eb6 1dbd 8588 083d 6453 1d3d
00000220: 5849 7939 78f5 48bd 5b95 2abc 6943 a6bc
00000230: 8e79 a3bc 0846 3dbc 7455 b23b 685c 6ebc
00000240: 21d7 0abd 66ec d5bc 2e6d 56bd 43f5 6bbd
00000250: 3657 123d 1f7b 013d b8e7 563d b9fc 2c3c
00000260: 2098 d2bc cf94 25bd 385c 073d 16b6 1abd
00000270: 8666 463d 1c21 9ebd eea3 76bd b9e3 8abd
00000280: a301 3e3d b2e8 2b3a 0abe df3c a379 b5bb
00000290: 0080 5b3d 3ce8 8439 8c7e 733d b984 15bd
000002a0: f9ff fe3b d931 6a3d 5aa8 41bd caf0 1c3e
000002b0: 96ac 27bd a800 d23d c025 41bb b82f 853c
000002c0: d4bf 0f3c 96bb fbbc 0157 913c cfbf a43c
000002d0: 80fa e3bb 2e18 4cbd 4a5d 7d3d adba 4bbc
000002e0: 15c5 1ebd 1557 a43d b830 febc eec9 243d
000002f0: 309c 183a 42c5 6fbd 90ee 85bb f42b 0bbd
00000300: 3c3f a03c b87c 713d 2684 ae3a 3030 b4bc
00000310: 3cad 7ebc ff64 50bd 419b 493d 517f 8bbd
00000320: a495 4abd bd8b 22bd 8643 1f3d 5997 e03c
00000330: b152 013d 1c4d 46bb 1494 3ebc befc 9e3c
00000340: 806a 20ba 88d4 a4bc 54b0 c9bc d8e5 11bd
00000350: 9840 31bd a506 8ebc ce7d 36bd c1d8 31ba
00000360: c243 1b3c b9d7 733d fbfa 223c 374a 2e3d
00000370: 60a5 6abd 56b8 4bbd c1b9 21bb 5c76 8abd
00000380: 99e8 653c 6cbf 493d 5078 a5bc f953 03bd
00000390: 3503 d3bc 52df 703d e0f4 23bc 4c40 5bbd
000003a0: ee6b c93d 6040 503b 03a4 d0bc 404f debb
000003b0: f227 8cbd 98cc 863d c44c e5bc 26cb fe3c
000003c0: 3da4 6b3d af17 ffbc 8877 c8bc c3e9 7c3b
000003d0: ab87 8f3a 40b8 1b3d 7d72 13bd d5a1 1b3c
000003e0: 1015 99bc 63bf a33c 457f db3c 39e1 49bd
000003f0: 70e6 073d 22d6 72bc dffd 633d 060c 7ebd
0.0031165231 0.04152148 0.059456564 0.062089197 -0.0045246477 -0.046804655 0.06822073 -0.042012326
0.06478742 0.009698119 0.017125597 0.02253839 -0.05526344 -0.021059878 -0.04255045 0.04490673
-0.023637673 -0.00024885175 0.05943383 0.042093504 -0.0426556 -0.0607399 0.049467333 0.0032336554
-0.047917582 0.04172375 -0.03988943 0.054104857 0.03104538 0.04187171 0.010652828 0.01082307
0.019877015 -0.0020298802 0.0036036968 0.046281204 -0.029363189 0.052588735 0.033185657 -0.02167731
0.010571637 -0.04359132 -0.0338327 -0.038504172 -0.04577541 0.049812417 -0.025105799 -0.020845316
0.043722928 0.003902826 -0.02963522 -0.02106323 -0.013724767 0.02492974 0.037660554 0.044671092
-0.0403903 -0.014422187 0.010137546 -0.052790686 0.044601593 -0.0069483966 0.063237876 -0.076879
0.07463694 -0.038941614 -0.0043196627 0.043324705 0.044902198 -0.008454451 0.025766462 -0.049124926
0.0053136945 0.018952563 0.038819015 0.058660775 -0.03911779 -0.035924952 0.018517457 -0.022472166
-0.025432304 -0.082064465 -0.06129016 -0.04117536 0.007250624 0.0053660613 -0.0007654575 -0.017940257
-0.017196737 -0.0695796 0.017519156 -0.045731872 0.00073491153 0.024833098 0.012907894 -0.04979682
-0.07694802 0.03675429 0.0017810464 0.05865596 0.029159836 0.026830943 0.020722488 -0.0050286045
-0.039273717 -0.003616543 0.0710391 0.03348249 0.045407627 0.058613315 0.053739186 -0.03508029
-0.034037642 0.0034619712 -0.0022752362 -0.050055847 -0.004528299 0.04654176 -0.0042027086 0.0728076
-0.04904443 -0.062325824 0.015393437 0.012260819 -0.02517027 -0.031629175 0.012577724 -0.0012860083
-0.012808881 0.034082316 -0.023715828 0.0512585 0.09144096 -0.038504176 0.03333332 0.038409606
0.00023773813 -0.049062222 -0.010411586 -0.020295816 -0.019955423 -0.011552341 0.0054423157 -0.014548399
-0.03389657 -0.0261137 -0.052350216 -0.057606947 0.035727702 0.031611558 0.052467078 0.010558301
-0.025707304 -0.040425118 0.03304693 -0.037771307 0.048437618 -0.07721159 -0.06021493 -0.06781716
0.04638828 0.00065578066 0.027312297 -0.005538182 0.053588867 0.0002535003 0.059446856 -0.036503527
0.007781979 0.057176445 -0.047279693 0.15326229 -0.040936075 0.102540314 -0.0029471964 0.016258106
0.008773763 -0.030729096 0.017741682 0.020110993 -0.006957352 -0.049827747 0.061856546 -0.012434644
-0.03876217 0.08024422 -0.03102909 0.040231638 0.00058216136 -0.05853773 -0.0040872768 -0.033977464
0.019561402 0.05895683 0.001331453 -0.021995634 -0.015544232 -0.050877567 0.049220327 -0.06811393
-0.049459115 -0.039684046 0.038882755 0.027415918 0.031573 -0.0030258363 -0.011631984 0.019407626
-0.00061193854 -0.020120874 -0.024620213 -0.035619587 -0.043274492 -0.017337153 -0.04455357 -0.0006784313
0.009476604 0.0595319 0.009947534 0.042551246 -0.05728662 -0.049736343 -0.0024677368 -0.067608565
0.014032506 0.04925482 -0.020198971 -0.032062504 -0.025758365 0.058806725 -0.010007113 -0.053528115
0.09835039 0.0031776652 -0.025468832 -0.0067843497 -0.068435565 0.06581992 -0.027990706 0.031102728
0.057529677 -0.031139223 -0.02447106 0.0038591481 0.0010950466 0.03801751 -0.035997856 0.009499033
-0.018686801 0.019988721 0.026794085 -0.049287055 0.033178747 -0.014821561 0.055662032 -0.062023185

linear_layer.2.bias f4 [256]
00000000: 1d5e 05bc 8440 ccbc 8494 523c 60bf 80bc
00000010: fda2 b43c d075 17bd 1e7b 2bbc 004b da3c
00000020: 8044 643d f447 51bd 068d 42bb e08d 40bd
00000030: 20c7 e13b 732a 0abd 0edb fcbc 4431 e6bc
00000040: 9cbc 19bc 47c7 07bd dc08 923c ff7f 6a3d
00000050: 2c86 5f3c 12ba 7a3d 9ffb e93c 9441 28bd
00000060: 8073 07ba 476a 5cbd 85f9 0a3d 70a1 c9bc
00000070: 4ec7 2fbd 8b02 053d ca33 e9bb 72a2 573b
00000080: aac5 8ebd f86c fbbb d67f 0c3c 1651 67bd
00000090: 2a72 443d 12b4 b03c 7ce7 bebc e752 3dbd
000000a0: 843e 923c 1975 19bd b6f5 6ebd b305 853b
000000b0: 56ef 61bd 7a9e d8ba cb10 15bd 619f 27bd
000000c0: 6400 1dbd b8ed 753c 5f10 123d 4f8d 68bd
000000d0: a68d 73bd 6785 3dbd 18f2 b0bc 7085 b13c
000000e0: 9524 4d3c a01a 7dbd c3cd 17bb ba88 423d
000000f0: 1006 023d d168 1cbd 45b3 d1bc ff8a a63c
00000100: bf47 513d 4a12 733d 400e b73b a4c0 92bc
00000110: 8940 f13c 7097 bd3b eea8 d8bc 286c 8abc
00000120: 3ec3 93bc f7a2 5d3c 99e6 66bd 56c2 cebb
00000130: b097 06bd 34bf 643d c6f5 23bd 4969 7ebc
00000140: 40b4 603c e8fd 82bc 2ce9 213d 58bd 92bc
00000150: 198c 4c3d 48c4 63bc 51d7 dcbb 59f7 253d
00000160: e2e2 8abd a124 4a3d 3ba5 6d3c 6740 ebbc
00000170: 6609 96bc 10bf 0bbc 5110 04bd e311 1b3c
00000180: 78a2 81bd bd83 62bd 0ef7 353d a0ec bc3b
00000190: ca62 3cbd 7ca9 af3c b39d 25ba 02c3 07bd
000001a0: 604b 6cbc 18a0 973c 80ba 113d 00f0 283d
000001b0: 0967 fa3c d34a 0dbd 147f d33c 5008 163d
000001c0: b7b4 b6bc 6783 32bc c0a9 b7bc a464 10bd
000001d0: ef08 70bd bebe 1d3d d872 3c3d 7839 ea3c
000001e0: 3705 f23b 1c27 33bd 6aa6 583d 4000 2c3c
000001f0: 5212 513c a134 463d 1243 873c f09e eb3c
00000200: 55ca 853d d2cb 053b e25e 11bd b6c1 6a3d
00000210: 0af0 1abd d52c 833c 3612 20bd 4717 2a3c
00000220: dd65 573c 8752 68bd 255f 133d a7e6 883d
00000230: fc0f a33c 7760 87bc c6f9 563c 5f13 d7ba
00000240: 3675 8dbc 99a1 4a3d a29f e3bc 2519 aebc
00000250: a2c8 783d 36e7 06bc 149f 393d 0607 55bd
00000260: 0156 4dbd 2d5a 44bd 7d65 133c 9cdd 53bd
00000270: 9d3a 9c3c 322e 4e3d 1a9e 0fbc 7ee6 5fbc
00000280: 9387 00bc 790c 743d 7149 06bd 5452 813c
00000290: 2812 9c3c 9ed5 2bbd 5baf 21bc 5015 663c
000002a0: edf6 48bd 5e6f 3dbd 5a3e 233d 0de5 363d
000002b0: b44a 473d f421 80bd 4bb7 3abd 2eae 253d
000002c0: f4da bebc 4b36 08bd ec32 ee3c bc5c 1b3d
000002d0: dd27 9cbc 5151 80bd ba15 fb3c 05d9 3e3c
000002e0: 88b0 593d cd59 47bd 2eae afbc a482 91bc
000002f0: 3a55 203d c03b b3ba f797 d83c 3bf5 713d
00000300: 1e17 7a3d 3ecf ba3c 8bd4 463d fc5f 20bd
00000310: fa32 563d d295 0e3c af0b 833d 6b26 4fbd
00000320: df6a f23c 56f0 26bd bc5a 61bd 2e15 6fbd
00000330: 5c20 c0bc 6632 75bd 1034 403c bb6b 71bd
00000340: 1bf6 05bd 790d 4d3d fe7a 23bd 9c86 323d
00000350: da28 e03c 2fe8 16bd 1651 25bd 0021 79bb
00000360: de4a 46bd ebb7 30bd a400 6c3d 3f52 1f3d
00000370: 400c 6b3b a8d3 e43a 27f9 7cbc 887e 73bc
00000380: d09d 1c3c 9854 9d3c 0498 1b3d b3af 673d
00000390: 8585 86bd 97be 78bd f0d2 c5bb 2ea0 44bd
000003a0: 5eec 64bd 94e9 e33c cf4f 87bd 43ce 6d3c
000003b0: c4ff 553a 99b7 3b3d d84c 3fbc e318 eb3c
000003c0: 0887 6a3d 5ff9 0a3d 00df f9bc 6a0e 13bd
000003d0: a612 e33b 083b 80bd 7691 30bd 8612 143d
000003e0: 3c8e 0b3b 9ddf 5d3d dc15 22bd 421f b53c
000003f0: 0f79 2b3d a3f7 3c3d b912 77bd 38ea 90bc
-0.008140114 -0.024933107 0.012852792 -0.015716255 0.022050375 -0.03697759 -0.010466365 0.02664709
0.05572939 -0.05109401 -0.0029686107 -0.047010303 0.0068901926 -0.03373189 -0.030866172 -0.028099664
-0.009383347 -0.03314903 0.01782649 0.057250973 0.013642829 0.061212607 0.028562365 -0.041078165
-0.0005167052 -0.05381229 0.033929367 -0.024613112 -0.04291468 0.03247313 -0.0071167694 0.0032903221
-0.06971295 -0.007672902 0.0085754 -0.056473814 0.047960438 0.02157024 -0.02330374 -0.04622164
0.017852075 -0.03746519 -0.058339797 0.0040595173 -0.05515989 -0.0016526722 -0.03639297 -0.04092348
-0.03833045 0.01501029 0.035660144 -0.056775387 -0.05946126 -0.0462698 -0.021599814 0.021670073
0.012520929 -0.06179297 -0.0023163415 0.047493674 0.031744063 -0.0381859 -0.025598178 0.02032995
0.051093813 0.059343614 0.0055864155 -0.017914124 0.029449718 0.005785875 -0.02644774 -0.016897276
-0.018037435 0.013527623 -0.05637226 -0.0063097877 -0.032859504 0.055846408 -0.04002931 -0.015528032
0.01371485 -0.015990213 0.03952901 -0.017912552 0.049938295 -0.013901778 -0.006739535 0.040519092
-0.06781556 0.04935134 0.014504726 -0.028717233 -0.018315028 -0.00852944 -0.032242123 0.009464714
-0.063298166 -0.055301417 0.044425063 0.0057655126 -0.04599265 0.021443121 -0.00063177495 -0.03314496
-0.014422268 0.018508956 0.03557825 0.041244507 0.03056671 -0.034495186 0.025817432 0.03662902
-0.022302968 -0.010895587 -0.02241981 -0.03525223 -0.05860227 0.038511984 0.04600796 0.028591856
0.0073858756 -0.04373847 0.05289308 0.0104981065 0.012760716 0.048390035 0.016511474 0.02876231
0.065327324 0.0020415676 -0.035490878 0.057313643 -0.037826575 0.016012589 -0.039079867 0.010381526
0.013146845 -0.05671933 0.03597941 0.066846184 0.019905083 -0.01652549 0.013121074 -0.0016408971
-0.017267805 0.049470518 -0.02778608 -0.021252224 0.060738213 -0.008233836 0.045317724 -0.05200865
-0.050130848 -0.04793756 0.008996365 -0.051725015 0.019070918 0.050337024 -0.008765722 -0.013665793
-0.007844823 0.059582207 -0.032784883 0.015786327 0.019051626 -0.041951768 -0.009868468 0.014043167
-0.04906361 -0.046248786 0.039854385 0.044652034 0.048655227 -0.06256476 -0.045584958 0.040449314
-0.023297764 -0.033254903 0.029077016 0.037930235 -0.019061977 -0.0626551 0.030650008 0.011648421
0.05314687 -0.048669625 -0.02144536 -0.01776249 0.03914378 -0.0013674423 0.02643965 0.05907176
0.061057203 0.022803899 0.04854254 -0.039154038 0.05229471 0.008702712 0.06398713 -0.050573748
0.029591976 -0.040756546 -0.05501817 -0.058369808 -0.02345293 -0.059862517 0.011731163 -0.05894063
-0.032705408 0.050061677 -0.039912216 0.043585405 0.02736323 -0.03684252 -0.040360533 -0.0038014054
-0.048411243 -0.043144148 0.0576178 0.038896795 0.0035865456 0.0017458098 -0.015440262 -0.01486171
0.00955911 0.019205377 0.03798677 0.056564044 -0.065684356 -0.060728636 -0.0060371086 -0.04800432
-0.05588948 0.02782134 -0.06607019 0.014514509 0.0008163417 0.04582939 -0.011676036 0.02869839
0.057257682 0.033929225 -0.030501842 -0.03590242 0.0069297133 -0.06261259 -0.043107472 0.036150478
0.0021294495 0.054168332 -0.039571628 0.022109631 0.041863497 0.046134602 -0.06032059 -0.01768981

linear_layer.4.weight f4 [49, 256]
00000000: 3e10 33bd c8e2 dd3c b008 c5ba 7e45 ce3c
00000010: b54b 86bd 78a6 e4bc 9b44 be3c 44e5 27bd
00000020: 7d98 6a3d 6782 9fbc 6655 873c fa28 013d
00000030: a421 d93c c361 4cbd d4d9 fdbc ac5b c33c
00000040: 849a 8bbc 7c8d 37bd f05d 23bd 3f7a 9abc
00000050: 4bb3 86bd ecae 5b3d 1b79 0d3d f08d bdbc
00000060: 5e6d 443d f016 483a 5cee c9bb c8fe ec3c
00000070: 794a 313d 8ece 5f3d e702 113d 02b5 523c
00000080: 2d88 253d 14cc 2e3d 5912 db3c c041 a63c
00000090: 9614 6e3d c445 d23c 494e 78bd a10c 0c3d
000000a0: 6243 c83c 615b 7cbd d16a c23c 1bcc a5bb
000000b0: 22f0 1e3c 20d5 8e3c 0224 023d ee9a 673d
000000c0: ba2b 233d d868 0e3d 3900 263d 74fc 773c
000000d0: ca2d 2b3d d3d3 333d 917f 983c 1cca b0bc
000000e0: 6353 c3bc 4a41 57bc 2ae7 583d c022 9f3a
000000f0: 5678 6d3d 4ed1 d7bc cece f6bc 10d9 30bd
00000100: dd1b 6fbd 70ed b4bb d0f3 adbb 9ca6 e9bc
00000110: d001 a1bc de62 58bd 29bd 68bd 9f48 273d
00000120: 9101 313d 7360 7b3d dd48 cbbc df51 25bd
00000130: d5ca f83c 00af c03a eb76 4c3c 39d1 7cbd
00000140: d625 7bbc 50c9 17bd 7e82 f53c a018 013c
00000150: 9cba 20bd 4972 383d 323f 303d 47f9 53bc
00000160: 0677 4e3b 03f6 3dbd 69e1 82bd 24ce 82bd
00000170: bef5 393d bc73 1e3d afe8 a2bc 1157 adbc
00000180: 1ab8 1dbd 06e5 43bd 1055 dbbc 5a8f da3c
00000190: f214 63bd 459b 51bd 72c1 583d 449a e4bc
000001a0: 7d93 4cbc 4f92 dc3c 120b 74bd c7be 49bd
000001b0: f1ca 79bc d114 a3bc 72a7 603d dd02 3fbd
000001c0: 6604 15bc 230e 19bc a5e5 a23c 94fa f63c
000001d0: 7a56 69bd 6bf4 0c3d 749d 7bbd 6701 623d
000001e0: bb39 99bc a1f0 a1bc 9eca 393d eb75 41bd
000001f0: 1995 3ebc 8825 923d 8e0b 0a3d 8470 3cbd
00000200: 80a2 30bc 114c 0abc 58d8 c4bc e0a5 1fbd
00000210: ead1 03bd 7051 903c 0f70 bd3c 4eeb 063d
00000220: ac01 823d d233 483d 7d14 65bd 9689 86bc
00000230: 0ae2 51bd e41f 493d 507f 13bd d4e3 0e3d
00000240: 7f49 73bd 28ed 5bbc e37b b1bc 9ea8 58bd
00000250: 384c 6bbd 5c4c abbc be90 80bd 6644 73bd
00000260: 0fdf 2bbd 1891 ecbc 5f60 67bc 3986 0f3d
00000270: a66f 36bc 5c07 0d3d 6db2 ecbc 2039 6dbd
00000280: 4980 7ebd 8079 473d 36e5 9cbc f050 04bc
00000290: 8aaa 833b abda 583d 2b8a 9e3b c0fb a03c
000002a0: ac24 9c3b 6b2a 65bd 6f01 2ebc dfe6 5cbc
000002b0: 8035 b73a 2bf3 4dbd 680f 72bc 26c7 413d
000002c0: 5cb1 163d 3f45 553d c0ae 35bd 6df9 6abd
000002d0: 8b44 513d dbba d4bc b616 8bba a434 89bc
000002e0: 1a09 3d3d 0b9a 31bd a561 5ebd 8071 7b3c
000002f0: 6637 5f3d 8026 33ba 32e4 22bd cc7f 153c
00000300: 9f8a 133d 7b80 bbbc 3f23 023c 4790 58bd
00000310: 36f9 5fbd 2323 fbbb 1f66 203d 23a2 0bbd
00000320: 1d75 573d 389f 47bd e291 0ebd 310f 033d
00000330: 179a 5dbd e906 f93b c8c2 3d3d d891 18bd
00000340: b78f 30bd 32ac d4bc 0462 1f3d a8d4 f4bc
00000350: e172 9d3c 2a58 473d 7dc4 b33b 9075 8fbc
00000360: ba00 523d 73da 25bd a05a 493d f1a4 57bd
00000370: b8e3 203c 6c03 343d 35ca 593c 0021 70ba
00000380: 5ec7 673d bc4a ad3c 30ee 81bc 9f3e 033d
00000390: 82f1 263b 69cb 63bd 5eaf dcbc 4918 3d3d
000003a0: b05d 603c 2453 713c 14cd 2cbd b425 fa3c
000003b0: feeb 56bd 2896 1b3d 5477 103c 6248 09bd
000003c0: a430 653d 9ce2 61bd 3095 a1bb cab4 19bd
000003d0: f000 133a 5c3d 22bd b800 a93a d607 0cbd
000003e0: 4470 123d 341a 3cbc 0483 c8bc e453 48bc
000003f0: 73c9 0dbb 6b7a 723c a618 abb9 cdb1 253c
-0.04371666 0.027085677 -0.0015032496 0.02517962 -0.06557409 -0.02791141 0.023226073 -0.04099013
0.05727433 -0.01947136 0.016520213 0.03153322 0.026505299 -0.04989792 -0.030987658 0.023847423
-0.017041452 -0.044812664 -0.039884508 -0.01885712 -0.06577166 0.053633615 0.034539323 -0.02313897
0.047955863 0.00076328125 -0.006162448 0.028930083 0.043283913 0.054640345 0.03540316 0.012860538
0.04041307 0.042675093 0.026742147 0.020295024 0.0581251 0.025668032 -0.060621534 0.03419173
0.024446193 -0.061610583 0.023732575 -0.0050597317 0.009700807 0.01743561 0.03177262 0.056544237
0.039836623 0.034767956 0.040527556 0.015135873 0.041791715 0.043903183 0.018615516 -0.021580748
-0.023843473 -0.013138125 0.05295483 0.0012141094 0.05797609 -0.026344921 -0.030127909 -0.043175757
-0.058376182 -0.005521469 -0.0053086057 -0.028521828 -0.019654185 -0.052828662 -0.056821022 0.04084074
0.043214384 0.061371278 -0.024815017 -0.04036128 0.030370155 0.0014700592 0.012479524 -0.061722968
-0.015328845 -0.03705722 0.02996945 0.007879406 -0.039240465 0.045030866 0.043029018 -0.01293785
0.003150405 -0.046377193 -0.0639065 -0.063869745 0.045400374 0.03868459 -0.019886343 -0.02115968
-0.03850565 -0.047825836 -0.02677396 0.026679683 -0.055439897 -0.051173467 0.05291886 -0.02790559
-0.012486336 0.026925234 -0.05958087 -0.049254205 -0.015246139 -0.019907387 0.05484719 -0.04663359
-0.009095287 -0.009341749 0.019884894 0.030148782 -0.056967236 0.034412783 -0.061429456 0.05517712
-0.018704286 -0.019768061 0.045359246 -0.047231596 -0.011632227 0.07136065 0.033702426 -0.04600574
-0.0107809305 -0.008440987 -0.024028942 -0.03897655 -0.03218261 0.017616957 0.023124723 0.032939248
0.06347975 0.048877545 -0.055927742 -0.016423028 -0.05124096 0.04910268 -0.036010087 0.034885243
-0.059396263 -0.013423242 -0.02166552 -0.05289518 -0.057445735 -0.020910434 -0.062776074 -0.0593914
-0.041960772 -0.02887778 -0.014122098 0.035040114 -0.0111350175 0.034430847 -0.028893674 -0.057915807
-0.06213406 0.048699856 -0.019152265 -0.008075938 0.0040181326 0.052942913 0.0048382482 0.019651294
0.004765114 -0.055948656 -0.010620459 -0.013482778 0.0013977736 -0.05028073 -0.014774181 0.047309063
0.036790237 0.05206799 -0.044356108 -0.057366777 0.05109076 -0.025968006 -0.0010611627 -0.016748734
0.046151258 -0.043359797 -0.05429234 0.015346885 0.05449619 -0.0006834045 -0.039768405 0.009124707
0.03602087 -0.022888413 0.007942974 -0.05287197 -0.054681025 -0.0076641007 0.03915989 -0.034090172
0.052601922 -0.048735827 -0.034807093 0.03199691 -0.05410203 0.0075997007 0.046328336 -0.037248462
-0.043105807 -0.025961015 0.038911834 -0.029886559 0.019219818 0.048668064 0.0054860697 -0.017512113
0.051270224 -0.040491533 0.049158692 -0.052647535 0.009819917 0.043948576 0.013292839 -0.0009160191
0.056586616 0.0211538 -0.015860647 0.032042142 0.002547354 -0.05561391 -0.02693909 0.04616574
0.013694212 0.014729295 -0.042187765 0.030535556 -0.052471153 0.037984997 0.008817513 -0.033516295
0.05595459 -0.055147752 -0.0049311146 -0.03752593 0.00056077447 -0.039609298 0.0012893891 -0.03418716
0.035751596 -0.011480857 -0.024476536 -0.012227032 -0.0021634966 0.0147996945 -0.00032634026 0.010113192

linear_layer.4.bias f4 [49]
00000000: 9792 17bc 8c91 7c3d 0869 6fbc 457a 1f3d
00000010: 60c2 75bd a123 67bd 4b33 a1bc 8a60 3bbd
00000020: df35 51bc eb62 5abd bfd2 3cbd 6964 313c
00000030: e058 61bd 922b 483d d294 193d d11d 813c
00000040: 2c05 ef3c 447d c0bc 7008 06bd 91c3 b9b9
00000050: 5894 093d c710 3b3d 4ea9 21bd 3c0b 27bd
00000060: 6ce4 3bbd acd4 06bd 708c a83b a147 68bd
00000070: 275b 2f3d 4e8d 7dbd bdca 0bbb 2bbf 1e3d
00000080: 0020 7d3c 8b23 373d ff51 85bb 73f7 30bd
00000090: 1715 79bc 6961 47bd 4237 063d d4e3 1fbd
000000a0: 74b5 483d 2c4b ddbb a870 1cbd 636d e7bc
000000b0: 422c 643d 864d 10bd 46b7 4dbd 6b4f a33c
000000c0: de67 5a3d
-0.009251258 0.06166224 -0.014612444 0.038934965 -0.059999824 -0.056430463 -0.019677779 -0.045746364
-0.0127691915 -0.05331699 -0.04609942 0.010827162 -0.0550164 0.048869677 0.03749544 0.015761288
0.02917727 -0.023497231 -0.03272289 -0.00035431658 0.033588737 0.045670297 -0.039468102 -0.0407822
-0.045872137 -0.032917663 0.0051436946 -0.056708936 0.04281154 -0.061902337 -0.0021330558 0.03875653
0.015449524 0.04471163 -0.0040686126 -0.043204736 -0.015202782 -0.048676882 0.03276754 -0.039035633
0.049001172 -0.006753346 -0.038193375 -0.028250402 0.05570627 -0.035230182 -0.05022361 0.01993533
0.05332171
