data/300_500/models/actor_300.pth (torch, 323799 bytes, 6 tensors)

linear_layer.0.weight f4 [256, 7]
0.2091052 -0.14929155 -0.053322632 0.19038995 -0.35846472 0.2834453 -0.056234937 0.18082038
0.04641216 -0.05101036 0.10362363 0.05483933 0.13511491 -0.14136969 -0.009521242 -0.013742044
0.07273796 0.017872082 0.46090853 0.117141016 -0.17260036 -0.22827592 -0.06335276 -0.16303146
-0.12111815 0.018097544 0.22531511 0.20543754 -0.3750342 0.23231131 0.109136954 0.35171166
0.32802883 -0.37662387 -0.37532002 -0.18849327 0.32703152 -0.059471834 0.1657747 -0.17203285
0.3960779 -0.16591273 0.27127776 -0.004497595 -0.20879985 0.19316421 -0.23590823 0.14077586
-0.09283064 -0.04143791 -0.36337054 -0.18020655 0.20509638 -0.09187458 0.37647134 0.30297193
9.1435446e-05 -0.22984637 0.2526762 0.14944439 -0.264374 0.31331533 0.21909572 0.36586142
-0.1835269 -0.03729427 0.0062366845 -0.0288162 -0.31427693 -0.23495677 0.19808075 -0.09209331
0.1765949 0.010021708 0.0449689 0.06505494 0.153369 0.18816581 -0.34932303 0.1908776
-0.2661974 -0.28575718 0.022381801 -0.06406641 0.22165312 -0.22189014 -0.3364559 0.2750588
-0.055455204 0.1961053 0.11722613 -0.28342623 0.07593241 0.09078577 -0.25306937 -0.17933366
0.12887667 0.067701966 -0.12669718 -0.08280033 0.37739807 -0.03932641 0.32561833 0.17125572
-0.25541386 -0.33007282 0.35494763 0.010325768 0.25047162 0.018529935 0.12108974 0.29591426
0.35731342 -0.2535425 0.047148477 0.2796142 0.37891474 0.22048776 -0.3174769 -0.2841446
-0.24077399 0.03620459 0.36452708 -0.22939211 0.19123189 -0.2008843 -0.40116346 -0.12741117
0.17283826 0.30769172 -0.21071228 0.0484086 0.27713487 0.23439059 0.21793105 0.24374652
0.2188219 0.12080916 -0.28749034 -0.34983996 -0.17411451 -0.04440817 -0.2311585 0.1373956
0.118071124 -0.08615137 0.14617795 0.1090953 0.22514525 0.24825707 -0.13559856 0.394335
-0.070775285 -0.035857312 -0.35675314 -0.24326405 -0.22080816 -0.16166407 0.26872122 -0.12351162
-0.28244573 0.14058167 0.11846157 0.23853967 -0.19867885 0.00017406818 -0.12705119 -0.057957206
-0.30120683 -0.17226145 -0.11575454 0.16163096 0.06905011 0.093363434 0.3772483 0.3539035
0.24847312 -0.0010279088 -0.27035052 0.2562912 -0.10827646 -0.016460374 -0.32847556 -0.07713796
-0.24607328 0.3451116 -0.32484505 -0.2863604 -0.009116675 -0.20437123 0.13524011 -0.1454882
-0.17752522 0.021407017 0.2736077 -0.26586917 0.17094341 0.2387439 0.36990952 -0.26913664
0.1351183 -0.3135403 0.30748254 -0.14794235 0.22482209 0.014633252 -0.029678749 0.031649355
0.047931522 0.14796536 0.05097426 0.10371916 -0.34756333 0.2701952 0.3907875 0.33572543
0.23363248 -0.26381338 -0.12824099 0.3460538 -0.27493122 0.3512984 -0.2851582 -0.24930407
0.19954194 -0.258384 -0.069931306 0.294595 0.25790486 0.40672213 -0.06888952 -0.27153823
0.3934221 -0.059439365 -0.1368768 0.12708603 -0.27743742 0.2722303 0.23688269 -0.2999077
-0.31044957 -0.03310833 0.1587547 -0.010946658 -0.1916573 0.008641188 -0.35526097 -0.26713055
-0.2516069 0.3112652 0.3331779 -0.12838195 0.007996583 0.16137475 0.03754995 -0.19240916
00000000: ac1f 563e e2df 18be d568 5abd 95f5 423e
00000010: b088 b7be be1f 913e 9b56 66bd fa28 393e
00000020: ad1a 3e3d 3df0 50bd a038 d43d 359f 603d
00000030: 905b 0a3e 37c3 10be fcfe 1bbc 4f26 61bc
00000040: a4f7 943d 7968 923c 34fc eb3e a1e7 ef3d
00000050: 26be 30be 2ac1 69be 18bf 81bd b8f1 26be
00000060: cb0c f8bd 4d41 943c 01b9 663e 385e 523e
00000070: 7c04 c0be 04e3 6d3e 3283 df3d 8d13 b43e
00000080: 65f3 a73e d8d4 c0be f229 c0be 6104 41be
00000090: ad70 a73e bd98 73bd d8c0 293e 6129 30be
000000a0: b9ca ca3e 07e5 29be ebe4 8a3e 9060 93bb
000000b0: a1cf 55be d7cc 453e ed91 71be 8c27 103e
000000c0: fe1d bebd ccba 29bd b40b babe 1188 38be
000000d0: c904 523e bd28 bcbd dac0 c03e 231f 9b3e
000000e0: 08c1 bf38 d95c 6bbe c65e 813e f307 193e
000000f0: 075c 87be de6a a03e a15a 603e 3052 bb3e
00000100: 7aee 3bbe e0c1 18bd 1a5d cc3b f40f ecbc
00000110: e8e8 a0be 8298 70be aed5 4a3e 6b9b bcbd
00000120: 4bd5 343e 1732 243c 4f31 383d 863b 853d
00000130: c30c 1d3e 8aae 403e 78da b2be 6b75 433e
00000140: 074b 88be c44e 92be 0a5a b73c 4035 83bd
00000150: 09f9 623e 2b37 63be f343 acbe 82d4 8c3e
00000160: ff24 63bd d4cf 483e 4114 f03d 3e1d 91be
00000170: 7482 9b3d e4ed b93d 4f92 81be 3ea3 37be
00000180: 3ff8 033e 54a7 8a3d e8bc 01be 3893 a9bd
00000190: 523a c13e bb14 21bd 72b7 a63e a95d 2f3e
000001a0: 9bc5 82be 4eff a8be b2bb b53e 692d 293c
000001b0: d13d 803e 17cc 973c e6fd f73d 1382 973e
000001c0: c9f1 b63e 53d0 81be c31e 413d 9829 8f3e
000001d0: 1d01 c23e 8bc7 613e 558c a2be 677b 91be
000001e0: 758d 76be 444b 143d 4ba3 ba3e c4e5 6abe
000001f0: 4bd2 433e 9db4 4dbe 4c65 cdbe 1378 02be
00000200: 83fc 303e c589 9d3e f6c4 57be 1948 463d
00000210: 9fe4 8d3e 1604 703e 5129 5f3e b098 793e
00000220: d912 603e cb6a f73d ef31 93be 391e b3be
00000230: 134b 32be 57e5 35bd d0b4 6cbe 6fb1 0c3e
00000240: 46cf f13d 2170 b0bd acaf 153e 5b6d df3d
00000250: 7a8c 663e 1a37 7e3e 59da 0abe 47e6 c93e
00000260: a2f2 90bd 1edf 12bd 59a8 b6be 361a 79be
00000270: 891b 62be 448b 25be d495 893e a9f3 fcbd
00000280: ba9c 90be a4f4 0f3e fb9b f23d be43 743e
00000290: 7872 4bbe 1286 3639 b519 02be 8964 6dbd
000002a0: c837 9abe 4e65 30be b710 edbd 9682 253e
000002b0: 256a 8d3d 5435 bf3d b026 c13e d732 b53e
000002c0: bd6f 7e3e e5ba 86ba 626b 8abe 9a38 833e
000002d0: 0cc0 ddbd e8d7 86bc f32d a8be 82fa 9dbd
000002e0: a2fa 7bbe 78b2 b03e 1752 a6be d59d 92be
000002f0: 1b5e 15bc b146 51be 627c 0a3e dcfa 14be
00000300: 2cc9 35be c55d af3c 4f16 8c3e 0120 88be
00000310: ca0b 2f3e 4879 743e c864 bd3e 47cc 89be
00000320: 745c 0a3e 5b88 a0be 5a6e 9d3e 337e 17be
00000330: c337 663e 4fc0 6f3c d920 f3bc c1a2 013d
00000340: d853 443d 3b84 173e 63ca 503d b66a d43d
00000350: d2f3 b1be 0657 8a3e 4d15 c83e 34e4 ab3e
00000360: 5a3d 6f3e 8c12 87be 9b51 03be f72d b13e
00000370: c9c3 8cbe 62dd b33e 4100 92be 9149 7fbe
00000380: b954 4c3e e84a 84be 2538 8fbd 28d5 963e
00000390: 1b0c 843e e23d d03e f315 8dbd 0f07 8bbe
000003a0: 9f6e c93e b176 73bd 6f29 0cbe d722 023e
000003b0: 470c 8ebe c561 8b3e 6091 723e 818d 99be
000003c0: 3ff3 9ebe 9a9c 07bd 9890 223e 9d59 33bc
000003d0: d041 44be c593 0d3c c4e4 b5be 56c5 88be
000003e0: 9fd2 80be 275e 9f3e 4b96 aa3e 8f76 03be
000003f0: 1a04 033c 6c3f 253e facd 193d e806 45be

linear_layer.0.bias f4 [256]
-0.1762532 0.3362831 0.026497686 0.19842115 0.085994646 0.06493838 0.2693661 -0.018942362
0.2920732 0.15776937 -0.21436743 0.24858625 -0.26936072 0.19678803 -0.048946664 0.11084452
-0.047688164 0.06262233 -0.1601698 0.13719633 0.17569526 -0.35292473 0.33324182 -0.30854046
-0.16870163 0.14019449 0.34599572 0.122898936 -0.21380518 0.067128494 -0.23611146 0.18854824
0.037975617 0.057547152 -0.28992748 0.2017176 0.35451257 -0.2690917 0.13999961 -0.15595393
-0.10795501 0.32968152 -0.34723702 -0.07123073 0.13163154 0.18880118 -0.14612067 -0.21768045
0.076203026 -0.35022324 0.0433596 -0.24215074 -0.066887 0.33237645 -0.30584037 -0.19481906
-0.2986942 0.22243929 0.29869083 -0.24885905 0.22544089 0.24210906 -0.29104438 0.14588688
0.18092617 -0.072419174 0.24132411 -0.0019342798 -0.050836135 0.20782278 -0.36254305 -0.37122798
0.07021943 0.014923714 0.02159309 -0.18822163 0.3276492 -0.24072331 -0.17467465 -0.3190074
-0.37643299 0.06990012 -0.15231138 0.2242181 0.35989246 0.1240526 0.32665572 -0.27264258
0.1901429 0.20347902 -0.12955539 -0.026826864 -0.22751023 0.036403116 -0.35440746 -0.20492381
-0.3145889 -0.055164848 0.03852372 -0.30713236 -0.13887331 0.218986 0.02391117 0.06187576
-0.16966593 -0.11548191 -0.34042266 0.3306418 0.0369247 0.17408764 0.22050467 0.33139056
-0.26071143 0.10230811 -0.30879238 0.14553241 -0.20559175 0.14215337 -0.27828208 0.18964486
0.2771007 0.20696835 -0.31990746 0.21773301 -0.24419236 -0.35351247 0.23498046 0.054669157
-0.1405342 -0.32449302 0.08618979 -0.15327936 -0.27916554 -0.05556935 -0.33241102 0.18619952
-0.253054 -0.12865242 -0.37815005 -0.05722544 -0.120507665 0.20855828 -0.095003076 0.25444004
0.34704226 0.07590842 -0.12954384 -0.3278076 -0.2650894 -0.14164585 -0.25863305 0.18668209
-0.12202713 -0.012484649 0.015989808 -0.32659066 0.3138629 -0.1407605 -0.30878794 -0.014978142
-0.3390757 0.052619096 -0.24905764 -0.100971416 -0.11116703 0.2823863 0.27926204 0.37571418
0.03689299 0.23932233 -0.3168633 -0.26471245 0.2034107 0.095034294 0.10461179 0.21606119
0.23623824 0.17767975 -0.14164668 -0.11836007 0.07960149 0.32581887 -0.028639907 -0.12299703
0.20473142 0.26291853 -0.014336891 -0.10839573 -0.36623934 0.017565401 0.13822263 -0.2774866
-0.28061575 -0.37786713 0.2904918 0.3415164 0.36881945 0.33434325 -0.045257792 0.25710744
0.22371472 -0.10938672 -0.2177605 0.31417426 -0.038908366 0.13904426 -0.17872597 -0.20459212
-0.0700351 0.0124994535 0.23877934 0.24553072 -0.047489993 0.34879827 -0.20121522 0.023655545
-0.24513963 0.06020713 0.34110123 -0.28577036 0.12177902 -0.33314326 -0.041134946 -0.17454696
-0.003017082 -0.27235606 0.12575647 -0.36508757 0.073723584 -0.15176983 -0.22619177 0.3166312
0.0491118 -0.2501933 -0.24037476 -0.16863725 -0.2303879 0.069428414 0.010982039 0.36104906
0.0056969784 -0.22132644 0.32499877 0.09436632 -0.08849367 0.26066858 0.33822086 -0.32098255
-0.3139313 -0.23470117 -0.32823762 -0.12683201 0.13835949 -0.34980822 -0.3735418 -0.32545918
00000000: b87b 34be 4c2d ac3e ad11 d93c ea2e 4b3e
00000010: f61d b03d 6afe 843d 5aea 893e 032d 9bbc
00000020: 9e8a 953e 4b8e 213e 2383 5bbe 658d 7e3e
00000030: a6e9 89be cd82 493e 4c7c 48bd 7402 e33d
00000040: aa54 43bd 2340 803d 8d03 24be 327d 0c3e
00000050: 75e9 333e 8db2 b4be ac9e aa3e 04f9 9dbe
00000060: 1fc0 2cbe 258f 0f3e 5a26 b13e 70b2 fb3d
00000070: bfef 5abe aa7a 893d 34c7 71be ca12 413e
00000080: 528c 1b3d 90b6 6b3d 6071 94be 0f8f 4e3e
00000090: ac82 b53e 63c6 89be 0f5c 0f3e 63b2 1fbe
000000a0: 8417 ddbd 04cc a83e 0dc9 b1be 6be1 91bd
000000b0: 6bca 063e 1955 413e a8a0 15be a0e7 5ebe
000000c0: 5510 9c3d 7650 b3be d699 313d 5df6 77be
000000d0: 0dfc 88bd 3f2d aa3e 1c97 9cbe a67e 47be
000000e0: 72ee 98be 20c7 633e 01ee 983e e8d4 7ebe
000000f0: fad9 663e 70eb 773e c503 95be 5f63 153e
00000100: b644 393e 8150 94bd ab1d 773e a987 fdba
00000110: 8d39 50bd 7fcf 543e 3e9f b9be 9811 bebe
00000120: 34cf 8f3d 9882 743c fee3 b03c 2cbd 40be
00000130: a3c1 a73e 2c80 76be e9dd 32be f054 a3be
00000140: d3bb c0be cb27 8f3d 84f7 1bbe 6e99 653e
00000150: d343 b83e 4a0f fe3d 6b3f a73e cf97 8bbe
00000160: d2b4 423e ce5c 503e 2baa 04be 03c4 dbbc
00000170: 71f8 68be 6f1b 153d e574 b5be 8cd7 51be
00000180: cc11 a1be 89f4 61bd 0ccb 1d3d 7440 9dbe
00000190: ce34 0ebe de3d 603e 5ce1 c33c 7071 7d3d
000001a0: e8bc 2dbe c881 ecbd e14b aebe e249 a93e
000001b0: 5b3e 173d 0844 323e facb 613e 06ac a93e
000001c0: f87b 85be ea86 d13d 091a 9ebe 7306 153e
000001d0: a586 52be a790 113e fd7a 8ebe 4332 423e
000001e0: 25e0 8d3e 83ef 533e e9ca a3be 67f5 5e3e
000001f0: 900d 7abe 96ff b4be b89e 703e c4ec 5f3d
00000200: 33e8 0fbe f323 a6be 4684 b03d 44f5 1cbe
00000210: c9ee 8ebe b09c 63bd c731 aabe 16ab 3e3e
00000220: 4b90 81be 76bd 03be e29c c1be 3965 6abd
00000230: b9cc f6bd 4d90 553e f990 c2bd f745 823e
00000240: 86af b13e e075 9b3d 24a7 04be 66d6 a7be
00000250: ccb9 87be 9c0b 11be 8d6b 84be 9729 3f3e
00000260: 5ce9 f9bd 6a8c 4cbc 0ffd 823c e436 a7be
00000270: a3b2 a03e 8523 10be 7419 9ebe e266 75bc
00000280: 559b adbe 1f87 573d f708 7fbe 1aca cebd
00000290: 8aab e3bd f094 903e 6ffb 8e3e 9c5d c03e
000002a0: 1b1d 173d ea10 753e e83b a2be 6488 87be
000002b0: e54a 503e 57a1 c23d b53e d63d 253f 5d3e
000002c0: 70e8 713e aef1 353e d40b 11be c466 f2bd
000002d0: 1b06 a33d bbd1 a63e 3d9e eabc dee5 fbbd
000002e0: 1da5 513e 429d 863e 47e5 6abc 95fe ddbd
000002f0: b983 bbbe 51e5 8f3c 3c8a 0d3e b912 8ebe
00000300: deac 8fbe cd77 c1be 57bb 943e 3ddb ae3e
00000310: e7d5 bc3e 0a2f ab3e 3c60 39bd 96a3 833e
00000320: 7915 653e 2506 e0bd 9cfc 5ebe 73db a03e
00000330: 615e 1fbd 9e61 0e3e f103 37be 9980 51be
00000340: 906e 8fbd 82ca 4c3c 9282 743e 686c 7b3e
00000350: de84 42bd b095 b23e 5d0b 4ebe 46c9 c13c
00000360: e205 7bbe c09b 763d d2a4 ae3e 7e50 92be
00000370: 4767 f93d c191 aabe 1e7d 28bd 70bc 32be
00000380: 3dba 45bb 4172 8bbe 4ec6 003e c2ec babe
00000390: 64fc 963d 8d69 1bbe d19e 67be 7c1d a23e
000003a0: 7429 493d 5619 80be cd24 76be 3eaf 2cbe
000003b0: ceea 6bbe 7c30 8e3d 03ee 333c 6cdb b83e
000003c0: b8ad ba3b 66a3 62be 3d66 a63e 2143 c13d
000003d0: 2b3c b5bd 5a76 853e 492b ad3e d357 a4be
000003e0: 9abb a0be 8155 70be c30e a8be 40e0 01be
000003f0: 1cae 0d3e 101a b3be df40 bfbe 96a2 a6be

linear_layer.2.weight f4 [256, 256]
-0.000503768 0.041167766 0.04756478 0.062089197 -0.005947058 -0.048290122 0.06877017 -0.042012326
0.056272488 0.010876582 0.017311672 0.02253839 -0.05507466 -0.021059878 -0.053355824 0.043776847
-0.02797532 -0.00024885175 0.059098337 0.04339383 -0.0426556 -0.059323117 0.049467333 0.00742858
-0.047917582 0.045884255 -0.03988943 0.054104857 0.034957077 0.04252094 0.0037888475 0.01082307
0.003788071 0.012070665 0.0036036968 0.046281204 -0.030071927 0.053439032 0.03144827 -0.02167731
0.011682967 -0.04255431 -0.0338327 -0.038508736 -0.040098567 0.04716503 -0.025105799 -0.020885162
0.043722928 0.0034722288 -0.029254768 -0.015465251 -0.013724767 0.027947484 0.05070567 0.04697609
-0.04641632 -0.010122189 0.010137546 -0.052241776 0.042691085 -0.0069483966 0.047109187 -0.0772717
0.07463694 -0.03860749 -0.0018301036 0.005511268 0.04490026 -0.004084491 0.02576607 -0.049124926
0.0053136945 0.0085603 0.038819015 0.06324099 -0.03009409 -0.0149928685 0.01953139 -0.022472166
-0.025432304 -0.07144391 -0.06129016 -0.038555104 0.0072686286 0.004907768 0.002967583 -0.0027849448
-0.015861643 -0.06821257 0.032355733 -0.045731872 0.0026303136 0.024833098 0.019178122 -0.025486754
-0.05484885 0.04107613 0.0017810464 0.05865596 0.029159836 0.028813101 0.020722488 -0.006723741
-0.039725166 0.0037475238 0.06832608 0.03476829 0.052326564 0.058613315 0.053739186 -0.03508029
-0.034037642 0.0006376407 -0.013584147 -0.03655739 -0.010370156 0.04819091 -0.0042027086 0.07142143
-0.04904443 -0.062325824 0.015393437 0.012260819 -0.02087371 -0.031629175 0.013465775 -0.000599071
-0.007330735 0.034214057 -0.02541944 0.07667902 0.06776552 -0.038504176 0.029709639 0.038409606
-0.00030125072 -0.049062222 -0.011242119 -0.020295816 -0.019564338 -0.011552341 0.0076024896 -0.014548399
-0.043065004 -0.026092663 -0.052350216 -0.057606947 0.035727702 0.032373305 0.052467078 0.010558301
-0.025707304 -0.040425118 0.029995315 -0.037771307 0.048437618 -0.05936858 -0.059357304 -0.058211986
0.04781539 -0.001146482 0.021232912 -0.0025872954 0.053588867 0.028677972 0.055681437 -0.036503527
0.010412413 0.056197204 -0.045476574 0.10980447 -0.040936075 0.0744753 -0.0029471964 0.016258106
0.011103579 -0.030729096 0.022998245 0.016608454 -0.006957352 -0.051974 0.061856546 -0.015920488
-0.03940058 0.07761201 -0.030754069 0.040231638 0.021411624 -0.050262086 -0.022381188 -0.033977464
0.019561402 0.05895683 0.0002893586 -0.021235786 -0.019337293 -0.0483095 0.052997872 -0.058001567
-0.049459115 -0.039684046 0.038882755 0.02232567 0.033965163 -0.0025720834 -0.011631984 0.017917754
-0.00061193854 -0.020120874 -0.023167582 -0.035619587 -0.043274492 -0.016358338 -0.04455357 -0.0023178656
0.007124039 0.0595319 0.011535127 0.021345425 -0.041808978 -0.043807033 -0.009516378 -0.0686858
0.014032506 0.0479298 -0.022925077 -0.029717147 -0.0225336 0.05993183 -0.010007113 -0.05352719
0.0639652 0.0031776652 -0.028260687 -0.0067843497 -0.06385898 0.050427254 -0.03129163 0.024230568
0.055018097 -0.03064634 -0.02447106 0.005668478 -0.00046330353 0.035721924 -0.03513267 0.009499033
-0.018686801 0.01677998 0.020308865 -0.05113534 0.033178747 -0.014755759 0.05710165 -0.062023185
00000000: 4c0f 04ba 889f 283d 49d3 423d 3e51 7e3d
00000010: 8adf c2bb ddcb 45bd 60d7 8c3d 1e15 2cbd
00000020: fb7d 663d b133 323c 35d1 8d3c 6ea2 b83c
00000030: f795 61bd c485 acbc a38b 5abd 5a4f 333d
00000040: 802c e5bc 5178 82b9 1911 723d bbbd 313d
00000050: a3b7 2ebd ccfc 72bd 429e 4a3d 726b f33b
00000060: 3a45 44bd 21f1 3b3d 1963 23bd 0e9d 5d3d
00000070: 272f 0f3d 702a 2e3d 504e 783b 3f53 313c
00000080: 4941 783b 0ac4 453c 002c 6c3b 5c91 3d3d
00000090: 6759 f6bc e3e2 5a3d e7cf 003d 9d94 b1bc
000000a0: ea69 3f3c 6e4d 2ebd 2894 0abd 56bb 1dbd
000000b0: 653e 24bd 1e30 413d adaa cdbc 5c17 abbc
000000c0: d016 333d 558e 633b b2a7 efbc f761 7dbc
000000d0: d8dd 60bc 1ff2 e43c c0b0 4f3d 006a 403d
000000e0: 0a1f 3ebd 8ad7 25bc f317 263c 79fb 55bd
000000f0: d9dc 2e3d 60af e3bb 90f5 403d a040 9ebd
00000100: 41db 983d e322 1ebd 16e0 efba de97 b43b
00000110: 56e9 373d 32d7 85bb 5d13 d33c 3837 49bd
00000120: 801e ae3b 8040 0c3c b000 1f3d 7e84 813d
00000130: e287 f6bc a6a4 75bc 4b00 a03c 8c17 b8bc
00000140: 6857 d0bc 2f51 92bd 640b 7bbd f5eb 1dbd
00000150: ad2d ee3b 58d1 a03b c87b 423b 9f83 36bb
00000160: 47f0 81bc 08b3 8bbd 7287 043d 5851 3bbd
00000170: 5761 2c3b c86e cb3c 701b 9d3c 99c9 d0bc
00000180: 30a9 60bd 723f 283d 0072 e93a 3b41 703d
00000190: 9ce0 ee3c 7409 ec3c 35c2 a93c d452 dcbb
000001a0: dbb6 22bd 0499 753b 8bee 8b3d 3269 0e3d
000001b0: 6154 563d 8414 703d 9f1d 5c3d 5ab0 0fbd
000001c0: 0e6b 0bbd 5827 273a 0b90 5ebc 34bd 15bd
000001d0: 96e7 29bc d563 453d e0b6 89bb 6645 923d
000001e0: d0e2 48bd 5d49 7fbd c134 7c3c 9ae1 483c
000001f0: 58ff aabc 988d 01bd 8e9f 5c3c f90a 1dba
00000200: aa36 f0bb 0a24 0c3d 6e3c d0bc e409 9d3d
00000210: a6c8 8a3d 8eb6 1dbd a161 f33c 6453 1d3d
00000220: 30f1 9db9 78f5 48bd dd30 38bc 6943 a6bc
00000230: 6445 a0bc 0846 3dbc 4e1e f93b 685c 6ebc
00000240: ee64 30bd 48c0 d5bc 2e6d 56bd 43f5 6bbd
00000250: 3657 123d df99 043d b8e7 563d b9fc 2c3c
00000260: 2098 d2bc cf94 25bd bcb8 f53c 16b6 1abd
00000270: 8666 463d 782c 73bd a520 73bd b16f 6ebd
00000280: 12da 433d 8d45 96ba a5f0 ad3c 9d8f 29bb
00000290: 0080 5b3d 11ee ea3c 3812 643d b984 15bd
000002a0: d398 2a3c 0a2f 663d a545 3abd 2ae1 e03d
000002b0: 96ac 27bd 8286 983d c025 41bb b82f 853c
000002c0: c9eb 353c 96bb fbbc d166 bc3c 740e 883c
000002d0: 80fa e3bb b0e2 54bd 4a5d 7d3d af6b 82bc
000002e0: 8162 21bd 0cf3 9e3d f5ef fbbc eec9 243d
000002f0: 6e67 af3c 9edf 4dbd c158 b7bc f42b 0bbd
00000300: 3c3f a03c b87c 713d 0eb5 9739 acf6 adbc
00000310: 3e69 9ebc 2fe0 45bd 4c14 593d 0d93 6dbd
00000320: a495 4abd bd8b 22bd 8643 1f3d 53e4 b63c
00000330: 0e1f 0b3d 6690 28bb 1494 3ebc 41c8 923c
00000340: 806a 20ba 88d4 a4bc f1c9 bdbc d8e5 11bd
00000350: 9840 31bd ec01 86bc ce7d 36bd 55e7 17bb
00000360: c570 e93b b9d7 733d d4fd 3c3c 9adc ae3c
00000370: e43f 2bbd 016f 33bd 95ea 1bbc 24ab 8cbd
00000380: 99e8 653c 0a52 443d 5fcd bbbc 6071 f3bc
00000390: 6298 b8bc 147b 753d e0f4 23bc 543f 5bbd
000003a0: 3000 833d 6040 503b f582 e7bc 404f debb
000003b0: 7fc8 82bd cf8c 4e3d a72b 00bd 2f7f c63c
000003c0: a85a 613d 090e fbbc 8877 c8bc a4be b93b
000003d0: 8ce7 f2b9 2751 123d 46e7 0fbd d5a1 1b3c
000003e0: 1015 99bc 2b76 893c c75e a63c 4a73 51bd
000003f0: 70e6 073d 24c2 71bc 6be3 693d 060c 7ebd

linear_layer.2.bias f4 [256]
-0.006861732 -0.024933107 0.012766512 -0.015716255 0.028436305 -0.03697759 -0.005761965 0.02664709
0.05572939 -0.049278345 -0.0074901623 -0.045110412 0.0068901926 -0.037584074 -0.03422559 -0.024984926
-0.009383347 -0.03114348 0.01782649 0.059473824 0.010528131 0.061212607 0.028562365 -0.041078165
-0.0005167052 -0.051651154 0.033929367 -0.024613112 -0.046995327 0.03247313 -0.0109671755 -0.0013882093
-0.0645673 -0.0037670285 0.0085754 -0.056473814 0.047960438 0.01804153 -0.027419632 -0.045769487
0.022074036 -0.041441843 -0.054230608 0.0073550325 -0.049857546 -0.0016526722 -0.03534018 -0.040405847
-0.03833045 0.01501029 0.03959082 -0.056775387 -0.05931036 -0.04167678 -0.017710255 0.021670073
0.012424717 -0.060038507 -0.0023163415 0.047493674 0.031744063 -0.03542773 -0.024023987 0.020642785
0.056209926 0.059343614 0.0055864155 -0.017914124 0.029449718 0.005785875 -0.030416582 -0.016053054
-0.018037435 0.013527697 -0.05637226 -0.0063097877 -0.032859504 0.055846408 -0.04002931 -0.015528032
0.018363103 -0.015990213 0.03952901 -0.020178707 0.049938295 -0.013901778 -0.010438891 0.035134673
-0.06781556 0.04471421 0.014333742 -0.028717233 -0.018315028 -0.0043606437 -0.030032424 0.009464714
-0.063298166 -0.055301417 0.044425063 0.0015824197 -0.04599265 0.021443121 -0.00063177495 -0.03314496
-0.012870996 0.023603238 0.03557825 0.041244507 0.03056671 -0.03284947 0.025817432 0.039840486
-0.01821834 -0.010895587 -0.022327268 -0.03525223 -0.05860227 0.034738433 0.04600796 0.028591856
0.0034717275 -0.040708303 0.05289308 0.006336859 0.015703619 0.04860978 0.019913252 0.02876231
0.062721424 0.0063585676 -0.035490878 0.057313643 -0.037826575 0.021141961 -0.03817952 0.010381526
0.01263002 -0.05671933 0.03597941 0.06339105 0.019905083 -0.012047782 0.015730398 -0.006243093
-0.021859867 0.05317473 -0.023804132 -0.021252224 0.065469265 -0.010901136 0.045593232 -0.05200865
-0.053347 -0.04793756 0.008996365 -0.056100912 0.019070918 0.050337024 -0.008765722 -0.013665793
-0.008511301 0.059582207 -0.032784883 0.015786327 0.01937782 -0.038408674 -0.0072356 0.009090264
-0.04906361 -0.041622255 0.039854385 0.042872265 0.048655227 -0.060676407 -0.045584958 0.040449314
-0.023297764 -0.033254903 0.029077016 0.042407896 -0.023791116 -0.0626551 0.030831488 0.011648421
0.05314687 -0.04818423 -0.02144536 -0.01776249 0.03914378 -0.0013674423 0.02643965 0.05907176
0.058570668 0.022803899 0.04854254 -0.039154038 0.05229471 0.004489811 0.06023496 -0.052121125
0.031074017 -0.040756546 -0.05501817 -0.055863325 -0.019448623 -0.059862517 0.011731163 -0.05894063
-0.032705408 0.047030445 -0.04409055 0.043585405 0.027152866 -0.03519389 -0.036309976 -0.0038014054
-0.048411243 -0.043144148 0.0576178 0.035579816 0.0035865456 0.0017458098 -0.014388204 -0.01486171
0.00955911 0.015332209 0.03798677 0.056869894 -0.065684356 -0.060728636 -0.0060371086 -0.04786527
-0.05588948 0.02782134 -0.06132512 0.017509883 0.0008163417 0.041070737 -0.011676036 0.02869839
0.057257682 0.02973375 -0.030501842 -0.040102478 0.0069297133 -0.06261259 -0.044535242 0.036150478
-0.0010343678 0.054168332 -0.039571628 0.022109631 0.043108735 0.046134602 -0.06032059 -0.017351387
00000000: 61d8 e0bb 8440 ccbc a22a 513c 60bf 80bc
00000010: 41f3 e83c d075 17bd dece bcbb 004b da3c
00000020: 8044 643d 17d8 49bd 0970 f5bb b2c5 38bd
00000030: 20c7 e13b c2f1 19bd 2230 0cbd 30ad ccbc
00000040: 9cbc 19bc 9d20 ffbc dc08 923c d39a 733d
00000050: 2f7e 2c3c 12ba 7a3d 9ffb e93c 9441 28bd
00000060: 8073 07ba 2990 53bd 85f9 0a3d 70a1 c9bc
00000070: 2c7e 40bd 8b02 053d abaf 33bc 93f4 b5ba
00000080: dc3b 84bd 40e0 76bb d67f 0c3c 1651 67bd
00000090: 2a72 443d d5cb 933c 239f e0bc c978 3bbd
000000a0: 9cd4 b43c ecbe 29bd ea20 5ebd 7c02 f13b
000000b0: 6d37 4cbd 7a9e d8ba ddc0 10bd 9a80 25bd
000000c0: 6400 1dbd b8ed 753c fc29 223d 4f8d 68bd
000000d0: 6cef 72bd 45b5 2abd 1915 91bc 7085 b13c
000000e0: 0a91 4b3c f0ea 75bd c3cd 17bb ba88 423d
000000f0: 1006 023d ab1c 11bd f4cd c4bc 0f1b a93c
00000100: 613c 663d 4a12 733d 400e b73b a4c0 92bc
00000110: 8940 f13c 7097 bd3b 322c f9bc b281 83bc
00000120: 3ec3 93bc 46a3 5d3c 99e6 66bd 56c2 cebb
00000130: b097 06bd 34bf 643d c6f5 23bd 4969 7ebc
00000140: 386e 963c e8fd 82bc 2ce9 213d d14d a5bc
00000150: 198c 4c3d 48c4 63bc e207 2bbc 60e9 0f3d
00000160: e2e2 8abd 3f26 373d 12d8 6a3c 6740 ebbc
00000170: 6609 96bc bbe3 8ebb 8f06 f6bc e311 1b3c
00000180: 78a2 81bd bd83 62bd 0ef7 353d 3269 cf3a
00000190: ca62 3cbd 7ca9 af3c b39d 25ba 02c3 07bd
000001a0: dfe0 52bc 945b c13c 80ba 113d 00f0 283d
000001b0: 0967 fa3c 2a8d 06bd 147f d33c c72f 233d
000001c0: a13e 95bc 6783 32bc ade7 b6bc a464 10bd
000001d0: ef08 70bd e349 0e3d d872 3c3d 7839 ea3c
000001e0: ec85 633b c0bd 26bd 6aa6 583d 6da5 cf3b
000001f0: e0a4 803c 0c1b 473d 1e21 a33c f09e eb3c
00000200: 1774 803d 885b d03b e25e 11bd b6c1 6a3d
00000210: 0af0 1abd e831 ad3c 2162 1cbd 4717 2a3c
00000220: 25ee 4e3c 8752 68bd 255f 133d 2bd3 813d
00000230: fc0f a33c 0f64 45bc 09dd 803c dc92 ccbb
00000240: 7713 b3bc bfcd 593d e200 c3bc 2519 aebc
00000250: c014 863d ae9a 32bc f8bf 3a3d 0607 55bd
00000260: 6282 5abd 2d5a 44bd 7d65 133c 12ca 65bd
00000270: 9d3a 9c3c 322e 4e3d 1a9e 0fbc 7ee6 5fbc
00000280: fc72 0bbc 790c 743d 7149 06bd 5452 813c
00000290: 3cbe 9e3c 6a52 1dbd 9d18 edbb 55ef 143c
000002a0: edf6 48bd 197c 2abd 5a3e 233d d49a 2f3d
000002b0: b44a 473d d387 78bd 4bb7 3abd 2eae 253d
000002c0: f4da bebc 4b36 08bd ec32 ee3c e7b3 2d3d
000002d0: 96e5 c2bc 5151 80bd 5192 fc3c 05d9 3e3c
000002e0: 88b0 593d d45c 45bd 2eae afbc a482 91bc
000002f0: 3a55 203d c03b b3ba f797 d83c 3bf5 713d
00000300: cce7 6f3d 3ecf ba3c 8bd4 463d fc5f 20bd
00000310: fa32 563d 441f 933b efb8 763d f67c 55bd
00000320: f08e fe3c 56f0 26bd bc5a 61bd f1d0 64bd
00000330: b852 9fbc 6632 75bd 1034 403c bb6b 71bd
00000340: 1bf6 05bd ffa2 403d 4b98 34bd 9c86 323d
00000350: b06f de3c 7827 10bd c5b9 14bd 0021 79bb
00000360: de4a 46bd ebb7 30bd a400 6c3d 24bc 113d
00000370: 400c 6b3b a8d3 e43a 80bc 6bbc 887e 73bc
00000380: d09d 1c3c f233 7b3c 0498 1b3d 68f0 683d
00000390: 8585 86bd 97be 78bd f0d2 c5bb 600e 44bd
000003a0: 5eec 64bd 94e9 e33c 0d30 7bbd e370 8f3c
000003b0: c4ff 553a ca39 283d d84c 3fbc e318 eb3c
000003c0: 0887 6a3d 3194 f33c 00df f9bc 7f42 24bd
000003d0: a612 e33b 083b 80bd 966a 36bd 8612 143d
000003e0: a093 87ba 9ddf 5d3d dc15 22bd 421f b53c
000003f0: c992 303d a3f7 3c3d b912 77bd 7f24 8ebc

linear_layer.4.weight f4 [49, 256]
-0.043886837 0.027085677 -0.0015032496 0.02517962 -0.0661809 -0.02791141 0.023022786 -0.04099013
0.05727433 -0.019432848 0.016006302 0.03140026 0.026505299 -0.05008247 -0.03131171 0.019452322
-0.017041452 -0.044971094 -0.039884508 -0.019806098 -0.065630555 0.053633615 0.034539323 -0.02313897
0.047955863 0.00065570784 -0.006162448 0.028930083 0.042895272 0.054640345 0.035294224 0.012713728
0.04004558 0.04261245 0.026742147 0.020295024 0.0581251 0.02553025 -0.060793936 0.034191728
0.024288548 -0.061713472 0.023713792 -0.0051444615 0.009200752 0.01743561 0.03177262 0.056544222
0.039836623 0.034767956 0.040292513 0.015135873 0.041788917 0.043776393 0.017475994 -0.021580748
-0.023843473 -0.013392961 0.05295483 0.0012141094 0.05797609 -0.02652291 -0.033271458 -0.043175757
-0.05845869 -0.005521469 -0.0053086057 -0.028521828 -0.019654185 -0.052828662 -0.056631073 0.04084074
0.043214384 0.061371278 -0.024815017 -0.04036128 0.030370155 0.0014700592 0.012479524 -0.061722968
-0.01609236 -0.03705722 0.02996945 0.007877484 -0.039240465 0.045030866 0.042958714 -0.012117162
0.003150405 -0.04658441 -0.06390898 -0.063869745 0.045400374 0.038232934 -0.023175031 -0.02115968
-0.03850565 -0.047825836 -0.02677396 0.026429493 -0.055439897 -0.051173467 0.05291886 -0.02790559
-0.012492655 0.024983166 -0.05958087 -0.049254205 -0.015246139 -0.02635046 0.05484719 -0.049205877
-0.009792401 -0.009341749 0.019631134 0.030148782 -0.056967236 0.03425501 -0.061429456 0.05517712
-0.018874437 -0.019844152 0.045359246 -0.04732371 -0.012080063 0.07136065 0.03314202 -0.04600574
-0.013771772 -0.008823287 -0.024028942 -0.03897655 -0.03218261 0.017452901 0.022805689 0.032939248
0.05905704 0.048877545 -0.055927742 -0.016984105 -0.05124096 0.048203364 -0.03614294 0.035041098
-0.05929979 -0.01448608 -0.022312354 -0.05289518 -0.05757588 -0.021100802 -0.062776074 -0.0593914
-0.04203835 -0.02887778 -0.014122098 0.0348488 -0.0111350175 0.034430847 -0.028893674 -0.057915807
-0.06309415 0.048699856 -0.019152265 -0.008075938 0.004018126 0.052815612 0.004841096 0.0190184
0.004765114 -0.056376755 -0.010620459 -0.013734071 0.0013977736 -0.050480787 -0.014774181 0.047309063
0.036790237 0.05206799 -0.044356108 -0.05773499 0.050645605 -0.025968006 -0.001059614 -0.016748734
0.046151258 -0.043355815 -0.05429234 0.015346885 0.05449619 -0.0006834045 -0.039768405 0.009124707
0.035909157 -0.022888413 0.007942974 -0.05287197 -0.054681025 -0.007874227 0.039009187 -0.03410543
0.052564755 -0.048735827 -0.034807093 0.031889096 -0.05428107 0.0075997007 0.046328336 -0.037248462
-0.043105807 -0.02624955 0.038874943 -0.029886559 0.018942012 0.048603144 0.0051995297 -0.017512113
0.051270224 -0.040491533 0.049158692 -0.052882303 0.009819917 0.043948576 0.013045258 -0.0009160191
0.056586616 0.020814104 -0.015860647 0.0320422 0.002547354 -0.05561391 -0.02693909 0.04616574
0.013694212 0.014729295 -0.042359706 0.030355956 -0.052471153 0.037924152 0.008817513 -0.033516295
0.05595459 -0.055094406 -0.0049311146 -0.03758102 0.00056077447 -0.039609298 0.00026085338 -0.03418716
0.037005268 -0.011480857 -0.024476536 -0.012227032 -0.002500373 0.0147996945 -0.00032634026 0.009463361
00000000: afc2 33bd c8e2 dd3c b008 c5ba 7e45 ce3c
00000010: da89 87bd 78a6 e4bc 489a bc3c 44e5 27bd
00000020: 7d98 6a3d a331 9fbc a61f 833c 8f9d 003d
00000030: a421 d93c 4723 4dbd b540 00bd 7a5a 9f3c
00000040: 849a 8bbc 9c33 38bd f05d 23bd 6640 a2bc
00000050: 5069 86bd ecae 5b3d 1b79 0d3d f08d bdbc
00000060: 5e6d 443d cfe3 2b3a 5cee c9bb c8fe ec3c
00000070: f4b2 2f3d 8ece 5f3d ad90 103d 3d4d 503c
00000080: d606 243d 648a 2e3d 5912 db3c c041 a63c
00000090: 9614 6e3d d124 d13c 1003 79bd a00c 0c3d
000000a0: c7f8 c63c 44c7 7cbd 6d43 c23c df92 a8bb
000000b0: c0be 163c 20d5 8e3c 0224 023d ea9a 673d
000000c0: ba2b 233d d868 0e3d c309 253d 74fc 773c
000000d0: db2a 2b3d e04e 333d d129 8f3c 1cca b0bc
000000e0: 6353 c3bc 266e 5bbc 2ae7 583d c022 9f3a
000000f0: 5678 6d3d 9346 d9bc a747 08bd 10d9 30bd
00000100: 6172 6fbd 70ed b4bb d0f3 adbb 9ca6 e9bc
00000110: d001 a1bc de62 58bd fcf5 67bd 9f48 273d
00000120: 9101 313d 7360 7b3d dd48 cbbc df51 25bd
00000130: d5ca f83c 00af c03a eb76 4c3c 39d1 7cbd
00000140: 20d4 83bc 50c9 17bd 7e82 f53c 9010 013c
00000150: 9cba 20bd 4972 383d 7af5 2f3d 1087 46bc
00000160: 0677 4e3b 4bcf 3ebd b6e2 82bd 24ce 82bd
00000170: bef5 393d 239a 1c3d 90d9 bdbc 1157 adbc
00000180: 1ab8 1dbd 06e5 43bd 1055 dbbc aa82 d83c
00000190: f214 63bd 459b 51bd 72c1 583d 449a e4bc
000001a0: fead 4cbc 7fa9 cc3c 120b 74bd c7be 49bd
000001b0: f1ca 79bc ebdc d7bc 72a7 603d 1a8c 49bd
000001c0: 4f70 20bc 230e 19bc 79d1 a03c 94fa f63c
000001d0: 7a56 69bd fb4e 0c3d 749d 7bbd 6701 623d
000001e0: 909e 9abc 3490 a2bc 9eca 393d 82d6 41bd
000001f0: 75eb 45bc 8825 923d edbf 073d 8470 3cbd
00000200: 00a3 61bc 8c8f 10bc 58d8 c4bc e0a5 1fbd
00000210: ead1 03bd 63f9 8e3c ffd2 ba3c 4eeb 063d
00000220: cbe5 713d d233 483d 7d14 65bd 4022 8bbc
00000230: 0ae2 51bd e470 453d 9f0a 14bd 4187 0f3d
00000240: 56e4 72bd 0657 6dbc 66c8 b6bc 9ea8 58bd
00000250: b0d4 6bbd 97db acbc be90 80bd 6644 73bd
00000260: 6830 2cbd 1891 ecbc 5f60 67bc 9ebd 0e3d
00000270: a66f 36bc 5c07 0d3d 6db2 ecbc 2039 6dbd
00000280: 8137 81bd 8079 473d 36e5 9cbc f050 04bc
00000290: 7caa 833b 2f55 583d 0ea2 9e3b 7acc 9b3c
000002a0: ac24 9c3b 50eb 66bd 6f01 2ebc de04 61bc
000002b0: 8035 b73a f1c4 4ebd 680f 72bc 26c7 413d
000002c0: 5cb1 163d 3f45 553d c0ae 35bd 867b 6cbd
000002d0: c471 4f3d dbba d4bc bfe2 8aba a434 89bc
000002e0: 1a09 3d3d de95 31bd a561 5ebd 8071 7b3c
000002f0: 6637 5f3d 8026 33ba 32e4 22bd cc7f 153c
00000300: 7b15 133d 7b80 bbbc 3f23 023c 4790 58bd
00000310: 36f9 5fbd e702 01bc 19c8 1f3d 23b2 0bbd
00000320: 244e 573d 389f 47bd e291 0ebd 249e 023d
00000330: d455 5ebd e906 f93b c8c2 3d3d d891 18bd
00000340: b78f 30bd 4c09 d7bc 553b 1f3d a8d4 f4bc
00000350: 472c 9b3c 1714 473d d160 aa3b 9075 8fbc
00000360: ba00 523d 73da 25bd a05a 493d 1d9b 58bd
00000370: b8e3 203c 6c03 343d c7bb 553c 0021 70ba
00000380: 5ec7 673d 5782 aa3c 30ee 81bc af3e 033d
00000390: 82f1 263b 69cb 63bd 5eaf dcbc 4918 3d3d
000003a0: b05d 603c 2453 713c 5f81 2dbd 0ead f83c
000003b0: feeb 56bd 5b56 1b3d 5477 103c 6248 09bd
000003c0: a430 653d acaa 61bd 3095 a1bb 8eee 19bd
000003d0: f000 133a 5c3d 22bd 26c3 8839 d607 0cbd
000003e0: d692 173d 341a 3cbc 0483 c8bc e453 48bc
000003f0: 4cdd 23bb 6b7a 723c a618 abb9 370c 1b3c

linear_layer.4.bias f4 [49]
-0.009603572 0.060802534 -0.014747641 0.04001199 -0.06013903 -0.056448657 -0.019970397 -0.04445314
-0.012773576 -0.053417515 -0.04613007 0.01070692 -0.05516316 0.04816682 0.037359208 0.02036978
0.029167812 -0.023405155 -0.031157628 -0.000991566 0.03351423 0.045652833 -0.03552222 -0.040837232
-0.046235286 -0.037431866 0.005241738 -0.05399755 0.04253526 -0.059986223 -0.0022709698 0.038387936
0.015006868 0.044756595 -0.0041153943 -0.04473554 -0.015249111 -0.048703667 0.03256845 -0.039484568
0.04888362 -0.001687734 -0.03825309 -0.027706102 0.055641957 -0.035171855 -0.04629626 0.019999323
0.052213
00000000: 4d58 1dbc 140c 793d 17a0 71bc 9de3 233d
00000010: 5854 76bd b536 67bd f598 a3bc 7f14 36bd
00000020: 4348 51bc 53cc 5abd e2f2 3cbd 146c 2f3c
00000030: c4f2 61bd 924a 453d f805 193d 86de a63c
00000040: 56f1 ee3c 2bbc bfbc 483e ffbc 6ff7 81ba
00000050: 3846 093d 77fe 3a3d bf7f 11bd f144 27bd
00000060: 3661 3dbd 2852 19bd e3c2 ab3b 892c 5dbd
00000070: 7439 2e3d 1db4 75bd 8dd4 14bb ab3c 1d3d
00000080: 5edf 753c b152 373d 6eda 86bb 9d3c 37bd
00000090: 68d7 79bc 7f7d 47bd 7f66 053d 92ba 21bd
000000a0: 313a 483d f536 ddba 46af 1cbd e8f7 e2bc
000000b0: d2e8 633d 5d10 10bd 26a1 3dbd 9fd5 a33c
000000c0: 4cdd 553d
