data/300_500/models/critic_450.pth (torch, 274455 bytes, 5 tensors)

linear_layer.0.weight f4 [256, 7]
-0.26211733 0.35244256 -0.2614079 -0.13530724 -0.30982327 -0.27562574 -0.19104971 -0.23499914
-0.17079298 0.06143872 0.14886712 0.2041742 0.09668065 0.1556995 -0.036263935 0.26979545
0.15899183 -0.027698413 -0.3070119 0.24719572 0.32559517 -0.14118688 0.08371366 0.2583946
0.26886943 -0.2074749 0.17011607 -0.121500105 -0.3482397 0.21761893 0.35070235 0.33065206
0.036310002 0.34334877 0.16230538 -0.2797777 -0.34482598 -0.08634839 -0.13244902 -0.35069996
-0.21074952 -0.34828213 0.004663172 0.27231377 -0.39247778 -0.31671453 0.25883 -0.09012117
0.15387279 0.35977712 0.08496283 -0.3727273 -0.1892369 -0.13540325 0.3407529 -0.08489382
-0.30687657 -0.12021669 0.3100437 -0.12303453 0.16395275 0.1099775 -0.021246508 0.30672222
-0.08834366 -0.26648208 -0.24432376 -0.15735978 -0.3523136 0.16992861 0.22464025 0.07579735
-0.22271399 -0.021166228 -0.6978857 0.08074771 0.36220708 0.137981 -0.17450897 -0.019676562
-0.0865074 0.2638715 0.1860129 0.10533491 0.07767231 -0.2929872 -0.37179777 0.3392395
-0.22980724 -0.07361147 -0.13518994 -0.31418556 -0.29109198 0.10549432 0.013148768 -0.13985735
0.00033634956 -0.2834977 0.04401318 -0.2800896 -0.34370577 0.06632381 0.041988187 0.21371917
0.3613811 -0.23447108 -0.28678757 0.1644983 0.28085056 -0.24045062 0.026722642 0.13808592
-0.36099997 -0.03477733 -0.09957835 -0.010982433 0.051648922 -0.26676905 -0.22298558 -0.20407502
-0.19182122 -0.16803412 0.26810926 0.21516897 -0.24996027 0.14277866 -0.09050808 0.053499725
-0.2616328 0.14692035 -0.1968251 0.07675423 0.27018368 -0.11335413 -0.35526374 0.04367174
-0.2405756 0.004342041 0.18947245 0.22043931 -0.48639262 0.20123167 -0.18864751 0.3004053
0.48021597 0.2515774 -0.24489081 0.02036628 0.2735399 -0.342062 0.3503629 -0.07844793
-0.34485972 0.2622405 0.27923203 -0.1008862 -0.26798892 0.17445496 -0.52358073 -0.29723203
0.12603603 -0.21193345 0.22643052 -0.10981112 0.016628146 0.41128543 0.047692887 -0.4279744
0.12428601 -0.2780053 -0.24737121 0.052325044 0.015693175 -0.07495603 0.36998862 -0.38332114
0.13483676 0.24222143 -0.048059326 0.21185192 0.06127218 -0.18533881 -0.2500196 -0.16917515
0.26583362 -0.011699673 0.16130641 0.26583585 -0.054300614 0.14106488 -0.36397943 -0.31520572
-0.24538124 -0.20272598 -0.26804578 -0.13972723 -0.11946946 0.33355218 0.18428418 0.18584153
-0.12420464 0.15497214 -0.091458336 -0.1809568 0.3248115 -0.12943706 -0.37711632 0.14069961
0.106030814 -0.060058966 0.1171861 0.2705981 -0.44957462 -0.06310849 0.05001997 -0.21601284
0.18145943 -0.13062689 0.086025596 0.37524864 -0.18948185 -0.33140916 -0.3409082 0.012100042
0.15727285 -0.06545246 -0.103363775 0.20129758 -0.57931095 0.23692572 0.40688935 0.030794315
0.16256422 0.13879843 -0.4489867 0.24241488 -0.31015977 0.101504765 -0.3016915 -0.06186656
0.1586713 -0.35899132 -0.19131699 0.23285975 -0.3144097 -0.10847163 -0.09690801 -0.17087333
0.13835497 0.030776279 0.19490907 -0.08486503 -0.06716181 0.1476122 0.06921855 0.17261912
00000000: 3e34 86be 5a73 b43e 42d7 85be fb8d 0abe
00000010: 28a1 9ebe d11e 8dbe 89a2 43be 9da3 70be
00000020: 5be4 2ebe 2ba7 7b3d 9f70 183e 0b13 513e
00000030: 8100 c63d b16f 1f3e 7e89 14bd a122 8a3e
00000040: c1ce 223e c8e7 e2bc aa30 9dbe e020 7d3e
00000050: 69b4 a63e 4b93 10be 1172 ab3d 4c4c 843e
00000060: 41a9 893e 4d74 54be e832 2e3e 0cd5 f8bd
00000070: 794c b2be 7fd7 5e3e 428f b33e 3a4b a93e
00000080: ccb9 143d 69cb af3e 6233 263e 063f 8fbe
00000090: 088d b0be 6dd7 b0bd b7a0 07be f28e b3be
000000a0: b9ce 57be 0952 b2be 86cd 983b b66c 8b3e
000000b0: d9f2 c8be 6828 a2be 5e85 843e 7391 b8bd
000000c0: d490 1d3e b534 b83e fe00 ae3d 1dd6 bebe
000000d0: 51c7 41be 26a7 0abe 2a77 ae3e d0dc adbd
000000e0: ed1e 9dbe 2b34 f6bd 0cbe 9e3e 87f9 fbbd
000000f0: 3be3 273e e23b e13d 280d aebc b20a 9d3e
00000100: 85ed b4bd 5770 88be 0230 7abe ec22 21be
00000110: 7362 b4be c401 2e3e 1808 663e a43b 9b3d
00000120: 230f 64be cc64 adbc a3a8 32bf 0e5f a53d
00000130: 3573 b93e e44a 0d3e 7bb2 32be be30 a1bc
00000140: cb2a b1bd 2a1a 873e 2a7a 3e3e d4b9 d73d
00000150: a912 9f3d 6b02 96be 475c bebe cdb0 ad3e
00000160: 9752 6bbe 9cc1 96bd 3b6f 0abe eedc a0be
00000170: 020a 95be 680d d83d ee6d 573c c436 0fbe
00000180: 1358 b039 9c26 91be 2a47 343d e767 8fbe
00000190: 34fa afbe c7d4 873d cefb 2b3d 33d9 5a3e
000001a0: f206 b93e 3019 70be d2d5 92be 3e72 283e
000001b0: a5cb 8f3e b038 76be 71e9 da3c 6566 0d3e
000001c0: fdd4 b8be ac72 0ebd bcef cbbd aaef 33bc
000001d0: d28d 533d f495 88be 5556 64be 0bf9 50be
000001e0: c86c 44be 2311 2cbe 9e45 893e 4155 5c3e
000001f0: 96f5 7fbe 9234 123e 4d5c b9bd 8722 5b3d
00000200: bcf4 85be 4a72 163e 858c 49be 5231 9d3d
00000210: 8455 8a3e 3626 e8bd 21e5 b5be 23e1 323d
00000220: 7359 76be ae47 8e3b 1105 423e d8ba 613e
00000230: 7408 f9be ad0f 4e3e d02c 41be b9ce 993e
00000240: dede f53e c1ce 803e a8c4 7abe 2fd7 a63c
00000250: 6c0d 8c3e c022 afbe c462 b33e 4fa9 a0bd
00000260: 7491 b0be 6344 863e 80f7 8e3e 6d9d cebd
00000270: d835 89be 52a4 323e 6309 06bf cc2e 98be
00000280: 970f 013e 1505 59be 67dd 673e a7e4 e0bd
00000290: c037 883c 0194 d23e 9e59 433d 761f dbbe
000002a0: aa89 fe3d b656 8ebe e14e 7dbe c952 563d
000002b0: f98e 803c 8c82 99bd 266f bd3e ab42 c4be
000002c0: a612 0a3e e508 783e dbd9 44bd b6ef 583e
000002d0: 8af8 7a3d 75c9 3dbe 9202 80be 403c 2dbe
000002e0: 581b 883e fcaf 3fbc 822d 253e a31b 883e
000002f0: 526a 5ebd 5073 103e 835b babe a562 a1be
00000300: 3845 7bbe 6697 4fbe 4c3d 89be a814 0fbe
00000310: 67ac f4bd 5ac7 aa3e feb4 3c3e 3e4d 3e3e
00000320: 015f febd 04b1 1e3e 824e bbbd bd4c 39be
00000330: b14d a63e 268b 04be 6415 c1be 8f13 103e
00000340: af26 d93d 6400 76bd 44ff ef3d d68b 8a3e
00000350: a52e e6be 063f 81bd bde1 4c3d 7832 5dbe
00000360: 80d0 393e 0ec3 05be 302e b03d 9720 c03e
00000370: 8807 42be 76ae a9be 858b aebe 413f 463c
00000380: 220c 213e f00b 86bd 63b0 d3bd f420 4e3e
00000390: b94d 14bf a89c 723e cd53 d03e 5c44 fc3c
000003a0: 3c77 263e 2d21 0e3e 96e1 e5be 9b3b 783e
000003b0: 43cd 9ebe bbe1 cf3d 4f77 9abe ca67 7dbd
000003c0: bb7a 223e b6cd b7be 9ae8 43be c972 6e3e
000003d0: 4ffa a0be 6026 debd b577 c6bd 6bf9 2ebe
000003e0: edac 0d3e 891e fc3c 3e96 473e b8cd adbd
000003f0: 228c 89bd a727 173e 75c2 8d3d 11c3 303e

linear_layer.0.bias f4 [256]
0.24502103 -0.4054268 0.081391856 0.2668317 -0.06745953 -0.073287934 -0.25344676 0.22306632
-0.14357837 0.1020951 0.30968451 0.2878938 -0.27990755 -0.18361615 0.10136715 0.0469879
-0.07098648 -0.032009214 -0.3543453 -0.020416938 -0.14283937 0.19689772 0.122958906 -0.07117115
-0.30404708 0.31743538 -0.15760347 0.19932108 0.059564352 -0.15546267 -0.021769298 0.38016933
0.3799909 0.20509428 0.050027594 0.04090718 0.20991904 0.25887838 0.2467232 -0.3264647
-0.37329775 -0.05158779 -0.16452496 -0.118687175 0.15813527 -0.26740354 0.2076133 0.07622615
0.34464332 -0.28332862 -0.083115555 -0.108087495 0.034834146 0.15761858 0.250512 -0.09661753
-0.28072578 -0.0702958 0.05845442 0.090667814 0.29500347 0.19827332 0.010397523 -0.28771934
-0.14567187 -0.23341313 0.06435669 0.025794473 0.33913577 -0.33699945 -0.32399276 -0.08637527
-0.036224745 0.2985605 -0.27846456 -0.009830824 0.062655926 -0.28566644 -0.1367413 -0.110006236
-0.19811305 0.18341136 -0.3896497 -0.025155164 -0.027269637 -0.29347092 0.23745464 -0.08454396
0.2605879 0.067295596 -0.108271815 -0.17218061 0.12457926 -0.29507914 -0.32226118 0.24212956
-0.08625274 -0.30127472 -0.25693908 0.07435879 0.08715288 0.17484103 -0.39916778 -0.31971106
-0.11609449 -0.3669443 0.18692356 -0.2709856 -0.039786577 0.3707948 -0.079508126 0.13006388
-0.17828263 -0.13115834 0.37722048 0.21411952 0.24947555 0.11466014 0.25700557 -0.32204354
-0.23964319 -0.19165741 -0.28784406 0.15895882 0.37438637 -0.2682305 0.21820466 -0.2906134
-0.3776049 0.18717584 -0.088112324 -0.43743408 -0.22522062 -0.12795703 0.19298783 -0.35811165
-0.37163192 0.18410423 -0.18281768 -0.036327932 -0.36690927 -0.14687489 -0.19890049 -0.37580952
-0.05607995 0.36073256 0.31983796 -0.1825616 0.10178276 -0.03176071 -0.25015438 -0.1266025
-0.06527802 -0.28514948 -0.2671287 -0.20625621 -0.114542276 -0.21011047 0.19976719 0.1391173
0.053476382 -0.29130098 0.2351443 0.10234052 0.14732309 0.08101734 -0.282186 -0.20296031
-0.1568171 -0.32679686 0.27724645 0.24602048 0.36946929 0.27086845 -0.067211434 -0.14174181
-0.32230112 0.11723019 0.2423612 -0.11917372 0.36766145 0.060668048 -0.06555503 0.2896458
-0.28699273 0.017170873 -0.1335895 -0.073614605 0.2621751 0.30259708 0.2356093 -0.37413254
-0.32550135 0.0966217 -0.17936026 0.23600541 -0.22183596 0.16447684 -0.33490878 0.057104904
0.23606083 -0.31639397 -0.2970622 -0.06121717 -0.115186594 0.42503226 0.08195012 -0.21057738
-0.35316515 -0.2529672 0.15280321 0.28697184 -0.2598198 0.30221403 -0.039542045 0.023820354
0.18979077 -0.30300984 -0.44634575 -0.36126196 0.040654335 0.057827085 -0.070480004 -0.24604161
-0.3191787 -0.106413186 -0.052406836 0.35286194 0.117693424 -0.03682922 -0.14610475 -0.028244758
0.33169702 0.19325122 -0.29526326 0.20664884 0.054892115 -0.17936935 0.094011985 -0.38588646
0.0042264247 0.2233874 -0.3436134 0.27723035 -0.10635427 -0.010287872 -0.016417982 -0.3934733
-0.15472534 0.19994508 0.29478845 -0.0950168 0.3014304 0.25089327 -0.40482748 0.36826277
00000000: cbe6 7a3e 1a94 cfbe c6b0 a63d 2a9e 883e
00000010: 3928 8abd fc17 96bd c6c3 81be 7f6b 643e
00000020: 3506 13be 3c17 d13d f88e 9e3e d166 933e
00000030: 0b50 8fbe df05 3cbe 9599 cf3d 6276 403d
00000040: 5c61 91bd 181c 03bd bf6c b5be 6c41 a7bc
00000050: 7c44 12be 8e9f 493e e1d1 fb3d 2ec2 91bd
00000060: 0fac 9bbe e486 a23e ce62 21be d31a 4c3e
00000070: c0f9 733d 9b31 1fbe 8755 b2bc 8ea5 c23e
00000080: 2b8e c23e 3c04 523e bce9 4c3d 4a8e 273d
00000090: 04f5 563e b58b 843e 02a5 7c3e 6226 a7be
000000a0: e220 bfbe b84d 53bd 3b79 28be 4312 f3bd
000000b0: 36ee 213e 1ee9 88be 9598 543e 751c 9c3d
000000c0: 1775 b03e 7310 91be 7d38 aabd fa5c ddbd
000000d0: 40ae 0e3d c466 213e 1c43 803e 69df c5bd
000000e0: 4abb 8fbe 3ff7 8fbd e76d 6f3d 0cb0 b93d
000000f0: b20a 973e 2908 4b3e 5f5a 2a3c f34f 93be
00000100: 022b 15be da03 6fbe 71cd 833d ee4e d33c
00000110: 34a3 ad3e 318b acbe 61e2 a5be 84e5 b0bd
00000120: 6660 14bd ecdc 983e e892 8ebe 7711 21bc
00000130: c051 803d df42 92be e905 0cbe f34a e1bd
00000140: 26de 4abe 30d0 3b3e 2a80 c7be 3412 cebc
00000150: 9364 dfbc d241 96be 4f27 733e 6225 adbd
00000160: c76b 853e 46d2 893d 9dbd ddbd 1d50 30be
00000170: 6923 ff3d 9d14 97be 6bff a4be d0f0 773e
00000180: 47a5 b0bd ae40 9abe 858d 83be 6c49 983d
00000190: 367d b23d 8709 333e b85f ccbe 2bb1 a3be
000001a0: f3c2 edbd 20e0 bbbe e468 3f3e a0be 8abe
000001b0: 40f7 22bd d1d8 bd3e 28d5 a2bd 772f 053e
000001c0: b98f 36be 5f4e 06be 0b23 c13e 2642 5b3e
000001d0: 8576 7f3e efd2 ea3d 3c96 833e e4e2 a4be
000001e0: 0665 75be d741 44be 4c60 93be 1ac6 223e
000001f0: 92af bf3e 8255 89be 0b71 5f3e 48cb 94be
00000200: 6e55 c1be 06ab 3f3e 3c74 b4bd 5cf7 dfbe
00000210: 3ca0 66be 2b07 03be 9a9e 453e 695a b7be
00000220: 8a46 bebe d285 3c3e 8f34 3bbe 99cc 14bd
00000230: 88db bbbe 5f66 16be 92ac 4bbe 1b6a c0be
00000240: 17b4 65bd f0b1 b83e cdc1 a33e 6ef1 3abe
00000250: 7b73 d03d 8517 02bd 3c14 80be 16a4 01be
00000260: 7cb0 85bd 1dff 91be 18c5 88be d434 53be
00000270: 2495 eabd 3327 57be c58f 4c3e c474 0e3e
00000280: 0d0a 5b3d 6725 95be abc9 703e e897 d13d
00000290: dddb 163e 6bec a53d af7a 90be d4d4 4fbe
000002a0: a994 20be eb51 a7be 3ff3 8d3e cbec 7b3e
000002b0: 142b bd3e 45af 8a3e 26a6 89bd c424 11be
000002c0: a704 a5be 6216 f03d 892d 783e 5a11 f4bd
000002d0: 1f3e bc3e 0f7f 783d b741 86bd 744c 943e
000002e0: b6f0 92be eea9 8c3c b0cb 08be 41c3 96bd
000002f0: d13b 863e 01ee 9a3e 9043 713e 4d8e bfbe
00000300: 1da8 a6be 99e1 c53d 37aa 37be 67ab 713e
00000310: f728 63be 9e6c 283e 2a79 abbe d5e6 693d
00000320: eeb9 713e 64fe a1be 8918 98be dbbe 7abd
00000330: f3e6 ebbd d49d d93e 77d5 a73d 99a1 57be
00000340: 10d2 b4be eb84 81be 7278 1c3e f9ed 923e
00000350: 1a07 85be ccbb 9a3e d7f6 21bd e722 c33c
00000360: 8358 423e 1b24 9bbe 6e87 e4be 54f7 b8be
00000370: 2985 263d 18dc 6c3d d257 90bd 55f2 7bbe
00000380: 646b a3be 28ef d9bd 8da8 56bd 52aa b43e
00000390: 4009 f13d 3cda 16bd 7c9c 15be 8d61 e7bc
000003a0: 31d4 a93e a6e3 453e bf2c 97be c19b 533e
000003b0: 8ed6 603d 99ac 37be 5b89 c03d e992 c5be
000003c0: d27d 8a3b abbf 643e 18ee afbe 23f1 8d3e
000003d0: 44d0 d9bd 768e 28bc 017f 86bc 5575 c9be
000003e0: 5270 1ebe 67be 4c3e 83ee 963e 2b98 c2bd
000003f0: 1655 9a3e 1575 803e 8c45 cfbe f08c bc3e

linear_layer.2.weight f4 [256, 256]
0.03620789 0.023318728 0.06772024 0.04177307 0.08478362 -0.0414524 -0.02981908 -0.04797677
-0.106823735 -0.043998063 0.085258074 0.043004043 0.027715132 0.04711978 -0.003942907 0.0010170683
0.007959068 0.029167086 -0.049257886 0.024696536 0.033638768 0.00082136795 -0.23316768 -0.022109717
-0.035714425 0.03531786 0.06617434 -0.048762582 0.09125466 0.006319235 -0.21821001 0.08110711
0.062240224 0.06479812 0.015872307 -0.023316048 0.10447132 0.021077307 -0.013847224 0.037147176
0.03846865 0.09759407 -0.01489424 -0.025067193 -0.012763642 0.071408935 -0.0747292 0.0501521
-0.010346718 -0.059124272 -0.059917875 0.0921846 0.006122239 0.14302647 -0.033815652 -0.0075486004
-0.058084443 0.019767515 0.046365798 0.015489794 0.08330508 -0.03332072 -0.18410267 -0.0144048035
0.06546073 -0.0072446815 -0.051004928 0.07441367 0.117509164 0.015495246 -0.008565873 -0.04405247
0.053644728 0.06807547 -0.018190555 -0.059183016 0.07149388 0.024526512 0.029621225 -0.2732845
-0.15134619 -0.058645055 0.092253074 -0.04792641 0.0066966168 -0.08126481 0.044301514 -0.21175914
0.0789361 0.011293285 0.028449535 0.024939362 0.016316457 -0.012609155 -0.020941915 -0.02463147
-0.065623075 -0.032602128 0.019084893 -0.06858338 -0.02267564 -0.04119767 -0.043712996 -0.01870148
-0.024023108 0.005749017 -0.062031027 0.0032783523 -0.00054267084 -0.054100778 -0.044902284 0.019782
0.12679578 0.082697555 -0.051347665 -0.37145582 -0.0621168 0.095776856 -0.037010614 -0.022761138
0.02888052 0.023986112 0.06436931 -0.016650153 -0.047887854 -0.17667355 0.10246845 0.04560568
-0.043439567 0.08731816 0.044396944 -0.1506785 0.04777582 0.0774971 -0.03522905 0.07636745
-0.031737212 0.0454456 0.007765045 -0.007737054 -0.054476336 -0.16748677 -0.020254634 -0.046138186
-0.05667364 -0.008296922 -0.03974648 -0.33633262 0.040613085 0.018181156 -0.008857353 -0.057689723
0.033844415 0.016225062 -0.009626872 0.06883589 0.079236224 -0.18571691 -0.037221916 0.060868703
0.014896952 -0.0015043616 0.015859975 -0.038168084 0.032809302 0.064074725 -0.16447628 0.049276315
0.07061531 0.073140174 -0.038028352 0.053086154 -0.0029655667 -0.034431137 -0.0777766 0.024753047
0.045777127 0.064538665 0.061940268 -0.04950714 -0.0071254596 -0.053340092 -0.030094855 0.09247946
-0.10332496 -0.062193662 0.025122153 -0.04804699 0.022369133 0.04454098 0.04629819 -0.03884827
0.055604436 -0.02294771 -0.06356611 0.0035807434 -0.13621114 -0.023796983 0.08640822 -0.030240424
-0.005115379 0.05965601 -0.046688095 0.058322653 -0.05069699 0.041087553 0.012069548 0.05482111
0.0853325 0.06292878 -0.030319806 0.07516144 0.0193258 0.079255536 0.11774312 -0.036793977
0.008997892 0.12297461 0.057365194 0.0109504 -0.07355983 0.014193855 -0.19712088 -0.043795437
-0.24936809 0.020877827 -0.05244626 -0.07773596 -0.13356815 -0.011239216 0.06794321 0.05777403
-0.017423421 0.044487678 -0.03494534 0.06652035 0.03506832 0.02559414 -0.049030684 0.032585397
0.11039212 0.040864833 -0.05509472 -0.05103596 0.034330122 0.03528563 -0.04651075 0.006598521
0.021998998 -0.24404587 0.006308765 -0.012566716 0.051151652 -0.025919247 -0.090400904 0.14469525
00000000: b94e 143d eb06 bf3c e9b0 8a3d 3d1a 2b3d
00000010: 09a3 ad3d fec9 29bd 2547 f4bc 4a83 44bd
00000020: 67c6 dabd 5037 34bd c99b ae3d 0225 303d
00000030: d80a e33c ac00 413d 8033 81bb 264f 853a
00000040: c066 023c d0ef ee3c a3c2 49bd 6450 ca3c
00000050: cec8 093d 1251 573a 82c3 6ebe 701f b5bc
00000060: 4a49 12bd 76a9 103d 6a86 873d 46bb 47bd
00000070: b9e3 ba3d 9611 cf3b 7272 5fbe 7c1b a63d
00000080: 9bef 7e3d e0b4 843d a406 823c 4c01 bfbc
00000090: 0ff5 d53d 51aa ac3c 78df 62bc a327 183d
000000a0: 4e91 1d3d 66df c73d f806 74bc b759 cdbc
000000b0: 981e 51bc d93e 923d 9f0b 99bd 4a6c 4d3d
000000c0: 4885 29bc 4b2c 72bd 726c 75bd 48cb bc3d
000000d0: 109d c83b 8875 123e 4882 0abd 405a f7bb
000000e0: f4e9 6dbd 7cef a13c 10ea 3d3d e8c8 7d3c
000000f0: db9b aa3d 4f7b 08bd 6985 3cbe 2002 6cbc
00000100: 4610 863d cb64 edbb 8bea 50bd 3266 983d
00000110: a5a8 f03d c6df 7d3c e057 0cbc 5d70 34bd
00000120: 93ba 5b3d 276b 8b3d 5c04 95bc e469 72bd
00000130: 626b 923d d3eb c83c 36a8 f23c f2eb 8bbe
00000140: 7ffa 1abe cc35 70bd 2eef bc3d 7c4e 44bd
00000150: 4b6f db3b 2a6e a6bd 8175 353d 63d7 58be
00000160: 40a9 a13d 7807 393c 000f e93c a24d cc3c
00000170: 17aa 853c a196 4ebc 618e abbc f0c7 c9bc
00000180: 6465 86bd cf89 05bd ec57 9c3c 7175 8cbd
00000190: 44c2 b9bc e3be 28bd 660c 33bd d933 99bc
000001a0: 1ccc c4bc 4062 bc3b 3f14 7ebd a0d9 563b
000001b0: 0642 0eba c798 5dbd 75eb 37bd dc0d a23c
000001c0: c1d6 013e 565d a93d ee51 52bd 752f bebe
000001d0: 306e 7ebd a826 c43d 7198 17bd 9175 babc
000001e0: d796 ec3c 867e c43c 0fd4 833d e765 88bc
000001f0: 0e26 44bd e9e9 34be fbda d13d 06cd 3a3d
00000200: b0ed 31bd ddd3 b23d 92d9 353d 774b 1abe
00000210: 94b0 433d cdb6 9e3d 564c 10bd 8a66 9c3d
00000220: e1fe 01bd 2a25 3a3d eb71 fe3b 1d87 fdbb
00000230: 9422 5fbd a781 2bbe 0ced a5bc 65fb 3cbd
00000240: 9e22 68bd d0ef 07bc 34cd 22bd ca33 acbe
00000250: e859 263d a6f0 943c 6e1e 11bc 0f4c 6cbd
00000260: 71a0 0a3d 6cea 843c 07ba 1dbc d5f9 8c3d
00000270: 9a46 a23d 932c 3ebe 0276 18bd 7651 793d
00000280: 5812 743c 002e c5ba c7ec 813c 2356 1cbd
00000290: 0c63 063d 9c39 833d 786c 28be f6d5 493d
000002a0: c29e 903d 84ca 953d 9ec3 1bbd de70 593d
000002b0: f459 42bb aa07 0dbd 5749 9fbd e7c6 ca3c
000002c0: cc80 3b3d d92c 843d 14b5 7d3d 00c8 4abd
000002d0: b07c e9bb 247b 5abd 7c89 f6bc df65 bd3d
000002e0: 099c d3bd c8be 7ebd f9cc cd3c eccc 44bd
000002f0: 793f b73c 9a70 363d 2ca3 3d3d 5d1f 1fbd
00000300: 7ac1 633d d6fc bbbc f32e 82bd e8aa 6a3b
00000310: ef7a 0bbe e4f1 c2bc cbf6 b03d c4ba f7bc
00000320: e99e a7bb dc59 743d 043c 3fbd bce3 6e3d
00000330: a6a7 4fbd 6c4b 283d 5abf 453c 1a8c 603d
00000340: cec2 ae3d cee0 803d 3e61 f8bc 3eee 993d
00000350: 2451 9e3c ba50 a23d 4e23 f13d 48b5 16bd
00000360: e56b 133c 1dda fb3d c4f7 6a3d 4e69 333c
00000370: 89a6 96bd 588d 683c 0eda 49be d862 33bd
00000380: 595a 7fbe fa07 ab3c e4d1 56bd 0834 9fbd
00000390: 17c6 08be b024 38bc cf25 8b3d 76a4 6c3d
000003a0: 90bb 8ebc b638 363d d822 0fbd d23b 883d
000003b0: cca3 0f3d cdaa d13c 66d4 48bd 4478 053d
000003c0: 4415 e23d e261 273d 00ab 61bd 150b 51bd
000003d0: be9d 0c3d aa87 103d 0e82 3ebd 6838 d83b
000003e0: 3e37 b43c 29e7 79be c2b9 ce3b a1e4 4dbc
000003f0: 6584 513d 9a54 d4bc 1c24 b9bd fe2a 143e

linear_layer.2.bias f4 [256]
0.16006526 2.6637481e-05 0.047837827 0.045723647 -0.055632554 0.015072254 -0.07040658 -0.008164892
-0.020173475 0.1531701 -0.049008515 0.01841953 0.05143054 0.0045126956 0.095682904 0.048266947
0.01509088 0.044053644 0.064133994 -0.015142709 -0.058865193 -0.03325074 0.0334462 0.040881496
-0.051360004 -0.06662097 -0.009665149 0.012968361 -0.0798558 0.03592598 0.015347101 0.11459044
0.028281614 0.042470064 0.014986369 -0.0024556722 0.04722099 0.1375358 0.017021576 -8.656183e-05
-0.06919154 -0.06785126 -0.025313793 0.036529973 0.0021036586 0.028069533 0.020406542 0.017157815
-0.03444909 0.0034051093 -0.06628984 -0.06747299 -0.02989195 -0.055760805 -0.0824671 -0.02805442
-0.006407739 0.05015338 -0.050290797 -0.020010479 -0.03184796 -0.012019114 -0.056367937 -0.031902567
0.04077129 -0.0362198 0.033842236 -0.029990178 -0.008078353 -0.06500728 0.005062 -0.08273229
0.038093884 -0.06378961 -0.059786033 -0.010087931 0.0121021345 -0.056504775 -0.032309 -0.033428807
-0.025990691 -0.045059208 -0.02558944 0.04231689 0.036015976 -0.027076049 0.026629174 0.022440469
-0.13228725 -0.054952186 0.035816766 -0.061513215 0.03376423 0.03264344 -0.020544883 0.034549817
0.042739436 -0.04599958 0.041523077 -0.031178653 -0.050632864 0.05065276 0.009372299 -0.13056082
-0.055055123 0.013186879 0.07299081 -0.06080645 -0.01954291 0.12523891 -0.04282098 -0.078620635
-0.054900117 -0.035979424 0.058007587 -0.07113156 0.05216726 0.018813461 -0.015785802 0.1393294
-0.059054468 -0.0018140897 -0.013295181 -0.07367108 0.13882603 0.04248762 0.0027904245 0.1682143
0.02550586 -0.033231553 -0.0042795837 0.002669156 -0.0076197363 -0.055830475 0.040026635 -0.04323299
0.011368692 -0.009820789 -0.06269509 0.064265266 0.04458034 -0.023046896 0.030135935 -0.07773996
0.12683488 0.015819782 0.034063473 -0.08291638 -0.009952681 0.020046806 -0.0166307 0.011659512
-0.0038689715 0.024128899 0.018575542 0.022328362 -0.019935347 0.09730705 -0.0076365066 -0.002503227
0.04446862 0.16609623 -0.047554553 -0.07377584 -0.027179293 0.01843246 -0.017943032 -0.024945604
-0.06205826 0.14243922 0.09038568 0.05135323 -0.034053616 -0.06604618 0.015302899 -0.026094213
-0.030578636 -0.052034188 -0.0031611584 -0.047588706 -0.037221733 0.114025556 -0.08363138 0.015688408
-0.01105424 -0.048935063 0.05244328 -0.028611574 0.028996041 -0.00432977 0.022004506 0.039309844
0.011165399 -0.04970012 -0.044448785 0.014604123 0.09490682 0.09237949 -0.08795251 -0.05724338
-0.022339912 0.0119809965 -0.0763039 -0.05621521 0.21142638 -0.010094707 0.06650891 -0.053553212
-0.0172398 -0.002016046 -0.02502775 0.024435943 -0.011895673 -0.08233587 -0.003283673 0.031592738
-0.05501969 -0.06108184 -0.0515124 -0.01471636 0.008850829 -0.0262582 0.07811305 -0.04763971
-0.05425588 0.019867422 -0.01755501 -0.056076724 -0.009934354 0.1036055 0.00716611 -0.06314336
-0.046209343 -0.018896475 0.064547524 -0.02534556 -0.048418403 -0.04088011 -0.0020533905 0.012097172
0.10568994 0.08957186 0.040754654 0.001793255 -0.06756544 -0.026582303 0.0076092724 -0.05178542
-0.0014850695 0.123947166 0.03299103 -0.060819164 -0.028561585 0.07034423 0.0011869967 0.027793206
00000000: 26e8 233e 8e73 df37 99f1 433d b848 3b3d
00000010: f6de 63bd 9ef1 763c 5331 90bd 0ac6 05bc
00000020: d842 a5bc 9fd8 1c3e 27bd 48bd 8ee4 963c
00000030: d4a8 523d 3cdf 933b 66f5 c33d 90b3 453d
00000040: bd3f 773c 9871 343d af58 833d 2019 78bc
00000050: a11c 71bd ee31 08bd e2fe 083d 5b73 273d
00000060: de5e 52bd 9370 88bd 935a 1ebc 4079 543c
00000070: 708b a3bd 1f27 133d 6872 7b3c 65ae ea3d
00000080: d8ae e73c 17f5 2d3d 6389 753c 58ef 20bb
00000090: cc6a 413d 2fd6 0c3e d570 8b3c 8788 b5b8
000000a0: 4bb4 8dbd 9af5 8abd df5e cfbc 74a0 153d
000000b0: 89dd 093b 14f2 e53c 9f2b a73c 8c8e 8c3c
000000c0: 7d1a 0dbd 4128 5f3b f8c2 87bd 472f 8abd
000000d0: f6df f4bc 7165 64bd 83e4 a8bd 62d2 e5bc
000000e0: 03f8 d1bb a16d 4d3d b9fd 4dbd 04ed a3bc
000000f0: 0273 02bd d1eb 44bc 11e2 66bd 44ac 02bd
00000100: ccff 263d 375b 14bd 289e 0a3d f6ad f5bc
00000110: 115b 04bc 8922 85bd 22df a53b 8c6f a9bd
00000120: 5508 1c3d 21a4 82bd 33e2 74bd d947 25bc
00000130: 0848 463c 8d71 67bd 7156 04bd a5ec 08bd
00000140: 6eea d4bc 0190 38bd f2a0 d1bc 7a54 2d3d
00000150: 7d85 133d 97ce ddbc 6d25 da3c 13d5 b73c
00000160: 4f76 07be 8b15 61bd 9ab4 123d 48f5 7bbd
00000170: 5c4c 0a3d 21b5 053d be4d a8bc 1c84 0d3d
00000180: 8c0f 2f3d 0e6a 3cbd 1a14 2a3d 606a ffbc
00000190: 6864 4fbd 4579 4f3d 458e 193c bcb1 05be
000001a0: 7b81 61bd c80d 583c 357c 953d 2f10 79bd
000001b0: 7418 a0bc a13e 003e 0d65 2fbd db03 a1bd
000001c0: f2de 60bd 295f 13bd 5d99 6d3d 6cad 91bd
000001d0: 56ad 553d b01e 9a3c 3a51 81bc 5eac 0e3e
000001e0: 19e3 71bd c0c6 edba 08d4 59bc dde0 96bd
000001f0: 6928 0e3e 8007 2e3d 8edf 363b 5f40 2c3e
00000200: aaf1 d03c cf1d 08bd c03b 8cbb 02ed 2e3b
00000210: fbae f9bb 7fae 64bd f8f2 233d 1315 31bd
00000220: c043 3a3c 60e7 20bc 4966 80bd 829d 833d
00000230: e099 363d d8cc bcbc a3df f63c 2136 9fbd
00000240: 01e1 013e 7d98 813c 2486 0b3d 10d0 a9bd
00000250: 9210 23bc 3339 a43c 1b3d 88bc 8a07 3f3c
00000260: 928e 7dbb f8a9 c53c bc2b 983c f8e9 b63c
00000270: 744f a3bc eb48 c73d a93b fabb 2e0d 24bb
00000280: ba24 363d 2115 2a3e 90c8 42bd ca17 97bd
00000290: 1ca7 debc acff 963c 44fd 92bc b95a ccbc
000002a0: cd30 7ebd 96db 113e 211c b93d c457 523d
000002b0: ce7b 0bbd 3843 87bd 03b9 7a3c 88c3 d5bc
000002c0: 0c80 fabc cd21 55bd 702b 4fbb 60ec 42bd
000002d0: d175 18bd 3b86 e93d ee46 abbd fa84 803c
000002e0: d81c 35bc 2270 48bd c4ce 563d d262 eabc
000002f0: 1b89 ed3c bee0 8dbb cb42 b43c 5c03 213d
00000300: 14ef 363c 5a92 4bbd ee0f 36bd 2246 6f3c
00000310: 825e c23d 7531 bd3d 7220 b4bd 0978 6abd
00000320: 3102 b7bc f14b 443c 3845 9cbd ec41 66bd
00000330: 2880 583e 4564 25bc d335 883d 9d5a 5bbd
00000340: 7b3a 8dbc a41f 04bb ff06 cdbc e32d c83c
00000350: 12e6 42bc b59f a8bd e432 57bb 6367 013d
00000360: 545c 61bd f430 7abd abfe 52bd e31c 71bc
00000370: 1103 113c 701b d7bc bcf9 9f3d db21 43bd
00000380: 6a3b 5ebd 01c1 a23c 86cf 8fbc b5b0 65bd
00000390: b3c3 22bc 1f2f d43d b0d1 ea3b 4e51 81bd
000003a0: 0246 3dbd c8cc 9abc 7e31 843d 7ea1 cfbc
000003b0: 6052 46bd e771 27bd 2d92 06bb 3833 463c
000003c0: f873 d83d 7471 b73d 5aee 263d a70b eb3a
000003d0: c05f 8abd 21c3 d9bc 3457 f93b f31c 54bd
000003e0: aaa6 c2ba 03d8 fd3d 9a21 073d 841d 79bd
000003f0: fcf9 e9bc a310 903d 0095 9b3a 94ae e33c

linear_layer.4.weight f4 [1, 256]
0.07417394 -0.020618998 0.022862637 0.030763198 0.0444873 0.045218233 0.0013422988 0.008638646
-0.052623954 0.06372175 -0.011674362 0.034247622 0.01708751 -0.036053672 0.08566011 -0.04942697
0.02242994 -0.028747534 -0.12835598 0.03880391 -0.0050956574 -0.03574049 -0.060192037 0.038996436
-0.04928993 0.008191795 -0.01816809 0.04881257 -0.12764972 0.055475414 -0.006137127 0.10140376
-0.0017309636 -0.017050942 -0.011314553 -0.11921138 -0.0026825133 0.047688324 -0.0043139122 0.04624391
0.0051662833 -0.036860786 -0.03951182 0.010801354 -0.010728104 -0.004725486 -0.04620256 -0.0043809838
-0.005773259 -0.0053506126 0.04496341 0.013135684 -0.0071393754 0.015646512 0.02948911 0.015307872
0.042075235 -0.0091891885 -0.049750056 0.047754027 0.0086130425 0.047366343 -0.059464097 -0.05048038
-0.04755279 -0.03701877 0.042281132 1.4273977e-05 0.058926415 0.020758893 -0.099939406 0.0070790173
0.0008995425 0.02649269 0.012813522 -0.009830708 -0.045341074 0.0014333625 -0.0027277668 0.049252823
-0.024059283 -0.061466243 0.004624227 0.009940234 0.08628426 0.017493622 0.0037342943 0.0018904479
-0.022954583 -0.026809188 -0.047905087 -0.022983456 0.036208622 -0.03268157 0.032341808 0.018268779
0.04473941 0.00502853 -0.0011048988 -0.01382735 0.027131319 -0.0105284015 0.04045758 -0.15320067
0.009573514 -0.010212992 0.107119314 -0.037607152 -0.0402169 0.06114438 0.04962628 -0.05981436
0.059769213 0.012410174 0.0098290015 0.00777605 0.021551272 0.013510471 0.026373295 0.09813178
-0.051621955 -0.05202631 -0.028478779 -0.02960066 0.14100534 -0.025969137 0.033395413 0.07272548
-0.053820755 -0.0019580168 0.001772061 0.02222114 0.0023158167 0.028083332 0.0034849958 0.006475449
0.054319024 0.0016786456 -0.011046009 0.085315414 0.032219887 0.0213538 0.028893495 -0.01597706
0.06691263 0.03029122 0.0029300023 -0.08998872 0.029147968 0.013572065 0.053037815 -0.010519733
-0.045396414 0.0136980275 -0.010628767 -0.000804686 0.022448398 0.08273797 0.046167575 -0.018039675
-0.023877261 0.06786489 0.027456388 0.009491066 -0.03846251 -0.04684434 0.023826873 0.03647893
0.03653469 0.11258732 0.075254865 0.07295321 0.0072728666 -0.048965994 0.0036205056 -0.05819115
-0.06229861 -0.043298025 0.013525342 -0.036319684 -0.024975473 0.03348405 -0.030093899 0.0025329995
-0.04559535 -0.07168746 -0.013356127 0.03350175 0.034899034 -0.047177196 -0.028589666 0.017054103
-0.018717315 0.00078076613 -0.045894377 0.039211206 0.04786934 0.09549993 -0.06082192 0.026292775
-0.06757988 0.023756508 0.020047039 -0.03912887 0.12673533 -0.19130172 0.080985084 0.035306677
0.005192171 -0.035878766 -0.0683421 0.022809774 0.036243927 -0.013837513 -0.015260309 0.037974082
-0.0064355778 -0.043060612 -0.13157435 -0.05473634 -0.051039066 0.020912653 0.111239776 0.009177819
-0.040435642 -0.001711139 0.0076002874 0.025493406 -0.2529646 0.23276968 0.03025523 -0.025450908
-0.062067635 -0.004400216 0.057553034 0.05678544 0.0055356696 -0.0035099194 0.0016422431 -0.016142614
0.05263037 0.083916456 0.00942053 0.010686788 -0.04857427 0.00055137044 0.014590974 -0.03613756
-0.02614685 0.12273204 0.0040432387 -0.017510146 -0.03769492 0.118857354 0.019667603 0.10532528
00000000: 82e8 973d 2ce9 a8bc 6d4a bb3c 1a03 fc3c
00000010: 5138 363d c136 393d 13f0 af3a 1c89 0d3c
00000020: 378c 57bd 8d80 823d d345 3fbc 3c47 0c3d
00000030: 1bfb 8b3c 04ad 13bd 916e af3d ef73 4abd
00000040: febe b73c f37f ebbc c06f 03be d9f0 1e3d
00000050: 79f9 a6bb 9f64 12bd ed8b 76bd baba 1f3d
00000060: 3de4 49bd e136 063c 3fd5 94bc b0ef 473d
00000070: 9cb6 02be 303a 633d f419 c9bb c6ac cf3d
00000080: 80e1 e2ba 6bae 8bbc ad60 39bc 1925 f4bd
00000090: 1bcd 2fbb d554 433d b85b 8dbb 416a 3d3d
000000a0: ed49 a93b 56fb 16bd 25d7 21bd 2af8 303c
000000b0: eec4 2fbc 40d8 9abb e53e 3dbd 5b8e 8fbb
000000c0: 9b2d bdbb 3154 afbb 8d2b 383d 0d37 573c
000000d0: 6cf1 e9bb 1d2d 803c 2593 f13c decd 7a3c
000000e0: 1557 2c3d 408e 16bc b7c6 4bbd ba99 433d
000000f0: b81d 0d3c 3603 423d a090 73bd 84c4 4ebd
00000100: b7c6 42bd fea0 17bd fb2e 2d3d 447a 6f37
00000110: d35c 713d 8e0e aa3c 08ad ccbd 1af7 e73b
00000120: 46cf 6b3a 3307 d93c ceef 513c fa10 21bc
00000130: 90b7 39bd aadf bb3a 55c4 32bb 54bd 493d
00000140: f917 c5bc 07c4 7bbd d486 973b 5ddc 223c
00000150: cdb5 b03d c94e 8f3c 10bb 743b e8c8 f73a
00000160: 400b bcbc f19e dbbc 2038 44bd cd47 bcbc
00000170: 7e4f 143d 1cdd 05bd d878 043d 68a8 953c
00000180: ac40 373d 5ec6 a43b 40d2 90ba 1c8c 62bc
00000190: 8042 de3c 517f 2cbc d9b6 253d a3e0 1cbe
000001a0: 3ada 1c3c 6554 27bc 5f61 db3d f509 1abd
000001b0: 7aba 24bd 8872 7a3d ed44 4b3d e7ff 74bd
000001c0: 90d0 743d 0b54 4b3c d209 213c 3cce fe3b
000001d0: 4b8c b03c 065b 5d3c cf0c d83c 51f9 c83d
000001e0: 8b71 53bd 8a19 55bd 544c e9bc 157d f2bc
000001f0: b463 103e 3abd d4bc a1c9 083d 19f1 943d
00000200: 2773 5cbd 1252 00bb 8044 e83a 1c09 b63c
00000210: f5c4 173b 040f e63c 8764 643b 0130 d43b
00000220: a07d 5e3d 0006 dc3a 52fa 34bc d9b9 ae3d
00000230: 00f9 033d 2aee ae3c 0db2 ec3c 53e2 82bc
00000240: 7d09 893d 4b25 f83c 4805 403b 024c b8bd
00000250: b8c7 ee3c 5e5d 5e3c 2e3e 593d f55a 2cbc
00000260: 97f1 39bd b16d 603c 4824 2ebc 90f1 52ba
00000270: b4e5 b73c 8672 a93d 361a 3d3d f1c7 93bc
00000280: 3f9a c3bc bffc 8a3d 38ec e03c 6b80 1b3c
00000290: dd8a 1dbd dadf 3fbd 9330 c33c ee6a 153d
000002a0: 66a5 153d 2e94 e63d 391f 9a3d 7e68 953d
000002b0: 3a51 ee3b 9190 48bd 0146 6d3b d859 6ebd
000002c0: d42c 7fbd 4559 31bd 6599 5d3c f3c3 14bd
000002d0: 5d99 ccbc 9226 093d 7b87 f6bc ae00 263b
000002e0: 31c2 3abd e0d0 92bd a8d3 5abc 2239 093d
000002f0: 4af2 0e3d e03c 41bd e034 eabc 0cb5 8b3c
00000300: 0e55 99bc 54ac 4c3a befb 3bbd ee9b 203d
00000310: a412 443d 7895 c33d 6820 79bd f263 d73c
00000320: 5267 8abd 029d c23c b039 a43c 9845 20bd
00000330: e8c6 013e 99e4 43be 82db a53d bc9d 103d
00000340: 1623 aa3b 9df5 12bd f1f6 8bbd 90db ba3c
00000350: 8374 143d bcb6 62bc 6006 7abc b68a 1b3d
00000360: 8ae1 d2bb 5360 30bd 6dbb 06be 3633 60bd
00000370: 570e 51bd 0351 ab3c aed1 e33d 905e 163c
00000380: d89f 25bd 4c48 e0ba d50b f93b 8cd7 d03c
00000390: 9384 81be 2d5b 6e3e d1d9 f73c 6c7e d0bc
000003a0: a23a 7ebd b02f 90bb bbbc 6b3d d997 683d
000003b0: 9064 b53b ad06 66bb 8940 d73a 843d 84bc
000003c0: f192 573d 64dc ab3d 9158 1a3c a317 2f3c
000003d0: d0f5 46bd d889 103a fb0e 6f3c fa04 14bd
000003e0: eb31 d6bc f05a fb3d 257d 843b 7071 8fbc
000003f0: fd65 1abd 7c6b f33d f41d a13c c8b4 d73d
