data/300_500/models/critic_100.pth (torch, 274455 bytes, 5 tensors)

linear_layer.0.weight f4 [256, 7]
-0.21066603 0.3779876 -0.19887128 -0.10210074 -0.35375848 -0.29516307 -0.13251849 -0.19080448
-0.14967524 0.07929831 0.17915998 0.17667077 0.13860983 0.20311913 0.004722113 0.31117603
0.17622963 -0.0063389647 -0.16253589 0.3098409 0.23531565 -0.08635311 0.15997712 0.29458782
0.31218326 -0.07309482 0.2511137 -0.21772994 -0.3203078 0.25456285 0.35077578 0.33350682
0.112192765 0.3823596 0.07540906 -0.2797777 -0.34482598 -0.08634839 -0.13244902 -0.35069996
-0.21074952 -0.34828213 0.011076023 0.27883956 -0.38573658 -0.31209475 0.2590356 -0.088944025
0.15925519 0.3177049 0.07965893 -0.34956598 -0.20847909 0.030826818 0.3012579 -0.12975456
-0.25350437 -0.06688001 0.3633551 -0.053819686 0.2097216 0.1923535 0.030502949 0.30672222
-0.08834366 -0.26648208 -0.24432376 -0.15735978 -0.3523136 0.16992861 0.23790456 0.10525844
-0.18456355 0.0081607485 -0.34278518 0.16087408 0.2574663 0.137981 -0.17450897 -0.019676562
-0.0865074 0.2638715 0.1860129 0.10533491 0.07767231 -0.2929872 -0.37179777 0.3392395
-0.22980724 -0.07361147 -0.13518994 -0.31418556 -0.29109198 0.10549432 0.013148768 -0.13985735
0.00033634956 -0.2834977 0.04401318 -0.2800896 -0.34370577 0.06632381 0.041988187 0.21371917
0.3613811 -0.2332486 -0.2774589 0.16551082 0.28612924 -0.24571943 0.028965764 0.14632048
-0.36099997 -0.03477733 -0.09957835 -0.010982433 0.051648922 -0.26676905 -0.22298558 -0.20407502
-0.19182122 -0.16803412 0.26810926 0.21516897 -0.24996027 0.14277866 -0.058327124 0.11144561
-0.22393015 0.16074947 -0.17247982 0.12686208 0.27220136 -0.11335413 -0.35526374 0.04367174
-0.2405756 0.004342041 0.18947245 0.22043931 -0.39457226 0.2708534 -0.1332807 0.353884
0.34294227 0.2546218 -0.21958892 0.01639786 0.29110593 -0.34906942 0.34251842 0.102367334
-0.28644785 0.14643711 0.19012135 -0.11006801 -0.24353115 0.19416934 -0.22048502 -0.28105772
0.26816404 -0.17900391 0.23994823 -0.08019262 0.020972243 0.21731648 -0.04604837 -0.36840212
0.12428601 -0.2780053 -0.24737121 0.052325044 0.015693175 -0.07495603 0.36998862 -0.34358892
0.16601828 0.25039092 -0.030576479 -0.007357839 0.007662582 -0.121824615 -0.24023438 -0.17319122
0.25049224 -0.01092708 0.08368097 0.289012 -0.015076954 0.14106488 -0.36397943 -0.31520572
-0.24538124 -0.20272598 -0.26804578 -0.13972723 -0.13093182 0.34849548 0.16972493 0.17105673
0.019944027 0.20361775 -0.21121988 -0.15934275 0.3700479 -0.0906343 -0.33861357 0.085316546
0.1454795 -0.021657132 0.07395976 0.24829811 -0.38285112 -0.11558943 0.042440154 -0.26559472
0.24971738 -0.10554987 0.1167522 0.3461197 -0.19644113 -0.32073414 -0.288617 -0.03112628
0.14037573 -0.050462775 -0.08358981 0.216736 -0.29872596 0.29081294 0.2711766 0.10217781
0.25476268 0.20702106 -0.35919794 0.33371753 -0.19269104 0.14714609 -0.3016915 -0.06186656
0.1586713 -0.35899132 -0.19131699 0.23285975 -0.3144097 -0.10847163 -0.09690801 -0.17087333
0.13835497 0.030776279 0.19490907 -0.08486503 -0.026599554 0.2244074 0.12018551 0.20903763
00000000: d6b8 57be 9787 c13e eaa4 4bbe 311a d1bd
00000010: d51f b5be 9d1f 97be edb2 07be 4062 43be
00000020: 7744 19be 2767 a23d b775 373e 2fe9 343e
00000030: bcef 0d3e 76fe 4f3e f4bb 9a3b 7752 9f3e
00000040: 8a75 343e 17b7 cfbb cf6f 26be 77a3 9e3e
00000050: 96f6 703e e6d9 b0bd 0bd1 233e 37d4 963e
00000060: 7cd6 9f3e bdb2 95bd fa91 803e 99f4 5ebe
00000070: 62ff a3be 1056 823e e298 b33e 68c1 aa3e
00000080: 52c5 e53d a3c4 c33e 1170 9a3d 063f 8fbe
00000090: 088d b0be 6dd7 b0bd b7a0 07be f28e b3be
000000a0: b9ce 57be 0952 b2be 3578 353c 0fc4 8e3e
000000b0: 447f c5be e2ca 9fbe 50a0 843e 4928 b6bd
000000c0: cb13 233e 37aa a23e 3924 a33d 50fa b2be
000000d0: 8b7b 55be 8688 fc3c 7a3e 9a3e 61de 04be
000000e0: 53cb 81be 63f8 88bd ae09 ba3e 0872 5cbd
000000f0: 42c1 563e 51f8 443e 52e1 f93c b20a 9d3e
00000100: 85ed b4bd 5770 88be 0230 7abe ec22 21be
00000110: 7362 b4be c401 2e3e 419d 733e bd91 d73d
00000120: 3afe 3cbe a9b4 053c 8a81 afbe 2dbc 243e
00000130: 9fd2 833e e44a 0d3e 7bb2 32be be30 a1bc
00000140: cb2a b1bd 2a1a 873e 2a7a 3e3e d4b9 d73d
00000150: a912 9f3d 6b02 96be 475c bebe cdb0 ad3e
00000160: 9752 6bbe 9cc1 96bd 3b6f 0abe eedc a0be
00000170: 020a 95be 680d d83d ee6d 573c c436 0fbe
00000180: 1358 b039 9c26 91be 2a47 343d e767 8fbe
00000190: 34fa afbe c7d4 873d cefb 2b3d 33d9 5a3e
000001a0: f206 b93e b9d8 6ebe 180f 8ebe ab7b 293e
000001b0: 887f 923e e09d 7bbe 9c49 ed3c 09d5 153e
000001c0: fdd4 b8be ac72 0ebd bcef cbbd aaef 33bc
000001d0: d28d 533d f495 88be 5556 64be 0bf9 50be
000001e0: c86c 44be 2311 2cbe 9e45 893e 4155 5c3e
000001f0: 96f5 7fbe 9234 123e 6ce8 6ebd 993d e43d
00000200: f24d 65be 829b 243e 8d9e 30be 22e8 013e
00000210: fa5d 8b3e 3626 e8bd 21e5 b5be 23e1 323d
00000220: 7359 76be ae47 8e3b 1105 423e d8ba 613e
00000230: 6005 cabe 4cad 8a3e bc7a 08be 4930 b53e
00000240: 2196 af3e ca5d 823e ebdb 60be ce54 863c
00000250: d60b 953e 3ab9 b2be 935e af3e f7a5 d13d
00000260: 4ba9 92be 9cf3 153e 2caf 423e 566b e1bd
00000270: 3b60 79be 54d4 463e d3c6 61be cce6 8fbe
00000280: cc4c 893e cd4c 37be fdb4 753e 073c a4bd
00000290: fbcd ab3c 3688 5e3e 379d 3cbd 349f bcbe
000002a0: aa89 fe3d b656 8ebe e14e 7dbe c952 563d
000002b0: f98e 803c 8c82 99bd 266f bd3e e3ea afbe
000002c0: b200 2a3e 3d33 803e 867b fabc 071a f1bb
000002d0: 6616 fb3b 2f7f f9bd 0000 76be 0a59 31be
000002e0: 8540 803e 7f07 33bc ee60 ab3d 62f9 933e
000002f0: 5405 77bc 5073 103e 835b babe a562 a1be
00000300: 3845 7bbe 6697 4fbe 4c3d 89be a814 0fbe
00000310: fe12 06be 006e b23e 5fcc 2d3e 7f29 2f3e
00000320: a861 a33c 2c81 503e 064a 58be bf2a 23be
00000330: eb76 bd3e 7a9e b9bd c25e adbe 71ba ae3d
00000340: 94f8 143e 4c6a b1bc 3778 973d dc41 7e3e
00000350: 1005 c4be 27ba ecbd bad5 2d3d 08fc 87be
00000360: eab5 7f3e 882a d8bd c71b ef3d 9a36 b13e
00000370: dd27 49be 4437 a4be 9cc5 93be 8afc febc
00000380: a8be 0f3e 0eb2 4ebd 2231 abbd 0bf0 5d3e
00000390: 9cf2 98be 6fe5 943e a9d7 8a3e 9a42 d13d
000003a0: 4170 823e 54fd 533e cbe8 b7be 06dd aa3e
000003b0: cd50 45be 77ad 163e 4f77 9abe ca67 7dbd
000003c0: bb7a 223e b6cd b7be 9ae8 43be c972 6e3e
000003d0: 4ffa a0be 6026 debd b577 c6bd 6bf9 2ebe
000003e0: edac 0d3e 891e fc3c 3e96 473e b8cd adbd
000003f0: 4fe7 d9bc 0ecb 653e d223 f63d f60d 563e

linear_layer.0.bias f4 [256]
0.3072825 -0.37084198 0.04022279 0.24927504 -0.11384429 -0.073287934 -0.24704237 0.23996755
-0.09058803 0.1020951 0.26867187 0.2878938 -0.27990755 -0.18361615 0.10136715 0.055427108
-0.07098648 -0.032009214 -0.32872424 -0.020416938 -0.04347048 0.1304372 0.13215037 -0.0008128233
-0.30404708 0.36940083 -0.145669 0.19932108 -0.01190953 -0.105958015 0.052962452 0.3329664
0.3149981 0.27532893 0.050027594 0.04090718 0.18102798 0.24166204 0.2467232 -0.36316606
-0.34358624 -0.07216377 -0.16452496 -0.118687175 0.15813527 -0.24352616 0.29276118 0.09877424
0.34464332 -0.19765072 -0.032704495 -0.082785375 0.034834146 0.06561458 0.250512 -0.09661753
-0.28072578 -0.0702958 0.0668409 0.090667814 0.23964801 0.19705562 0.08705891 -0.28771934
-0.19893043 -0.23341313 0.13083787 0.006129414 0.24804163 -0.20716977 -0.32399276 -0.034993704
-0.05506915 0.33891955 -0.25592938 -0.009830824 -0.010189944 -0.38695303 -0.15152101 -0.18869956
-0.24032341 0.18341136 -0.362862 -0.025155164 -0.041272316 -0.3410891 0.29163563 -0.058756884
0.23344533 0.067295596 -0.17503645 -0.23016864 0.15115744 -0.27041465 -0.25219744 0.2647478
-0.027659379 -0.30409285 -0.25693908 0.141132 0.08715288 0.10862043 -0.30235255 -0.2769269
-0.11609449 -0.3669443 0.18696229 -0.2709856 -0.0074373623 0.3707948 -0.14108467 0.13006388
-0.21158305 -0.14109547 0.37722048 0.240261 0.24947555 0.07492544 0.30640242 -0.3349702
-0.2212119 -0.19165741 -0.323953 0.24197917 0.37438637 -0.21242356 0.15053084 -0.23284736
-0.28718516 0.18278982 -0.088112324 -0.35809356 -0.22522062 -0.18600744 0.19298783 -0.38855177
-0.33532926 0.18410423 -0.17614573 -0.037363596 -0.36480197 -0.09077697 -0.16845398 -0.39286458
-0.05607995 0.36073256 0.31983796 -0.12235801 0.10178276 0.028229611 -0.20289241 -0.12924111
-0.05648154 -0.28514948 -0.20817837 -0.22885786 -0.06647287 -0.2760179 0.19976719 0.1391173
0.053476382 -0.29130098 0.30843967 0.1500988 0.18310463 0.06314819 -0.2104963 -0.20296031
-0.20329559 -0.32208976 0.27724645 0.24602048 0.31504285 0.27086845 -0.067211434 -0.1502425
-0.24449873 0.10879581 0.2423612 -0.11917372 0.36766145 0.060668048 -0.080754615 0.29734695
-0.28788254 0.1089768 -0.13705927 0.0021581294 0.21467015 0.22454116 0.2356093 -0.37413254
-0.32013124 0.1279495 -0.13315396 0.17899305 -0.16172294 0.16447684 -0.3661104 0.057104904
0.22602352 -0.37498397 -0.2970622 -0.002996128 -0.115186594 0.4106739 0.07338208 -0.21057738
-0.3528038 -0.20053943 0.15280321 0.17594442 -0.2598198 0.35319638 -0.10347934 0.023820354
0.22239698 -0.3614103 -0.41282457 -0.3144445 0.040654335 0.10715603 -0.019880597 -0.24604161
-0.259652 -0.1088886 -0.052406836 0.31763446 0.16238984 -0.03682922 -0.2556839 -0.028244758
0.33169702 0.23626812 -0.27820712 0.16510865 0.054892115 -0.17549564 0.094011985 -0.4320215
-0.036232293 0.2560102 -0.3436134 0.27723035 -0.14027172 -0.057365578 -0.05231397 -0.33154747
-0.15472534 0.26385668 0.3239003 -0.08717422 0.3020902 0.32513955 -0.3679483 0.26923364
00000000: 2254 9d3e 00df bdbe a7c0 243d f541 7f3e
00000010: 3227 e9bd fc17 96bd adf8 7cbe 0eba 753e
00000020: 3886 b9bd 3c17 d13d 5c8f 893e d166 933e
00000030: 0b50 8fbe df05 3cbe 9599 cf3d 8907 633d
00000040: 5c61 91bd 181c 03bd 8b4e a8be 6c41 a7bc
00000050: 1a0e 32bd 5491 053e 6d52 073e a613 55ba
00000060: 0fac 9bbe 1b22 bd3e 412a 15be d31a 4c3e
00000070: 3020 43bc 8400 d9bd 28ef 583d 927a aa3e
00000080: 6e47 a13e eaf7 8c3e bce9 4c3d 4a8e 273d
00000090: 665f 393e 4176 773e 02a5 7c3e e7f0 b9be
000000a0: 89ea afbe 99ca 93bd 3b79 28be 4312 f3bd
000000b0: 36ee 213e ec5e 79be cbe4 953e 264a ca3d
000000c0: 1775 b03e f364 4abe 26f5 05bd 618b a9bd
000000d0: 40ae 0e3d f060 863d 1c43 803e 69df c5bd
000000e0: 4abb 8fbe 3ff7 8fbd e2e3 883d 0cb0 b93d
000000f0: 4a66 753e f3c8 493e f14b b23d f34f 93be
00000100: 6bb4 4bbe da03 6fbe 5dfa 053e 40d9 c83b
00000110: a0fe 7d3e 5024 54be 61e2 a5be 8f55 0fbd
00000120: 3090 61bd dd86 ad3e 2d09 83be 7711 21bc
00000130: b9f3 26bc b51e c6be 5328 1bbe 753a 41be
00000140: 5717 76be 30d0 3b3e 0cc9 b9be 3412 cebc
00000150: 290d 29bd 3ba3 aebe 4451 953e 0fab 70bd
00000160: 4b0c 6f3e 46d2 893d c13c 33be 54b1 6bbe
00000170: 04c9 1a3e ca73 8abe 0620 81be 068d 873e
00000180: ec95 e2bc 0fb2 9bbe 858d 83be e884 103e
00000190: 367d b23d 6374 de3d f4cd 9abe 5dc9 8dbe
000001a0: f3c2 edbd 20e0 bbbe 0b73 3f3e a0be 8abe
000001b0: 1eb5 f3bb d1d8 bd3e 8078 10be 772f 053e
000001c0: 3aa9 58be 557b 10be 0b23 c13e fb06 763e
000001d0: 8576 7f3e 8272 993d c7e0 9c3e 3781 abbe
000001e0: 5f85 62be d741 44be 2bdd a5be 63c9 773e
000001f0: 92af bf3e 9085 59be c224 1a3e 8a6f 6ebe
00000200: ef09 93be 412d 3b3e 3c74 b4bd 0a58 b7be
00000210: 3ca0 66be bc78 3ebe 9a9e 453e 42f0 c6be
00000220: 47b0 abbe d285 3c3e 8c5f 34be 920a 19bd
00000230: 53c7 babe 47e9 b9bd 337f 2cbe 8c25 c9be
00000240: 17b4 65bd f0b1 b83e cdc1 a33e d696 fabd
00000250: 7b73 d03d c941 e73c 07c3 4fbe c857 04be
00000260: 3059 67bd 1dff 91be b62c 55be b759 6abe
00000270: ee22 88bd 3852 8dbe c58f 4c3e c474 0e3e
00000280: 0d0a 5b3d 6725 95be ceeb 9d3e 80b3 193e
00000290: c87f 3b3e d753 813d 588c 57be d4d4 4fbe
000002a0: b82c 50be f3e8 a4be 3ff3 8d3e cbec 7b3e
000002b0: 4c4d a13e 45af 8a3e 26a6 89bd 2bd9 19be
000002c0: e05d 7abe 56d0 de3d 892d 783e 5a11 f4bd
000002d0: 1f3e bc3e 0f7f 783d ad62 a5bd dc3d 983e
000002e0: 5765 93be 3b2f df3d 4459 0cbe 676f 0d3b
000002f0: 7ed2 5b3e 1eee 653e 9043 713e 4d8e bfbe
00000300: 3ee8 a3be 3205 033e 8359 08be f449 373e
00000310: b39a 25be 9e6c 283e d372 bbbe d5e6 693d
00000320: b672 673e e6fd bfbe 8918 98be b05a 44bb
00000330: f3e6 ebbd d943 d23e 5849 963d 99a1 57be
00000340: b3a2 b4be 355a 4dbe 7278 1c3e c62a 343e
00000350: 1a07 85be 28d6 b43e faec d3bd e722 c33c
00000360: 09bc 633e c50a b9be be5d d3be dffe a0be
00000370: 2985 263d 9f74 db3d a2dc a2bc 55f2 7bbe
00000380: 1bf1 84be fc00 dfbd 8da8 56bd fca0 a23e
00000390: 8649 263e 3cda 16bd 00e9 82be 8d61 e7bc
000003a0: 31d4 a93e 45f0 713e 2a71 8ebe 3e12 293e
000003b0: 8ed6 603d 21b5 33be 5b89 c03d ec31 ddbe
000003c0: 5068 14bd c513 833e 18ee afbe 23f1 8d3e
000003d0: 64a3 0fbe 2bf8 6abd 2c47 56bd 97c0 a9be
000003e0: 5270 1ebe 3918 873e 43d6 a53e 6688 b2bd
000003f0: 91ab 9a3e b178 a63e b863 bcbe fed8 893e

linear_layer.2.weight f4 [256, 256]
0.055879258 -0.010701778 0.027406754 0.0030422166 0.047709998 -0.0414524 -0.02920139 -0.025439225
-0.116880186 -0.043998063 0.04870587 0.043004043 0.027715132 0.04711978 -0.003942907 -0.026394388
0.007959068 0.029167086 -0.055285823 0.024696536 0.09013271 -0.020233523 -0.07638079 0.048983987
-0.035714425 0.063071825 0.029587155 -0.048762582 0.054771814 0.06921909 -0.05078482 0.040773742
0.0042389575 0.053061932 0.015872307 -0.023316048 0.06861405 0.0017047027 -0.013847224 0.0077049895
0.03371215 0.05235123 -0.01489424 -0.025067193 -0.012763642 0.0033163754 -0.03393042 0.013757302
-0.010346718 -0.02432401 -0.040145364 0.028018765 0.006122239 0.028655473 -0.033815652 -0.0075486004
-0.058084443 0.019767515 0.021208227 0.015489794 0.057463665 -0.06859442 -0.04496181 -0.0144048035
0.058415294 -0.0072446815 -0.027516866 0.029961854 0.04138674 0.052444976 -0.008565873 -0.014694625
0.028484454 0.03956225 -0.0394865 -0.059183016 0.00067926827 -0.058958516 0.020799518 -0.0007806775
-0.026432144 -0.058645055 0.11079311 -0.04792641 -0.055019557 -0.05541626 0.058965106 -0.13797961
0.03784016 0.011293285 -0.016922474 -0.07519709 0.041414 0.05703531 0.011556483 -0.0019255023
-0.043972682 -0.032203734 0.019084893 -0.022381244 -0.02267564 -0.057314668 0.08457604 0.003827753
-0.024023108 0.005749017 -0.06203105 0.0032783523 -0.04287359 -0.054100778 -0.042776603 0.019782
0.05624894 0.052210294 -0.051347665 -0.024108432 -0.0621168 0.064629994 -0.038344957 -0.034819894
-0.041903134 0.023986112 0.011157074 0.029087795 -0.047887854 -0.03462832 0.04150082 -0.041133028
-0.061112553 0.049350735 0.044396944 -0.078001365 0.04777582 0.07699627 -0.03522905 0.02703717
0.016135314 0.0454456 0.004460314 -0.017972594 -0.05645702 -0.0346556 0.017755441 -0.030316953
-0.05667364 -0.008296922 -0.03974648 -0.05469694 0.040613085 0.04331181 2.3649889e-05 -0.05491684
0.035658006 0.016225062 -0.02596263 0.043565404 0.07503741 -0.020515673 -0.037221916 0.060868703
0.014896952 -0.0015043616 0.021725152 -0.060625624 0.050872885 0.014128303 -0.04571879 0.049276315
0.05628897 0.07613309 -0.038028352 0.053086154 -0.02877609 -0.034431137 -0.0777766 -0.014991357
0.013165252 0.02673075 0.061940268 -0.04950714 -0.0071254596 -0.053340092 -0.04135992 0.06952415
-0.18280953 0.025803085 -0.012478933 -0.033130117 0.036663964 0.002690596 0.04629819 -0.03884827
0.05737287 -0.01574487 -0.07560856 -0.056876738 -0.052561052 -0.023796983 0.10049571 -0.030240424
0.03282342 -0.009846927 -0.046688095 0.06728082 -0.05069699 0.065430075 0.010052324 0.05482111
0.059126392 0.06540683 -0.030319806 -0.016011821 0.0193258 0.022325845 0.064796954 -0.036793977
-0.02156205 0.037630808 0.06349734 -0.010749768 -0.07355983 -0.016798988 -0.057145312 -0.043795437
-0.08034634 0.06214868 -0.05244626 -0.0649407 -0.08286103 -0.011239216 -0.0036443842 0.05777403
-0.017423421 0.092373505 -0.06705919 0.02751588 0.03506832 -0.003914417 -0.049030684 0.013171994
0.07314433 -0.014826305 -0.05509472 -0.05103596 -0.004677104 -0.051500145 -0.04844039 -0.0016606486
0.021998998 -0.132444 -0.050651725 -0.012786095 0.06324069 -0.021704951 0.0039154496 0.009087181
00000000: a6e1 643d 8356 2fbc 2184 e03c ed5f 473b
00000010: 8f6b 433d fec9 29bd c137 efbc ec65 d0bc
00000020: e15e efbd 5037 34bd ce7f 473d 0225 303d
00000030: d80a e33c ac00 413d 8033 81bb 0b39 d8bc
00000040: c066 023c d0ef ee3c 6373 62bd 6450 ca3c
00000050: 8097 b83d c6c0 a5bc 886d 9cbd 6fa3 483d
00000060: 4a49 12bd cd2b 813d c360 f23c 46bb 47bd
00000070: 6958 603d bdc2 8d3d be03 50bd 5e02 273d
00000080: f4e6 8a3b 7857 593d a406 823c 4c01 bfbc
00000090: 8685 8c3d 5570 df3a 78df 62bc 237a fc3b
000000a0: c015 0a3d 3e6e 563d f806 74bc b759 cdbc
000000b0: 981e 51bc 8c57 593b a0fa 0abd 4f66 613c
000000c0: 4885 29bc 2543 c7bc 776f 24bd 9c87 e53c
000000d0: 109d c83b e2be ea3c 4882 0abd 405a f7bb
000000e0: f4e9 6dbd 7cef a13c e0bc ad3c e8c8 7d3c
000000f0: 055f 6b3d 3b7b 8cbd e029 38bd 2002 6cbc
00000100: e044 6f3d cb64 edbb 0d6b e1bc 9072 f53c
00000110: 2485 293d 8bd0 563d e057 0cbc b9c1 70bc
00000120: 3b58 e93c 070c 223d 99bc 21bd e469 72bd
00000130: ec10 323a 7c7e 71bd c063 aa3c 61a6 4cba
00000140: 3988 d8bc cc35 70bd 80e7 e23d 7c4e 44bd
00000150: 305c 61bd 29fc 62bd 6585 713d 874a 0dbe
00000160: 49fe 1a3d 7807 393c 00a1 8abc ef00 9abd
00000170: baa1 293d db9d 693d 6757 3d3c 2361 fcba
00000180: b31c 34bd 10e8 03bd ec57 9c3c df58 b7bc
00000190: 44c2 b9bc c9c2 6abd 3436 ad3d 0adb 7a3b
000001a0: 1ccc c4bc 4062 bc3b 4514 7ebd a0d9 563b
000001b0: 389c 2fbd c798 5dbd 8536 2fbd dc0d a23c
000001c0: 4a65 663d 76da 553d ee51 52bd 0c7f c5bc
000001d0: 306e 7ebd bb5c 843d 9a0f 1dbd 4e9f 0ebd
000001e0: 9fa2 2bbd 867e c43c 29cc 363c 8749 ee3c
000001f0: 0e26 44bd 6dd6 0dbd c4fc 293d 1b7b 28bd
00000200: 2851 7abd ff23 4a3d 92d9 353d 2ebf 9fbd
00000210: 94b0 433d 38b0 9d3d 564c 10bd 0e7d dd3c
00000220: 352e 843c 2a25 3a3d d327 923b 433b 93bc
00000230: 7a3f 67bd 08f3 0dbd dc73 913c 425b f8bc
00000240: 9e22 68bd d0ef 07bc 34cd 22bd e609 60bd
00000250: e859 263d b967 313d c063 c637 7bf0 60bd
00000260: 210e 123d 6cea 843c 95af d4bc a371 323d
00000270: 37ad 993d 7c10 a8bc 0276 18bd 7651 793d
00000280: 5812 743c 002e c5ba f2f8 b13c 9352 78bd
00000290: 1660 503d 667a 673c a043 3bbd f6d5 493d
000002a0: 438f 663d aaeb 9b3d 9ec3 1bbd de70 593d
000002b0: d6bb ebbc aa07 0dbd 5749 9fbd 4f9e 75bc
000002c0: 12b3 573c 72fa da3c 14b5 7d3d 00c8 4abd
000002d0: b07c e9bb 247b 5abd 0569 29bd ad62 8e3d
000002e0: 6c32 3bbe fe60 d33c 7074 4cbc 72b3 07bd
000002f0: f42c 163d b654 303b 2ca3 3d3d 5d1f 1fbd
00000300: d1ff 6a3d 63fb 80bc a9d8 9abd 95f7 68bd
00000310: 424a 57bd e4f1 c2bc b2d0 cd3d c4ba f7bc
00000320: da71 063d 0155 21bc 043c 3fbd 87ca 893d
00000330: a6a7 4fbd 3400 863d 81b2 243c 1a8c 603d
00000340: 842e 723d 04f4 853d 3e61 f8bc 392b 83bc
00000350: 2451 9e3c b1e4 b63c 44b4 843d 48b5 16bd
00000360: e5a2 b0bc c322 1a3d e50a 823d cb1f 30bc
00000370: 89a6 96bd 089e 89bc 3411 6abd d862 33bd
00000380: 9f8c a4bd 9d8f 7e3d e4d1 56bd a1ff 84bd
00000390: 0bb3 a9bd b024 38bc 9fd6 6ebb 76a4 6c3d
000003a0: 90bb 8ebc 522e bd3d 5456 89bd fc68 e13c
000003b0: cca3 0f3d 8244 80bb 66d4 48bd 59cf 573c
000003c0: b2cc 953d 08ea 72bc 00ab 61bd 150b 51bd
000003d0: 6442 99bb d1f1 52bd 6e69 46bd 1faa d9ba
000003e0: 3e37 b43c 669f 07be 2f78 4fbd c57c 51bc
000003f0: 5684 813d 95ce b1bc 2c4d 803b 66e2 143c

linear_layer.2.bias f4 [256]
0.047640413 0.003049165 0.008902387 0.045723647 -0.055632554 0.015072254 -0.049177725 -0.00506478
-0.017481579 0.0634087 -0.049008515 0.01841953 0.018089136 0.0045126956 0.02083299 0.061223917
0.031227905 0.044053644 0.047663473 -0.008628738 -0.058175977 -0.03175334 0.0334462 0.040881496
-0.051360004 -0.06649992 -0.009665149 0.012968361 -0.058150318 0.03592598 0.027250756 -0.0027436714
0.028281614 0.04819761 0.014380184 0.020062514 0.05395028 0.060289714 0.017021576 -8.656183e-05
-0.05895869 -0.06412029 -0.025313793 0.040739145 0.016750284 0.028069533 0.020406542 0.021613004
-0.026264906 0.0034051093 -0.05237153 -0.06416359 0.005072415 -0.04850074 -0.08092509 -0.026735714
-0.006407739 0.071302064 -0.050290797 -0.020010479 -0.03184796 -0.008246048 -0.054841522 -0.031902567
0.05101344 -0.015207494 -0.050819468 -0.029990178 -0.008078353 -0.06500728 0.056138337 -0.06439489
0.038093884 -0.06405651 -0.05957461 -0.010087931 0.0121021345 -0.056504775 -0.03064478 -0.033428807
-0.024175627 -0.019764815 -0.025587583 0.044352442 -0.031369664 -0.027076049 0.03231195 0.031990223
-0.05212682 -0.054807015 0.035816766 -0.061513215 0.03376423 0.03264344 0.012841351 0.039603665
0.02810425 -0.031041317 0.041523077 -0.0071817324 -0.050632864 0.039976574 0.032704595 -0.06052489
-0.055014312 0.019935451 -0.051387746 -0.06080645 -0.01954291 0.029487051 -0.04282098 -0.045880448
-0.054900117 -0.03954654 0.058007587 -0.07113156 0.042667277 0.019694917 -0.015785802 0.023870312
-0.059054468 -0.0018140897 -0.012230011 -0.07121064 -0.017190594 0.04248762 0.003454171 0.058056206
0.02550586 -0.026160039 -0.0042795837 0.0030321109 0.01144911 -0.05044026 0.040026635 -0.030886317
0.011368692 -0.009820789 -0.06269509 -0.046865776 0.04458034 -0.021452257 0.036727805 -0.060898416
0.035794504 0.040510796 0.03786746 -0.04050976 0.0177982 0.00875695 -0.0166307 0.015939316
-0.0038609065 0.024128899 0.018575542 0.022328362 -0.019935347 -0.011071478 -0.0076365066 0.02078767
0.04446862 0.065851025 -0.047554553 -0.066938296 -0.025901357 0.023103798 0.0022775296 -0.024945604
-0.06205826 0.0478833 -0.0061989254 -0.050108664 -0.032306008 -0.042315796 0.015302899 -0.026094213
-0.030578636 -0.052034188 -0.0031611584 -0.02082436 -0.024597535 0.03221614 -0.06396143 0.020841947
0.017737515 0.036003124 0.05244328 -0.028611574 0.029572722 -0.0034453152 0.04075847 0.051845312
0.011165399 -0.043455165 -0.032119088 0.01498777 0.005983287 0.01939274 -0.04004932 -0.037904434
-0.022339912 0.0119809965 -0.07607165 -0.05621521 0.05549125 0.0146868825 -0.041135523 -0.053553212
-0.0172398 0.030920682 0.017842093 0.02487585 -0.011895673 -0.050863363 -0.003283673 0.039714977
-0.046799146 -0.061217148 -0.016342143 -0.0003010257 0.009562287 -0.013255104 -0.052635662 -0.054605052
-0.05425588 0.028457072 -0.01755501 -0.056076724 0.029656896 -0.005105858 0.00716611 -0.044704046
-0.046209343 -0.018896475 -0.026918525 -0.02534556 -0.048418403 -0.02649311 -0.0020533905 0.012097172
0.008156451 -0.017010827 0.040754654 0.001793255 -0.0630399 -0.026582303 0.027012479 -0.05178542
0.03978577 -0.05358506 0.040982615 -0.05040186 0.00065070466 -0.013672888 0.0011869967 -0.043913376
00000000: 9822 433d 80d4 473b 51db 113c b848 3b3d
00000010: f6de 63bd 9ef1 763c 956e 49bd 74f6 a5bb
00000020: 8735 8fbc 6cdc 813d 27bd 48bd 8ee4 963c
00000030: ab2f 943c 3cdf 933b f2a9 aa3c eec5 7a3d
00000040: aad1 ff3c 9871 343d c63a 433d 8d5f 0dbc
00000050: ef49 6ebd ca0f 02bd e2fe 083d 5b73 273d
00000060: de5e 52bd 1c31 88bd 935a 1ebc 4079 543c
00000070: 072f 6ebd 1f27 133d fa3c df3c 2bcf 33bb
00000080: d8ae e73c db6a 453d dd9a 6b3c 245a a43c
00000090: f8fa 5c3d 59f2 763d d570 8b3c 8788 b5b8
000000a0: ab7e 71bd 8051 83bd df5e cfbc 17de 263d
000000b0: e437 893c 14f2 e53c 9f2b a73c c10d b13c
000000c0: 8029 d7bc 4128 5f3b 8883 56bd 3368 83bd
000000d0: 8036 a63b b6a8 46bd 0ebc a5bd db04 dbbc
000000e0: 03f8 d1bb d106 923d b9fd 4dbd 04ed a3bc
000000f0: 0273 02bd 6f1a 07bc 81a1 60bd 44ac 02bd
00000100: 78f3 503d da28 79bc 1328 50bd f6ad f5bc
00000110: 115b 04bc 8922 85bd 50f1 653d 78e1 83bd
00000120: 5508 1c3d 0f30 83bd 8204 74bd d947 25bc
00000130: 0848 463c 8d71 67bd c30a fbbc a5ec 08bd
00000140: f70b c6bc d2e9 a1bc 0d9d d1bc e8aa 353d
00000150: 7a7d 00bd 97ce ddbc 8959 043d 2e08 033d
00000160: ef82 55bd 527d 60bd 9ab4 123d 48f5 7bbd
00000170: 5c4c 0a3d 21b5 053d 8864 523c 7437 223d
00000180: e23a e63c 5c4a febc 1a14 2a3d bd54 ebbb
00000190: 6864 4fbd 7abe 233d 41f5 053d f2e8 77bd
000001a0: b056 61bd ac4f a33c f57b 52bd 2f10 79bd
000001b0: 7418 a0bc d48e f13c 0d65 2fbd 23ed 3bbd
000001c0: f2de 60bd 8dfb 21bd 5d99 6d3d 6cad 91bd
000001d0: e2c3 2e3d 3c57 a13c 3a51 81bc ac8b c33c
000001e0: 19e3 71bd c0c6 edba 6260 48bc e2d6 91bd
000001f0: 4ad3 8cbc 8007 2e3d 5f5f 623b 58cc 6d3d
00000200: aaf1 d03c 944d d6bc c03b 8cbb 61b6 463b
00000210: 0c95 3b3c 729a 4ebd f8f2 233d 4d05 fdbc
00000220: c043 3a3c 60e7 20bc 4966 80bd 54f6 3fbd
00000230: e099 363d a5bc afbc e56f 163d 9e70 79bd
00000240: 429d 123d a6ee 253d e91a 1b3d 90ed 25bd
00000250: 88cd 913c 4f79 0f3c 1b3d 88bc 2b93 823c
00000260: 4307 7dbb f8a9 c53c bc2b 983c f8e9 b63c
00000270: 744f a3bc 2565 35bc a93b fabb e74a aa3c
00000280: ba24 363d e7dc 863d 90c8 42bd f216 89bd
00000290: 152f d4bc 2d44 bd3c 9b42 153b b95a ccbc
000002a0: cd30 7ebd 4721 443d 5b20 cbbb be3e 4dbd
000002b0: 4e53 04bd 5453 2dbd 03b9 7a3c 88c3 d5bc
000002c0: 0c80 fabc cd21 55bd 702b 4fbb d997 aabc
000002d0: c580 c9bc 12f5 033d 36fe 82bd bbbc aa3c
000002e0: 444e 913c 0378 133d c4ce 563d d262 eabc
000002f0: 7e42 f23c ccca 61bb 5af2 263d c05b 543d
00000300: 14ef 363c 0bfe 31bd 4e8f 03bd 438f 753c
00000310: 730f c43b 86dd 9e3c c10a 24bd ae41 1bbd
00000320: 3102 b7bc f14b 443c 74cb 9bbd ec41 66bd
00000330: cb4a 633d 40a1 703c b97d 28bd 9d5a 5bbd
00000340: 7b3a 8dbc 5f4d fd3c 9529 923c 70c8 cb3c
00000350: 12e6 42bc 1a56 50bd e432 57bb 2cac 223d
00000360: 76b0 3fbd d5be 7abd f5df 85bc fcd2 9db9
00000370: 23ab 1c3c f02b 59bc 7e98 57bd 8ca9 5fbd
00000380: 6a3b 5ebd ce1e e93c 86cf 8fbc b5b0 65bd
00000390: 05f3 f23c 0b4f a7bb b0d1 ea3b 971b 37bd
000003a0: 0246 3dbd c8cc 9abc 3d84 dcbc 7ea1 cfbc
000003b0: 6052 46bd 1408 d9bc 2d92 06bb 3833 463c
000003c0: a3a2 053c 4a5a 8bbc 5aee 263d a70b eb3a
000003d0: 101b 81bd 21c3 d9bc 4649 dd3c f31c 54bd
000003e0: 67f6 223d 027c 5bbd 63dd 273d 2e72 4ebd
000003f0: 0d94 2a3a 4004 60bc 0095 9b3a 83de 33bd

linear_layer.4.weight f4 [1, 256]
0.036770564 -0.024514176 0.036107555 0.030763198 0.0444873 0.045218233 -0.0030388196 0.009802872
-0.052969377 0.045178447 -0.011674362 0.034247622 0.024237493 -0.036053672 0.03898582 -0.061994895
0.020580012 -0.028747534 -0.054258194 0.039287154 -0.0051460243 -0.04498208 -0.060192037 0.038996436
-0.04928993 0.008201894 -0.01816809 0.04881257 -0.00312086 0.055475414 -0.0061578695 0.06339532
-0.0017309636 -0.026203657 -0.011327713 -0.05929823 -0.008342669 0.0410333 -0.0043139122 0.04624391
0.0011957014 -0.03767054 -0.03951182 0.005341374 -0.026074491 -0.004725486 -0.04620256 0.00022440653
-0.020607172 -0.0053506126 0.057348527 0.0032076766 -0.025638245 0.04613638 0.029537527 0.015412118
0.042075235 -0.029501472 -0.049750056 0.047754027 0.0086130425 0.047342945 -0.0594965 -0.05048038
-0.05032345 -0.003420996 0.030616706 1.4273977e-05 0.058926415 0.020758893 -0.00066978025 -0.0016689225
0.0008995425 0.026446192 0.012820394 -0.009830708 -0.045341074 0.0014333625 -0.007505614 0.049252823
-0.024520814 -0.01662972 0.004625561 0.0049729785 0.043685887 0.017493622 -0.004053895 0.010748717
-0.004921345 -0.026811907 -0.047905087 -0.022983456 0.036208622 -0.03268157 -0.0056239516 0.019969767
0.0033884891 0.01986169 -0.0011048988 -0.022657057 0.027131319 0.0019516838 0.050750326 -0.0024032635
0.009582433 -0.007256554 -0.0070932223 -0.037607152 -0.0402169 0.03891191 0.04962628 0.020571671
0.059769213 0.01816171 0.0098290015 0.00777605 0.035830777 0.013538384 0.026373295 0.058631066
-0.051621955 -0.05202631 -0.02848471 -0.029843466 -0.015278719 -0.025969137 0.03379964 0.033678666
-0.053820755 0.0020219055 0.001772061 0.03603373 5.6519828e-05 0.0061760186 0.0034849958 -0.0109112775
0.054319024 0.0016786456 -0.011046009 0.053753555 0.032219887 0.021359317 0.030678326 -0.025323905
0.048913475 0.03894162 6.226266e-06 0.004437497 0.038437575 0.0006219722 0.053037815 0.0013556372
-0.04539674 0.0136980275 -0.010628767 -0.000804686 0.022448398 0.047741964 0.046167575 0.01002078
-0.023877261 0.04971784 0.027456388 0.003173137 -0.03849537 -0.04680459 0.027803415 0.03647893
0.03653469 0.05164257 0.054981068 0.050227128 0.0074913497 -0.021781554 0.0036205056 -0.05819115
-0.06229861 -0.043298025 0.013525342 -0.019004691 -0.037079256 0.02759009 -0.014890598 -0.0014310337
-0.042553626 -0.03171132 -0.013356127 0.03350175 0.034940697 -0.04722647 -0.015748419 0.0061009973
-0.018717315 0.002342684 -0.02657445 0.0392043 0.03297762 0.05190977 -0.030196955 -0.033110756
-0.06757988 0.023756508 0.02005428 -0.03912887 0.0040984172 -0.047230657 0.05465105 0.035306677
0.005192171 -0.021172773 -0.0006205625 0.022810927 0.036243927 -0.029827042 -0.015260309 0.050314356
-0.0039305137 -0.04305982 -0.022923797 -0.04718001 -0.051062748 0.03406535 -0.01214425 0.0008235378
-0.040435642 -0.0045783794 0.0076002874 0.025493406 -0.030665303 0.030553643 0.03025523 -0.02900936
-0.062067635 -0.004400216 0.044325415 0.05678544 0.0055356696 -0.017691568 0.0016422431 -0.016142614
0.024760682 0.06043646 0.00942053 0.010686788 -0.048733477 0.00055137044 0.015472955 -0.03613756
0.019167095 0.05698239 -0.00064411294 -0.012380789 -0.0010908316 0.02117516 0.019667603 0.0619277
00000000: bb9c 163d f4d1 c8bc 84e5 133d 1a03 fc3c
00000010: 5138 363d c136 393d ef26 47bb 3a9c 203c
00000020: 6bf6 58bd 090d 393d d345 3fbc 3c47 0c3d
00000030: b58d c63c 04ad 13bd 98af 1f3d 5cee 7dbd
00000040: 6a97 a83c f37f ebbc d73d 5ebd 91eb 203d
00000050: fb9f a8bb 213f 38bd ed8b 76bd baba 1f3d
00000060: 3de4 49bd 3d61 063c 3fd5 94bc b0ef 473d
00000070: 5887 4cbb 303a 633d f4c7 c9bb 68d5 813d
00000080: 80e1 e2ba 0da9 d6bc df97 39bc b3e2 72bd
00000090: b1af 08bc 8912 283d b85b 8dbb 416a 3d3d
000000a0: 15b9 9c3a 6d4c 1abd 25d7 21bd b106 af3b
000000b0: 2c9a d5bc 40d8 9abb e53e 3dbd ab4e 6b39
000000c0: 5fd0 a8bc 3154 afbb 4ae6 6a3d e237 523b
000000d0: 4c07 d2bc 80f9 3c3d aff8 f13c 1c83 7c3c
000000e0: 1557 2c3d 12ad f1bc b7c6 4bbd ba99 433d
000000f0: b81d 0d3c adea 413d 9ab2 73bd 84c4 4ebd
00000100: f61f 4ebd ca32 60bb e3cf fa3c 447a 6f37
00000110: d35c 713d 8e0e aa3c 3194 2fba bfbf daba
00000120: 46cf 6b3a afa5 d83c a10c 523c fa10 21bc
00000130: 90b7 39bd aadf bb3a a7f1 f5bb 54bd 493d
00000140: e0df c8bc 0d3b 88bc 0592 973b 5ef4 a23b
00000150: f9ef 323d c94e 8f3c 89d6 84bb 631b 303c
00000160: 3c43 a1bb a5a4 dbbc 2038 44bd cd47 bcbc
00000170: 7e4f 143d 1cdd 05bd 2049 b8bb a397 a33c
00000180: 6a11 5e3b fcb4 a23c 40d2 90ba 4b9b b9bc
00000190: 8042 de3c a4cf ff3a 93df 4f3d 1280 1dbb
000001a0: a3ff 1c3c 63c8 edbb 436e e8bb f509 1abd
000001b0: 7aba 24bd 1862 1f3d ed44 4b3d ec85 a83c
000001c0: 90d0 743d dec7 943c d209 213c 3cce fe3b
000001d0: 4bc3 123d 19d0 5d3c cf0c d83c 2127 703d
000001e0: 8b71 53bd 8a19 55bd c458 e9bc 497a f4bc
000001f0: 9853 7abc 3abd d4bc 7e71 0a3d a4f2 093d
00000200: 2773 5cbd f281 043b 8044 e83a 1b98 133d
00000210: b40f 6d38 3360 ca3b 8764 643b 37c5 32bc
00000220: a07d 5e3d 0006 dc3a 52fa 34bc b02c 5c3d
00000230: 00f9 033d bcf9 ae3c 1d51 fb3c 1474 cfbc
00000240: 7f59 483d 4081 1f3d 38eb d036 6c68 913b
00000250: b870 1d3d d90b 233a 2e3e 593d a3af b13a
00000260: eff1 39bd b16d 603c 4824 2ebc 90f1 52ba
00000270: b4e5 b73c 148d 433d 361a 3d3d 332e 243c
00000280: 3f9a c3bc efa4 4b3d 38ec e03c 68f4 4f3b
00000290: 52ad 1dbd 2bb6 3fbd fdc3 e33c ee6a 153d
000002a0: 66a5 153d 2987 533d d433 613d f6ba 4d3d
000002b0: ff79 f53b 3b6f b2bc 0146 6d3b d859 6ebd
000002c0: d42c 7fbd 4559 31bd 6599 5d3c baaf 9bbc
000002d0: 6be0 17bd 9d04 e23c b2f7 73bc 8691 bbba
000002e0: b64c 2ebd bbe3 01bd a8d3 5abc 2239 093d
000002f0: fa1d 0f3d 8b70 41bd d402 81bc e0ea c73b
00000300: 0e55 99bc b787 193b a9b2 d9bc b094 203d
00000310: 8a13 073d 579f 543d 9b5f f7bc 259f 07bd
00000320: 5267 8abd 029d c23c e048 a43c 9845 20bd
00000330: 044c 863b ef74 41bd c8d9 5f3d bc9d 103d
00000340: 1623 aa3b 8672 adbc 3fad 22ba fbdd ba3c
00000350: 8374 143d d757 f4bc 6006 7abc 6d16 4e3d
00000360: 8acb 80bb 7e5f 30bd b0ca bbbc d33f 41bd
00000370: 2c27 51bd 1c88 0b3d adf8 46bc b0e2 573a
00000380: d89f 25bd 3b06 96bb d50b f93b 8cd7 d03c
00000390: cd35 fbbc a24b fa3c d1d9 f73c 0aa5 edbc
000003a0: a23a 7ebd b02f 90bb 918e 353d d997 683d
000003b0: 9064 b53b e8ed 90bc 8940 d73a 843d 84bc
000003c0: ead6 ca3c 398c 773d 9158 1a3c a317 2f3c
000003d0: c19c 47bd d889 103a 4782 7d3c fa04 14bd
000003e0: 5004 9d3c 5e66 693d b0d9 28ba cbd8 4abc
000003f0: 3cfa 8eba 8777 ad3c f41d a13c e6a7 7d3d
