data/300_500/models/critic_550.pth (torch, 274455 bytes, 5 tensors)

linear_layer.0.weight f4 [256, 7]
00000000: 0548 8dbe 2c72 a93e c046 91be 89f9 25be
00000010: a061 8cbe a44b 9dbe 13b1 5bbe 9da3 70be
00000020: 5be4 2ebe 2ba7 7b3d 9f70 183e 0b13 513e
00000030: 8100 c63d b16f 1f3e 9094 2cbd 8c0b 843e
00000040: d261 1d3e 510d 1ebd f5c4 98be d60c 663e
00000050: 9b22 9a3e c14e 18be 55f2 8c3d 4e30 823e
00000060: 53e0 823e f177 43be 7b01 143e 1fa0 16be
00000070: 5284 b4be 8895 533e 1b49 b33e c29f a53e
00000080: b6ba 823d 84ca a73e 74c4 0e3e 063f 8fbe
00000090: 088d b0be 6dd7 b0bd b7a0 07be f28e b3be
000000a0: b9ce 57be 0952 b2be 86cd 983b b66c 8b3e
000000b0: d9f2 c8be 6828 a2be 5e85 843e 7391 b8bd
000000c0: d490 1d3e bb70 b43e dbee 9d3d 8044 ccbe
000000d0: 83fc 4abe a74a 33be 5bb5 a93e d0a9 acbd
000000e0: ed1e 9dbe 2b34 f6bd 0cbe 9e3e 87f9 fbbd
000000f0: 3be3 273e e23b e13d 280d aebc b20a 9d3e
00000100: 85ed b4bd 5770 88be 0230 7abe ec22 21be
00000110: 7362 b4be c401 2e3e 18e6 593e 48bd 903d
00000120: 6769 82be 39a6 1bbd 44c2 4fbf 13ac 723d
00000130: 9efd a83e e44a 0d3e 7bb2 32be be30 a1bc
00000140: cb2a b1bd 2a1a 873e 2a7a 3e3e d4b9 d73d
00000150: a912 9f3d 6b02 96be 475c bebe cdb0 ad3e
00000160: 9752 6bbe 9cc1 96bd 3b6f 0abe eedc a0be
00000170: 020a 95be 680d d83d ee6d 573c c436 0fbe
00000180: 1358 b039 9c26 91be 2a47 343d e767 8fbe
00000190: 34fa afbe c7d4 873d cefb 2b3d 33d9 5a3e
000001a0: f206 b93e 3019 70be d2d5 92be 3e72 283e
000001b0: a5cb 8f3e b038 76be 71e9 da3c 6566 0d3e
000001c0: fdd4 b8be ac72 0ebd bcef cbbd aaef 33bc
000001d0: d28d 533d f495 88be 5556 64be 0bf9 50be
000001e0: c86c 44be 2311 2cbe 9e45 893e 4155 5c3e
000001f0: 96f5 7fbe 9234 123e 5c45 bfbd 0fe8 4a3d
00000200: f998 87be 6af0 113e 0bc2 48be fce6 913d
00000210: 0ed8 883e 3626 e8bd 21e5 b5be 23e1 323d
00000220: 7359 76be ae47 8e3b 1105 423e d8ba 613e
00000230: 5c88 ffbe 445e 4c3e fd2d 35be 74af 9e3e
00000240: da5f 0e3f c890 833e 7b10 76be 46d8 783c
00000250: 8449 863e 8b13 b6be 0b7f ad3e 3c36 a2bd
00000260: c2e4 babe 8938 6f3e 1f31 923e c767 abbd
00000270: 165d 88be 7ec0 4c3e 1af8 29bf fe4d 76be
00000280: 6a22 ec3d 63b3 66be 6ace 4d3e 238c 08be
00000290: a479 29bc 4cb4 ff3e 4abe c13c 2d30 e6be
000002a0: aa89 fe3d b656 8ebe e14e 7dbe c952 563d
000002b0: f98e 803c 8c82 99bd 266f bd3e c355 bdbe
000002c0: 4cae 053e c367 893e 0d53 ecbc 8bbe 963e
000002d0: f0f4 8c3d ea99 36be 9202 80be 403c 2dbe
000002e0: 581b 883e fcaf 3fbc 822d 253e a31b 883e
000002f0: 526a 5ebd 5073 103e 835b babe a562 a1be
00000300: 3845 7bbe 6697 4fbe 4c3d 89be a814 0fbe
00000310: cbd1 f9bd f99a a63e b6b4 393e 6444 373e
00000320: c012 e9bd d4ee 0d3e 23b7 eabd 6e54 39be
00000330: 3955 9f3e 42d1 10be 1256 ccbe 868a 333e
00000340: 0fe8 9f3d 047c a0bd 1577 0a3e f42a 863e
00000350: e7ed eebe 0583 6ebd e1f9 0b3e 8067 56be
00000360: 0ac4 3a3e 25b2 08be 7d94 9d3d e579 c13e
00000370: fb79 4abe 9d40 a1be 2402 b9be 3bcb 27bc
00000380: 7abb 093e da75 acbd a8ea 0cbe 73b6 343e
00000390: edf5 23bf ac4c 593e bb06 bb3e 950d d83c
000003a0: 175b 183e bb24 053e 2b3c eebe 6726 4d3e
000003b0: fe87 afbe a6be 853d 4f77 9abe ca67 7dbd
000003c0: bb7a 223e b6cd b7be 9ae8 43be c972 6e3e
000003d0: 4ffa a0be 6026 debd b577 c6bd 6bf9 2ebe
000003e0: edac 0d3e 891e fc3c 3e96 473e b8cd adbd
000003f0: 6d2d 95bd 4ea8 0c3e 63c5 723d 9d14 273e
-0.2759401 0.3309492 -0.2837429 -0.16208471 -0.27418232 -0.30721772 -0.21454267 -0.23499914
-0.17079298 0.06143872 0.14886712 0.2041742 0.09668065 0.1556995 -0.042133868 0.2579006
0.15369347 -0.03858692 -0.29837766 0.22465834 0.30104527 -0.14873792 0.06882159 0.2542748
0.2556177 -0.19088723 0.1445369 -0.14709519 -0.35257202 0.2066251 0.35016713 0.32348448
0.063832685 0.32771695 0.13942128 -0.2797777 -0.34482598 -0.08634839 -0.13244902 -0.35069996
-0.21074952 -0.34828213 0.004663172 0.27231377 -0.39247778 -0.31671453 0.25883 -0.09012117
0.15387279 0.35242257 0.07711574 -0.3989601 -0.19822888 -0.17508946 0.33146176 -0.08430827
-0.30687657 -0.12021669 0.3100437 -0.12303453 0.16395275 0.1099775 -0.021246508 0.30672222
-0.08834366 -0.26648208 -0.24432376 -0.15735978 -0.3523136 0.16992861 0.2127918 0.070673525
-0.2547104 -0.03800032 -0.811558 0.059246134 0.33005995 0.137981 -0.17450897 -0.019676562
-0.0865074 0.2638715 0.1860129 0.10533491 0.07767231 -0.2929872 -0.37179777 0.3392395
-0.22980724 -0.07361147 -0.13518994 -0.31418556 -0.29109198 0.10549432 0.013148768 -0.13985735
0.00033634956 -0.2834977 0.04401318 -0.2800896 -0.34370577 0.06632381 0.041988187 0.21371917
0.3613811 -0.23447108 -0.28678757 0.1644983 0.28085056 -0.24045062 0.026722642 0.13808592
-0.36099997 -0.03477733 -0.09957835 -0.010982433 0.051648922 -0.26676905 -0.22298558 -0.20407502
-0.19182122 -0.16803412 0.26810926 0.21516897 -0.24996027 0.14277866 -0.09339401 0.049537715
-0.26483896 0.14251867 -0.19605272 0.07124135 0.26727337 -0.11335413 -0.35526374 0.04367174
-0.2405756 0.004342041 0.18947245 0.22043931 -0.4990872 0.19957834 -0.17693324 0.30993235
0.5561501 0.25696397 -0.24029724 0.015188282 0.26227963 -0.35561785 0.3388599 -0.07920501
-0.36502653 0.2336141 0.285531 -0.08369403 -0.2663352 0.19995305 -0.663942 -0.24053189
0.115300015 -0.22529368 0.20098272 -0.13334708 -0.010343943 0.49942243 0.023650307 -0.4495863
0.12428601 -0.2780053 -0.24737121 0.052325044 0.015693175 -0.07495603 0.36998862 -0.36979493
0.1305477 0.26836976 -0.028848195 0.29442248 0.068826556 -0.17832151 -0.2500196 -0.16917515
0.26583362 -0.011699673 0.16130641 0.26583585 -0.054300614 0.14106488 -0.36397943 -0.31520572
-0.24538124 -0.20272598 -0.26804578 -0.13972723 -0.12198218 0.3254011 0.18135342 0.17897183
-0.113805294 0.13860637 -0.11460712 -0.18098614 0.31119707 -0.14142326 -0.39909416 0.17533311
0.078079335 -0.07836154 0.13521989 0.26204646 -0.4666588 -0.05823042 0.1366954 -0.2093792
0.18238845 -0.13349207 0.076943375 0.3778831 -0.19773094 -0.3149461 -0.36134446 -0.010241325
0.13450423 -0.08420916 -0.1376139 0.17647724 -0.6404713 0.21220654 0.36528572 0.026373664
0.14878498 0.13002293 -0.4653028 0.2003418 -0.3428344 0.06530504 -0.3016915 -0.06186656
0.1586713 -0.35899132 -0.19131699 0.23285975 -0.3144097 -0.10847163 -0.09690801 -0.17087333
0.13835497 0.030776279 0.19490907 -0.08486503 -0.07284055 0.13736078 0.059270274 0.16316457

linear_layer.0.bias f4 [256]
00000000: c594 623e 1a94 cfbe 57c9 bc3d 23e1 8e3e
00000010: 9d33 53bd fc17 96bd c6c3 81be ad0a 383e
00000020: 3506 13be 3c17 d13d f81b 983e d166 933e
00000030: 0b50 8fbe df05 3cbe 9599 cf3d 6276 403d
00000040: 5c61 91bd 181c 03bd 214b b7be 6c41 a7bc
00000050: 34ab 0abe fc70 4e3e 5f2e 0a3e 8dab dfbd
00000060: 0fac 9bbe bdc9 ae3e ce62 21be d31a 4c3e
00000070: 14e7 973d 7d40 30be 606a 72bd 95e7 cb3e
00000080: 636a bc3e c753 4f3e bce9 4c3d 4a8e 273d
00000090: f879 613e efa2 853e 02a5 7c3e 0e4c a7be
000000a0: 28fd bdbe bf68 6ebd 3b79 28be 4312 f3bd
000000b0: 36ee 213e d80a 97be 894b 4f3e 31de 703d
000000c0: 1775 b03e e956 a0be 7d38 aabd fa5c ddbd
000000d0: 40ae 0e3d 9a7b 1b3e 1c43 803e 69df c5bd
000000e0: 4abb 8fbe 3ff7 8fbd 1254 753d 0cb0 b93d
000000f0: 26b5 9e3e 139e 453e 12c5 41bc f34f 93be
00000100: f9da 20be da03 6fbe a8f0 7d3d 93e4 de3c
00000110: adf8 b03e dc1e b3be 61e2 a5be 1b11 81bd
00000120: 2e2b 49bd 4328 983e 4fab 82be 7711 21bc
00000130: 58fd 683d e4f0 89be 76aa 09be c8bc aebd
00000140: 84b0 42be 30d0 3b3e b24a c7be 3412 cebc
00000150: 7461 953c f06c 99be c6fd 723e cd09 d3bd
00000160: 5c26 843e 46d2 893d cc9f c0bd 561c 26be
00000170: b96f fc3d 1743 96be 197b a5be 6ced 5f3e
00000180: 8088 b0bd ae40 9abe 858d 83be 2222 763d
00000190: 367d b23d b5ea 2d3e 9db1 cdbe 8f5b b1be
000001a0: f3c2 edbd 20e0 bbbe e468 3f3e a0be 8abe
000001b0: 907a 2dbd d1d8 bd3e 5878 c9bd 772f 053e
000001c0: e296 3abe 7ad6 09be 0b23 c13e ac5d 573e
000001d0: 8576 7f3e 4c01 e13d 7dc0 7b3e a25a a6be
000001e0: 53e6 82be d741 44be babd 93be 4b5f 113e
000001f0: 92af bf3e 4f56 89be e3fb 543e 5ff8 98be
00000200: 7062 bfbe 3199 453e 3c74 b4bd 6c4d eebe
00000210: 3ca0 66be 4f78 03be 9a9e 453e 4f28 c3be
00000220: 8a46 bebe d285 3c3e 02b2 52be b684 0abd
00000230: 8670 c3be c74b 44be 55b3 70be 3d43 c5be
00000240: 17b4 65bd f0b1 b83e cdc1 a33e f25b 59be
00000250: 7b73 d03d d3bd 1abd 3c14 80be 8125 09be
00000260: 7cb0 85bd 1dff 91be 18c5 88be 6f63 52be
00000270: a1cb d2bd e78a 60be c58f 4c3e c474 0e3e
00000280: 0d0a 5b3d 6725 95be 849b 713e 4bfc d13d
00000290: da48 153e 9013 b23d 69ef a6be d4d4 4fbe
000002a0: 8776 10be faa6 9ebe 3ff3 8d3e cbec 7b3e
000002b0: ec1b b43e 45af 8a3e 26a6 89bd 522d 0abe
000002c0: c629 a5be e393 fe3d 892d 783e 5a11 f4bd
000002d0: 1f3e bc3e 0f7f 783d 6dda 7cbd 49a2 913e
000002e0: 8f2d 9fbe 33b4 a0bc 78b7 ebbd 564e 9cbd
000002f0: 5f8d 8d3e e2f0 953e 9043 713e 4d8e bfbe
00000300: 1da8 a6be a29e 9e3d 54a0 4dbe 96e0 743e
00000310: 4981 71be 9e6c 283e 0d72 acbe d5e6 693d
00000320: 54d5 543e 6882 a0be 8918 98be 6c7b 81bd
00000330: f3e6 ebbd 6fc4 e93e 666a a93d 99a1 57be
00000340: 576b b7be 77f3 74be 7278 1c3e c36b 933e
00000350: 1a07 85be 3a78 993e 8f69 f3bc e722 c33c
00000360: 9536 443e 1811 98be efa2 e6be 0f6e b7be
00000370: 2985 263d fc3b 3b3d 566c ddbd 55f2 7bbe
00000380: 1447 a2be 2c51 13be 8da8 56bd e291 ae3e
00000390: 2664 9b3d 3cda 16bd 4081 11be 8d61 e7bc
000003a0: 31d4 a93e dc15 4a3e b5f8 96be 4f8f 553e
000003b0: 8ed6 603d 1eb3 37be 5b89 c03d d79a c7be
000003c0: ec8a 163c 37a1 4c3e 18ee afbe 23f1 8d3e
000003d0: 9743 ccbd 5439 48bc f3f3 4ebd e5ca d6be
000003e0: 5270 1ebe 9df2 283e 626e 8f3e 2b98 c2bd
000003f0: acf1 9d3e 5755 723e 8c45 cfbe 5090 b93e
0.22127064 -0.4054268 0.0921809 0.2790614 -0.051562894 -0.073287934 -0.25344676 0.17972822
-0.14357837 0.1020951 0.29708838 0.2878938 -0.27990755 -0.18361615 0.10136715 0.0469879
-0.07098648 -0.032009214 -0.35799506 -0.020416938 -0.13541871 0.20160288 0.13494252 -0.109213926
-0.30404708 0.3413829 -0.15760347 0.19932108 0.074171215 -0.172121 -0.05918348 0.3982512
0.36799917 0.20246802 0.050027594 0.04090718 0.22019184 0.2610087 0.2467232 -0.32675213
-0.37107205 -0.058205362 -0.16452496 -0.118687175 0.15813527 -0.2950046 0.20243658 0.05880565
0.34464332 -0.31316307 -0.083115555 -0.108087495 0.034834146 0.15183869 0.250512 -0.09661753
-0.28072578 -0.0702958 0.05989463 0.090667814 0.3099758 0.19298582 -0.01182677 -0.28771934
-0.15708531 -0.23341313 0.061997086 0.027208602 0.34564725 -0.3498448 -0.32399276 -0.06302091
-0.049113445 0.29718217 -0.25521323 -0.009830824 0.056882232 -0.26941597 -0.13443932 -0.08532101
-0.19012648 0.18341136 -0.38924176 -0.025155164 0.018234946 -0.29965925 0.2372962 -0.10304604
0.25810516 0.067295596 -0.09405479 -0.16221747 0.12325997 -0.2934806 -0.3232048 0.21867913
-0.08619785 -0.30127472 -0.25693908 0.060091145 0.08715288 0.16984065 -0.4017457 -0.34640166
-0.11609449 -0.3669443 0.18692356 -0.2709856 -0.042353213 0.3707948 -0.09837407 0.13006388
-0.1822162 -0.13460723 0.37722048 0.21031827 0.24947555 0.109865755 0.24585147 -0.32491022
-0.25566348 -0.19165741 -0.28855687 0.14196508 0.37438637 -0.2682366 0.20799212 -0.29876992
-0.3737979 0.19296719 -0.088112324 -0.46543443 -0.22522062 -0.12838863 0.19298783 -0.3811669
-0.37163192 0.18410423 -0.20575717 -0.03381797 -0.38171786 -0.19169532 -0.2350591 -0.3852786
-0.05607995 0.36073256 0.31983796 -0.2122648 0.10178276 -0.037778687 -0.25015438 -0.13393213
-0.06527802 -0.28514948 -0.2671287 -0.20545743 -0.102927454 -0.21927987 0.19976719 0.1391173
0.053476382 -0.29130098 0.23594481 0.10253199 0.14578572 0.086951375 -0.3260453 -0.20296031
-0.14107715 -0.30986768 0.27724645 0.24602048 0.35177553 0.27086845 -0.067211434 -0.13493851
-0.32258433 0.12430551 0.2423612 -0.11917372 0.36766145 0.060668048 -0.061731745 0.28444126
-0.31089446 -0.019617176 -0.11509603 -0.07632129 0.2764692 0.29285342 0.2356093 -0.37413254
-0.32550135 0.077451006 -0.20080692 0.23913798 -0.23584475 0.16447684 -0.33680764 0.057104904
0.20784503 -0.31349492 -0.2970622 -0.06322369 -0.115186594 0.4565768 0.08272247 -0.21057738
-0.3582408 -0.23921 0.15280321 0.28793153 -0.2598198 0.29974538 -0.02971342 0.023820354
0.19161446 -0.29700541 -0.45046183 -0.35826156 0.040654335 0.045711502 -0.10811679 -0.24604161
-0.31694853 -0.14386433 -0.052406836 0.34095675 0.07587461 -0.03682922 -0.14209461 -0.028244758
0.33169702 0.19734901 -0.29486623 0.20855449 0.054892115 -0.17939422 0.094011985 -0.3898532
0.009188395 0.19983374 -0.3436134 0.27723035 -0.09973829 -0.012220699 -0.050525617 -0.4195167
-0.15472534 0.164988 0.28013903 -0.0950168 0.30848444 0.23665367 -0.40482748 0.36242914

linear_layer.2.weight f4 [256, 256]
00000000: 291c 843d eb06 bf3c d6ad 813d 3757 163d
00000010: 6015 a33d fec9 29bd 2547 f4bc abd8 33bd
00000020: 67c6 dabd 5037 34bd f270 a63d 0225 303d
00000030: d80a e33c ac00 413d 8033 81bb 264f 853a
00000040: c066 023c d0ef ee3c fe3e 44bd 6450 ca3c
00000050: be62 333d 9ae0 cabb 866e 83be d5b8 baba
00000060: 4a49 12bd d4c4 db3c 6a86 873d 46bb 47bd
00000070: bd80 b43d c13a c73b ebf7 60be 85a6 983d
00000080: e38f 4e3d fd0c 803d a406 823c 4c01 bfbc
00000090: 587a ca3d dda2 aa3c 78df 62bc 6b6f ec3c
000000a0: 0fd4 e63c b4a9 c93d f806 74bc b759 cdbc
000000b0: 981e 51bc 990d 983d 88f0 e4bc 3157 393d
000000c0: 4885 29bc 8746 10bd 726c 75bd 48cb bc3d
000000d0: 109d c83b 44c3 0e3e 4882 0abd 405a f7bb
000000e0: f4e9 6dbd 7cef a13c ae39 1f3d e8c8 7d3c
000000f0: 912d 8b3d 9a76 0abd 4971 85be 2002 6cbc
00000100: e574 8b3d cb64 edbb 94e7 24bd 1658 913d
00000110: 5b86 da3d b886 863c e057 0cbc 5657 58bd
00000120: 5571 483d a04f 8b3d 1d8a a03b e469 72bd
00000130: 648d 783d 1c8c 373c 8c3f 983c ad98 8abe
00000140: 9aa0 2cbe cc35 70bd c3c2 b43d 7c4e 44bd
00000150: 420d f23a 1a9a bcbd 6f70 353d 9059 46be
00000160: 4516 a13d 7807 393c 373a cd3c 1ade b03c
00000170: 0db7 853c 5ba4 59bc b387 aabc d30e 4abc
00000180: 8165 86bd cf89 05bd ec57 9c3c d5d5 d5bd
00000190: 44c2 b9bc 2669 31bd 9896 c2bc e2cd c43c
000001a0: 1ccc c4bc 4062 bc3b 3f14 7ebd a0d9 563b
000001b0: 0d14 1f38 c798 5dbd fe11 32bd dc0d a23c
000001c0: a9e5 0a3e 730e a43d ee51 52bd 3ec8 0bbf
000001d0: 306e 7ebd 5842 bc3d 314f 2fbd 3c42 ffbc
000001e0: e65d 8f3c 867e c43c 3e57 753d fb98 5dbc
000001f0: 0e26 44bd 3766 6cbe 3ec3 9b3d 1d5b 333d
00000200: 94b3 2ebd c8ae 9b3d 92d9 353d 812d f9bd
00000210: 94b0 433d 2bf0 933d 564c 10bd 5f22 7e3d
00000220: e1fe 01bd 2a25 3a3d 0a25 893c 7cd6 5dbc
00000230: 482e 81bd f4fc 25be 2ecf b8bc 39ca 36bd
00000240: 9e22 68bd d0ef 07bc 34cd 22bd 9c25 c2be
00000250: e859 263d cb17 943c 6e1e 11bc 999d 67bd
00000260: 71a0 0a3d 6cea 843c 07ba 1dbc 7361 7a3d
00000270: 3d24 a73d 4c4d 2cbe 0276 18bd 7651 793d
00000280: 5812 743c 002e c5ba 61a0 803c 846c 1cbd
00000290: 6817 0b3d 8b40 7f3d c21d 34be f6d5 493d
000002a0: 3057 713d 9f1d 7f3d 9ec3 1bbd de70 593d
000002b0: 52b6 39ba aa07 0dbd 5749 9fbd 0998 f93c
000002c0: 228a 3b3d 9cc7 643d 14b5 7d3d 00c8 4abd
000002d0: b07c e9bb 247b 5abd cdea 36bd 060b b53d
000002e0: fd61 b8bd 1258 81bd 9d42 2a3c fe07 48bd
000002f0: e603 8a3c bacb 0f3d 2ca3 3d3d 5d1f 1fbd
00000300: 7ac1 633d 0f36 3abc 2284 80bd cfe0 8639
00000310: 7a88 24be e4f1 c2bc 58cb a13d c4ba f7bc
00000320: 5497 773a a935 6f3d 043c 3fbd 71a6 5a3d
00000330: a6a7 4fbd 9407 0a3d 52ca 2639 1a8c 603d
00000340: f18f a73d f80b 543d 3e61 f8bc 7a1c 8e3d
00000350: 2451 9e3c b915 813d 6d25 ea3d 48b5 16bd
00000360: 8dbe 803c 2d7b f93d f515 683d 7c49 813c
00000370: 89a6 96bd 18fc a03c 0caf 51be d862 33bd
00000380: c098 9bbe 57d1 1e3c e4d1 56bd ba9a a2bd
00000390: 20d7 f2bd b024 38bc 5b4c 633d 76a4 6c3d
000003a0: 90bb 8ebc e6cf 1c3d 9000 dcbc 2e3e 803d
000003b0: cca3 0f3d e0a8 d13c 66d4 48bd c521 e13c
000003c0: 88a3 db3d 8125 e03c 00ab 61bd 150b 51bd
000003d0: 4a37 c33c 81b5 303d f688 66bd e163 e73b
000003e0: 3e37 b43c 4f32 75be 2e52 6bbb a1e4 4dbc
000003f0: 2034 453d 86bf f0bc 1c24 b9bd d072 143e
0.064506836 0.023318728 0.06331985 0.03670427 0.07963061 -0.0414524 -0.02981908 -0.043907803
-0.106823735 -0.043998063 0.08127011 0.043004043 0.027715132 0.04711978 -0.003942907 0.0010170683
0.007959068 0.029167086 -0.047911637 0.024696536 0.04379534 -0.0061913254 -0.2567026 -0.0014245758
-0.035714425 0.026827253 0.06617434 -0.048762582 0.088136174 0.006080002 -0.21969573 0.07453636
0.05043019 0.06252477 0.015872307 -0.023316048 0.098866165 0.020829612 -0.013847224 0.028861722
0.02817729 0.098468214 -0.01489424 -0.025067193 -0.012763642 0.074244685 -0.027946725 0.045249168
-0.010346718 -0.03522351 -0.059917875 0.0921846 0.006122239 0.13941675 -0.033815652 -0.0075486004
-0.058084443 0.019767515 0.038873367 0.015489794 0.067958005 -0.033804514 -0.26062992 -0.0144048035
0.06809405 -0.0072446815 -0.040259913 0.07096879 0.106701575 0.01642166 -0.008565873 -0.052817665
0.048936207 0.06802297 0.004899277 -0.059183016 0.060681716 0.011202838 0.018584989 -0.27069607
-0.1685814 -0.058645055 0.0882621 -0.04792641 0.0018467086 -0.0920908 0.04429668 -0.19370103
0.07865576 0.011293285 0.025052173 0.021590281 0.016322637 -0.013283814 -0.02081666 -0.012332636
-0.06562329 -0.032602128 0.019084893 -0.10441176 -0.02267564 -0.043313168 -0.02375345 0.024023954
-0.024023108 0.005749017 -0.062031027 0.0032783523 3.7927228e-05 -0.054100778 -0.04347419 0.019782
0.13564171 0.080105685 -0.051347665 -0.5460242 -0.0621168 0.091923416 -0.042800132 -0.031159513
0.017500829 0.023986112 0.059897654 -0.013525243 -0.047887854 -0.23085867 0.07605599 0.043788064
-0.042651728 0.07601696 0.044396944 -0.12166882 0.04777582 0.07223543 -0.03522905 0.062044498
-0.031737212 0.0454456 0.016741294 -0.013539907 -0.063076556 -0.16209775 -0.022559728 -0.04462645
-0.05667364 -0.008296922 -0.03974648 -0.3791932 0.040613085 0.018077752 -0.008857353 -0.05654678
0.033844415 0.016225062 -0.009626872 0.06112809 0.08161209 -0.16826361 -0.037221916 0.060868703
0.014896952 -0.0015043616 0.015701475 -0.038189426 0.03395787 0.062317412 -0.17589477 0.049276315
0.05892104 0.06228411 -0.038028352 0.053086154 -0.0007084358 -0.034431137 -0.0777766 0.030468004
0.04578603 0.055854425 0.061940268 -0.04950714 -0.0071254596 -0.053340092 -0.044657517 0.08839993
-0.09003065 -0.06315626 0.010391858 -0.048835747 0.016847562 0.0351064 0.04629819 -0.03884827
0.055604436 -0.011365428 -0.06275202 0.00025725967 -0.16067687 -0.023796983 0.07900113 -0.030240424
0.0009444852 0.058400784 -0.046688095 0.053381387 -0.05069699 0.033698633 0.00015906364 0.05482111
0.081817515 0.051769227 -0.030319806 0.06939025 0.0193258 0.063029714 0.1143292 -0.036793977
0.015715862 0.12181697 0.056661565 0.01578211 -0.07355983 0.019651458 -0.20476931 -0.043795437
-0.30389977 0.009693465 -0.05244626 -0.07939668 -0.11857438 -0.011239216 0.05549274 0.05777403
-0.017423421 0.038284205 -0.026855737 0.0626186 0.03506832 0.025593221 -0.049030684 0.027481923
0.107245505 0.027361633 -0.05509472 -0.05103596 0.023830075 0.043141846 -0.05628296 0.007061467
0.021998998 -0.23944972 -0.0035907137 -0.012566716 0.048145413 -0.0293882 -0.090400904 0.14496922

linear_layer.2.bias f4 [256]
00000000: 8c47 373e 8e73 df37 d19a 6a3d b848 3b3d
00000010: f6de 63bd 9ef1 763c c3e3 2fbd 0ac6 05bc
00000020: d842 a5bc a54a 2f3e 27bd 48bd 8ee4 963c
00000030: c730 803d 3cdf 933b 0dc0 0b3e 90b3 453d
00000040: 77e4 683c 9871 343d 5376 833d 2019 78bc
00000050: 6af0 70bd 1665 afbc e2fe 083d 5b73 273d
00000060: de5e 52bd 9370 88bd 935a 1ebc 4079 543c
00000070: f67e b2bd 1f27 133d ff2b 6f3c 8e0e 093e
00000080: d8ae e73c 17f5 2d3d 3df8 663c bde4 e0bc
00000090: ac28 0b3d 3187 143e d570 8b3c 8788 b5b8
000000a0: 4bb4 8dbd 9af5 8abd df5e cfbc 74a0 153d
000000b0: 89dd 093b 14f2 e53c 9f2b a73c 7c5e 803c
000000c0: 7e53 15bd 4128 5f3b f8c2 87bd 612b 72bd
000000d0: 64a5 1dbd d41e 66bd 83e4 a8bd 62d2 e5bc
000000e0: 03f8 d1bb 82a1 3e3d b9fd 4dbd 04ed a3bc
000000f0: 0273 02bd 97b8 4fbc 0362 b8bd 44ac 02bd
00000100: ccff 263d 8ac9 1fbd 7c53 443d f6ad f5bc
00000110: 115b 04bc 8922 85bd c73b 8f3c 8c6f a9bd
00000120: 5508 1c3d 21a4 82bd 33e2 74bd d947 25bc
00000130: 0848 463c 8d71 67bd 3600 10bd a5ec 08bd
00000140: 5e6b 66bd 0190 38bd f2a0 d1bc 4490 2a3d
00000150: a6e1 9b3d 97da e4bc b5d0 d93c 13d5 b73c
00000160: 546d 1bbe 4f7b 65bd 9ab4 123d 48f5 7bbd
00000170: 5c4c 0a3d 9e41 fe3c be4d a8bc 1c84 0d3d
00000180: 2968 203d 0e6a 3cbd 1a14 2a3d 4818 00bd
00000190: 6864 4fbd 3a3c 453d 458e 193c 9d7f 01be
000001a0: 7b81 61bd c80d 583c 68a4 bc3d 2f10 79bd
000001b0: 7418 a0bc b9de 173e c5af 3fbd 5c28 9cbd
000001c0: f2de 60bd 0c67 fabc 5d99 6d3d 6cad 91bd
000001d0: 4734 8e3d b01e 9a3c 3a51 81bc 189c 223e
000001e0: 19e3 71bd c0c6 edba 08d4 59bc 60ab 9cbd
000001f0: e1c9 223e 8007 2e3d 75a7 203b d9b2 3f3e
00000200: aaf1 d03c 2c0f 44bd c03b 8cbb 2fe8 2e3b
00000210: 342b efbb 1d3c 68bd f8f2 233d 94fd 31bd
00000220: c043 3a3c 3568 063d 4966 80bd ee9c aa3d
00000230: e099 363d 84d1 bcbc a3df f63c 2136 9fbd
00000240: 1518 143e 7d98 813c d19d 053d 7bd4 98bd
00000250: 9210 23bc f452 803c 1b3d 88bc 8a07 3f3c
00000260: 928e 7dbb f8a9 c53c bc2b 983c f8e9 b63c
00000270: 744f a3bc e2a9 ee3d a93b fabb 76c0 16bc
00000280: ba24 363d 7c9b 3c3e 90c8 42bd ca17 97bd
00000290: 1ca7 debc acff 963c 44fd 92bc b95a ccbc
000002a0: cd30 7ebd 8445 2b3e 2423 df3d 1cf7 8e3d
000002b0: ce7b 0bbd fead 80bd 03b9 7a3c 88c3 d5bc
000002c0: 0c80 fabc cd21 55bd 702b 4fbb 7b75 47bd
000002d0: d175 18bd b05c f73d ee46 abbd a95f 6e3c
000002e0: d81c 35bc 3dc0 c3bd c4ce 563d d262 eabc
000002f0: 1b89 ed3c bee0 8dbb 14fc 853c 5c03 213d
00000300: 14ef 363c 5a92 4bbd ee0f 36bd 2246 6f3c
00000310: a3d2 e23d 1c2b 093e 9a66 f0bd 2493 62bd
00000320: 3102 b7bc f14b 443c 3845 9cbd ec41 66bd
00000330: 1faa 6d3e 542f 14bd 7a35 ae3d 9d5a 5bbd
00000340: 7b3a 8dbc a41f 04bb 877b 1dbc 8a5e c23c
00000350: 12e6 42bc 9515 b5bd e432 57bb 6367 013d
00000360: cc51 7ebd f430 7abd be54 2abd e31c 71bc
00000370: 1103 113c 701b d7bc 3439 c83d 1886 6abd
00000380: 3363 8cbd 9c73 9d3c 86cf 8fbc b5b0 65bd
00000390: 7680 a7bc 2628 f73d b0d1 ea3b d3b1 81bd
000003a0: 0246 3dbd c8cc 9abc 1d44 a63d 7ea1 cfbc
000003b0: 6052 46bd e771 27bd 2d92 06bb 3833 463c
000003c0: 2716 fc3d aba7 dd3d 5aee 263d a70b eb3a
000003d0: c05f 8abd 21c3 d9bc 3457 f93b f31c 54bd
000003e0: 1e64 cf3a 3c1e 143e 9a21 073d 841d 79bd
000003f0: ad3a 01bd b861 ad3d 0095 9b3a 87fe 933d
0.17898387 2.6637481e-05 0.05727655 0.045723647 -0.055632554 0.015072254 -0.04294182 -0.008164892
-0.020173475 0.17118318 -0.049008515 0.01841953 0.062593035 0.0045126956 0.1364748 0.048266947
0.0142146265 0.044053644 0.06419053 -0.015142709 -0.058823027 -0.021410506 0.0334462 0.040881496
-0.051360004 -0.06662097 -0.009665149 0.012968361 -0.08715622 0.03592598 0.014597892 0.13384458
0.028281614 0.042470064 0.014097271 -0.02745282 0.033974335 0.14504696 0.017021576 -8.656183e-05
-0.06919154 -0.06785126 -0.025313793 0.036529973 0.0021036586 0.028069533 0.020406542 0.015670054
-0.036456577 0.0034051093 -0.06628984 -0.0591234 -0.038487807 -0.056181744 -0.0824671 -0.02805442
-0.006407739 0.046540745 -0.050290797 -0.020010479 -0.03184796 -0.012678287 -0.09003069 -0.031902567
0.04077129 -0.039010562 0.04793118 -0.029990178 -0.008078353 -0.06500728 0.017484559 -0.08273229
0.038093884 -0.06378961 -0.059786033 -0.010087931 0.0121021345 -0.056504775 -0.03515645 -0.033428807
-0.056254737 -0.045059208 -0.02558944 0.04164149 0.076113984 -0.027936263 0.026588777 0.022440469
-0.15178424 -0.0560258 0.035816766 -0.061513215 0.03376423 0.031037148 -0.020544883 0.034549817
0.039161835 -0.04599958 0.041523077 -0.031273156 -0.050632864 0.04815314 0.009372299 -0.12646337
-0.055055123 0.013186879 0.092110455 -0.06080645 -0.01954291 0.14831056 -0.046798486 -0.076248854
-0.054900117 -0.030566715 0.058007587 -0.07113156 0.06943565 0.018813461 -0.015785802 0.15879858
-0.059054468 -0.0018140897 -0.013295181 -0.07649875 0.15897323 0.04248762 0.0024513875 0.18720569
0.02550586 -0.04786603 -0.0042795837 0.0026688685 -0.0072988514 -0.056697953 0.040026635 -0.04345472
0.011368692 0.032814223 -0.06269509 0.08330713 0.04458034 -0.023049124 0.030135935 -0.07773996
0.14462312 0.015819782 0.03262121 -0.074624024 -0.009952681 0.015664555 -0.0166307 0.011659512
-0.0038689715 0.024128899 0.018575542 0.022328362 -0.019935347 0.11653496 -0.0076365066 -0.00920116
0.04446862 0.18418688 -0.047554553 -0.07377584 -0.027179293 0.01843246 -0.017943032 -0.024945604
-0.06205826 0.16725737 0.108953744 0.06980726 -0.034053616 -0.062831864 0.015302899 -0.026094213
-0.030578636 -0.052034188 -0.0031611584 -0.048696022 -0.037221733 0.120782256 -0.08363138 0.014549174
-0.01105424 -0.09558151 0.05244328 -0.028611574 0.028996041 -0.00432977 0.016355552 0.039309844
0.011165399 -0.04970012 -0.044448785 0.014604123 0.11075332 0.13395351 -0.1173832 -0.055316105
-0.022339912 0.0119809965 -0.0763039 -0.05621521 0.23209427 -0.036177948 0.085062936 -0.053553212
-0.0172398 -0.002016046 -0.009611971 0.02372672 -0.011895673 -0.08842007 -0.003283673 0.031592738
-0.062089726 -0.06108184 -0.041584723 -0.01471636 0.008850829 -0.0262582 0.09776536 -0.057256788
-0.06854858 0.019220166 -0.01755501 -0.056076724 -0.020446997 0.120682046 0.00716611 -0.063327454
-0.046209343 -0.018896475 0.0811846 -0.02534556 -0.048418403 -0.04088011 -0.0020533905 0.012097172
0.12308913 0.10822996 0.040754654 0.001793255 -0.06756544 -0.026582303 0.0076092724 -0.05178542
0.0015822684 0.14464658 0.03299103 -0.060819164 -0.0315501 0.08465904 0.0011869967 0.072262816

linear_layer.4.weight f4 [1, 256]
00000000: 1c05 8d3d 2ce9 a8bc fcd6 403c 1a03 fc3c
00000010: 5138 363d c136 393d c8bb 413c 1c89 0d3c
00000020: 378c 57bd 311f 5d3d d345 3fbc 3c47 0c3d
00000030: 2b6f 953c 04ad 13bd 7a26 9e3d ef73 4abd
00000040: 67ac b73c f37f ebbc c06f 03be d9f0 1e3d
00000050: 8dfa a6bb 58be f5bd ed8b 76bd baba 1f3d
00000060: 3de4 49bd e136 063c 3fd5 94bc b0ef 473d
00000070: 2665 22be 303a 633d 6d91 c6bb 1cd0 c73d
00000080: 80e1 e2ba 6bae 8bbc 6581 32bc 762b f5bd
00000090: aa60 8cbb 908d 163d b85b 8dbb 416a 3d3d
000000a0: ed49 a93b 56fb 16bd 25d7 21bd 2af8 303c
000000b0: eec4 2fbc 40d8 9abb e53e 3dbd f5d7 8cbb
000000c0: 223a c1bb 3154 afbb 8d2b 383d d0ec e43c
000000d0: 9f5a 54bc c613 803c 2593 f13c decd 7a3c
000000e0: 1557 2c3d 801e 56bc b7c6 4bbd ba99 433d
000000f0: b81d 0d3c bfcb 413d d7ca 56bd 84c4 4ebd
00000100: b7c6 42bd 7d77 17bd e67f 063d 447a 6f37
00000110: d35c 713d 8e0e aa3c dccb 2ebe 1af7 e73b
00000120: 46cf 6b3a 3307 d93c ceef 513c fa10 21bc
00000130: 90b7 39bd aadf bb3a 88a8 95ba 54bd 493d
00000140: d99f 803c 07c4 7bbd d486 973b 53a7 223c
00000150: 0191 a63d 9333 8f3c aeb0 743b e8c8 f73a
00000160: ae5b 08bd 4c16 dbbc 2038 44bd cd47 bcbc
00000170: 7e4f 143d d564 05bd d878 043d 68a8 953c
00000180: 59e9 0e3d 5ec6 a43b 40d2 90ba 4cb0 62bc
00000190: 8042 de3c 486b 2bbc d9b6 253d 3108 65be
000001a0: 3ada 1c3c 6554 27bc 3abe d23d f509 1abd
000001b0: 7aba 24bd bd54 763d 8c7d 4a3d ca06 0ebe
000001c0: 90d0 743d 04de 793c d209 213c 3cce fe3b
000001d0: 2ac9 ac3b 065b 5d3c cf0c d83c 0b87 c03d
000001e0: 8b71 53bd 8a19 55bd 544c e9bc e6d3 f1bc
000001f0: bbaa 0f3e 3abd d4bc 55c2 083d 85e6 873d
00000200: 2773 5cbd 282a cb3b 8044 e83a 9508 b63c
00000210: 9236 213b dc02 e63c 8764 643b 6bda da3b
00000220: a07d 5e3d 048a e13c 52fa 34bc 816b a53d
00000230: 00f9 033d 2aee ae3c 0db2 ec3c 53e2 82bc
00000240: c37e 6b3d 4b25 f83c a12f 3e3b 0037 48be
00000250: b8c7 ee3c 0992 273c 2e3e 593d f55a 2cbc
00000260: 97f1 39bd b16d 603c 4824 2ebc 90f1 52ba
00000270: b4e5 b73c 567e 9d3d 361a 3d3d 8576 81bc
00000280: 3f9a c3bc ba9d 7a3d 38ec e03c 6b80 1b3c
00000290: dd8a 1dbd dadf 3fbd 9330 c33c ee6a 153d
000002a0: 66a5 153d df9c eb3d 6c1a 8a3d 1562 873d
000002b0: 3a51 ee3b 9643 15bd 0146 6d3b d859 6ebd
000002c0: d42c 7fbd 4559 31bd 6599 5d3c 9bbb 14bd
000002d0: 5d99 ccbc 1f02 b83c 7b87 f6bc 3a58 223b
000002e0: 31c2 3abd f5b6 94bd a8d3 5abc 2239 093d
000002f0: 4af2 0e3d e03c 41bd 7774 e2bc 0cb5 8b3c
00000300: 0e55 99bc 54ac 4c3a befb 3bbd ee9b 203d
00000310: d392 1b3d c875 b93d 27b7 8cbd 4ca5 da3c
00000320: 5267 8abd 029d c23c b039 a43c 9845 20bd
00000330: 5a84 fe3d 3df9 8cbe 4ceb 9a3d bc9d 103d
00000340: 1623 aa3b 9df5 12bd 3a66 95bd a5cd ba3c
00000350: 8374 143d abdc 2fbc 6006 7abc b68a 1b3d
00000360: c21b 83bb 5360 30bd a1dd 19be 3633 60bd
00000370: 570e 51bd 0351 ab3c 4a3d e13d 88ed 873b
00000380: 387a eebc 47ae d4ba d50b f93b 8cd7 d03c
00000390: 1865 a9be 6b36 923e d1d9 f73c 7d7d d0bc
000003a0: a23a 7ebd b02f 90bb 689f 3e3d d997 683d
000003b0: 9064 b53b ad06 66bb 8940 d73a 843d 84bc
000003c0: 4809 2e3d 207e 9f3d 9158 1a3c a317 2f3c
000003d0: d0f5 46bd d889 103a fb0e 6f3c fa04 14bd
000003e0: 3915 95bd 45cf f33d 257d 843b 7071 8fbc
000003f0: 904a 1abd 01f4 283e f41d a13c 9c2b ca3d
0.0688574 -0.020618998 0.011770006 0.030763198 0.0444873 0.045218233 0.011824556 0.008638646
-0.052623954 0.053984825 -0.011674362 0.034247622 0.018241486 -0.036053672 0.077221826 -0.04942697
0.022421075 -0.028747534 -0.12835598 0.03880391 -0.005095786 -0.11999196 -0.060192037 0.038996436
-0.04928993 0.008191795 -0.01816809 0.04881257 -0.15858898 0.055475414 -0.0060598166 0.097564906
-0.0017309636 -0.017050942 -0.010895108 -0.1197118 -0.004283984 0.0367561 -0.0043139122 0.04624391
0.0051662833 -0.036860786 -0.03951182 0.010801354 -0.010728104 -0.004725486 -0.04620256 -0.004298205
-0.0058968225 -0.0053506126 0.04496341 0.027944952 -0.012961059 0.015634429 0.02948911 0.015307872
0.042075235 -0.013068795 -0.049750056 0.047754027 0.0086130425 0.047313448 -0.052439537 -0.05048038
-0.04755279 -0.036979187 0.032836817 1.4273977e-05 0.058926415 0.020758893 -0.17069954 0.0070790173
0.0008995425 0.02649269 0.012813522 -0.009830708 -0.045341074 0.0014333625 -0.0011418024 0.049252823
0.015701221 -0.061466243 0.004624227 0.0099275885 0.08133126 0.017480647 0.0037336755 0.0018904479
-0.033290558 -0.02674403 -0.047905087 -0.022983456 0.036208622 -0.032566864 0.032341808 0.018268779
0.034890506 0.00502853 -0.0011048988 -0.013835978 0.027131319 -0.01046259 0.04045758 -0.22366406
0.009573514 -0.010212992 0.10290189 -0.037607152 -0.0402169 0.060139406 0.049436137 -0.13869777
0.059769213 0.015250687 0.0098290015 0.00777605 0.005273004 0.013510471 0.026373295 0.094007574
-0.051621955 -0.05202631 -0.028478779 -0.029519986 0.14029972 -0.025969137 0.033388454 0.06635765
-0.053820755 0.006200094 0.001772061 0.02222089 0.0024599177 0.028077535 0.0034849958 0.0066788695
0.054319024 0.027531631 -0.011046009 0.08077145 0.032219887 0.0213538 0.028893495 -0.01597706
0.057493936 0.03029122 0.0029020088 -0.19552231 0.029147968 0.010227689 0.053037815 -0.010519733
-0.045396414 0.0136980275 -0.010628767 -0.000804686 0.022448398 0.07690112 0.046167575 -0.015803585
-0.023877261 0.061185576 0.027456388 0.009491066 -0.03846251 -0.04684434 0.023826873 0.03647893
0.03653469 0.1150453 0.06743321 0.066105045 0.0072728666 -0.036441408 0.0036205056 -0.05819115
-0.06229861 -0.043298025 0.013525342 -0.036311727 -0.024975473 0.022461949 -0.030093899 0.0024771825
-0.04559535 -0.07261459 -0.013356127 0.03350175 0.034899034 -0.047177196 -0.027643425 0.017054103
-0.018717315 0.00078076613 -0.045894377 0.039211206 0.03798182 0.09055668 -0.06870871 0.026690148
-0.06757988 0.023756508 0.020047039 -0.03912887 0.12427588 -0.27533904 0.075644106 0.035306677
0.005192171 -0.035878766 -0.07294889 0.022803137 0.036243927 -0.010733764 -0.015260309 0.037974082
-0.0040011117 -0.043060612 -0.15025951 -0.05473634 -0.051039066 0.020912653 0.10998018 0.004148189
-0.029111013 -0.0016226255 0.0076002874 0.025493406 -0.3308494 0.28557143 0.03025523 -0.025450462
-0.062067635 -0.004400216 0.04653874 0.05678544 0.0055356696 -0.0035099194 0.0016422431 -0.016142614
0.04248932 0.07787728 0.00942053 0.010686788 -0.04857427 0.00055137044 0.014590974 -0.03613756
-0.072794385 0.11904768 0.0040432387 -0.017510146 -0.037668765 0.1649933 0.019667603 0.09871599
