data/300_500/models/critic_700.pth (torch, 274455 bytes, 5 tensors)

linear_layer.0.weight f4 [256, 7]
00000000: 9691 90be d736 b53e 96df 8bbe dd5e 28be
00000010: ee71 96be d6a1 a8be 6010 37be 9da3 70be
00000020: 5be4 2ebe 2ba7 7b3d 9f70 183e 0b13 513e
00000030: 8100 c63d b16f 1f3e 2ee6 37bd 802e 783e
00000040: 5b1a 223e 6db2 17bd 71b1 a7be dafe 5d3e
00000050: 4e70 973e deb3 18be a058 5d3d 7069 863e
00000060: c4de 853e 4ad8 5fbe 57c0 113e bd4e 1ebe
00000070: 7839 b5be b9b7 433e 57ef b63e 9b7b a83e
00000080: bd15 3b3d d789 a83e 4e41 073e 063f 8fbe
00000090: 088d b0be 6dd7 b0bd b7a0 07be f28e b3be
000000a0: b9ce 57be 0952 b2be 86cd 983b b66c 8b3e
000000b0: d9f2 c8be 6828 a2be 5e85 843e 7391 b8bd
000000c0: d490 1d3e e1ab a93e e00c 843d 1d18 dabe
000000d0: b858 47be 30e3 62be bffc aa3e 63cc 8abd
000000e0: ed1e 9dbe 2b34 f6bd 0cbe 9e3e 87f9 fbbd
000000f0: 3be3 273e e23b e13d 280d aebc b20a 9d3e
00000100: 85ed b4bd 5770 88be 0230 7abe ec22 21be
00000110: 7362 b4be c401 2e3e 8b8c 673e af7c 9e3d
00000120: b842 85be e199 4bbd fe32 6fbf eb21 673c
00000130: d35f b93e e44a 0d3e 7bb2 32be be30 a1bc
00000140: cb2a b1bd 2a1a 873e 2a7a 3e3e d4b9 d73d
00000150: a912 9f3d 6b02 96be 475c bebe cdb0 ad3e
00000160: 9752 6bbe 9cc1 96bd 3b6f 0abe eedc a0be
00000170: 020a 95be 680d d83d ee6d 573c c436 0fbe
00000180: 1358 b039 9c26 91be 2a47 343d e767 8fbe
00000190: 34fa afbe c7d4 873d cefb 2b3d 33d9 5a3e
000001a0: f206 b93e 3019 70be d2d5 92be 3e72 283e
000001b0: a5cb 8f3e b038 76be 71e9 da3c 6566 0d3e
000001c0: fdd4 b8be ac72 0ebd bcef cbbd aaef 33bc
000001d0: d28d 533d f495 88be 5556 64be 0bf9 50be
000001e0: c86c 44be 2311 2cbe 9e45 893e 4155 5c3e
000001f0: 96f5 7fbe 9234 123e ca1a c1bd 474d 443d
00000200: 823f 88be f03a 103e 5b5a 48be 7467 8d3d
00000210: 6e25 883e 3626 e8bd 21e5 b5be 23e1 323d
00000220: 7359 76be ae47 8e3b 1105 423e d8ba 613e
00000230: 45da fdbe c1c1 573e f178 1bbe c97d b53e
00000240: ff2b 143f 6274 943e 74af 54be 0206 493c
00000250: 109d 7d3e 30ca b7be db9e aa3e 9759 eebd
00000260: 1bbd c7be cd3e 753e 924d 963e aa87 c5bd
00000270: b20a 8dbe 4f95 413e c273 31bf 1ab8 6ebe
00000280: 1ebb bf3d b0ff 63be 15a3 643e 2b81 06be
00000290: 3036 1bbc 3be4 043f a936 c13c dd2a e1be
000002a0: aa89 fe3d b656 8ebe e14e 7dbe c952 563d
000002b0: f98e 803c 8c82 99bd 266f bd3e 6ea1 bfbe
000002c0: d7eb d23d ce02 8a3e c9c3 cbbc 55aa cc3e
000002d0: dc8d c73d 4e74 5bbe 4c88 14be 5c49 c6bd
000002e0: a1bb b63e f350 9c3d 67c9 0e3e 4e89 af3e
000002f0: 5a06 3e3d 5073 103e 835b babe a562 a1be
00000300: 3845 7bbe 6697 4fbe 4c3d 89be a814 0fbe
00000310: c156 f3bd 3869 a13e a9cc 433e 79d0 3f3e
00000320: 0e26 15be cab8 0a3e 6ddb e6bd 04f4 3cbe
00000330: 6931 b03e 828b 0bbe 9b28 c2be 8ade 523e
00000340: f9f3 d63d 226e 09bd 6934 173e e8a9 8c3e
00000350: e90f f4be 4e79 60bd 318a 473e 2689 55be
00000360: 886d 4c3e 3134 0cbe 7a58 803d d092 c43e
00000370: f07b 49be 5157 a9be a5a0 b9be 96ae e7bc
00000380: 0bfc 133e ee7d babd 86f0 1dbe 9a15 263e
00000390: a569 2fbf 1867 3e3e 7b53 b53e 5060 983c
000003a0: d768 103e 3ec8 033e 36b5 eebe ff36 1f3e
000003b0: 178b b2be 71f9 843d 4f77 9abe ca67 7dbd
000003c0: bb7a 223e b6cd b7be 9ae8 43be c972 6e3e
000003d0: 4ffa a0be 6026 debd b577 c6bd 6bf9 2ebe
000003e0: edac 0d3e 891e fc3c 3e96 473e b8cd adbd
000003f0: 8efd 9ebd e6c5 f23d 21e8 6e3d 7971 233e
-0.28236073 0.35393402 -0.2731902 -0.16442437 -0.29383796 -0.3293597 -0.1787734 -0.23499914
-0.17079298 0.06143872 0.14886712 0.2041742 0.09668065 0.1556995 -0.04489725 0.24236488
0.15830366 -0.037035394 -0.32752565 0.2167925 0.2957787 -0.14912364 0.054039598 0.26252317
0.2614652 -0.21859851 0.14233528 -0.15459724 -0.35395408 0.19113053 0.35729477 0.32906803
0.045675028 0.32917663 0.13208506 -0.2797777 -0.34482598 -0.08634839 -0.13244902 -0.35069996
-0.21074952 -0.34828213 0.004663172 0.27231377 -0.39247778 -0.31671453 0.25883 -0.09012117
0.15387279 0.33138946 0.06447768 -0.42596522 -0.19467437 -0.22156978 0.33395955 -0.06777265
-0.30687657 -0.12021669 0.3100437 -0.12303453 0.16395275 0.1099775 -0.021246508 0.30672222
-0.08834366 -0.26648208 -0.24432376 -0.15735978 -0.3523136 0.16992861 0.22612207 0.07738625
-0.26027465 -0.049707297 -0.9343718 0.014107208 0.3620592 0.137981 -0.17450897 -0.019676562
-0.0865074 0.2638715 0.1860129 0.10533491 0.07767231 -0.2929872 -0.37179777 0.3392395
-0.22980724 -0.07361147 -0.13518994 -0.31418556 -0.29109198 0.10549432 0.013148768 -0.13985735
0.00033634956 -0.2834977 0.04401318 -0.2800896 -0.34370577 0.06632381 0.041988187 0.21371917
0.3613811 -0.23447108 -0.28678757 0.1644983 0.28085056 -0.24045062 0.026722642 0.13808592
-0.36099997 -0.03477733 -0.09957835 -0.010982433 0.051648922 -0.26676905 -0.22298558 -0.20407502
-0.19182122 -0.16803412 0.26810926 0.21516897 -0.24996027 0.14277866 -0.09428938 0.04792526
-0.26610953 0.14084983 -0.19565718 0.06904498 0.26591057 -0.11335413 -0.35526374 0.04367174
-0.2405756 0.004342041 0.18947245 0.22043931 -0.4958059 0.21070005 -0.15182854 0.3544753
0.5787963 0.28995043 -0.20770055 0.012269499 0.24766946 -0.35896444 0.33324322 -0.11638182
-0.39011464 0.23949738 0.29356056 -0.096450165 -0.27547222 0.18904613 -0.6931726 -0.23312417
0.09361862 -0.22265506 0.22327836 -0.13135211 -0.0094733685 0.5191075 0.023585634 -0.43978015
0.12428601 -0.2780053 -0.24737121 0.052325044 0.015693175 -0.07495603 0.36998862 -0.3742785
0.10298889 0.26955265 -0.024873631 0.39973703 0.097438544 -0.21431085 -0.14505118 -0.09681961
0.35690024 0.07632627 0.13944016 0.34284443 0.046392776 0.14106488 -0.36397943 -0.31520572
-0.24538124 -0.20272598 -0.26804578 -0.13972723 -0.11881781 0.31525588 0.1912104 0.1873187
-0.14565298 0.13547054 -0.11272321 -0.1845246 0.34412697 -0.13627437 -0.37921605 0.20592704
0.10495753 -0.033552296 0.14766087 0.27473378 -0.47668388 -0.054803185 0.1948631 -0.20853099
0.19963658 -0.13691784 0.062668756 0.3839326 -0.19676185 -0.3307443 -0.36255375 -0.028281491
0.14451616 -0.091060504 -0.15423784 0.16219178 -0.68520576 0.18594015 0.35415253 0.018600613
0.14102493 0.12869355 -0.46622628 0.15548323 -0.34871742 0.0649289 -0.3016915 -0.06186656
0.1586713 -0.35899132 -0.19131699 0.23285975 -0.3144097 -0.10847163 -0.09690801 -0.17087333
0.13835497 0.030776279 0.19490907 -0.08486503 -0.077632055 0.118541524 0.058326844 0.15961255

linear_layer.0.bias f4 [256]
00000000: 0038 693e 1a94 cfbe 353a e73d ca6a 9c3e
00000010: dba0 dcbc fc17 96bd c6c3 81be bef7 163e
00000020: 3506 13be 3c17 d13d f933 9a3e d166 933e
00000030: 0b50 8fbe df05 3cbe 9599 cf3d 6276 403d
00000040: 5c61 91bd 181c 03bd 0802 b8be 6c41 a7bc
00000050: 2c7b d4bd ce30 5a3e ad74 f33d dcec e7bd
00000060: 0fac 9bbe 7956 ac3e 3384 5abd d31a 4c3e
00000070: 2ab5 d03d 8a57 36be f4fa b2bd 5f21 d53e
00000080: 50d5 bc3e 170a 4f3e bce9 4c3d 4a8e 273d
00000090: 32f2 713e c86d 823e 02a5 7c3e f819 a3be
000000a0: a3c5 c5be 585d 4ebd 3b79 28be 4312 f3bd
000000b0: 36ee 213e a901 99be aea0 5c3e 41d8 b43d
000000c0: 1775 b03e 4820 a5be 7d38 aabd fa5c ddbd
000000d0: 40ae 0e3d 1ad9 253e 1c43 803e 69df c5bd
000000e0: 4abb 8fbe 3ff7 8fbd 04c0 913d 0cb0 b93d
000000f0: 6f18 a33e cb4f 4d3e c2f6 a3bc f34f 93be
00000100: d618 37be da03 6fbe b7fd b13d 8f08 213d
00000110: 007e c33e 7524 b4be 61e2 a5be ec7f 28bd
00000120: 3585 80bd 4f16 983e 887d 82be 7711 21bc
00000130: 0bae b33d cab7 74be 5b77 e7bd 1b6d ccbd
00000140: 72f3 62be 30d0 3b3e 96d5 d6be 3412 cebc
00000150: 6ee5 48bd e1d5 9bbe c6fd 723e 8522 1abe
00000160: 796c 8b3e 46d2 893d 51ce 88bd 21b5 05be
00000170: f238 eb3d dd4c 9abe bb7e a8be bb94 5c3e
00000180: 53db b2bd ae40 9abe 858d 83be fd57 3d3d
00000190: 367d b23d 5af3 2c3e c5fb cbbe e6fc b0be
000001a0: f3c2 edbd 20e0 bbbe 88c5 3e3e a0be 8abe
000001b0: b218 62bd d1d8 bd3e b278 f8bd 772f 053e
000001c0: daec 33be 44c8 f5bd 0b23 c13e 4030 413e
000001d0: 8576 7f3e 857b f83d 8bdb 713e 84ad a6be
000001e0: 60ff 8ebe d741 44be b696 88be 79e0 113e
000001f0: 92af bf3e c98b 9bbe ec6f 4f3e f32a 9cbe
00000200: 68cb cbbe 5533 633e 3c74 b4bd b68a fabe
00000210: 3ca0 66be 4369 17be 9a9e 453e d974 cdbe
00000220: 4ee1 bdbe d285 3c3e 3c9f 63be 1102 8cbd
00000230: 3043 c4be f3e7 4abe 9810 81be 0b35 d8be
00000240: 17b4 65bd f0b1 b83e cdc1 a33e bfd9 6fbe
00000250: 7b73 d03d e948 1bbd d948 80be ac77 21be
00000260: 7cb0 85bd 1dff 91be e3c3 88be feee 4bbe
00000270: 97ff 13be fc74 66be c58f 4c3e c474 0e3e
00000280: 0d0a 5b3d 6725 95be 8e58 6b3e b15d ac3d
00000290: 332e 0c3e 85c2 e43d 1787 a5be d4d4 4fbe
000002a0: a002 02be 9593 89be 3ff3 8d3e cbec 7b3e
000002b0: e66d b43e 45af 8a3e 26a6 89bd 9f51 00be
000002c0: c396 a8be fc90 043e 892d 783e 5a11 f4bd
000002d0: 1f3e bc3e 0f7f 783d 7763 1ebd 05ae 963e
000002e0: 9438 9fbe 621b 25bc 164d e5bd 89f6 a7bd
000002f0: dc7a 8f3e f152 9b3e 9043 713e 4d8e bfbe
00000300: 1da8 a6be 71e3 7f3d 149e 54be e620 763e
00000310: aa20 8dbe 9e6c 283e 73ba bdbe d5e6 693d
00000320: e686 3a3e c851 9dbe 8918 98be 56a7 afbd
00000330: f3e6 ebbd d931 ec3e c857 963d 99a1 57be
00000340: 65ee bbbe 1058 80be 7278 1c3e a639 a53e
00000350: 1a07 85be bef8 893e f005 d438 e722 c33c
00000360: a1e2 2e3e 1e44 8fbe 5152 e8be cb36 b4be
00000370: 2985 263d 7777 ee3c 2cf1 f7bd 55f2 7bbe
00000380: 984d a6be 8387 1bbe 8da8 56bd 948b ab3e
00000390: f6d2 8b3d 3cda 16bd 4514 b3bd 8d61 e7bc
000003a0: 31d4 a93e 6b44 333e 498c 79be 25b1 6a3e
000003b0: 8ed6 603d 8396 38be 5b89 c03d 74fb c8be
000003c0: 2d94 023d 0969 4b3e 18ee afbe 23f1 8d3e
000003d0: 5fa8 abbd 2e0b 24bb 3900 89bd 0c68 e5be
000003e0: 5270 1ebe 53d4 043e 5ab8 773e 2b98 c2bd
000003f0: e5ab 903e 79bb 663e 8c45 cfbe 6caf cb3e
0.22775269 -0.4054268 0.11290399 0.30550224 -0.02693217 -0.073287934 -0.25344676 0.14742944
-0.14357837 0.1020951 0.30117777 0.2878938 -0.27990755 -0.18361615 0.10136715 0.0469879
-0.07098648 -0.032009214 -0.3593905 -0.020416938 -0.10375056 0.2130768 0.118874885 -0.11324474
-0.30404708 0.33659723 -0.05334873 0.19932108 0.10190804 -0.17806831 -0.08739272 0.41627023
0.36881495 0.20218693 0.050027594 0.04090718 0.23627546 0.2547438 0.2467232 -0.3185575
-0.38627347 -0.05038199 -0.16452496 -0.118687175 0.15813527 -0.2988408 0.2154567 0.0883031
0.34464332 -0.3225119 -0.083115555 -0.108087495 0.034834146 0.16196099 0.250512 -0.09661753
-0.28072578 -0.0702958 0.07116702 0.090667814 0.3185458 0.2004997 -0.020015124 -0.28771934
-0.17880568 -0.23341313 0.086909704 0.039314803 0.38182068 -0.35184065 -0.32399276 -0.04113762
-0.06275407 0.2970452 -0.25486398 -0.009830824 0.087734304 -0.23898235 -0.11302062 -0.09981748
-0.2216318 0.18341136 -0.41959828 -0.025155164 -0.049046926 -0.30436614 0.2372962 -0.1505223
0.27231196 0.067295596 -0.06679977 -0.13057376 0.11485471 -0.30136767 -0.32909188 0.21541111
-0.08733239 -0.30127472 -0.25693908 0.04622649 0.08715288 0.16889706 -0.39840522 -0.34567946
-0.11609449 -0.3669443 0.1863004 -0.2709856 -0.055199333 0.3707948 -0.12132396 0.13006388
-0.1757082 -0.12001088 0.37722048 0.18866062 0.24947555 0.121329345 0.23618905 -0.32554257
-0.2792921 -0.19165741 -0.26677483 0.14245786 0.37438637 -0.30380085 0.20257539 -0.30501518
-0.39803624 0.2218755 -0.088112324 -0.48933953 -0.22522062 -0.14786248 0.19298783 -0.4012821
-0.37085956 0.18410423 -0.22228712 -0.06836332 -0.3833251 -0.19815044 -0.25207973 -0.4222797
-0.05607995 0.36073256 0.31983796 -0.23422907 0.10178276 -0.03791133 -0.25055578 -0.15768307
-0.06527802 -0.28514948 -0.2671195 -0.19915387 -0.14452969 -0.22505563 0.19976719 0.1391173
0.053476382 -0.29130098 0.22983 0.08416308 0.13689499 0.11169914 -0.32329628 -0.20296031
-0.12696314 -0.2687041 0.27724645 0.24602048 0.35240096 0.27086845 -0.067211434 -0.12531136
-0.32927522 0.12945932 0.2423612 -0.11917372 0.36766145 0.060668048 -0.038669076 0.2942964
-0.31097853 -0.010077329 -0.111963436 -0.0820132 0.28023422 0.30336717 0.2356093 -0.37413254
-0.32550135 0.062472764 -0.20763427 0.24035987 -0.27563983 0.16447684 -0.37056312 0.057104904
0.18215522 -0.30726457 -0.2970622 -0.08576839 -0.115186594 0.4613178 0.07340962 -0.21057738
-0.36705318 -0.25067186 0.15280321 0.32270545 -0.2598198 0.26947588 0.00010110054 0.023820354
0.1707864 -0.27981657 -0.45375302 -0.35198054 0.040654335 0.0291097 -0.12106547 -0.24604161
-0.32481074 -0.15188412 -0.052406836 0.33504927 0.06827347 -0.03682922 -0.087441005 -0.028244758
0.33169702 0.17506568 -0.24369921 0.22919138 0.054892115 -0.18026166 0.094011985 -0.39254344
0.031879593 0.19864286 -0.3436134 0.27723035 -0.083817236 -0.0025031078 -0.066894956 -0.44805944
-0.15472534 0.1297162 0.24191418 -0.0950168 0.28256145 0.22532453 -0.40482748 0.39782274

linear_layer.2.weight f4 [256, 256]
00000000: 2d98 cebb eb06 bf3c 33bd 903d 152f 533d
00000010: 7cdc bd3d fec9 29bd 2547 f4bc e483 49bc
00000020: 67c6 dabd 5037 34bd 5f07 bf3d 0225 303d
00000030: d80a e33c ac00 413d 8033 81bb 264f 853a
00000040: c066 023c d0ef ee3c 544a 40bd 6450 ca3c
00000050: 43a0 313d 9dcf 47bc 3e84 80be 9b78 22bd
00000060: 4a49 12bd 9ae2 ce3c 3fc5 c83d 46bb 47bd
00000070: c89a c93d 2427 d6bc ea9c 90be 8972 a93d
00000080: dea1 513d 8cb4 413d a406 823c 4c01 bfbc
00000090: ae5a d83d bc4f af3c 78df 62bc 15ad ea3c
000000a0: 6e89 873c 7cd9 c63d f806 74bc b759 cdbc
000000b0: 981e 51bc bb52 923d 8f5d 22bd 17d6 c03b
000000c0: 4885 29bc 421b 80bd 726c 75bd 48cb bc3d
000000d0: 109d c83b 2e14 163e 4882 0abd 405a f7bb
000000e0: f4e9 6dbd 7cef a13c 5a98 1a3d e8c8 7d3c
000000f0: d959 8b3d 1a54 4bbd e9cf 91be 2002 6cbc
00000100: 8fb0 7a3d cb64 edbb c63f 6cbd 7558 993d
00000110: d257 0c3e c079 863c e057 0cbc 0249 36bd
00000120: d0f9 223d 694f 8b3d e13f 413b e469 72bd
00000130: b19b a63d 80e6 393d 5473 2c3d 19b4 7bbe
00000140: 661b ddbd cc35 70bd 6b56 a73d 7c4e 44bd
00000150: f509 8abc 7d24 bcbd 6f70 353d 8745 5bbe
00000160: 36dc be3d 7807 393c 7867 183d fe0c 663d
00000170: 4f17 8b3c e641 29bc 310c 2ebd 5314 65bc
00000180: be64 86bd cf89 05bd ec57 9c3c 0eb6 c4bd
00000190: 44c2 b9bc 92fa 2abd a22c b0bc eda2 80bc
000001a0: 1ccc c4bc 4062 bc3b 20c1 7dbd a0d9 563b
000001b0: b7a2 263a c798 5dbd b705 59bd dc0d a23c
000001c0: daf5 1a3e 9030 a13d ee51 52bd ce42 21bf
000001d0: 306e 7ebd 2503 c13d 9f5a 3fbd e8e9 2cbd
000001e0: 5978 c53c 867e c43c a508 8e3d 3c51 5fbc
000001f0: 0e26 44bd 5d51 3cbe 9f1b 883d 77c2 2e3d
00000200: 490c 4ebd b676 ef3d 92d9 353d 2128 cfbd
00000210: 94b0 433d 615f 8b3d 564c 10bd ce78 4c3d
00000220: 7735 02bd 2a25 3a3d 82a5 ad3c 61dd 1ebd
00000230: 0d70 a7bd 1058 22be 71c9 85bd e1d4 3cbd
00000240: 9e22 68bd d0ef 07bc 34cd 22bd 5580 cbbe
00000250: e859 263d fadc 933c 1b21 11bc 3df0 52bd
00000260: 71a0 0a3d 6cea 843c 0fb2 1dbc f2d5 6c3d
00000270: 2491 803d 8ff8 e7bd 0276 18bd 7651 793d
00000280: 5812 743c 002e c5ba c6ed 7a3c dea2 10bd
00000290: a724 103d 8d2c 9b3d 5d1a 65be f6d5 493d
000002a0: cb79 623d ab9a c53d 9ec3 1bbd de70 593d
000002b0: 5a5c 4f3b aa07 0dbd 5749 9fbd a59d 093d
000002c0: 308e 4a3d 961c 833d 14b5 7d3d 00c8 4abd
000002d0: b07c e9bb 247b 5abd f7a9 b2bc f782 bd3d
000002e0: 9b45 b7bd 924b f6bd 4781 b83c 927a 4fbd
000002f0: e061 c43b a091 133d 2ca3 3d3d 5d1f 1fbd
00000300: 7ac1 633d ae56 8ebc d8c4 debc 1717 8b3b
00000310: 506f f7bd e4f1 c2bc d435 723d c4ba f7bc
00000320: f633 4abc c269 883d 043c 3fbd 374e e83c
00000330: a6a7 4fbd 4265 3f3d bac2 0abc 1a8c 603d
00000340: bc66 ac3d 2668 513d 3e61 f8bc 3f56 c43d
00000350: 2451 9e3c c611 933d aeb5 093e 48b5 16bd
00000360: 64e2 7d3c bd02 0c3e 3981 603d 07a0 7c3c
00000370: 89a6 96bd 014c b43c 457e 50be d862 33bd
00000380: 7c23 83be c7d5 cabc e4d1 56bd edfc 9ebd
00000390: e45e e9bd b024 38bc 355e 8c3d 76a4 6c3d
000003a0: 90bb 8ebc b0ea 053c 3873 4d3b 4acb 8d3d
000003b0: cca3 0f3d cb7f d03c 66d4 48bd 45e8 0b3d
000003c0: 6516 ec3d a848 e03c 00ab 61bd 150b 51bd
000003d0: e523 033d 11ba 5f3d 6e33 85bd 14b7 c1bb
000003e0: 3e37 b43c d6ee 52be a268 2b3c a1e4 4dbc
000003f0: eff3 a83c 76db ecbc 1c24 b9bd 497f 1f3e
-0.006304762 0.023318728 0.07067337 0.051558573 0.0927057 -0.0414524 -0.02981908 -0.012299512
-0.106823735 -0.043998063 0.09327578 0.043004043 0.027715132 0.04711978 -0.003942907 0.0010170683
0.007959068 0.029167086 -0.046945885 0.024696536 0.043365728 -0.012195495 -0.25100893 -0.0396658
-0.035714425 0.025254536 0.09803247 -0.048762582 0.09843975 -0.02614171 -0.28244716 0.08273799
0.05117976 0.047291324 0.015872307 -0.023316048 0.10564171 0.021400325 -0.013847224 0.028646985
0.016545024 0.097094506 -0.01489424 -0.025067193 -0.012763642 0.07144686 -0.039640006 0.0058848965
-0.010346718 -0.06255199 -0.059917875 0.0921846 0.006122239 0.14656135 -0.033815652 -0.0075486004
-0.058084443 0.019767515 0.03774295 0.015489794 0.068042465 -0.049640752 -0.28478935 -0.0144048035
0.061203536 -0.0072446815 -0.057678007 0.07487575 0.13705376 0.016415477 -0.008565873 -0.04450322
0.03978902 0.06802256 0.0029487538 -0.059183016 0.081351645 0.045385838 0.042102173 -0.2458042
-0.107962415 -0.058645055 0.0817078 -0.04792641 -0.016850451 -0.09186647 0.04429668 -0.21413241
0.09319346 0.011293285 0.03720805 0.056164734 0.016978888 -0.010330653 -0.042492095 -0.013981896
-0.06562184 -0.032602128 0.019084893 -0.09605037 -0.02267564 -0.04174287 -0.021505658 -0.015702689
-0.024023108 0.005749017 -0.061951756 0.0032783523 0.0006356644 -0.054100778 -0.052983966 0.019782
0.15132847 0.07870591 -0.051347665 -0.6299256 -0.0621168 0.09424428 -0.046717282 -0.042215258
0.024105238 0.023986112 0.069352426 -0.013630208 -0.047887854 -0.18390413 0.06645893 0.042665925
-0.050304685 0.11692564 0.044396944 -0.10115076 0.04777582 0.068053015 -0.03522905 0.049919896
-0.03178927 0.0454456 0.021197084 -0.038785342 -0.08175669 -0.15853906 -0.065325625 -0.046101455
-0.05667364 -0.008296922 -0.03974648 -0.39746347 0.040613085 0.018049706 -0.008857991 -0.05149864
0.033844415 0.016225062 -0.009624972 0.05782122 0.062776834 -0.11326706 -0.037221916 0.060868703
0.014896952 -0.0015043616 0.015315479 -0.035311572 0.035191204 0.07576857 -0.22373338 0.049276315
0.055291932 0.09648641 -0.038028352 0.053086154 0.003164074 -0.034431137 -0.0777766 0.033597607
0.049452007 0.06401937 0.061940268 -0.04950714 -0.0071254596 -0.053340092 -0.021809561 0.09253495
-0.08948823 -0.12026133 0.022522582 -0.050654 0.005993113 0.03602755 0.04629819 -0.03884827
0.055604436 -0.017375316 -0.027193472 0.004244696 -0.12081778 -0.023796983 0.059133366 -0.030240424
-0.01234149 0.06660797 -0.046688095 0.028357608 -0.05069699 0.046727426 -0.008469278 0.05482111
0.084180325 0.051124714 -0.030319806 0.09586763 0.0193258 0.071811244 0.13448212 -0.036793977
0.01549587 0.1367292 0.054810736 0.015419013 -0.07355983 0.022008898 -0.20360668 -0.043795437
-0.2561301 -0.02476014 -0.05244626 -0.077630855 -0.11395052 -0.011239216 0.06853906 0.05777403
-0.017423421 0.00817363 0.0031349193 0.0692354 0.03506832 0.025451561 -0.049030684 0.034157056
0.11527709 0.027378395 -0.05509472 -0.05103596 0.032016654 0.054620806 -0.0650395 -0.005911717
0.021998998 -0.20598921 0.010461958 -0.012566716 0.02062413 -0.02891324 -0.090400904 0.15575899

linear_layer.2.bias f4 [256]
00000000: aab5 633e 8e73 df37 37f3 913d b848 3b3d
00000010: f6de 63bd 9ef1 763c cd2c 84bd 0ac6 05bc
00000020: d842 a5bc c1be 4e3e 27bd 48bd 8ee4 963c
00000030: 8f7d 9f3d 3cdf 933b 98c6 283e 90b3 453d
00000040: a33c 463c 9871 343d 5376 833d 2019 78bc
00000050: 8e97 76bd 06c2 26bd e2fe 083d 5b73 273d
00000060: de5e 52bd 9370 88bd b2bf 9ebc 4079 543c
00000070: 1972 c9bd 1f27 133d 0351 6e3c c24a 393e
00000080: d8ae e73c 558e 1e3d 8dd5 3d3c 9656 89bd
00000090: 3f96 0b3d 00a2 0f3e d570 8b3c 8788 b5b8
000000a0: 4bb4 8dbd 906a 8abd 98e6 d4bc 74a0 153d
000000b0: 89dd 093b 14f2 e53c 9f2b a73c 7c5e 803c
000000c0: d694 1fbd a427 80bc f8c2 87bd 612b 72bd
000000d0: 9c54 51bd e63d 77bd 83e4 a8bd 7da1 a13c
000000e0: 03f8 d1bb a54b 1f3d b9fd 4dbd 04ed a3bc
000000f0: 0273 02bd 4b2a 5bbc 0362 b8bd 44ac 02bd
00000100: ccff 263d 8ac9 1fbd ee3d 0e3d f6ad f5bc
00000110: 115b 04bc 8922 85bd d3f0 b13b 8c6f a9bd
00000120: 5508 1c3d 21a4 82bd 33e2 74bd d947 25bc
00000130: 250a 8a3a 8d71 67bd 7426 19bd a5ec 08bd
00000140: 5e6b 66bd 0190 38bd f2a0 d1bc 51e8 233d
00000150: e59d d43d 6657 9ebc 32ce d93c 65ed 853c
00000160: c7c1 23be 140d 7bbd 9ab4 123d 48f5 7bbd
00000170: 5c4c 0a3d a09a e23c 8371 2e3c 1c84 0d3d
00000180: cbdf 303d 0e6a 3cbd 1a14 2a3d 95cb 17bd
00000190: 6864 4fbd 3a3c 453d 458e 193c 96de 0fbe
000001a0: 7b81 61bd c80d 583c 862c 103e 2f10 79bd
000001b0: 7418 a0bc 1955 1d3e c5af 3fbd 35aa b1bd
000001c0: f2de 60bd 104f fabc 5d99 6d3d 6cad 91bd
000001d0: 8a1b 833d b01e 9a3c 3a51 81bc ed14 523e
000001e0: 19e3 71bd c0c6 edba 08d4 59bc 60ab 9cbd
000001f0: 7cbb 563e 298c 033d 75a7 203b 2b1d 6b3e
00000200: aaf1 d03c 440f 44bd c03b 8cbb 2fe8 2e3b
00000210: cf50 bcbc 1d3c 68bd 3493 373d 1b53 21bd
00000220: c043 3a3c 2c46 193d 4966 80bd a1a5 033e
00000230: e099 363d 84d1 bcbc a3df f63c 2136 9fbd
00000240: a1c5 383e 7d98 813c d19d 053d 927f aebd
00000250: 9210 23bc 734b 723c 1b3d 88bc 4bac 1b3c
00000260: 8c99 f3bb f8a9 c53c bc2b 983c f8e9 b63c
00000270: 744f a3bc 3257 243e a93b fabb d20a 18bc
00000280: ba24 363d e1a3 653e 90c8 42bd ca17 97bd
00000290: 1ca7 debc acff 963c 44fd 92bc b95a ccbc
000002a0: cd30 7ebd 8657 2b3e bf93 183e e219 e43d
000002b0: ce7b 0bbd f014 8abd 03b9 7a3c 88c3 d5bc
000002c0: 0c80 fabc cd21 55bd 702b 4fbb 55dd 47bd
000002d0: 00fd 26bd 23fb ef3d ee46 abbd 2f99 8f3c
000002e0: d81c 35bc 72d6 e3bd c4ce 563d d262 eabc
000002f0: 1b89 ed3c bee0 8dbb 6be7 8f3c 5c03 213d
00000300: 14ef 363c 5a92 4bbd ec12 37bd 2246 6f3c
00000310: 35e6 053e f03e 2e3e 4cdc 19be 0757 a6bc
00000320: 7c71 d3bc f14b 443c 3845 9cbd ec41 66bd
00000330: cab4 903e dc15 95bd ed3e 043e 9d5a 5bbd
00000340: 7b3a 8dbc a41f 04bb bd70 15bd 8a5e c23c
00000350: 12e6 42bc 04e7 bdbd e432 57bb 6367 013d
00000360: 17b2 83bd f430 7abd e1f9 4ebd e31c 71bc
00000370: 1103 113c 701b d7bc de63 0d3e 717a 92bd
00000380: 3363 8cbd be1e 913c 86cf 8fbc b5b0 65bd
00000390: 818c 5cbd e517 273e b0d1 ea3b 045a a3bd
000003a0: 0246 3dbd c8cc 9abc 4e45 e83d 7ea1 cfbc
000003b0: 6052 46bd e771 27bd 2d92 06bb 2730 213c
000003c0: 6353 113e 2044 1b3e 5aee 263d a70b eb3a
000003d0: c05f 8abd 21c3 d9bc 3457 f93b f31c 54bd
000003e0: 0ed0 25bc baa0 463e 9a21 073d 841d 79bd
000003f0: ad3a 01bd 93cd fe3d 0095 9b3a 2d08 dd3d
0.22237268 2.6637481e-05 0.07126468 0.045723647 -0.055632554 0.015072254 -0.064538576 -0.008164892
-0.020173475 0.20189954 -0.049008515 0.01841953 0.0778762 0.0045126956 0.16482008 0.048266947
0.012099418 0.044053644 0.06419053 -0.015142709 -0.060203128 -0.04071238 0.0334462 0.040881496
-0.051360004 -0.06662097 -0.019378517 0.012968361 -0.098362155 0.03592598 0.014545682 0.18094924
0.028281614 0.038709957 0.011586559 -0.06705968 0.034078833 0.14026642 0.017021576 -8.656183e-05
-0.06919154 -0.067586064 -0.025988862 0.036529973 0.0021036586 0.028069533 0.020406542 0.015670054
-0.0389603 -0.015643902 -0.06628984 -0.0591234 -0.05110608 -0.060361765 -0.0824671 0.019730324
-0.006407739 0.0388905 -0.050290797 -0.020010479 -0.03184796 -0.013376783 -0.09003069 -0.031902567
0.04077129 -0.039010562 0.03472703 -0.029990178 -0.008078353 -0.06500728 0.00543032 -0.08273229
0.038093884 -0.06378961 -0.059786033 -0.010087931 0.0010531588 -0.056504775 -0.037390187 -0.033428807
-0.056254737 -0.045059208 -0.02558944 0.040016476 0.103816785 -0.019328784 0.02658758 0.01634855
-0.15991889 -0.06129177 0.035816766 -0.061513215 0.03376423 0.027661622 0.0106471805 0.034549817
0.043182176 -0.04599958 0.041523077 -0.037059385 -0.050632864 0.04815314 0.009372299 -0.14049754
-0.055055123 0.013186879 0.14079484 -0.06080645 -0.01954291 0.15364493 -0.046798486 -0.086750425
-0.054900117 -0.030555278 0.058007587 -0.07113156 0.06401737 0.018813461 -0.015785802 0.20515795
-0.059054468 -0.0018140897 -0.013295181 -0.07649875 0.20969957 0.03211609 0.0024513875 0.22960345
0.02550586 -0.04786612 -0.0042795837 0.0026688685 -0.022987751 -0.056697953 0.04481812 -0.039385896
0.011368692 0.037420437 -0.06269509 0.12856151 0.04458034 -0.023049124 0.030135935 -0.07773996
0.1804414 0.015819782 0.03262121 -0.08520426 -0.009952681 0.014788496 -0.0166307 0.009501527
-0.0074340757 0.024128899 0.018575542 0.022328362 -0.019935347 0.16048887 -0.0076365066 -0.0092799235
0.04446862 0.22425796 -0.047554553 -0.07377584 -0.027179293 0.01843246 -0.017943032 -0.024945604
-0.06205826 0.16732606 0.1490011 0.11137749 -0.034053616 -0.06742275 0.015302899 -0.026094213
-0.030578636 -0.052034188 -0.0031611584 -0.048795063 -0.040768623 0.117178224 -0.08363138 0.017529098
-0.01105424 -0.111248866 0.05244328 -0.028611574 0.028996041 -0.00432977 0.017566403 0.039309844
0.011165399 -0.04970012 -0.04469578 0.014604123 0.13076098 0.17016196 -0.15025443 -0.02030517
-0.02581095 0.0119809965 -0.0763039 -0.05621521 0.2826293 -0.0727956 0.1291463 -0.053553212
-0.0172398 -0.002016046 -0.03648447 0.02372672 -0.011895673 -0.09272578 -0.003283673 0.031592738
-0.06430452 -0.06108184 -0.05053127 -0.01471636 0.008850829 -0.0262582 0.13807628 -0.0715226
-0.06854858 0.017714854 -0.01755501 -0.056076724 -0.053844932 0.16317709 0.00716611 -0.079761535
-0.046209343 -0.018896475 0.11341344 -0.02534556 -0.048418403 -0.04088011 -0.0020533905 0.009838141
0.14191966 0.15162706 0.040754654 0.001793255 -0.06756544 -0.026582303 0.0076092724 -0.05178542
-0.010120405 0.1939725 0.03299103 -0.060819164 -0.0315501 0.12441554 0.0011869967 0.10792575

linear_layer.4.weight f4 [1, 256]
00000000: 39dd 953d 2ce9 a8bc ec15 543c 1a03 fc3c
00000010: 5138 363d c136 393d ff42 7e3c 1c89 0d3c
00000020: 378c 57bd 8153 523d d345 3fbc 3c47 0c3d
00000030: 6588 4c3c 04ad 13bd 2333 843d ef73 4abd
00000040: 7763 b73c f37f ebbc c06f 03be d9f0 1e3d
00000050: e36e a5bb d6e1 8ebd ed8b 76bd baba 1f3d
00000060: 3de4 49bd e136 063c 585a bdbc b0ef 473d
00000070: 8d86 72be 303a 633d 678a c6bb a78d d53d
00000080: 80e1 e2ba 38b2 87bc f7b0 2bbc 16ed debd
00000090: b730 8cbb bfa9 033d b85b 8dbb 416a 3d3d
000000a0: ed49 a93b 9d99 18bd 1dc7 21bd 2af8 303c
000000b0: eec4 2fbc 40d8 9abb e53e 3dbd f5d7 8cbb
000000c0: ae12 afbb 9a51 443b 8d2b 383d d0ec e43c
000000d0: b126 3fbb 03d4 7a3c 2593 f13c ac28 e83c
000000e0: 1557 2c3d 1f32 2bbd b7c6 4bbd ba99 433d
000000f0: b81d 0d3c 4dc7 413d d7ca 56bd 84c4 4ebd
00000100: b7c6 42bd 7d77 17bd 0f66 e83c 447a 6f37
00000110: d35c 713d 8e0e aa3c ab12 5fbe 1af7 e73b
00000120: 46cf 6b3a 3307 d93c ceef 513c fa10 21bc
00000130: 1640 0fbd aadf bb3a 461b d9ba 54bd 493d
00000140: d99f 803c 07c4 7bbd d486 973b 7cb4 203c
00000150: ab32 903d bdfa 403d 6bb0 743b e78e ed3b
00000160: e9e5 c4bc 7a16 d9bc 2038 44bd cd47 bcbc
00000170: 7e4f 143d 3db0 04bd 0c40 e53b 68a8 953c
00000180: 7d1a 083d 5ec6 a43b 40d2 90ba 922b 5ebc
00000190: 8042 de3c 486b 2bbc d9b6 253d 3ef0 87be
000001a0: 3ada 1c3c 6554 27bc 3c25 ea3d f509 1abd
000001b0: 7aba 24bd 65b9 3d3d 8c7d 4a3d 98ab 48be
000001c0: 90d0 743d a59f 793c d209 213c 3cce fe3b
000001d0: 5e24 473b 065b 5d3c cf0c d83c b5be ca3d
000001e0: 8b71 53bd 8a19 55bd 544c e9bc e6d3 f1bc
000001f0: 351d 1d3e 5457 83bc 55c2 083d cd82 8e3d
00000200: 2773 5cbd b12a cb3b 8044 e83a 9508 b63c
00000210: ee29 4d3c dc02 e63c 295b 38bb 587b d63c
00000220: a07d 5e3d e7c4 573c 52fa 34bc 1618 b03d
00000230: 00f9 033d 2aee ae3c 0db2 ec3c 53e2 82bc
00000240: e17c 5d3d 4b25 f83c a12f 3e3b e45b 89be
00000250: b8c7 ee3c 4437 1d3c 2e3e 593d 20e5 2abc
00000260: 3dcb 39bd b16d 603c 4824 2ebc 90f1 52ba
00000270: b4e5 b73c af8a a43d 361a 3d3d e375 81bc
00000280: 3f9a c3bc 47af 7c3d 38ec e03c 6b80 1b3c
00000290: dd8a 1dbd dadf 3fbd 9330 c33c ee6a 153d
000002a0: 66a5 153d 9715 c83d ec37 8a3d b848 8c3d
000002b0: 3a51 ee3b 5c03 1cbd 0146 6d3b d859 6ebd
000002c0: d42c 7fbd 4559 31bd 6599 5d3c 3cbb 14bd
000002d0: cede cabc d30a a93c 7b87 f6bc 0d25 f93a
000002e0: 31c2 3abd 9090 87bd a8d3 5abc 2239 093d
000002f0: 4af2 0e3d e03c 41bd 2eb2 9ebc 0cb5 8b3c
00000300: 0e55 99bc 54ac 4c3a 83fb 3bbd ee9b 203d
00000310: 5b38 173d b226 a43d 5622 acbd 5075 cdbb
00000320: 0b24 8abd 029d c23c b039 a43c 9845 20bd
00000330: 92c0 0d3e 361e a1be 64e2 a53d bc9d 103d
00000340: 1623 aa3b 9df5 12bd 0085 8cbd a5cd ba3c
00000350: 8374 143d 1212 653c 6006 7abc b68a 1b3d
00000360: 0ba7 44bb 5360 30bd 1688 dbbd 3633 60bd
00000370: 570e 51bd 0351 ab3c 539b f23d 1d0d 3f3c
00000380: 387a eebc 39c4 c3ba d50b f93b 8cd7 d03c
00000390: e029 bbbe 56f7 b73e d1d9 f73c dbb9 96ba
000003a0: a23a 7ebd b02f 90bb 5afb 363d d997 683d
000003b0: 9064 b53b ad06 66bb 8940 d73a fc71 83bc
000003c0: bb4c 283d 652b a13d 9158 1a3c a317 2f3c
000003d0: d0f5 46bd d889 103a fb0e 6f3c fa04 14bd
000003e0: 6990 f7bd d47b 043e 257d 843b 7071 8fbc
000003f0: 904a 1abd 06c1 673e f41d a13c 530e b43d
0.073175855 -0.020618998 0.01294468 0.030763198 0.0444873 0.045218233 0.015518903 0.008638646
-0.052623954 0.051349167 -0.011674362 0.034247622 0.012483691 -0.036053672 0.06455066 -0.04942697
0.022386296 -0.028747534 -0.12835598 0.03880391 -0.005048619 -0.069766685 -0.060192037 0.038996436
-0.04928993 0.008191795 -0.023114368 0.04881257 -0.2368414 0.055475414 -0.0060589793 0.10427409
-0.0017309636 -0.016564474 -0.010479203 -0.10885064 -0.004278268 0.032144304 -0.0043139122 0.04624391
0.0051662833 -0.037255872 -0.03949653 0.010801354 -0.010728104 -0.004725486 -0.04620256 -0.004298205
-0.005342803 0.0029955865 0.04496341 0.027944952 -0.002916735 0.015309337 0.02948911 0.028339706
0.042075235 -0.041795846 -0.049750056 0.047754027 0.0086130425 0.04730921 -0.052439537 -0.05048038
-0.04755279 -0.036979187 0.028368978 1.4273977e-05 0.058926415 0.020758893 -0.21784465 0.0070790173
0.0008995425 0.02649269 0.012813522 -0.009830708 -0.034973226 0.0014333625 -0.0016563914 0.049252823
0.015701221 -0.061466243 0.004624227 0.009808656 0.07040914 0.047114123 0.0037336599 0.0072497013
-0.024035411 -0.026499975 -0.047905087 -0.022983456 0.036208622 -0.032394636 0.0069961604 0.018268779
0.033228386 0.00502853 -0.0011048988 -0.013560193 0.027131319 -0.01046259 0.04045758 -0.26550478
0.009573514 -0.010212992 0.11432883 -0.037607152 -0.0402169 0.046319384 0.049436137 -0.19596708
0.059769213 0.015235816 0.0098290015 0.00777605 0.0030386667 0.013510471 0.026373295 0.09899656
-0.051621955 -0.05202631 -0.028478779 -0.029519986 0.15343173 -0.016032852 0.033388454 0.06958542
-0.053820755 0.0062001576 0.001772061 0.02222089 0.012522204 0.028077535 -0.0028130508 0.026181862
0.054319024 0.013169504 -0.011046009 0.08598344 0.032219887 0.0213538 0.028893495 -0.01597706
0.054074172 0.03029122 0.0029020088 -0.2682792 0.029147968 0.009595696 0.053037815 -0.010430604
-0.04535984 0.0136980275 -0.010628767 -0.000804686 0.022448398 0.08034264 0.046167575 -0.015803283
-0.023877261 0.061690595 0.027456388 0.009491066 -0.03846251 -0.04684434 0.023826873 0.03647893
0.03653469 0.09769743 0.067489475 0.068498075 0.0072728666 -0.03808914 0.0036205056 -0.05819115
-0.06229861 -0.043298025 0.013525342 -0.036311373 -0.024764445 0.020635044 -0.030093899 0.0019008234
-0.04559535 -0.0661937 -0.013356127 0.03350175 0.034899034 -0.047177196 -0.019372072 0.017054103
-0.018717315 0.00078076613 -0.045894157 0.039211206 0.03691898 0.08015193 -0.084049866 -0.0062700883
-0.06745156 0.023756508 0.020047039 -0.03912887 0.13842991 -0.31468362 0.08099821 0.035306677
0.005192171 -0.035878766 -0.06861305 0.022803137 0.036243927 0.013981359 -0.015260309 0.037974082
-0.0030006792 -0.043060612 -0.10719316 -0.05473634 -0.051039066 0.020912653 0.11846032 0.011660841
-0.029111013 -0.0014935798 0.0076002874 0.025493406 -0.36555386 0.3593089 0.03025523 -0.0011499481
-0.062067635 -0.004400216 0.0446733 0.05678544 0.0055356696 -0.0035099194 0.0016422431 -0.016045563
0.0410888 0.07869605 0.00942053 0.010686788 -0.04857427 0.00055137044 0.014590974 -0.03613756
-0.12088091 0.12937862 0.0040432387 -0.017510146 -0.037668765 0.22632226 0.019667603 0.08791795
