data/300_500/models/critic_650.pth (torch, 274455 bytes, 5 tensors)

linear_layer.0.weight f4 [256, 7]
00000000: b927 70be 156b cc3e 9233 5cbe c3b4 d2bd
00000010: e28e b7be 158d 84be 818f eebd 9da3 70be
00000020: 5be4 2ebe 2ba7 7b3d 9f70 183e 0b13 513e
00000030: 8100 c63d b16f 1f3e 275c 0dbd 1cea 7c3e
00000040: 627b 223e 447d 18bd a919 93be acbc 623e
00000050: 674f 923e 3bee 0fbe d32d 6b3d 2201 853e
00000060: 39e4 833e 42d3 35be fc8a 113e a076 2bbe
00000070: fbe9 b1be 1e95 453e 78bd b43e 9d86 a53e
00000080: e93e a23d 6247 a73e 4ace f23d 063f 8fbe
00000090: 088d b0be 6dd7 b0bd b7a0 07be f28e b3be
000000a0: b9ce 57be 0952 b2be 86cd 983b b66c 8b3e
000000b0: d9f2 c8be 6828 a2be 5e85 843e 7391 b8bd
000000c0: d490 1d3e ac89 af3e 9a6a 9a3d fe67 d4be
000000d0: 00bd 41be 083e 52be 8b04 ad3e 70fe 7cbd
000000e0: ed1e 9dbe 2b34 f6bd 0cbe 9e3e 87f9 fbbd
000000f0: 3be3 273e e23b e13d 280d aebc b20a 9d3e
00000100: 85ed b4bd 5770 88be 0230 7abe ec22 21be
00000110: 7362 b4be c401 2e3e aae8 6b3e 80dc a73d
00000120: fac2 7bbe 0e80 21bd 186b 64bf 5f5f 063d
00000130: 0326 bd3e e44a 0d3e 7bb2 32be be30 a1bc
00000140: cb2a b1bd 2a1a 873e 2a7a 3e3e d4b9 d73d
00000150: a912 9f3d 6b02 96be 475c bebe cdb0 ad3e
00000160: 9752 6bbe 9cc1 96bd 3b6f 0abe eedc a0be
00000170: 020a 95be 680d d83d ee6d 573c c436 0fbe
00000180: 1358 b039 9c26 91be 2a47 343d e767 8fbe
00000190: 34fa afbe c7d4 873d cefb 2b3d 33d9 5a3e
000001a0: f206 b93e 3019 70be d2d5 92be 3e72 283e
000001b0: a5cb 8f3e b038 76be 71e9 da3c 6566 0d3e
000001c0: fdd4 b8be ac72 0ebd bcef cbbd aaef 33bc
000001d0: d28d 533d f495 88be 5556 64be 0bf9 50be
000001e0: c86c 44be 2311 2cbe 9e45 893e 4155 5c3e
000001f0: 96f5 7fbe 9234 123e 511d c1bd 5952 443d
00000200: b83f 88be 6539 103e ca57 48be 9566 8d3d
00000210: c024 883e 3626 e8bd 21e5 b5be 23e1 323d
00000220: 7359 76be ae47 8e3b 1105 423e d8ba 613e
00000230: 4cd2 01bf 5cbb 543e 1e93 28be 1c4d ac3e
00000240: bc6d 123f 39fe 8f3e 6779 67be 6546 b63c
00000250: c79e 823e a61f b3be 934b ad3e 970a b9bd
00000260: 962c c1be 11bd 723e 9e81 923e fd6d cebd
00000270: 70f5 8cbe fd8f 403e f4d4 2bbf 2a4b 74be
00000280: 921f f13d c0f5 6abe a988 673e 37d5 ffbd
00000290: 4496 433b 7ef3 e13e 02f4 183d 5206 d6be
000002a0: aa89 fe3d b656 8ebe e14e 7dbe c952 563d
000002b0: f98e 803c 8c82 99bd 266f bd3e 3c03 bfbe
000002c0: 542b e53d 26af 873e 186b f7bc 903e be3e
000002d0: 8896 b23d ab9e 59be af23 6dbe f449 17be
000002e0: 0b4b 933e 9f3a 533c 1d51 343e 3ca4 953e
000002f0: 84e4 e7bc 5073 103e 835b babe a562 a1be
00000300: 3845 7bbe 6697 4fbe 4c3d 89be a814 0fbe
00000310: 2e04 e4bd b330 a23e 4353 413e 0b2f 3b3e
00000320: 5d41 d9bd 96e1 0a3e bf4e 01be bbc5 30be
00000330: aa0a b83e b24a e3bd ad3a b5be 3435 013e
00000340: 7449 083e 67f6 70bc f4ec 0a3e e7fa 8c3e
00000350: c46b f0be b6cb 4dbd fe38 0d3e 58d9 51be
00000360: 8c15 533e 99a8 fdbd 80a1 8b3d 43cf c43e
00000370: 90e1 46be 7201 95be 5d3b b8be 51d1 08bd
00000380: cd83 0e3e d734 bebd 6cb3 17be 8f49 273e
00000390: 02b1 2bbf 66cc 433e ba83 b63e a889 0c3d
000003a0: de76 193e c9ba 0d3e e617 ebbe 03c4 4c3e
000003b0: d8bf b1be 21fd 8f3d 4f77 9abe ca67 7dbd
000003c0: bb7a 223e b6cd b7be 9ae8 43be c972 6e3e
000003d0: 4ffa a0be 6026 debd b577 c6bd 6bf9 2ebe
000003e0: edac 0d3e 891e fc3c 3e96 473e b8cd adbd
000003f0: 46c9 89bd 1406 fd3d 1ef3 7c3d 9987 233e
-0.23452653 0.39925447 -0.21504048 -0.10288384 -0.35851198 -0.25888887 -0.11648465 -0.23499914
-0.17079298 0.06143872 0.14886712 0.2041742 0.09668065 0.1556995 -0.03451171 0.2469868
0.1586738 -0.037228838 -0.28730515 0.22142285 0.28576204 -0.14055721 0.05741675 0.25977427
0.25760058 -0.1775637 0.14213175 -0.1674447 -0.34748825 0.19295165 0.35300803 0.32329264
0.079221554 0.32671648 0.11855753 -0.2797777 -0.34482598 -0.08634839 -0.13244902 -0.35069996
-0.21074952 -0.34828213 0.004663172 0.27231377 -0.39247778 -0.31671453 0.25883 -0.09012117
0.15387279 0.34284723 0.07539864 -0.4148559 -0.18919754 -0.20531476 0.3379253 -0.061766088
-0.30687657 -0.12021669 0.3100437 -0.12303453 0.16395275 0.1099775 -0.021246508 0.30672222
-0.08834366 -0.26648208 -0.24432376 -0.15735978 -0.3523136 0.16992861 0.23037973 0.08196354
-0.24586096 -0.039428763 -0.8922591 0.032805797 0.36943063 0.137981 -0.17450897 -0.019676562
-0.0865074 0.2638715 0.1860129 0.10533491 0.07767231 -0.2929872 -0.37179777 0.3392395
-0.22980724 -0.07361147 -0.13518994 -0.31418556 -0.29109198 0.10549432 0.013148768 -0.13985735
0.00033634956 -0.2834977 0.04401318 -0.2800896 -0.34370577 0.06632381 0.041988187 0.21371917
0.3613811 -0.23447108 -0.28678757 0.1644983 0.28085056 -0.24045062 0.026722642 0.13808592
-0.36099997 -0.03477733 -0.09957835 -0.010982433 0.051648922 -0.26676905 -0.22298558 -0.20407502
-0.19182122 -0.16803412 0.26810926 0.21516897 -0.24996027 0.14277866 -0.0942942 0.047930095
-0.26611114 0.14084394 -0.19564739 0.069043316 0.26590538 -0.11335413 -0.35526374 0.04367174
-0.2405756 0.004342041 0.18947245 0.22043931 -0.5071151 0.20774597 -0.16462371 0.3365258
0.5719869 0.28123644 -0.22604905 0.022250364 0.25511762 -0.34985083 0.3384672 -0.09035223
-0.3772933 0.23704936 0.28614515 -0.10079572 -0.27531004 0.18804927 -0.67121816 -0.23856798
0.117736 -0.22945309 0.22610725 -0.124918394 0.0029844204 0.44131082 0.03734208 -0.41801697
0.12428601 -0.2780053 -0.24737121 0.052325044 0.015693175 -0.07495603 0.36998862 -0.37307155
0.11189905 0.26500815 -0.030202433 0.37157106 0.08720118 -0.21251933 -0.23158143 -0.14774305
0.2876819 0.012892394 0.17609067 0.29226863 -0.028307207 0.14106488 -0.36397943 -0.31520572
-0.24538124 -0.20272598 -0.26804578 -0.13972723 -0.1113361 0.3167778 0.18879418 0.18279664
-0.1060817 0.13562617 -0.12627696 -0.17262928 0.35945636 -0.110982314 -0.3539633 0.12617952
0.1330927 -0.014707184 0.13566953 0.27535173 -0.4695722 -0.050243102 0.13791272 -0.20493066
0.20613688 -0.12385673 0.06817913 0.38439378 -0.19421983 -0.29102665 -0.3598279 -0.033402745
0.13917466 -0.09287422 -0.14814538 0.16336654 -0.6706697 0.1912094 0.35647374 0.034310967
0.1498675 0.13840784 -0.4591667 0.19996648 -0.34716678 0.070307024 -0.3016915 -0.06186656
0.1586713 -0.35899132 -0.19131699 0.23285975 -0.3144097 -0.10847163 -0.09690801 -0.17087333
0.13835497 0.030776279 0.19490907 -0.08486503 -0.06727843 0.12354675 0.061755292 0.15969695

linear_layer.0.bias f4 [256]
00000000: ba3a 933e 1a94 cfbe 9d25 d43d 28bf 953e
00000010: 4157 27bd fc17 96bd c6c3 81be 55a8 213e
00000020: 3506 13be 3c17 d13d cbc6 9f3e d166 933e
00000030: 0b50 8fbe df05 3cbe 9599 cf3d 6276 403d
00000040: 5c61 91bd 181c 03bd ab02 b8be 6c41 a7bc
00000050: 3c85 f1bd 6606 5b3e f3aa f53d 66af c7bd
00000060: 0fac 9bbe 8577 ac3e ba6c 09be d31a 4c3e
00000070: 3aa0 b63d 6881 11be 4021 8fbd 55db d13e
00000080: 15e4 bc3e 571c 563e bce9 4c3d 4a8e 273d
00000090: 371a 6b3e f48a 823e 02a5 7c3e 0a79 a4be
000000a0: 98f7 bfbe da2b 45bd 3b79 28be 4312 f3bd
000000b0: 36ee 213e fdfd 98be 0830 503e f103 8e3d
000000c0: 1775 b03e d330 abbe 7d38 aabd fa5c ddbd
000000d0: 40ae 0e3d a940 223e 1c43 803e 69df c5bd
000000e0: 4abb 8fbe 3ff7 8fbd d4bf 763d 0cb0 b93d
000000f0: f531 a43e 1215 4e3e 26bd 8ebc f34f 93be
00000100: 3964 28be da03 6fbe c94c a13d 7304 1d3d
00000110: 006d ba3e 7524 b4be 61e2 a5be 344c 9fbd
00000120: 0cad 58bd 4328 983e 4e1f 7ebe 7711 21bc
00000130: 7e4c 883d 4e62 83be bc00 0dbe 52d8 f9bd
00000140: 9322 67be 30d0 3b3e 016f d5be 3412 cebc
00000150: 7d20 803c e1d5 9bbe c6fd 723e 846d e1bd
00000160: b7e5 8b3e 46d2 893d b58f a4bd 84c8 16be
00000170: f238 eb3d 2acf 99be b542 9cbe 3d57 5c3e
00000180: 53db b2bd ae40 9abe 858d 83be 5c21 143d
00000190: 367d b23d afe2 383e 1709 cbbe 05d4 9ebe
000001a0: f3c2 edbd 20e0 bbbe 88c5 3e3e a0be 8abe
000001b0: 213b 60bd d1d8 bd3e 2f7e d0bd 772f 053e
000001c0: 95d1 34be 1434 07be 0b23 c13e 7cdd 423e
000001d0: 8576 7f3e 5cac e83d 22c5 723e 49d3 a5be
000001e0: 07bf 8ebe d741 44be f440 8ebe 79e0 113e
000001f0: 92af bf3e 23f6 8bbe 1323 563e c297 99be
00000200: 8eb0 cbbe 0c75 423e 3c74 b4bd 4462 f8be
00000210: 3ca0 66be 3d1f 0cbe 9a9e 453e 0cb5 cabe
00000220: 4ee1 bdbe d285 3c3e acf7 58be 03df 84bd
00000230: 797a c2be f3e7 4abe dcb6 57be e32e c8be
00000240: 17b4 65bd f0b1 b83e cdc1 a33e 1037 58be
00000250: 7b73 d03d e948 1bbd d948 80be ac77 21be
00000260: 7cb0 85bd 1dff 91be 18c5 88be 9118 4cbe
00000270: 9439 c6bd 9b81 7abe c58f 4c3e c474 0e3e
00000280: 0d0a 5b3d 6725 95be 8e58 6b3e 395e ac3d
00000290: 552e 0c3e 6bba cb3d 353f b2be d4d4 4fbe
000002a0: 84d9 febd cda2 9dbe 3ff3 8d3e cbec 7b3e
000002b0: f7a9 b53e 45af 8a3e 26a6 89bd d74b 02be
000002c0: c396 a8be 01a6 063e 892d 783e 5a11 f4bd
000002d0: 1f3e bc3e 0f7f 783d afeb 91bd dc36 933e
000002e0: fec8 98be 0e02 feba a11c e1bd 093c a8bd
000002f0: 813c 8f3e 97fc 973e 9043 713e 4d8e bfbe
00000300: 1da8 a6be 8539 9f3d d24a 5cbe 9a9d 783e
00000310: 4778 89be 9e6c 283e baa0 bcbe d5e6 693d
00000320: fe2f 633e e26d 9cbe 8918 98be 1827 96bd
00000330: f3e6 ebbd f65f e83e 1cb5 9f3d 99a1 57be
00000340: 34b9 babe 6da3 7fbe 7278 1c3e 5c3c 9c3e
00000350: 1a07 85be ef18 8c3e 1ecd 85bc e722 c33c
00000360: 656d 2b3e a413 93be 5152 e8be 954b b6be
00000370: 2985 263d c4e2 ff3c ce3a fdbd 55f2 7bbe
00000380: 3faa a8be bbe7 07be 8da8 56bd 48c8 ab3e
00000390: f6d2 8b3d 3cda 16bd 9198 02be 8d61 e7bc
000003a0: 31d4 a93e 3ce1 403e 6d3f 90be bf1c 5e3e
000003b0: 8ed6 603d 1eb3 37be 5b89 c03d 6c84 c3be
000003c0: 82ba ae3c 9810 4b3e 18ee afbe 23f1 8d3e
000003d0: f7e7 bfbd 6b63 72b9 ba57 80bd 902b dbbe
000003e0: 5270 1ebe cf84 0a3e 4c2e 793e 2b98 c2bd
000003f0: 753c 923e a2bb 663e 8c45 cfbe 399a c33e
0.28755742 -0.4054268 0.10358737 0.29247403 -0.040854696 -0.073287934 -0.25344676 0.1578687
-0.14357837 0.1020951 0.31206354 0.2878938 -0.27990755 -0.18361615 0.10136715 0.0469879
-0.07098648 -0.032009214 -0.35939535 -0.020416938 -0.117929906 0.2138916 0.119954966 -0.097502515
-0.30404708 0.33684936 -0.13420382 0.19932108 0.089172795 -0.14209521 -0.06988764 0.4098765
0.36892763 0.20909248 0.050027594 0.04090718 0.22959219 0.25496638 0.2467232 -0.32123595
-0.37493587 -0.048137523 -0.16452496 -0.118687175 0.15813527 -0.29881278 0.20330822 0.069343455
0.34464332 -0.33435687 -0.083115555 -0.108087495 0.034834146 0.15844978 0.250512 -0.09661753
-0.28072578 -0.0702958 0.060241535 0.090667814 0.32069364 0.20125225 -0.017424177 -0.28771934
-0.16444482 -0.23341313 0.07875974 0.03833432 0.36411285 -0.35184065 -0.32399276 -0.077782065
-0.052899405 0.29718217 -0.2481663 -0.009830824 0.06655215 -0.25660938 -0.13769811 -0.12199463
-0.22571783 0.18341136 -0.41686252 -0.025155164 0.015640492 -0.30436614 0.2372962 -0.110072166
0.27323696 0.067295596 -0.080352224 -0.14724928 0.11485471 -0.30040866 -0.30519643 0.21517654
-0.08733239 -0.30127472 -0.25693908 0.036164626 0.08715288 0.18055223 -0.39655373 -0.31021133
-0.11609449 -0.3669443 0.1863004 -0.2709856 -0.05474389 0.3707948 -0.101803176 0.13006388
-0.17658074 -0.1320346 0.37722048 0.19029802 0.24947555 0.11361 0.23708013 -0.3238776
-0.27880117 -0.19165741 -0.2778393 0.14245786 0.37438637 -0.27336225 0.20911817 -0.29998595
-0.39783138 0.18989962 -0.088112324 -0.4851247 -0.22522062 -0.13683791 0.19298783 -0.39591253
-0.37085956 0.18410423 -0.2118823 -0.064878486 -0.37984064 -0.19815044 -0.21065849 -0.39098272
-0.05607995 0.36073256 0.31983796 -0.21114755 0.10178276 -0.03791133 -0.25055578 -0.15768307
-0.06527802 -0.28514948 -0.2671287 -0.19931246 -0.09678951 -0.24463503 0.19976719 0.1391173
0.053476382 -0.29130098 0.22983 0.08416409 0.1368955 0.09947666 -0.34813848 -0.20296031
-0.124438316 -0.3078827 0.27724645 0.24602048 0.35481235 0.27086845 -0.067211434 -0.12724243
-0.32927522 0.13149263 0.2423612 -0.11917372 0.36766145 0.060668048 -0.07125031 0.28752792
-0.29840845 -0.0019379274 -0.10991789 -0.08214576 0.27975848 0.29684898 0.2356093 -0.37413254
-0.32550135 0.07774643 -0.21512917 0.2427887 -0.26849577 0.16447684 -0.36841375 0.057104904
0.22186276 -0.30552584 -0.2970622 -0.07331675 -0.115186594 0.45385712 0.07798216 -0.21057738
-0.36469424 -0.24964686 0.15280321 0.305148 -0.2598198 0.27362773 -0.016333159 0.023820354
0.1674095 -0.28725922 -0.45375302 -0.3560454 0.040654335 0.03123606 -0.12364732 -0.24604161
-0.32942387 -0.13271992 -0.052406836 0.3355124 0.06827347 -0.03682922 -0.12753512 -0.028244758
0.33169702 0.1883592 -0.2817339 0.21690653 0.054892115 -0.17939422 0.094011985 -0.38186967
0.021329168 0.19830549 -0.3436134 0.27723035 -0.09370416 -0.00023115955 -0.062667325 -0.42806673
-0.15472534 0.13527225 0.24334067 -0.0950168 0.2856175 0.22532514 -0.40482748 0.382036

linear_layer.2.weight f4 [256, 256]
00000000: 8aaa bebc eb06 bf3c be4b 853d a6a4 2d3d
00000010: 60ac a93d fec9 29bd 2547 f4bc 9e0e 97bc
00000020: 67c6 dabd 5037 34bd 4b9e ac3d 0225 303d
00000030: d80a e33c ac00 413d 8033 81bb 264f 853a
00000040: c066 023c d0ef ee3c ea54 40bd 6450 ca3c
00000050: 3b75 203b 9ddd 77bc 4515 71be 46bd 59bd
00000060: 4a49 12bd 3494 403c 00f6 943d 46bb 47bd
00000070: 9d9b bc3d d7dc 23bd 57d0 7abe 1125 923d
00000080: 3f1a 423d 10cd 6f3d a406 823c 4c01 bfbc
00000090: bf48 c83d a826 af3c 78df 62bc f98b ca3c
000000a0: 01e6 a63c 46e9 d33d f806 74bc b759 cdbc
000000b0: 981e 51bc 1923 963d bf66 4e3b 3807 3e3d
000000c0: 4885 29bc 48a1 36bd 726c 75bd 48cb bc3d
000000d0: 109d c83b 59af 223e 4882 0abd 405a f7bb
000000e0: f4e9 6dbd 7cef a13c f16a 1e3d e8c8 7d3c
000000f0: 5bea 463d 2bf9 dbbc 5e4f 8bbe 2002 6cbc
00000100: 604f 7a3d cb64 edbb 7fc4 8ebd 71eb 933d
00000110: df5b 013e c079 863c e057 0cbc c8a1 3bbd
00000120: 3879 343d a04f 8b3d bc16 f43b e469 72bd
00000130: c04d 7a3d f17c e33c 1681 303d ca15 6bbe
00000140: aaa9 d6bd cc35 70bd 08de a73d 7c4e 44bd
00000150: ed74 bcbc 7d24 bcbd 6f70 353d 11c7 5bbe
00000160: 4158 b23d 7807 393c be50 f93c b0a5 563d
00000170: 4f17 8b3c 1d66 13bc 8a26 acbc 891f 62bc
00000180: be64 86bd cf89 05bd ec57 9c3c 9804 b0bd
00000190: 44c2 b9bc 63a2 57bd 569e 86bd d026 9bbc
000001a0: 1ccc c4bc 4062 bc3b 20c1 7dbd a0d9 563b
000001b0: 63b7 243a c798 5dbd b7b9 59bd dc0d a23c
000001c0: 3eb9 163e f5be aa3d ee51 52bd 7af9 12bf
000001d0: 306e 7ebd 4d96 c63d 3f13 3fbd ee23 2abd
000001e0: 2d8a c53c 867e c43c 4a60 993d 3c51 5fbc
000001f0: 0e26 44bd f603 39be eae2 8f3d 7d78 313d
00000200: e51d 4ebd 9216 b23d 92d9 353d 16fc c3bd
00000210: 94b0 433d 21df 713d 564c 10bd 65c5 5a3d
00000220: 7735 02bd 2a25 3a3d f469 873c 7864 0cbd
00000230: 55f7 84bd 1058 22be 15b4 92bd 923f 45bd
00000240: 9e22 68bd d0ef 07bc 34cd 22bd 6ef9 bbbe
00000250: e859 263d fadc 933c 1b21 11bc 3df0 52bd
00000260: 71a0 0a3d 6cea 843c 07ba 1dbc 3595 673d
00000270: 3c94 253d 17b5 00be 0276 18bd 7651 793d
00000280: 5812 743c 002e c5ba c6ed 7a3c fda2 10bd
00000290: 9924 103d 9954 933d 5d2d 36be f6d5 493d
000002a0: 70b5 1a3d 3b0a 8d3d 9ec3 1bbd de70 593d
000002b0: 54ce d23b aa07 0dbd 5749 9fbd 5ed8 353d
000002c0: 308e 4a3d 31c8 4f3d 14b5 7d3d 00c8 4abd
000002d0: b07c e9bb 247b 5abd 7943 9dbc d8a6 af3d
000002e0: c057 b1bd 3d3a b2bd 15c2 09bb e84e 4fbd
000002f0: b671 df3a e237 193d 2ca3 3d3d 5d1f 1fbd
00000300: 7ac1 633d 71e1 a9bc 98a0 9dbc c686 813c
00000310: 7c72 01be e4f1 c2bc e270 7e3d c4ba f7bc
00000320: 1462 06bd 6e3d 8d3d 043c 3fbd fab0 033d
00000330: a6a7 4fbd 290c 073d ed2c d2bc 1a8c 603d
00000340: 22af b73d ce64 513d 3e61 f8bc 505f bf3d
00000350: 2451 9e3c 6de9 953d f7dd 033e 48b5 16bd
00000360: 85b1 763c a3b3 043e 3981 603d b0ca 8b3c
00000370: 89a6 96bd 7553 ae3c ed93 2dbe d862 33bd
00000380: 5b81 88be 9b51 ebbc e4d1 56bd 8c44 9fbd
00000390: e45e e9bd b024 38bc 85eb 9c3d 76a4 6c3d
000003a0: 90bb 8ebc e116 9f3c 5e6f 943b 3e52 8c3d
000003b0: cca3 0f3d e0a8 d13c 66d4 48bd a84a a33c
000003c0: 619b e63d 5361 e03c 00ab 61bd 150b 51bd
000003d0: a7f2 e33c f950 523d 9b6f 84bd 77f8 673c
000003e0: 3e37 b43c 199d 56be 47ce 2e3c a1e4 4dbc
000003f0: 6dd9 d63c 7bdb ecbc 1c24 b9bd 45be 2a3e
-0.023274679 0.023318728 0.06508587 0.04239335 0.08284831 -0.0414524 -0.02981908 -0.018439587
-0.106823735 -0.043998063 0.084286295 0.043004043 0.027715132 0.04711978 -0.003942907 0.0010170683
0.007959068 0.029167086 -0.04695598 0.024696536 0.0024483937 -0.01512852 -0.2354327 -0.05315902
-0.035714425 0.011754084 0.07273483 -0.048762582 0.092093684 -0.04000553 -0.24493538 0.07135976
0.04738831 0.058545172 0.015872307 -0.023316048 0.097795 0.021380737 -0.013847224 0.024724947
0.020373346 0.10347228 -0.01489424 -0.025067193 -0.012763642 0.07330913 0.0031494347 0.046393603
-0.010346718 -0.044587404 -0.059917875 0.0921846 0.006122239 0.15887202 -0.033815652 -0.0075486004
-0.058084443 0.019767515 0.038676206 0.015489794 0.048563343 -0.026852211 -0.2720899 -0.0144048035
0.061110854 -0.0072446815 -0.069710724 0.07222641 0.12632702 0.016415477 -0.008565873 -0.045808583
0.044060916 0.06802297 0.007448999 -0.059183016 0.061109304 0.027769538 0.043091856 -0.2295753
-0.104815796 -0.058645055 0.08196646 -0.04792641 -0.023004973 -0.09186647 0.04429668 -0.21462657
0.08708239 0.011293285 0.030434009 0.052404106 0.016978888 -0.008996514 -0.02101447 -0.013801464
-0.06562184 -0.032602128 0.019084893 -0.08594626 -0.02267564 -0.0526451 -0.06573169 -0.018939406
-0.024023108 0.005749017 -0.061951756 0.0032783523 0.000628343 -0.054100778 -0.053155627 0.019782
0.14719102 0.083372034 -0.051347665 -0.5741192 -0.0621168 0.09696636 -0.046649214 -0.04153817
0.024113739 0.023986112 0.07489069 -0.013630208 -0.047887854 -0.18067917 0.07025702 0.043327797
-0.05032148 0.08695711 0.044396944 -0.09569566 0.04777582 0.059050683 -0.03522905 0.053410906
-0.03178927 0.0454456 0.016530015 -0.034275502 -0.06492487 -0.15853906 -0.07163254 -0.04815633
-0.05667364 -0.008296922 -0.03974648 -0.36713737 0.040613085 0.018049706 -0.008857991 -0.05149864
0.033844415 0.016225062 -0.009626872 0.05653878 0.04042457 -0.1256908 -0.037221916 0.060868703
0.014896952 -0.0015043616 0.015315479 -0.035311688 0.035191152 0.0719387 -0.17790742 0.049276315
0.03777069 0.06886717 -0.038028352 0.053086154 0.0064332876 -0.034431137 -0.0777766 0.044395797
0.049452007 0.050728027 0.061940268 -0.04950714 -0.0071254596 -0.053340092 -0.019197213 0.08576745
-0.08659315 -0.08702514 -0.0021020223 -0.05061236 0.0017047438 0.03740681 0.04629819 -0.03884827
0.055604436 -0.020737382 -0.019241616 0.015811335 -0.12641329 -0.023796983 0.062119372 -0.030240424
-0.03280838 0.068964824 -0.046688095 0.0321512 -0.05069699 0.03297058 -0.025656188 0.05482111
0.08968951 0.051121525 -0.030319806 0.09344351 0.0193258 0.07319913 0.12877642 -0.036793977
0.015056972 0.12959151 0.054810736 0.017064422 -0.07355983 0.02128003 -0.1695096 -0.043795437
-0.2666119 -0.028725436 -0.05244626 -0.07776746 -0.11395052 -0.011239216 0.07662109 0.05777403
-0.017423421 0.01942009 0.0045298776 0.06851624 0.03506832 0.025593221 -0.049030684 0.01993306
0.11260105 0.027390158 -0.05509472 -0.05103596 0.027825667 0.051346753 -0.064665996 0.01415836
0.021998998 -0.20958365 0.010669298 -0.012566716 0.026226724 -0.02891325 -0.090400904 0.16674145

linear_layer.2.bias f4 [256]
00000000: 79dc 503e 8e73 df37 2692 813d b848 3b3d
00000010: f6de 63bd 9ef1 763c a0ac 7fbd 0ac6 05bc
00000020: d842 a5bc ef12 403e 27bd 48bd 8ee4 963c
00000030: 8b20 973d 3cdf 933b dbe6 1b3e 90b3 453d
00000040: 1cad 463c 9871 343d 5376 833d 2019 78bc
00000050: 8e97 76bd 96d3 a7bc e2fe 083d 5b73 273d
00000060: de5e 52bd 9370 88bd cd4b a03c 4079 543c
00000070: 2ab7 ddbd 1f27 133d 0351 6e3c 2188 243e
00000080: d8ae e73c f234 2c3d 8dd5 3d3c 6ae9 25bd
00000090: fa45 0b3d a7d9 123e d570 8b3c 8788 b5b8
000000a0: 4bb4 8dbd 5b28 8abd 98e6 d4bc 74a0 153d
000000b0: 89dd 093b 14f2 e53c 9f2b a73c 7c5e 803c
000000c0: ae57 1bbd d1f7 1e3b f8c2 87bd 612b 72bd
000000d0: 31e9 54bd b109 77bd 83e4 a8bd 62d2 e5bc
000000e0: 03f8 d1bb 3ec1 fb3c b9fd 4dbd 04ed a3bc
000000f0: 0273 02bd 4b2a 5bbc 0362 b8bd 44ac 02bd
00000100: ccff 263d 8ac9 1fbd 59b2 2f3d f6ad f5bc
00000110: 115b 04bc 8922 85bd fcc9 a13b 8c6f a9bd
00000120: 5508 1c3d 21a4 82bd 33e2 74bd d947 25bc
00000130: 250a 8a3a 8d71 67bd e09b 1abd a5ec 08bd
00000140: 5e6b 66bd 0190 38bd f2a0 d1bc 51e8 233d
00000150: db01 b83d 97da e4bc 32ce d93c 13d5 b73c
00000160: 90a3 30be 140d 7bbd 9ab4 123d 48f5 7bbd
00000170: 5c4c 0a3d a09a e23c be4d a8bc 1c84 0d3d
00000180: 90fd 233d 0e6a 3cbd 1a14 2a3d 0bf0 0dbd
00000190: 6864 4fbd 3a3c 453d 458e 193c 0809 10be
000001a0: 7b81 61bd c80d 583c 99e1 f33d 2f10 79bd
000001b0: 7418 a0bc c4df 203e c5af 3fbd 820e d3bd
000001c0: f2de 60bd 104f fabc 5d99 6d3d 6cad 91bd
000001d0: 534a 833d b01e 9a3c 3a51 81bc 3fe3 3d3e
000001e0: 19e3 71bd c0c6 edba 08d4 59bc 60ab 9cbd
000001f0: 4af5 3f3e 8007 2e3d 75a7 203b 42e6 583e
00000200: aaf1 d03c 440f 44bd c03b 8cbb 2fe8 2e3b
00000210: de5d 87bc 1d3c 68bd 18bf 3b3d 0a3c b8bc
00000220: c043 3a3c 5856 303d 4966 80bd f9b9 df3d
00000230: e099 363d 84d1 bcbc a3df f63c 2136 9fbd
00000240: b0d0 293e 7d98 813c d19d 053d e7c4 d2bd
00000250: 9210 23bc 734b 723c 1b3d 88bc 4bac 1b3c
00000260: d131 c6bb f8a9 c53c bc2b 983c f8e9 b63c
00000270: 744f a3bc 6272 113e a93b fabb 76c0 16bc
00000280: ba24 363d b4af 543e 90c8 42bd ca17 97bd
00000290: 1ca7 debc acff 963c 44fd 92bc b95a ccbc
000002a0: cd30 7ebd b291 313e c788 073e 1d69 c03d
000002b0: ce7b 0bbd 260b 8abd 03b9 7a3c 88c3 d5bc
000002c0: 0c80 fabc cd21 55bd 702b 4fbb 55dd 47bd
000002d0: a6fc 26bd bc65 ff3d ee46 abbd 11d1 6b3c
000002e0: d81c 35bc d13c dabd c4ce 563d d262 eabc
000002f0: 1b89 ed3c bee0 8dbb da1c 1f3c 5c03 213d
00000300: 14ef 363c 5a92 4bbd ec12 37bd 2246 6f3c
00000310: da52 ed3d 6551 1f3e bd90 12be 4440 cbbb
00000320: 7c71 d3bc f14b 443c 3845 9cbd ec41 66bd
00000330: 9077 853e 3f51 4cbd f411 e23d 9d5a 5bbd
00000340: 7b3a 8dbc a41f 04bb 33a6 1cbd 8a5e c23c
00000350: 12e6 42bc 8202 b8bd e432 57bb 6367 013d
00000360: 17b2 83bd f430 7abd 750e 4abd e31c 71bc
00000370: 1103 113c 701b d7bc d66f f73d cefe 8ebd
00000380: 3363 8cbd be1e 913c 86cf 8fbc b5b0 65bd
00000390: c8ec 1ebd 52d8 073e b0d1 ea3b 045a a3bd
000003a0: 0246 3dbd c8cc 9abc 9a39 cd3d 7ea1 cfbc
000003b0: 6052 46bd e771 27bd 2d92 06bb 9030 213c
000003c0: 8749 023e 3781 083e 5aee 263d a70b eb3a
000003d0: c05f 8abd 21c3 d9bc 3457 f93b f31c 54bd
000003e0: cd89 bebc f320 313e 9a21 073d 841d 79bd
000003f0: ad3a 01bd 67bd cf3d 0095 9b3a 2ef8 bd3d
0.20396604 2.6637481e-05 0.06326704 0.045723647 -0.055632554 0.015072254 -0.062420487 -0.008164892
-0.020173475 0.18757223 -0.049008515 0.01841953 0.07379254 0.0045126956 0.15224783 0.048266947
0.012126233 0.044053644 0.06419053 -0.015142709 -0.060203128 -0.020486634 0.0334462 0.040881496
-0.051360004 -0.06662097 0.019567395 0.012968361 -0.108259514 0.03592598 0.014545682 0.16067554
0.028281614 0.04204268 0.011586559 -0.040505804 0.03400228 0.1434084 0.017021576 -8.656183e-05
-0.06919154 -0.067459784 -0.025988862 0.036529973 0.0021036586 0.028069533 0.020406542 0.015670054
-0.037925415 0.0024256597 -0.06628984 -0.0591234 -0.0519802 -0.060311977 -0.0824671 -0.02805442
-0.006407739 0.030731793 -0.050290797 -0.020010479 -0.03184796 -0.013376783 -0.09003069 -0.031902567
0.04077129 -0.039010562 0.042894695 -0.029990178 -0.008078353 -0.06500728 0.0049374085 -0.08273229
0.038093884 -0.06378961 -0.059786033 -0.010087931 0.0010531588 -0.056504775 -0.03774631 -0.033428807
-0.056254737 -0.045059208 -0.02558944 0.040016476 0.08984729 -0.027936263 0.02658758 0.022440469
-0.17249894 -0.06129177 0.035816766 -0.061513215 0.03376423 0.027661622 -0.020544883 0.034549817
0.040036738 -0.04599958 0.041523077 -0.03465275 -0.050632864 0.04815314 0.009372299 -0.14065945
-0.055055123 0.013186879 0.11908264 -0.06080645 -0.01954291 0.1571036 -0.046798486 -0.103055015
-0.054900117 -0.030555278 0.058007587 -0.07113156 0.064106606 0.018813461 -0.015785802 0.18543719
-0.059054468 -0.0018140897 -0.013295181 -0.07649875 0.18745914 0.04248762 0.0024513875 0.21181586
0.02550586 -0.04786612 -0.0042795837 0.0026688685 -0.016524252 -0.056697953 0.045836538 -0.022489566
0.011368692 0.043051094 -0.06269509 0.10924143 0.04458034 -0.023049124 0.030135935 -0.07773996
0.16583514 0.015819782 0.03262121 -0.102914624 -0.009952681 0.014788496 -0.0166307 0.009501527
-0.006048419 0.024128899 0.018575542 0.022328362 -0.019935347 0.1420379 -0.0076365066 -0.00920116
0.04446862 0.2077015 -0.047554553 -0.07377584 -0.027179293 0.01843246 -0.017943032 -0.024945604
-0.06205826 0.17340735 0.1323577 0.09395049 -0.034053616 -0.06740408 0.015302899 -0.026094213
-0.030578636 -0.052034188 -0.0031611584 -0.048795063 -0.040768288 0.12470576 -0.08363138 0.014393107
-0.01105424 -0.10656131 0.05244328 -0.028611574 0.028996041 -0.00432977 0.009711469 0.039309844
0.011165399 -0.04970012 -0.04469578 0.014604123 0.11588068 0.15558393 -0.14313026 -0.0062027294
-0.02581095 0.0119809965 -0.0763039 -0.05621521 0.2606778 -0.04988217 0.110385805 -0.053553212
-0.0172398 -0.002016046 -0.038244437 0.02372672 -0.011895673 -0.08984853 -0.003283673 0.031592738
-0.06430452 -0.06108184 -0.049330194 -0.01471636 0.008850829 -0.0262582 0.12081878 -0.06982194
-0.06854858 0.017714854 -0.01755501 -0.056076724 -0.03880003 0.13266113 0.00716611 -0.079761535
-0.046209343 -0.018896475 0.10020752 -0.02534556 -0.048418403 -0.04088011 -0.0020533905 0.009838238
0.12723361 0.13330542 0.040754654 0.001793255 -0.06756544 -0.026582303 0.0076092724 -0.05178542
-0.023259068 0.17297725 0.03299103 -0.060819164 -0.0315501 0.101435475 0.0011869967 0.09275852

linear_layer.4.weight f4 [1, 256]
00000000: 98f9 873d 2ce9 a8bc 0f98 b23b 1a03 fc3c
00000010: 5138 363d c136 393d d59e 823c 1c89 0d3c
00000020: 378c 57bd 70f4 323d d345 3fbc 3c47 0c3d
00000030: 9ac0 5b3c 04ad 13bd e5e8 583d ef73 4abd
00000040: 5464 b73c f37f ebbc c06f 03be d9f0 1e3d
00000050: e36e a5bb 3759 e5bd ed8b 76bd baba 1f3d
00000060: 3de4 49bd e136 063c 6d58 7bbd b0ef 473d
00000070: f47d 3bbe 303a 633d 678a c6bb 1218 c83d
00000080: 80e1 e2ba da40 8bbc f7b0 2bbc f669 f6bd
00000090: 382a 8cbb 2fc4 053d b85b 8dbb 416a 3d3d
000000a0: ed49 a93b 189b 18bd 1dc7 21bd 2af8 303c
000000b0: eec4 2fbc 40d8 9abb e53e 3dbd f5d7 8cbb
000000c0: e198 b9bb 8a95 273b 8d2b 383d d0ec e43c
000000d0: 9a4e d03b 73dc 7a3c 2593 f13c decd 7a3c
000000e0: 1557 2c3d c82b a3bb b7c6 4bbd ba99 433d
000000f0: b81d 0d3c 4dc7 413d d7ca 56bd 84c4 4ebd
00000100: b7c6 42bd 7d77 17bd 6252 023d 447a 6f37
00000110: d35c 713d 8e0e aa3c 6d53 47be 1af7 e73b
00000120: 46cf 6b3a 3307 d93c ceef 513c fa10 21bc
00000130: 1640 0fbd aadf bb3a 2b81 8139 54bd 493d
00000140: d99f 803c 07c4 7bbd d486 973b 7cb4 203c
00000150: 34e0 6b3d 9333 8f3c 6bb0 743b e8c8 f73a
00000160: 8126 9abc 7a16 d9bc 2038 44bd cd47 bcbc
00000170: 7e4f 143d 3db0 04bd d878 043d 68a8 953c
00000180: 957b 073d 5ec6 a43b 40d2 90ba 6d4e 60bc
00000190: 8042 de3c 486b 2bbc d9b6 253d 4a29 7cbe
000001a0: 3ada 1c3c 6554 27bc 75f2 e43d f509 1abd
000001b0: 7aba 24bd 7c2d 403d 8c7d 4a3d fe1f 22be
000001c0: 90d0 743d a59f 793c d209 213c 3cce fe3b
000001d0: aff3 483b 065b 5d3c cf0c d83c 94a4 bd3d
000001e0: 8b71 53bd 8a19 55bd 544c e9bc e6d3 f1bc
000001f0: 5f0e 1b3e 3abd d4bc 55c2 083d 8494 813d
00000200: 2773 5cbd b12a cb3b 8044 e83a 9508 b63c
00000210: b2bf 603c dc02 e63c 4cb0 5bbb 4a33 e53c
00000220: a07d 5e3d ae29 fbba 52fa 34bc 8b5c a23d
00000230: 00f9 033d 2aee ae3c 0db2 ec3c 53e2 82bc
00000240: 6bce 3f3d 4b25 f83c a12f 3e3b 568c 71be
00000250: b8c7 ee3c 4437 1d3c 2e3e 593d 20e5 2abc
00000260: 44e1 39bd b16d 603c 4824 2ebc 90f1 52ba
00000270: b4e5 b73c d035 963d 361a 3d3d 8576 81bc
00000280: 3f9a c3bc 37c0 5f3d 38ec e03c 6b80 1b3c
00000290: dd8a 1dbd dadf 3fbd 9330 c33c ee6a 153d
000002a0: 66a5 153d 2dfa c93d 06f1 773d 995b 7b3d
000002b0: 3a51 ee3b 5204 1cbd 0146 6d3b d859 6ebd
000002c0: d42c 7fbd 4559 31bd 6599 5d3c 3cbb 14bd
000002d0: d6de cabc d32c cb3c 7b87 f6bc 98cf 213b
000002e0: 31c2 3abd 4fa3 88bd a8d3 5abc 2239 093d
000002f0: 4af2 0e3d e03c 41bd 0641 66bc 0cb5 8b3c
00000300: 0e55 99bc 54ac 4c3a 83fb 3bbd ee9b 203d
00000310: 0948 003d f28b 8b3d 5b1a 3ebd cf00 a93c
00000320: 0b24 8abd 029d c23c b039 a43c 9845 20bd
00000330: efef 073e 2c96 8dbe 7a49 963d bc9d 103d
00000340: 1623 aa3b 9df5 12bd fb80 8cbd a5cd ba3c
00000350: 8374 143d 552d 863c 6006 7abc b68a 1b3d
00000360: 0ba7 44bb 5360 30bd 1e98 05be 3633 60bd
00000370: 570e 51bd 0351 ab3c 6ccb ed3d 39f7 473c
00000380: 387a eebc 39c4 c3ba d50b f93b 8cd7 d03c
00000390: 733b a5be a9e6 a33e d1d9 f73c dbb9 96ba
000003a0: a23a 7ebd b02f 90bb 882f 183d d997 683d
000003b0: 9064 b53b ad06 66bb 8940 d73a fc71 83bc
000003c0: bd26 0f3d ecad 953d 9158 1a3c a317 2f3c
000003d0: d0f5 46bd d889 103a fb0e 6f3c fa04 14bd
000003e0: a1e5 b3bd 189a f93d 257d 843b 7071 8fbc
000003f0: 904a 1abd de68 4a3e f41d a13c 10b1 993d
0.06639403 -0.020618998 0.0054502557 0.030763198 0.0444873 0.045218233 0.015944878 0.008638646
-0.052623954 0.043690145 -0.011674362 0.034247622 0.013412619 -0.036053672 0.05295648 -0.04942697
0.022386707 -0.028747534 -0.12835598 0.03880391 -0.005048619 -0.11198657 -0.060192037 0.038996436
-0.04928993 0.008191795 -0.061363626 0.04881257 -0.18309766 0.055475414 -0.0060589793 0.09770216
-0.0017309636 -0.016998697 -0.010479203 -0.12031929 -0.004277494 0.0326578 -0.0043139122 0.04624391
0.0051662833 -0.037257284 -0.03949653 0.010801354 -0.010728104 -0.004725486 -0.04620256 -0.004298205
-0.0056639765 0.002557131 0.04496341 0.027944952 0.0063570263 0.015311348 0.02948911 0.015307872
0.042075235 -0.0049795844 -0.049750056 0.047754027 0.0086130425 0.04730921 -0.052439537 -0.05048038
-0.04755279 -0.036979187 0.031816848 1.4273977e-05 0.058926415 0.020758893 -0.19465418 0.0070790173
0.0008995425 0.02649269 0.012813522 -0.009830708 -0.034973226 0.0014333625 0.00024701035 0.049252823
0.015701221 -0.061466243 0.004624227 0.009808656 0.057586864 0.017480647 0.0037336599 0.0018904479
-0.018817188 -0.026499975 -0.047905087 -0.022983456 0.036208622 -0.032394636 0.032341808 0.018268779
0.03307684 0.00502853 -0.0011048988 -0.013690573 0.027131319 -0.01046259 0.04045758 -0.24625126
0.009573514 -0.010212992 0.111790575 -0.037607152 -0.0402169 0.046918377 0.049436137 -0.15832517
0.059769213 0.015235816 0.0098290015 0.00777605 0.0030662825 0.013510471 0.026373295 0.092599064
-0.051621955 -0.05202631 -0.028478779 -0.029519986 0.15142201 -0.025969137 0.033388454 0.06327155
-0.053820755 0.0062001576 0.001772061 0.02222089 0.013717579 0.028077535 -0.003352183 0.027978558
0.054319024 -0.0019162202 -0.011046009 0.079278074 0.032219887 0.0213538 0.028893495 -0.01597706
0.046827715 0.03029122 0.0029020088 -0.2358869 0.029147968 0.009595696 0.053037815 -0.010430604
-0.045380846 0.0136980275 -0.010628767 -0.000804686 0.022448398 0.07334483 0.046167575 -0.015803585
-0.023877261 0.05462667 0.027456388 0.009491066 -0.03846251 -0.04684434 0.023826873 0.03647893
0.03653469 0.0986217 0.060532592 0.06136665 0.0072728666 -0.038090058 0.0036205056 -0.05819115
-0.06229861 -0.043298025 0.013525342 -0.036311373 -0.02476446 0.024801647 -0.030093899 0.0024690386
-0.04559535 -0.06671774 -0.013356127 0.03350175 0.034899034 -0.047177196 -0.014053589 0.017054103
-0.018717315 0.00078076613 -0.045894157 0.039211206 0.031318698 0.06813802 -0.046411853 0.020630268
-0.06745156 0.023756508 0.020047039 -0.03912887 0.13275121 -0.27653635 0.07338233 0.035306677
0.005192171 -0.035878766 -0.068605386 0.022803137 0.036243927 0.016379038 -0.015260309 0.037974082
-0.0030006792 -0.043060612 -0.1304631 -0.05473634 -0.051039066 0.020912653 0.11611065 0.012204939
-0.029111013 -0.0014935798 0.0076002874 0.025493406 -0.3227192 0.32011917 0.03025523 -0.0011499481
-0.062067635 -0.004400216 0.037154704 0.05678544 0.0055356696 -0.0035099194 0.0016422431 -0.016045563
0.034949053 0.073085636 0.00942053 0.010686788 -0.04857427 0.00055137044 0.014590974 -0.03613756
-0.087840326 0.12187594 0.0040432387 -0.017510146 -0.037668765 0.19766566 0.019667603 0.07504475
